verification_set/verification_state.pt (torch, 57845 bytes, 14 tensors)

lstm.ih.mu_weight f4 [128, 14]
0.7626104 0.6859278 0.5412664 0.536749 1.0606681 0.87589854 0.6795762 0.6274182
0.6097188 0.78581995 0.86380285 0.81539744 0.5507229 0.7381486 0.3239613 0.1530394
0.35902762 0.18983074 0.18213318 0.2682788 0.24062487 0.30394855 0.45716017 0.30500495
0.2838225 0.2767914 0.2498779 0.30689353 0.48700663 0.7994747 0.27584544 0.82191837
0.69690025 0.45944476 0.5382006 0.7992911 0.5945291 0.6718798 0.6658185 0.3270305
0.54729027 0.6809109 0.3541947 0.25000334 0.16571462 0.28541 -0.04536551 0.21852455
0.0014214652 0.03739263 0.079067655 0.28842616 0.53311527 0.4065051 0.013825851 0.21819142
-0.21115212 -0.25804785 -0.2001394 -0.1574599 -0.23517828 -0.16735333 -0.26955023 -0.28726304
-0.25263616 -0.16997422 -0.22398734 -0.27080306 -0.29137987 -0.20996922 -0.15287372 0.015212848
-0.1818682 0.2037695 -0.09859685 -0.20626517 -0.04282109 -0.032019872 -0.116526835 -0.20027627
-0.07465693 -0.1441014 0.06811864 -0.14933048 0.27406034 0.14880928 0.18229079 -0.026372347
-0.026817093 0.030412193 -0.002505142 0.15831509 0.035341255 -0.01401114 0.29786238 0.32397363
0.053530168 0.085142955 0.2945006 0.29109684 0.07247596 0.16732424 0.109232865 0.17056623
0.10996052 0.18440028 0.13803239 0.050101582 0.45602155 0.44792253 0.21594408 0.13916166
0.14364754 0.31930327 0.225518 -0.028809363 0.38725194 0.31799203 0.21303764 0.22559746
0.25792965 0.3607248 0.24463518 0.42972252 0.37689462 0.39316547 0.04714107 0.05703475
0.04230481 0.04345664 0.05567984 0.07749497 0.067601904 0.03364254 0.061001666 0.0082514975
0.027614435 0.023551002 0.05981592 0.055036277 -0.16080134 -0.26569608 -0.19251077 -0.1510448
-0.17858969 -0.19405681 -0.23835665 -0.2092382 -0.19962838 -0.12497077 -0.15155175 -0.106173046
-0.2703139 -0.18668678 0.40746748 0.699315 0.2439477 0.58521 0.21731004 0.2051046
0.08770794 0.27542186 0.4409683 0.18070254 0.56788427 0.38712576 0.35619634 0.43303978
0.56618583 0.61828446 0.635642 0.7981783 0.34116602 0.6661054 0.600999 0.80164593
0.7000028 0.5425802 0.6981335 0.594243 0.59918797 0.57099086 0.33717424 0.3695452
0.3645428 0.4218256 0.5500207 0.5622988 0.55265456 0.3298928 0.32816678 0.8380575
0.54781866 0.28500417 0.45123294 0.4724044 0.52680385 0.8581996 0.6449195 0.8163887
0.6585257 0.7056528 0.7957248 0.73514974 0.6781595 0.77490354 0.7820829 0.758473
0.66461146 0.50466406 0.11698049 0.42919657 0.4022966 0.4791752 0.6976925 0.36815166
0.031303592 0.4173213 0.06336176 0.23213017 0.36781117 0.14454788 0.31357536 0.54291207
0.7691563 0.530449 0.3841864 0.8527585 0.61055475 0.689808 0.98232144 1.0968974
0.65050375 0.5912333 0.7328481 0.71429837 0.78032184 0.7148282 -0.7618603 -0.97562367
-0.7987252 -0.72561365 -1.0987128 -0.84364575 -0.7859666 -0.99365807 -1.0721086 -0.81784314
-0.58894783 -1.0776162 -0.8974568 -0.71760523 -0.06092398 -0.2621564 -0.4179574 0.061761804
00000000: 6f3a 433f f798 2f3f 6f90 0a3f 6268 093f
00000010: f9c3 873f e33a 603f b5f8 2d3f 7b9e 203f
00000020: 8816 1c3f 7f2b 493f 2f22 5d3f e3bd 503f
00000030: 2dfc 0c3f 4ff7 3c3f 41de a53e 5cb6 1c3e
00000040: 78d2 b73e fd62 423e 1f81 3a3e d75b 893e
00000050: 5e66 763e 259f 9b3e e610 ea3e 9c29 9c3e
00000060: 2f51 913e 9ab7 8d3e fedf 7f3e 2621 9d3e
00000070: ef58 f93e 60aa 4c3f 9d3b 8d3e 3e69 523f
00000080: 0e68 323f 583c eb3e 84c7 093f 579e 4c3f
00000090: 0f33 183f 5100 2c3f 1573 2a3f 8b70 a73e
000000a0: 371b 0c3f 2d50 2e3f 0259 b53e 7000 803e
000000b0: 18b1 293e 4221 923e 2fd1 39bd e6c4 5f3e
000000c0: 7550 ba3a 0429 193d 39ee a13d 98ac 933e
000000d0: 3e7a 083f 7021 d03e d285 623c 926d 5f3e
000000e0: 4338 58be d91e 84be 58f1 4cbe 2b3d 21be
000000f0: 93d2 70be ac5e 2bbe 7d02 8abe 2414 93be
00000100: 8759 81be b90d 2ebe f05c 65be b3a6 8abe
00000110: be2f 95be 2c02 57be ee8a 1cbe 4f3f 793c
00000120: a83b 3abe f4a8 503e 25ed c9bd 2d37 53be
00000130: 2b65 2fbd 4527 03bd 9fa5 eebd 3915 4dbe
00000140: bce5 98bd 518f 13be c981 8b3d 17ea 18be
00000150: a351 8c3e 7661 183e 70aa 3a3e d20a d8bc
00000160: 85af dbbc fe22 f93c 4f2d 24bb 5a1d 223e
00000170: fec1 103d fb8e 65bc 6b81 983e dfdf a53e
00000180: 7342 5b3d 6e5f ae3d c8c8 963e a50a 953e
00000190: 476e 943d 0c57 2b3e 7bb5 df3d eaa8 2e3e
000001a0: fb32 e13d 6dd3 3c3e 5d58 0d3e 5137 4d3d
000001b0: a87b e93e 1a56 e53e 7220 5d3e 6580 0e3e
000001c0: 5718 133e b87b a33e 31ee 663e 9d01 ecbc
000001d0: e345 c63e dacf a23e 8a26 5a3e 0503 673e
000001e0: 5b0f 843e ecb0 b83e a581 7a3e 9704 dc3e
000001f0: 55f8 c03e fc4c c93e ff16 413d 459d 693d
00000200: cf47 2d3d 97ff 313d 8b10 643d afb5 9e3d
00000210: de72 8a3d c3cc 093d e2dc 793d 4a31 073c
00000220: ab37 e23c 08ee c03c 8a01 753d b86d 613d
00000230: 1ba9 24be 5109 88be 8b21 45be 7dab 1abe
00000240: 37e0 36be d4b6 46be c413 74be 8a42 56be
00000250: 626b 4cbe adf0 ffbd 6230 1bbe 4171 d9bd
00000260: 9566 8abe d22a 3fbe 949f d03e 4f06 333f
00000270: 6dcd 793e 53d0 153f 8686 5e3e f106 523e
00000280: 38a0 b33d 1804 8d3e 99c6 e13e 160a 393e
00000290: dd60 113f 5935 c63e 5e5f b63e 64b7 dd3e
000002a0: 8ef1 103f e447 1e3f 6fb9 223f 6a55 4c3f
000002b0: 50ad ae3e e285 2a3f 12db 193f ab38 4d3f
000002c0: 6233 333f 89e6 0a3f e1b8 323f 4f20 183f
000002d0: 6264 193f 752c 123f 1aa2 ac3e 0735 bd3e
000002e0: 5ba5 ba3e 86f9 d73e 28ce 0c3f d0f2 0f3f
000002f0: c57a 0d3f b6e7 a83e 7a05 a83e f08a 563f
00000300: d83d 0c3f 11ec 913e 0108 e73e fdde f13e
00000310: 9edc 063f f8b2 5b3f 7219 253f dafe 503f
00000320: 2495 283f a9a5 343f 9fb4 4b3f c632 3c3f
00000330: dc9b 2d3f 1460 463f 9636 483f 492b 423f
00000340: fa23 2a3f aa31 013f 7893 ef3d a7bf db3e
00000350: d2f9 cd3e 7456 f53e fa9b 323f 607e bc3e
00000360: 3238 003d 23ab d53e cfc3 813d 88b3 6d3e
00000370: bf51 bc3e 5c04 143e f38c a03e 49fc 0a3f
00000380: 6de7 443f 81cb 073f 14b4 c43e 624e 5a3f
00000390: 514d 1c3f 4297 303f 6b79 7b3f 2267 8c3f
000003a0: 6a87 263f 115b 173f ef9b 3b3f 42dc 363f
000003b0: 2cc3 473f fbfe 363f 4709 43bf 79c2 79bf
000003c0: 4179 4cbf d1c1 39bf 9fa2 8cbf 2bf9 57bf
000003d0: 1b35 49bf 6060 7ebf db3a 89bf 2b5e 51bf
000003e0: 49c5 16bf 54ef 89bf bbbf 65bf fab4 37bf
000003f0: 6c8b 79bd 5d39 86be 83fe d5be f2f9 7c3d

lstm.ih.rho_weight f4 [128, 14]
-2.2197952 -1.7460006 -2.4065478 -2.3026874 -2.533559 -2.1158297 -2.1149814 -2.4653695
-0.91554606 -2.0712726 -1.9362983 -1.814753 -1.5505903 -1.695464 -0.5218372 -1.0233656
0.32378277 -0.86065066 -0.8025141 -1.5012386 -0.47769696 -0.40825406 -0.7214402 -1.0549955
0.58931494 -0.6189389 -0.30673224 -0.8817281 -0.57110757 -0.23041175 -0.3196378 -0.37542164
-1.5192181 -1.0892438 -0.8615257 0.023505809 -1.32749 1.2424576 -1.3843465 -0.030560844
-1.5421139 -0.081085294 -0.8196767 -0.73336554 -1.1565689 -1.1120192 -0.80785334 -0.6710519
-0.42994866 -0.428208 -0.25785825 -0.7739482 -1.1164393 -0.93086755 -1.098504 -1.209284
0.49501175 0.48570627 0.53715044 0.5175531 0.599985 0.5593272 0.46602827 0.53046983
0.55942696 0.49235088 0.64804554 0.47575983 0.44791356 0.5148196 -0.15889728 0.33137655
0.19188525 0.15563425 0.120087266 0.10577354 -0.23486014 0.7739566 -0.026798164 0.7431506
0.08918487 -0.18204866 0.25435948 0.39629465 0.19439639 -0.102470525 0.013096041 0.2584232
-0.42521766 0.054834116 -0.10832546 0.17607655 -0.0068000336 0.45517868 -0.21687742 -0.29579407
0.30730283 -0.30493456 -0.5548963 -0.057175484 0.4211979 -0.8276914 -0.53170234 0.004853499
-0.073452644 -0.84849495 -0.27992097 -0.80569786 -0.8765151 -0.13860135 -0.8773908 -0.74318653
-0.95201397 -0.8560683 0.07997515 -0.75344026 -0.4730782 -0.55092317 -0.14623299 -0.2078851
-0.5103109 -0.6545988 -0.6841019 -0.08819173 -0.49202788 -0.37385252 0.6133984 0.5879285
0.56462383 0.5835772 0.5775119 0.532296 0.49414057 0.526903 0.52284807 0.6113594
0.58372116 0.500393 0.4985405 0.57260317 0.45203295 0.6215035 0.45086047 0.58804643
0.4370529 0.5489605 0.5951533 0.44910842 0.51779944 0.50613785 0.42903563 0.54925
0.5107479 0.5441348 -2.384621 -1.5193976 -2.1037922 -2.7226315 -1.046807 -1.4453429
-2.2001145 -1.2548635 -1.7559642 -2.674483 -1.8356415 -1.1272463 -2.198163 -1.7027832
-1.3043064 -2.010412 -1.2023914 -2.2925782 -1.4440137 -2.424289 -1.9004543 -1.6931407
-2.2320096 -1.5255395 -2.39711 -2.2741654 -2.3654573 -2.403136 0.5874892 -1.4179052
-1.4858103 -0.3839609 -0.8011238 -1.4733615 -1.5479454 -0.8069264 -0.6047404 0.077338785
-1.1388913 -1.6650888 0.5296334 -0.37128434 -1.0555403 -0.3568833 0.57152104 -0.45317796
0.24759781 -0.89486456 0.7711643 -0.24684227 -0.22217706 0.13440523 -0.05183757 -0.10877207
0.22589013 -0.94059044 -0.3301985 -0.60748464 0.30952534 -0.72304505 -0.3405137 -1.0775923
-0.72633725 -1.0325058 -0.80790335 -0.1828523 -0.26122096 -1.2287762 -0.61448985 -0.09551027
-1.6994654 -1.7883894 -1.5119382 -2.2302446 -1.8659014 -2.1265051 -1.3597153 -1.3601414
-0.8397325 -1.582749 -1.6885273 -2.0082731 -2.7500038 -1.9184921 -0.5839959 -1.4410017
-1.4343134 -1.3128011 -1.0055219 -1.0651915 -0.7332359 -1.1565987 -1.4960152 -1.016963
-0.5967095 -1.3558657 -1.1044449 -0.21245065 0.68085146 0.4798226 0.4066447 1.1299376
00000000: 2011 0ec0 f37c dfbf e104 1ac0 3b5f 13c0
00000010: d525 22c0 c169 07c0 db5b 07c0 9dc8 1dc0
00000020: 3a61 6abf bb8f 04c0 9fd8 f7bf d449 e8bf
00000030: be79 c6bf f704 d9bf 1f97 05bf a5fd 82bf
00000040: dbc6 a53e 9a53 5cbf 9071 4dbf 9628 c0bf
00000050: b294 f4be ad06 d1be 4eb0 38bf 180a 87bf
00000060: 58dd 163f c872 1ebf 020c 9dbe efb8 61bf
00000070: 1b34 12bf 0ff1 6bbe 91a7 a3be 4437 c0be
00000080: bd75 c2bf 576c 8bbf f38c 5cbf 418f c03c
00000090: 31eb a9bf da08 9f3f 4432 b1bf bc5a fabc
000000a0: fd63 c5bf 0c10 a6bd 55d6 51bf d8bd 3bbf
000000b0: 730a 94bf a556 8ebf 7acf 4ebf 0fca 2bbf
000000c0: 3b22 dcbe 143e dbbe ff05 84be 7821 46bf
000000d0: 7ce7 8ebf 564d 6ebf c79b 8cbf d1c9 9abf
000000e0: 2e72 fd3e 7eae f83e b182 093f 5c7e 043f
000000f0: 9e98 193f 1130 0f3f 429b ee3e dfcc 073f
00000100: 9b36 0f3f 6a15 fc3e 50e6 253f cb96 f33e
00000110: ed54 e53e 38cb 033f f8b5 22be 30aa a93e
00000120: 917d 443e 965e 1f3e 50f0 f53d cc9f d83d
00000130: 2d7f 70be 0522 463f d387 dbbc 1e3f 3e3f
00000140: 8fa6 b63d f76a 3abe 683b 823e 22e7 ca3e
00000150: d90f 473e 11dc d1bd c790 563c 0c50 843e
00000160: 21b6 d9be bd99 603d bdd9 ddbd 694d 343e
00000170: d1d2 debb 2e0d e93e 1d15 5ebe 5272 97be
00000180: cc56 9d3e 6220 9cbe af0d 0ebf d730 6abd
00000190: 40a7 d73e 95e3 53bf a51d 08bf 1a0a 9f3b
000001a0: 576e 96bd f736 59bf cd51 8fbe 3742 4ebf
000001b0: 4b63 60bf 83ed 0dbe af9c 60bf 7941 3ebf
000001c0: 30b7 73bf 4b27 5bbf 03ca a33d 76e1 40bf
000001d0: 4e37 f2be 4d09 0dbf 1abe 15be d5df 54be
000001e0: bca3 02bf c993 27bf 4d21 2fbf de9d b4bd
000001f0: 14eb fbbe 9969 bfbe ad07 1d3f 7b82 163f
00000200: 308b 103f 5165 153f d2d7 133f 8d44 083f
00000210: feff fc3e 1de3 063f 5fd9 053f 0d82 1c3f
00000220: c06e 153f c119 003f b340 ff3e 1f96 123f
00000230: dd70 e73e da1a 1f3f 2fd7 e63e 368a 163f
00000240: 66c5 df3e ad88 0c3f f75b 183f 8af1 e53e
00000250: 818e 043f 4092 013f 8faa db3e a69b 0c3f
00000260: 60c0 023f 6b4c 0b3f a19d 18c0 9f7b c2bf
00000270: 88a4 06c0 983f 2ec0 c6fd 85bf ff00 b9bf
00000280: adce 0cc0 5e9f a0bf 6fc3 e0bf bb2a 2bc0
00000290: 4df6 eabf 9b49 90bf b4ae 0cc0 cdf4 d9bf
000002a0: 83f3 a6bf 97aa 00c0 f6e7 99bf 9ab9 12c0
000002b0: 71d5 b8bf 8d27 1bc0 1642 f3bf d6b8 d8bf
000002c0: 3fd9 0ec0 e144 c3bf 406a 19c0 ed8b 11c0
000002d0: a763 17c0 fbcc 19c0 b165 163f eb7d b5bf
000002e0: 082f bebf 8696 c4be 7316 4dbf 1c97 bcbf
000002f0: 1323 c6bf bb92 4ebf 44d0 1abf cc63 9e3d
00000300: 31c7 91bf a121 d5bf 0e96 073f fb18 bebe
00000310: f21b 87bf 68b9 b6be 344f 123f f106 e8be
00000320: 488a 7d3e d815 65bf 066b 453f 38c4 7cbe
00000330: 6282 63be 86a1 093e a253 54bd e4c3 debd
00000340: be4f 673e 89ca 70bf c70f a9be 1d84 1bbf
00000350: 1b7a 9e3e 7b19 39bf d057 aebe 8bee 89bf
00000360: 3df1 39bf 2629 84bf c1d2 4ebf a23d 3bbe
00000370: c1be 85be 8a48 9dbf 354f 1dbf e39a c3bd
00000380: 1588 d9bf f2e9 e4bf 3187 c1bf 54bc 0ec0
00000390: dbd5 eebf a918 08c0 270b aebf 1d19 aebf
000003a0: b6f8 56bf 8597 cabf aa21 d8bf 8c87 00c0
000003b0: 1000 30c0 2691 f5bf c180 15bf be72 b8bf
000003c0: 9597 b7bf de09 a8bf f1b4 80bf 3258 88bf
000003d0: 59b5 3bbf 6d0b 94bf 6d7d bfbf d82b 82bf
000003e0: f4c1 18bf 028d adbf 735e 8dbf aa8c 59be
000003f0: 484c 2e3f 4fab f53e bc33 d03e cca1 903f

lstm.ih.mu_bias f4 [128]
-0.8310677 -0.22379884 -0.55974007 -0.12589431 -0.053349342 0.015263305 -0.10766768 -0.18888706
-0.24592687 0.05291599 -0.05919223 -0.66996926 -0.47259355 -0.3418813 -0.26914772 -0.67520887
-0.93227226 0.44532803 -0.4145717 -0.25881892 -0.8262 -0.0105987545 -0.12988561 -0.5007321
-0.3020479 -0.04512833 -0.63334525 -0.2516981 -0.14001282 -0.77849495 -0.05346925 0.019778525
-0.0030908622 0.032506306 0.01874513 0.048209343 -0.017718792 0.037440255 -0.017409105 0.03051157
0.007600457 0.16864292 0.017512713 -0.052601334 0.3628547 -0.0013347405 -0.032958645 0.047639683
-0.04523734 0.8583996 0.04528902 0.0061390786 -0.0046085618 0.03958543 -0.046460893 0.5503204
-0.002641409 0.008901284 -0.013541058 0.05190452 -0.01117451 -0.027384412 -0.021746678 0.0318772
0.1990156 -0.06526704 -0.07075551 0.28927955 0.27934045 0.21849716 0.25688073 -0.043781653
-0.039601482 -0.9334795 0.24952735 -0.19490378 0.32684776 -0.17424463 -0.048691414 0.26422867
0.25830624 -1.0621327 0.22426806 -0.08277771 0.18009102 0.011204033 -0.21283178 0.43815774
0.3358712 0.16822328 0.30754143 -0.29226652 0.015660712 0.44527596 0.1347469 0.12768103
0.14101934 -0.4418286 -0.6554264 -0.48504293 -0.083525635 0.21391575 -0.49857703 -0.43729535
-0.5812634 0.2759387 -0.05438815 -0.022093304 0.43867263 -0.55679893 -0.6520041 0.06351744
0.13836156 0.5210618 0.078841306 -0.6047241 0.07992073 -0.6614912 -0.16690439 0.20670041
-0.41021356 0.04238803 0.13158198 -0.4941692 -0.18355364 0.18185681 -0.6471301 -0.6412775
00000000: dac0 54bf 862b 65be 204b 0fbf 70ea 00be
00000010: d784 5abd f112 7a3c df80 dcbd 9c6b 41be
00000020: 41d4 7bbe 70be 583d 8d73 72bd 1b83 2bbf
00000030: c8f7 f1be 110b afbe bbcd 89be 7dda 2cbf
00000040: 65a9 6ebf 0902 e43e be42 d4be ea83 84be
00000050: d881 53bf 66a6 2dbc bc00 05be fb2f 00bf
00000060: 06a6 9abe 7cd8 38bd ea22 22bf 93de 80be
00000070: 855f 0fbe 724b 47bf 9302 5bbd 9306 a23c
00000080: 1090 4abb 5525 053d 638f 993c 2977 453d
00000090: 0027 91bc f45a 193d 8a9d 8ebc 66f3 f93c
000000a0: 410d f93b bbb0 2c3e d276 8f3c 7f74 57bd
000000b0: 17c8 b93e 76f2 aeba a5ff 06bd d421 433d
000000c0: ca4a 39bd 14c0 5b3f fb80 393d 532a c93b
000000d0: 6b03 97bb 5524 223d c74d 3ebd cce1 0c3f
000000e0: 7d1b 2dbb b1d6 113c 50db 5dbc d599 543d
000000f0: 4b15 37bc 4655 e0bc 1726 b2bc ab91 023d
00000100: bfca 4b3e baaa 85bd 44e8 90bd 731c 943e
00000110: b605 8f3e b8bd 5f3e df85 833e 6454 33bd
00000120: 2a35 22bd 83f8 6ebf 1984 7f3e db94 47be
00000130: 9758 a73e 2f6d 32be a670 47bd fb48 873e
00000140: b740 843e f7f3 87bf 87a6 653e 5c87 a9bd
00000150: c869 383e 1f91 373c 93f0 59be 3656 e03e
00000160: 4ff7 ab3e b942 2c3e 1276 9d3e f5a3 95be
00000170: e54a 803c 36fb e33e 17fb 093e d1be 023e
00000180: 6067 103e 5c37 e2be 06ca 27bf 8c57 f8be
00000190: 7d0f abbd bb0c 5b3e 7d45 ffbe 2de5 dfbe
000001a0: aecd 14bf d647 8d3e 1cc6 5ebd 04fd b4bc
000001b0: b399 e03e 608a 0ebf bee9 26bf 6e15 823d
000001c0: a7ae 0d3e 4e64 053f 8d77 a13d 33cf 1abf
000001d0: 7bad a33d 7d57 29bf fce8 2abe 46a9 533e
000001e0: 8307 d2be 129f 2d3d 6dbd 063e bf03 fdbe
000001f0: 7cf5 3bbe ac38 3a3e 51aa 25bf c32a 24bf

lstm.ih.rho_bias f4 [128]
-2.579314 0.47184187 -0.2270326 0.4886785 0.58322006 -0.027636578 0.6051608 0.3216603
0.5862732 0.434111 0.48357558 -1.4863206 -2.1111271 0.15126683 0.24185748 -1.5856378
-2.380943 -0.019558134 0.14023004 0.48519984 -2.3026285 0.52383816 0.46143255 -2.1253397
-0.24346815 0.45991418 -1.7532209 0.57605255 0.49626124 -2.101017 0.5438729 0.55206764
0.3947935 0.58742756 0.553966 0.5610251 0.53466487 0.432904 0.48823324 0.5373212
0.50908214 0.51233643 0.5583315 0.53125376 0.3512177 0.57815796 0.35933766 0.35057446
0.48282063 -1.158188 0.47726846 0.54540527 0.52053976 0.5084405 0.5676191 -0.49314916
0.5354481 0.52466464 0.61438763 0.5353677 0.5308144 0.48190194 0.5497284 0.4222764
-0.590786 0.45584896 0.39845958 0.5244619 0.58359295 -2.1155565 0.51321644 0.6210995
0.53337353 0.45146236 0.44441622 -0.048045974 -2.6448553 -0.294445 0.49651578 0.16884695
-0.6033536 0.5857944 0.49972287 0.47433263 -0.19834484 0.31695774 0.4670868 -1.2002667
0.5461178 0.49955487 -0.30814952 0.53550327 0.52967435 -0.6224038 0.51434195 0.62347984
0.4040038 -0.5919253 -1.1249927 -0.5566707 0.5297547 0.3766298 -0.75078577 -0.72220767
-0.5215727 0.4065986 0.49546975 0.27775243 0.48121834 -1.3027138 -1.7933767 0.5109804
0.28303257 0.39350986 -1.3817261 -1.5644064 0.3897726 -1.4354252 0.51028895 0.42819825
-0.73849344 0.51273763 0.5043754 -0.8980919 0.41055846 0.42720884 -1.4600606 -1.2653468
00000000: 7b13 25c0 4295 f13e 3c7b 68be 1134 fa3e
00000010: e94d 153f 1b66 e2bc d1eb 1a3f a9b0 a43e
00000020: 0016 163f cc43 de3e 3897 f73e c13f bebf
00000030: b51c 07c0 b1e5 1a3e 7da9 773e 2ef6 cabf
00000040: 5f61 18c0 6138 a0bc 7798 0f3e 1d6c f83e
00000050: 445e 13c0 421a 063f e340 ec3e 9105 08c0
00000060: b74f 79be df79 eb3e 8b69 e0bf 2e78 133f
00000070: f415 fe3e 1077 06c0 413b 0b3f 4e54 0d3f
00000080: 6022 ca3e a761 163f b7d0 0d3f 579f 0f3f
00000090: ccdf 083f 98a5 dd3e b5f9 f93e e28d 093f
000000a0: 3553 023f 7b28 033f d0ee 0e3f 3f00 083f
000000b0: ced2 b33e 2902 143f 1bfb b73e 7f7e b33e
000000c0: 4434 f73e 813f 94bf 885c f43e ae9f 0b3f
000000d0: 1842 053f 2829 023f 7c4f 113f 0c7e fcbe
000000e0: 2013 093f 6c50 063f 8248 1d3f dc0d 093f
000000f0: 74e3 073f dabb f63e 00bb 0c3f 9d34 d83e
00000100: c03d 17bf 0965 e93e e502 cc3e 2343 063f
00000110: 5966 153f 4765 07c0 2762 033f 6000 1f3f
00000120: 2b8b 083f 1326 e73e 868a e33e dbcb 44bd
00000130: 4f45 29c0 7fc1 96be 5137 fe3e 37e6 2c3e
00000140: 6275 1abf 9ff6 153f addb ff3e badb f23e
00000150: e91a 4bbe 4948 a23e 0026 ef3e 57a2 99bf
00000160: 60ce 0b3f a8c5 ff3e c6c5 9dbe be16 093f
00000170: bd98 073f db55 1fbf eaab 033f 609c 1f3f
00000180: 96d9 ce3e 6b88 17bf c3ff 8fbf f981 0ebf
00000190: 019e 073f 9fd5 c03e 7f33 40bf 9ae2 38bf
000001a0: ca85 05bf b12d d03e 36ae fd3e 9135 8e3e
000001b0: 4062 f63e 53bf a6bf 5e8d e5bf 9dcf 023f
000001c0: a5e9 903e 207a c93e 67dc b0bf 783e c8bf
000001d0: 4690 c73e 03bc b7bf 4ca2 023f cd3c db3e
000001e0: e80d 3dbf c642 033f bf1e 013f 5ae9 65bf
000001f0: b834 d23e 1ebb da3e 44e3 babf e2f6 a1bf

lstm.hh.mu_weight f4 [128, 32]
-0.0859728 0.23615012 -0.46259245 -0.34424815 -0.20033896 0.6816466 -0.057041213 -0.16341585
0.10700957 1.1347224 0.09876686 -0.16063401 -0.35802966 0.20194168 -0.20876655 0.08213592
0.0026481706 1.271958 -0.81212956 0.3703713 -0.11391345 0.43041757 0.46353018 -0.44615233
-0.050800152 -0.487093 -0.8700355 0.21860339 -0.11955045 -0.2638475 0.144675 0.09431086
0.46858776 0.27030113 -0.010294539 -0.07712717 0.024992377 0.5649881 -0.3250803 -0.7163966
1.1171137 0.85606235 0.1323632 0.33954993 0.06171467 1.1080914 0.03527975 0.6673108
0.5581953 1.7741271 -0.68781245 1.2463834 -0.22089052 1.1579754 0.19842374 1.0430013
-0.9368632 0.007023135 -0.80761486 1.2443593 0.1702084 -0.38732928 -0.08565974 -0.6567003
-0.6466318 0.10601276 0.6145057 -0.026599599 0.06311311 0.9571178 -0.12708324 -0.067050144
0.2494398 1.107672 0.019636001 0.71729946 -0.035087783 0.69099325 1.5288472 0.6491052
-0.9170623 1.1048055 -1.1040043 0.20183553 -0.5064557 0.44226435 -0.05157476 0.47966328
-0.17680226 0.023033973 -0.6377028 0.19726276 -0.1928186 -0.90809685 0.008611668 -0.009346815
0.551918 1.0513448 -0.26333925 -0.52116805 -0.14456166 0.485382 -0.64104027 -1.0716642
0.7056488 0.73148406 -0.12026873 -0.0019548312 0.032357518 0.4961203 -0.42871433 0.6746101
0.42093346 1.846453 -0.81500345 0.6294968 -0.051483333 0.8398407 -0.09705337 0.6624304
-1.2167294 -0.10259755 -0.49418294 0.7644577 0.06815629 -0.15459587 -0.41424596 -1.1893243
0.63798535 -0.1567225 -0.70089805 0.1532591 -0.16474456 0.8706336 0.030917387 0.22462124
-0.46946034 1.6670449 0.038746808 -0.60272586 -0.018255088 -0.6017641 -0.73801434 0.8671291
0.6576012 1.338442 -1.0226402 -0.56519854 0.4912444 -0.47880057 0.048999086 0.22505194
0.17720377 0.112814195 0.65255356 -0.6040907 -0.017432421 0.5950414 -0.024216922 0.20729584
-1.3896773 -0.31742373 0.47678342 -0.31160948 -0.847231 0.38921744 -0.19112791 -0.23246588
0.4185289 -0.09757349 -0.58230686 0.8135679 -2.1342432 1.21841 0.5573996 0.3576711
-0.86969894 -0.2242617 -0.30981702 0.12398876 -0.8677658 0.27658653 0.26487055 0.6423009
-0.59071887 -0.90883 -0.73492575 0.20730731 -0.072267115 -1.8079343 -0.15359135 -0.720003
0.14103556 0.8705933 -0.009058505 -0.38546783 -0.13264628 0.54201454 -0.31403154 -0.6728132
0.5813823 0.8961726 -0.09238253 0.22607808 -0.15446705 0.5078848 0.08020017 0.5706522
0.24869166 1.7580568 -0.7021328 0.7337189 -0.10072608 0.766963 0.0690235 0.3378511
-0.71091795 -0.14854729 -0.57185405 0.7285295 -0.10293612 -0.3164253 -0.12338309 -0.5570264
0.41620123 0.7983776 0.13255082 -0.1495063 0.115803055 0.7357244 -0.25124884 -0.41314065
0.97998464 0.77795136 -0.0028946497 0.3924613 -0.011789478 0.77371365 0.15887555 0.6065505
0.33281952 1.5611205 -0.6577986 1.0985942 -0.16777785 0.88572097 0.14199908 0.8497816
-0.7942486 -0.09287164 -0.77533305 0.8406353 -0.07788444 -0.4093074 -0.08379572 -0.5287211
00000000: 8212 b0bd 56d1 713e ebd8 ecbe 4b41 b0be
00000010: a825 4dbe 6480 2e3f 0ca4 69bd 7c56 27be
00000020: d527 db3d 953e 913f 4846 ca3d 3e7d 24be
00000030: aa4f b7be cdc9 4e3e e6c6 55be e136 a83d
00000040: ee8c 2d3b 85cf a23f b9e7 4fbf 4fa1 bd3e
00000050: 744b e9bd b15f dc3e d453 ed3e 146e e4be
00000060: d213 50bd 4164 f9be a6ba 5ebf 91d9 5f3e
00000070: ded6 f4bd 0517 87be af25 143e 0d26 c13d
00000080: bcea ef3e e964 8a3e 6daa 28bc daf4 9dbd
00000090: d0bc cc3c 0fa3 103f ed70 a6be c465 37bf
000000a0: 95fd 8e3f e726 5b3f 388a 073e 7dd9 ad3e
000000b0: 86c8 7c3d f0d5 8d3f 8081 103d e1d4 2a3f
000000c0: e3e5 0e3f 9916 e33f 7a14 30bf 7e89 9f3f
000000d0: 2031 62be 8a38 943f 982f 4b3e 1181 853f
000000e0: 44d6 6fbf 5422 e63b d9bf 4ebf 2a47 9f3f
000000f0: 1c4b 2e3e 0650 c6be 606e afbd 831d 28bf
00000100: a989 25bf 381d d93d 3f50 1d3f 67e7 d9bc
00000110: 7241 813d ac05 753f 1c22 02be 9651 89bd
00000120: 266d 7f3e 32c8 8d3f aedb a03c f0a0 373f
00000130: 35b8 0fbd efe4 303f 44b1 c33f c22b 263f
00000140: 98c4 6abf 446a 8d3f 0350 8dbf f9ad 4e3e
00000150: 15a7 01bf 7970 e23e 0e40 53bd 6d96 f53e
00000160: a70b 35be beb1 bc3c 7e40 23bf 40ff 493e
00000170: 3d72 45be 0979 68bf f417 0d3c 6223 19bc
00000180: 804a 0d3f 7792 863f 67d4 86be 456b 05bf
00000190: f907 14be fd83 f83e 371b 24bf 4b2c 89bf
000001a0: 66a5 343f 8a42 3b3f 744f f6bd a01c 00bb
000001b0: 5189 043d 7b03 fe3e 7280 dbbe 3fb3 2c3f
000001c0: 9784 d73e 9258 ec3f 11a4 50bf b426 213f
000001d0: 30e0 52bd cdff 563f ebc3 c6bd 0a95 293f
000001e0: cabd 9bbf aa1e d2bd 8c05 fdbe 80b3 433f
000001f0: 8695 8b3d 614e 1ebe 0c18 d4be c73b 98bf
00000200: 0253 233f dd7b 20be 0e6e 33bf f4ef 1c3e
00000210: ccb2 28be d8e1 5e3f 7646 fd3c 1c03 663e
00000220: 1b5d f0be ba61 d53f f9b4 1e3d 3e4c 1abf
00000230: b28b 95bc 360d 1abf 82ee 3cbf 2cfc 5d3f
00000240: 8d58 283f 1152 ab3f e0e5 82bf dab0 10bf
00000250: 6384 fb3e 5925 f5be 44b3 483d 0474 663e
00000260: e874 353e 210b e73d c00d 273f b0a5 1abf
00000270: 70ce 8ebc a254 183f 9162 c6bc 5c45 543e
00000280: f2e0 b1bf 5d85 a2be f51c f43e 478b 9fbe
00000290: 21e4 58bf 8247 c73e 09b7 43be 890b 6ebe
000002a0: 6c49 d63e 9cd4 c7bd 1012 15bf fc45 503f
000002b0: 7197 08c0 dcf4 9b3f bdb1 0e3f ab20 b73e
000002c0: 97a4 5ebf dca4 65be 56a0 9ebe d2ed fd3d
000002d0: e625 5ebf c09c 8d3e 1d9d 873e d56d 243f
000002e0: 5a39 17bf 15a9 68bf 1824 3cbf 5e48 543e
000002f0: c800 94bd 646a e7bf 0d47 1dbe 1e52 38bf
00000300: a06b 103e 34df 5e3f 206a 14bc 0a5c c5be
00000310: 6dd4 07be 77c1 0a3f bec8 a0be 7c3d 2cbf
00000320: 78d5 143f 916b 653f 0d33 bdbd 0381 673e
00000330: 9c2c 1ebe bd04 023f fd3f a43d 4316 123f
00000340: 07a9 7e3e 0108 e13f fabe 33bf 00d5 3b3f
00000350: 7a49 cebd b057 443f 315c 8d3d d2fa ac3e
00000360: b8fe 35bf c81c 18be 0765 12bf e980 3a3f
00000370: 2cd0 d2bd 7f02 a2be 46b0 fcbd 4899 0ebf
00000380: 5418 d53e 7962 4c3f 67bb 073e 2e18 19be
00000390: 272a ed3d 6f58 3c3f b0a3 80be 2c87 d3be
000003a0: 46e0 7a3f d227 473f 2ab4 3dbb b0f0 c83e
000003b0: a828 41bc 1912 463f 46b0 223e e546 1b3f
000003c0: 5267 aa3e ccd2 c73f 7d65 28bf bc9e 8c3f
000003d0: f5cd 2bbe 9cbe 623f 3568 113e 498b 593f
000003e0: e053 4bbf 7d33 bebd 3a7c 46bf e033 573f
000003f0: e181 9fbd bd90 d1be 179d abbd 445a 07bf

lstm.hh.rho_weight f4 [128, 32]
-3.1384637 0.36573645 -0.5830979 0.41233918 0.38906392 -2.9440048 0.46979973 0.46598455
0.46873507 -3.0636497 0.9023383 -1.673651 -2.5505838 -0.33261096 -1.6494293 -2.8739138
-2.127886 -3.1876338 -3.273117 0.49806803 -1.6712176 0.06478439 0.5956378 -2.8829305
0.7822832 -0.028252771 -1.0376418 0.5510678 0.36092255 -1.1767972 0.6574344 -0.2524692
-1.6414315 0.4617178 -1.7417433 0.56435615 0.45461667 -1.8699045 0.48876145 0.35949075
-0.5326891 -1.3987526 0.52846336 -1.4004595 -0.9491007 -1.1258458 -1.6999896 -1.3091677
-0.8272798 -0.8042307 -2.0301533 -1.1765345 -2.5771708 -0.8649766 0.5683644 -1.3806725
0.28345087 0.45107165 -1.2608496 -0.89277613 0.5844125 -2.1727133 0.5060426 0.28260767
-2.3032854 0.48932567 -0.85740876 0.6253371 0.6635326 -1.0341172 0.5547445 0.4770768
0.50002515 -1.4005342 0.5658906 -1.1044399 -1.4894767 0.294022 -1.2435031 -3.8199515
-2.3067567 -2.4321787 -0.18180406 0.50365824 -1.9724938 0.5219344 0.5451807 -1.7066861
0.5132728 0.49377787 -0.97998947 0.5453454 0.5426889 -0.83736223 0.4595798 0.5296585
0.31310192 -0.76478577 -1.2771523 0.29340157 0.53413004 -1.9076992 -0.003203477 -0.48614168
-1.0119479 -1.4311973 0.5004033 -0.44068912 -2.2659614 -1.1572036 -2.520029 -2.0858104
-2.087346 -0.47820315 -2.1041815 -0.558727 -1.6637228 -1.5252492 0.57079947 -1.5982525
-0.68535155 0.5819598 -1.351443 -1.2051827 0.371348 -1.8687707 0.50323933 0.09289353
-0.057796393 0.43066868 0.25474083 0.6509529 0.6747944 0.045410264 0.53165704 0.57465625
0.3622252 0.048457403 0.6256659 0.4970969 -0.16589852 0.4375449 0.16301654 -0.21019587
-0.02431793 -0.22479169 -0.111851454 0.5100467 0.29568705 0.29999837 0.5805508 0.199728
0.61783695 0.61649793 0.13506587 0.5560892 0.598522 0.20328435 0.46036807 0.50747144
-0.14096622 0.60409164 0.49228933 0.4762725 0.36853412 -2.302238 0.8204378 0.8893081
-0.08768603 -1.9849781 -0.30946133 0.30685925 -0.50390244 0.30319616 0.38129184 -0.7742102
-0.09260374 -1.7869949 -0.039693154 0.97461843 -0.13068408 -0.4634564 -0.6604665 -1.5196862
0.8520915 -0.03106356 0.14373457 0.4223735 0.060400713 0.12019371 0.40626246 0.9202478
-0.7542753 0.23587157 -1.0833384 0.42283335 0.7715627 -1.0245246 0.5029637 0.28934917
-0.84593886 -1.2674985 0.5722012 -1.5150776 -1.5406989 -0.5104171 -1.3534688 -1.0619172
-1.9741145 -0.3735078 -1.6025822 -0.47412795 -0.87535965 -0.45609912 0.6018273 -0.7018428
0.69061834 0.5911194 -0.45319375 -1.0365318 0.46908218 -1.1798806 0.4538794 0.23559336
-0.5429343 0.028263688 -2.0412695 0.48546153 0.5463185 -2.1577606 0.567459 0.5837804
-0.5992552 -1.5400047 0.43806088 -0.8833796 -0.8222861 -1.1545161 -1.4604084 0.6454931
-0.294994 -0.61564076 -1.8009586 -0.94250226 -0.6147294 -0.6770052 0.60390586 -1.9780889
0.11372811 0.5506099 -0.8569845 -1.3406074 0.51847416 -1.3849697 0.46578828 0.2408104
00000000: 97dc 48c0 cf41 bb3e e745 15bf 1f1e d33e
00000010: 6333 c73e 936a 3cc0 9789 f03e 8795 ee3e
00000020: 0bfe ef3e d612 44c0 a5ff 663f 323a d6bf
00000030: c43c 23c0 fc4b aabe 8020 d3bf 34ee 37c0
00000040: 492f 08c0 3102 4cc0 c07a 51c0 c602 ff3e
00000050: 75ea d5bf aead 843d b87b 183f ef81 38c0
00000060: b643 483f 5b72 e7bc 72d1 84bf c812 0d3f
00000070: d7ca b83e 4aa1 96bf 9f4d 283f a543 81be
00000080: 6d1a d2bf 4766 ec3e 72f1 debf a579 103f
00000090: 84c3 e83e 0859 efbf f13e fa3e 2c0f b83e
000000a0: 505e 08bf 530a b3bf 6049 073f 4242 b3bf
000000b0: 43f8 72bf b71b 90bf 4299 d9bf cf92 a7bf
000000c0: 9cc8 53bf 10e2 4dbf 08ee 01c0 af98 96bf
000000d0: 5ef0 24c0 1b6f 5dbf 5480 113f e0b9 b0bf
000000e0: 7920 913e ddf2 e63e 8563 a1bf fa8c 64bf
000000f0: 0f9c 153f bc0d 0bc0 028c 013f f4b1 903e
00000100: 0769 13c0 e588 fa3e 247f 5bbf 1816 203f
00000110: 46dd 293f f45d 84bf bc03 0e3f 6943 f43e
00000120: a601 003f b444 b3bf 35de 103f 495e 8dbf
00000130: 2ca7 bebf 0d8a 963e 1c2b 9fbf 167a 74c0
00000140: e7a1 13c0 d1a8 1bc0 d82a 3abe bfef 003f
00000150: ad7a fcbf 7e9d 053f f690 0b3f b174 dabf
00000160: d965 033f 74d0 fc3e 97e0 7abf c29b 0b3f
00000170: a9ed 0a3f 5f5d 56bf 0b4e eb3e b397 073f
00000180: e54e a03e 00c9 43bf ba79 a3bf bb38 963e
00000190: bfbc 083f 7d2f f4bf 6df1 51bb 90e7 f8be
000001a0: 8287 81bf 7931 b7bf 6e1a 003f 01a2 e1be
000001b0: 8305 11c0 3f1f 94bf 2848 21c0 eb7d 05c0
000001c0: 1497 05c0 0bd7 f4be e9aa 06c0 bc08 0fbf
000001d0: def4 d4bf 5e3b c3bf ea1f 123f 8a93 ccbf
000001e0: 3373 2fbf 51fb 143f 16fc acbf 6d43 9abf
000001f0: 5321 be3e e133 efbf 4bd4 003f f73e be3d
00000200: e9bb 6cbd 9b80 dc3e 646d 823e d9a4 263f
00000210: 53bf 2c3f 1d00 3a3d ad1a 083f ac1c 133f
00000220: 9575 b93e 457b 463d a42b 203f 7c83 fe3e
00000230: 4de1 29be e305 e03e cfed 263e 963d 57be
00000240: 6536 c7bc cb2f 66be 6012 e5bd 6c92 023f
00000250: 4b64 973e 6399 993e fa9e 143f 7f85 4c3e
00000260: 902a 1e3f cfd2 1d3f b54e 0a3e dd5b 0e3f
00000270: bd38 193f c629 503e 5db5 eb3e a6e9 013f
00000280: 7359 10be c0a5 1a3f 590d fc3e fdd9 f33e
00000290: 81b0 bc3e de57 13c0 3608 523f b2a9 633f
000002a0: bc94 b3bd c313 febf b771 9ebe a81c 9d3e
000002b0: c0ff 00bf 873c 9b3e af38 c33e a432 46bf
000002c0: 08a7 bdbd 40bc e4bf 4a95 22bd 9880 793f
000002d0: 0cd2 05be 284a edbe 5514 29bf 1485 c2bf
000002e0: ab22 5a3f 0279 febc 282f 133e 5741 d83e
000002f0: bd66 773d 1f28 f63d a201 d03e 5c95 6b3f
00000300: 3018 41bf 5188 713e d5aa 8abf 9d7d d83e
00000310: 2285 453f 9f23 83bf 3bc2 003f 9325 943e
00000320: 738f 58bf 643d a2bf c77b 123f 10ee c1bf
00000330: 9f35 c5bf b2aa 02bf 773e adbf e7ec 87bf
00000340: c9af fcbf 6a3c bfbe 6a21 cdbf e6c0 f2be
00000350: 9217 60bf d385 e9be 5b11 1a3f f8ab 33bf
00000360: 5dcc 303f 9a53 173f 0309 e8be 13ad 84bf
00000370: 8a2b f03e 5406 97bf e162 e83e 633f 713e
00000380: befd 0abf 4089 e73c 29a4 02c0 6a8e f83e
00000390: 87db 0b3f c018 0ac0 fe44 113f a272 153f
000003a0: ca68 19bf e01e c5bf 8449 e03e 2a25 62bf
000003b0: 5881 52bf 2fc7 93bf aaee babf 093f 253f
000003c0: 7409 97be a29a 1dbf d085 e6bf d447 71bf
000003d0: e85e 1dbf 3650 2dbf 9399 1a3f 0432 fdbf
000003e0: 49ea e83d c5f4 0c3f 5663 5bbf 0699 abbf
000003f0: b9ba 043f b046 b1bf cd7b ee3e 0097 763e

lstm.hh.mu_bias f4 [128]
-0.7500254 -0.2182505 -0.5529378 -0.12240258 -0.053349108 -0.03784452 -0.108787596 -0.18850651
-0.24771406 0.052918788 -0.05919223 -0.6656006 -0.46555334 -0.3446549 -0.26734588 -0.696596
-0.8879946 0.44382876 -0.41204876 -0.2598536 -0.91088223 -0.010576277 -0.12987944 -0.51142913
-0.27435958 -0.045083318 -0.7080127 -0.25814068 -0.14001282 -0.75618595 -0.053449057 0.019779256
-0.004817356 0.032506306 0.018212143 0.048209317 -0.017718792 0.037410777 -0.017409105 0.030511884
0.007569655 0.16864784 0.017512713 -0.052678134 0.36336532 -0.00075009075 -0.029989984 0.04732238
-0.045048967 0.8610745 0.044949383 0.0065158918 0.0018175564 0.039638553 -0.046460893 0.5620171
-0.0026398918 0.008901284 -0.01319212 0.051898405 -0.01117451 -0.02619152 -0.021746678 0.031886786
0.34113815 -0.066203654 -0.073369056 0.2892826 0.27932274 0.25307631 0.25546753 -0.04358672
-0.03920009 -0.9358008 0.24952044 -0.23485734 0.46039286 -0.2007763 -0.05027792 0.2748699
0.23573522 -1.0828111 0.22521092 -0.08216939 0.32994208 0.012992814 -0.21313414 0.53152114
0.3506061 0.16810514 0.3755783 -0.29101098 0.015690695 0.31887794 0.13449498 0.12663595
0.14102358 -0.51975805 -0.5656965 -0.3919056 -0.08352558 0.21388373 -0.3806717 -0.5509672
-0.5928073 0.27593252 -0.054387636 -0.021682497 0.43865448 -0.55168974 -0.5604465 0.06351812
0.1386006 0.52113885 0.076271735 -0.6547605 0.07992107 -0.5202513 -0.1669037 0.20666383
-0.44498783 0.042386986 0.13158229 -0.45547354 -0.18354972 0.18185224 -0.61537385 -0.5806944
00000000: aa01 40bf 0f7d 5fbe 558d 0dbf 34ae fabd
00000010: 9884 5abd db02 1bbd 08cc debd da07 41be
00000020: c1a8 7dbe 5fc1 583d 8d73 72bd cd64 2abf
00000030: 025d eebe 9b76 b0be 8fe1 88be 1e54 32bf
00000040: 9d53 63bf 863d e33e 0ef8 d2be 880b 85be
00000050: 942f 69bf 1f48 2dbc 1eff 04be 05ed 02bf
00000060: dc78 8cbe 49a9 38bd 5240 35bf 042b 84be
00000070: 855f 0fbe 6795 41bf 66ed 5abd 1b08 a23c
00000080: e9da 9dbb 5525 053d a231 953c 2277 453d
00000090: 0027 91bc 0b3c 193d 8a9d 8ebc 0ff4 f93c
000000a0: de0a f83b 05b2 2c3e d276 8f3c 07c5 57bd
000000b0: 050b ba3e bda1 44ba 8ead f5bc 1dd5 413d
000000c0: 4485 38bd 616f 5c3f d81c 383d 4383 d53b
000000d0: 133b ee3a 095c 223d c74d 3ebd 5ae0 0f3f
000000e0: 0902 2dbb b1d6 113c c323 58bc 6c93 543d
000000f0: 4b15 37bc 998f d6bc 1726 b2bc b89b 023d
00000100: a9a9 ae3e c895 87bd 8442 96bd d91c 943e
00000110: 6403 8f3e 3893 813e a4cc 823e fd87 32bd
00000120: 4690 20bd a490 6fbf 4982 7f3e 717e 70be
00000130: 9db8 eb3e 4d98 4dbe 38f0 4dbd bfbb 8c3e
00000140: 9364 713e 8e99 8abf b19d 663e 6d48 a8bd
00000150: 2bee a83e d0df 543c d63f 5abe c511 083f
00000160: a582 b33e c123 2c3e cd4b c03e 64ff 94be
00000170: c689 803c f843 a33e 0db9 093e dbac 013e
00000180: 7c68 103e dd0e 05bf 7cd1 10bf daa7 c8be
00000190: 760f abbd 5604 5b3e 67e7 c2be 300c 0dbf
000001a0: 38c2 17bf 0747 8d3e 92c5 5ebd 7e9f b1bc
000001b0: 5297 e03e 8a3b 0dbf 6c79 0fbf ca15 823d
000001c0: 51ed 0d3e 5b69 053f 5b34 9c3d 629e 27bf
000001d0: a8ad a33d 302f 05bf cee8 2abe af9f 533e
000001e0: 72d5 e3be fa9d 2d3d 82bd 063e d433 e9be
000001f0: 75f4 3bbe 7937 3a3e 2489 1dbf 63a8 14bf

lstm.hh.rho_bias f4 [128]
-2.320696 0.38303924 -0.049663596 0.3358084 0.49021795 0.17830226 0.5635787 0.546224
0.7467258 0.6142436 0.5495139 -1.4582045 -1.917408 0.20163265 0.38640678 -1.6907201
-2.1645994 -0.52511024 0.342923 0.6346806 -2.234424 0.7058014 0.6068391 -2.0330176
0.09995283 0.52281564 -1.6241639 0.24881986 0.5295089 -2.2430885 0.5566104 0.5493842
0.4130241 0.4938665 0.5156915 0.56086487 0.54345614 0.4727066 0.5611397 0.5417891
0.5075916 0.53282404 0.5245722 0.57710946 0.43051353 0.7323408 0.44860524 0.3995413
0.51878154 -1.292756 0.42599156 0.59329593 0.5345489 0.48595577 0.54697317 -0.4948417
0.4839395 0.57782483 0.3709975 0.5560815 0.5692771 0.44657743 0.5636203 0.51727605
-0.36035806 0.56709516 0.55104864 0.45066154 0.65984774 -2.2153249 0.5102489 0.68773085
0.55755746 0.47530797 0.43757218 -0.014441955 -2.6128724 0.05071257 0.44489273 0.26269785
-0.025748441 -0.013139918 0.49053994 0.51788515 -0.6573152 0.2328348 0.46605152 -1.3882879
0.576189 0.43651685 -0.5623329 0.65505123 0.44512457 -1.1103674 0.54611707 0.53337014
0.5208012 -0.34382913 -1.3650206 -0.7473383 0.46512824 0.3536094 -1.030584 -0.7647455
-0.23139493 0.4135866 0.578102 0.3140534 0.41198972 -1.5922433 -1.8570174 0.47307765
0.377789 0.43370885 -1.4979479 -1.2692097 0.41996115 -1.4107453 0.52610266 0.37649715
-0.65156794 0.54911804 0.48259583 -0.7743262 0.524623 0.44891965 -1.4739077 -1.2111561
00000000: 4986 14c0 b81d c43e 0e6c 4bbd 14ef ab3e
00000010: d9fd fa3e de94 363e b246 103f 56d5 0b3f
00000020: 6c29 3f3f 123f 1d3f f1ac 0c3f 72a6 babf
00000030: a06d f5bf ca78 4e3e 1cd7 c53e 8469 d8bf
00000040: cc88 0ac0 a06d 06bf 9a93 af3e 6e7a 223f
00000050: ce00 0fc0 67af 343f cf59 1b3f f61c 02c0
00000060: 12b4 cc3d 3fd7 053f 9ae4 cfbf a2ca 7e3e
00000070: e58d 073f c38e 0fc0 057e 0e3f 71a4 0c3f
00000080: e577 d33e 12dc fc3e 5c04 043f d794 0f3f
00000090: f11f 0b3f 9906 f23e daa6 0f3f b1b2 0a3f
000000a0: 86f1 013f 2867 083f 5d4a 063f 72bd 133f
000000b0: 456c dc3e b07a 3b3f 96af e53e ad90 cc3e
000000c0: dece 043f 0779 a5bf 911b da3e 3ee2 173f
000000d0: 32d8 083f 32cf f83e 6f06 0c3f e45b fdbe
000000e0: ebc6 f73e 54ec 133f 62f3 bd3e 5b5b 0e3f
000000f0: 25bc 113f cca5 e43e 6c49 103f 346c 043f
00000100: da80 b8be 262d 113f 8611 0d3f 1cbd e63e
00000110: c8eb 283f e2c7 0dc0 ac9f 023f 210f 303f
00000120: 16bc 0e3f 915b f33e 7609 e03e f39d 6cbc
00000130: 4d39 27c0 fcb7 4f3d fbc8 e33e 5580 863e
00000140: 65ee d2bc d048 57bc 0d28 fb3e 1f94 043f
00000150: cf45 28bf 3f6c 6e3e 4e9e ee3e 6bb3 b1bf
00000160: 1f81 133f 237f df3e 0df5 0fbf 70b1 273f
00000170: 5ee7 e33e 8520 8ebf 54ce 0b3f f28a 083f
00000180: 3a53 053f 5f0a b0be ffb8 aebf 9051 3fbf
00000190: 4a25 ee3e 4b0c b53e 2dea 83bf 5cc6 43bf
000001a0: cbf2 6cbe 9fc1 d33e 7efe 133f 9bcb a03e
000001b0: 51f0 d23e a1ce cbbf bfb2 edbf 3c37 f23e
000001c0: 8f6d c13e 160f de3e c2bc bfbf 7775 a2bf
000001d0: 2605 d73e 4d93 b4bf aaae 063f 3cc4 c03e
000001e0: 28cd 26bf 0093 0c3f cd16 f73e 3e3a 46bf
000001f0: b14d 063f ccd8 e53e 02a9 bcbf 2a07 9bbf

l1.mu_weight f4 [16, 32]
0.6335515 0.14544405 0.22781478 -0.15723003 0.009910683 0.27355006 -0.24896552 -0.31881157
0.27624443 0.17333405 -0.020087006 -0.08821128 0.5506236 0.21613662 0.3776826 0.36507025
0.25819927 -0.26584703 -0.018898688 0.22137873 0.47216576 0.21420115 -0.007075215 0.115828834
0.02750423 0.023212787 0.10529615 0.12304174 -0.0058814767 0.2934663 0.15013139 -0.019935885
-1.2021723 0.31713444 0.37980846 -0.35661927 -0.0047222017 -1.0853419 -0.3871143 -0.14635627
0.37882328 -0.7883943 -0.06885817 0.65647995 -1.110654 0.46724442 0.32573542 -0.97584975
-0.92734134 -0.10967977 0.73367965 0.44594103 -0.960756 0.25251487 0.000569423 -1.0102702
-0.40458187 -0.044487037 -0.62831473 0.28419676 0.007909167 -1.1034701 -0.76124054 -0.37851188
-0.67735106 0.1389278 0.013196043 -0.003595152 0.007889142 -0.4777649 -0.04639709 0.06804164
-0.14179389 -0.3623975 -0.015668835 0.14321418 -0.93704206 0.16764966 0.07598588 -0.6462236
-0.6098758 0.1390081 0.26545838 0.022369675 -0.7641555 -0.030977244 0.010819569 -0.23226462
-0.15945594 -0.02712537 -0.18667853 -0.01472159 0.0064708856 -0.58660674 -0.37433717 -0.09209398
-1.2746507 0.2095119 0.11095225 -0.27596733 -0.0040265517 -1.0187231 -0.49235746 -0.3039655
0.3449712 -0.9044996 -0.06912327 0.6035384 -1.2750278 0.3730117 0.26927063 -0.94750965
-0.977033 -0.042248614 0.6317897 0.42111304 -1.0122772 0.35175174 0.00068998843 -0.86857927
-0.37072784 -0.04147853 -0.7071877 0.5631239 0.007190352 -1.0483819 -0.63941467 -0.40919048
-1.2605011 0.023956522 0.24323742 -0.31593096 0.0007271479 -0.7441094 -0.255857 -0.17431237
-0.07570302 -0.36735028 -0.04940639 0.4950661 -1.1541613 0.14665774 0.15528974 -0.9147124
-0.9306721 0.0029897322 0.6989982 0.42411005 -0.91788816 0.224028 0.005010988 -0.64692646
-0.19688855 -0.034545377 -0.48251125 0.285251 0.007890654 -0.60605186 -0.67045677 -0.09458344
-1.0198351 0.12628368 0.30590189 -0.15737844 0.0014350308 -0.76760525 -0.13521343 -0.038848765
0.04208457 -0.61480445 -0.04593228 0.3813253 -1.0314997 0.32071328 0.2535209 -0.81874394
-0.65232366 0.035490654 0.37993893 0.14893505 -0.67012376 0.28377238 0.0059699174 -0.87611735
-0.27005586 -0.032804824 -0.5559295 0.23029298 0.008114575 -0.7192748 -0.6382609 -0.09174366
-1.304275 0.35341895 0.38909099 -0.479391 -0.003962917 -0.8547655 -0.29791585 -0.33070678
0.22413583 -0.71597904 -0.07946316 0.8062626 -1.3991524 0.43573183 0.5113067 -1.1032883
-1.143428 -0.012172567 0.7103203 0.35693103 -1.2810752 0.27707896 -0.0032269666 -1.0846205
-0.39927572 -0.055665046 -0.7867454 0.37317863 0.00625537 -1.0145646 -0.9084056 -0.42331374
-1.0511214 0.37730554 0.42889383 -0.21848264 -0.00070200476 -0.77211106 -0.26662683 -0.16086517
0.061095744 -0.4788287 -0.050781533 0.53048134 -1.1075022 0.13836867 0.23022088 -0.8661994
-1.0039951 0.08444783 0.49392915 0.30291778 -1.0002944 0.19964743 0.005476494 -0.72264063
-0.37194043 -0.034894515 -0.54141515 0.2580757 0.007991587 -0.86462873 -0.7917589 -0.20144984
00000000: 6e30 223f 49ef 143e 4748 693e e900 21be
00000010: 6b60 223c c10e 8c3e d1f0 7ebe 453b a3be
00000020: e96f 8d3e 7b7e 313e 818d a4bc 1ea8 b4bd
00000030: abf5 0c3f eb52 5d3e 9d5f c13e 7dea ba3e
00000040: b232 843e 1a1d 88be 6cd1 9abc 1bb1 623e
00000050: b6bf f13e 8c57 5b3e 35d7 e7bb ab37 ed3d
00000060: 8d50 e13c be28 be3c 82a5 d73d 4ffd fb3d
00000070: 67b9 c0bb 3741 963e 0bbc 193e 9550 a3bc
00000080: c8e0 99bf 725f a23e 4176 c23e cd96 b6be
00000090: b3bc 9abb 7cec 8abf d833 c6be 6bde 15be
000000a0: 20f5 c13e 35d4 49bf 8305 8dbd 120f 283f
000000b0: e929 8ebf a93a ef3e cbc6 a63e 4ad1 79bf
000000c0: 3e66 6dbf ca9f e0bd 6ed2 3b3f 6252 e43e
000000d0: 1bf4 75bf a149 813e 5545 153a 8950 81bf
000000e0: 5b25 cfbe 0a38 36bd 3cd9 20bf 3d82 913e
000000f0: 7395 013c 823e 8dbf a9e0 42bf 4fcc c1be
00000100: e166 2dbf 1743 0e3e 3734 583c a49c 6bbb
00000110: 7641 013c 9a9d f4be e00a 3ebd 6a59 8b3d
00000120: 6b32 11be 2a8c b9be ee5b 80bc bda6 123e
00000130: fde1 6fbf 5aac 2b3e 7c9e 9b3d e96e 25bf
00000140: d220 1cbf 2458 0e3e 29ea 873e 9c40 b73c
00000150: b29f 43bf fdc3 fdbc 9044 313c c7d6 6dbe
00000160: 6b48 23be 0636 debc a828 3fbe d332 71bc
00000170: b909 d43b dc2b 16bf 1fa9 bfbe c59b bcbd
00000180: c127 a3bf 4a8a 563e ef3a e33d 974b 8dbe
00000190: 2af1 83bb 8565 82bf 4716 fcbe 5ea1 9bbe
000001a0: 11a0 b03e 498d 67bf 8090 8dbd 7e81 1a3f
000001b0: 1c34 a3bf 64fb be3e d7dd 893e fe8f 72bf
000001c0: d61e 7abf e20c 2dbd f8bc 213f 219c d73e
000001d0: 4d92 81bf ce18 b43e 57e0 343a 365b 5ebf
000001e0: 0ad0 bdbe 64e5 29bd 410a 35bf e328 103f
000001f0: 0b9d eb3b 6131 86bf aeb0 23bf 6a81 d1be
00000200: 1a58 a1bf 7840 c43c 3b13 793e b4c1 a1be
00000210: 129e 3e3a f47d 3ebf b0ff 82be f17e 32be
00000220: 2f0a 9bbd 5615 bcbe 5b5e 4abd 4e79 fd3e
00000230: 8fbb 93bf 722d 163e 4604 1f3e 982a 6abf
00000240: 8740 6ebf 62ef 433b 8cf1 323f f424 d93e
00000250: b8fa 6abf 9967 653e 3733 a43b f99c 25bf
00000260: 279d 49be 747f 0dbd b70b f7be 6b0c 923e
00000270: cd47 013c 3726 1bbf 0ea3 2bbf f6b4 c1bd
00000280: f589 82bf 8250 013e 2c9f 9c3e d027 21be
00000290: a517 bc3a c781 44bf 6475 0abe e21f 1fbd
000002a0: df60 2c3d d363 1dbf 7d23 3cbd 123d c33e
000002b0: 2f08 84bf 8834 a43e 7ecd 813e 3499 51bf
000002c0: affe 26bf a65e 113d 5b87 c23e 6e82 183e
000002d0: 3b8d 2bbf 9d4a 913e 4c9f c33b 3a49 60bf
000002e0: c344 8abe 5a5e 06bd 6551 0ebf ecd1 6b3e
000002f0: fff2 043c 6522 38bf 1165 23bf 1ae4 bbbd
00000300: 7cf2 a6bf 54f3 b43e ef36 c73e bd72 f5be
00000310: 5bdb 81bb e9d1 5abf 6d88 98be 6652 a9be
00000320: dd83 653e 674a 37bf 95bd a2bd 3a67 4e3f
00000330: 6d17 b3bf 3e18 df3e ffe4 023f 8d38 8dbf
00000340: d95b 92bf 726f 47bc 8dd7 353f aabf b63e
00000350: 46fa a3bf 4bdd 8d3e 847b 53bb d8d4 8abf
00000360: de6d ccbe 0801 64bd 2668 49bf 4511 bf3e
00000370: d9f9 cc3b 41dd 81bf 458d 68bf 94bc d8be
00000380: 258b 86bf 312e c13e f997 db3e eab9 5fbe
00000390: be06 38ba 12a9 45bf 5083 88be d7b9 24be
000003a0: 883f 7a3d 0929 f5be 4c00 50bd a0cd 073f
000003b0: a2c2 8dbf 84b0 0d3e 06bf 6b3e 3ebf 5dbf
000003c0: e982 80bf fcf2 ac3d 48e4 fc3e 0a18 9b3e
000003d0: a609 80bf 6070 4c3e 2974 b33b fafe 38bf
000003e0: fa6e bebe 8ded 0ebd 2f9a 0abf 8022 843e
000003f0: 25ef 023c 4f58 5dbf b6b0 4abf de48 4ebe

l1.rho_weight f4 [16, 32]
-1.9688805 -2.0015466 -1.8805667 -1.864344 0.534816 -2.200482 -1.5647244 -1.9730494
-2.1161811 -2.2965426 0.5355512 -2.1428092 -2.063116 -1.6788883 -1.7463491 -2.2787628
-1.9226911 -1.7779559 -2.5789373 -1.7383615 -2.1753075 -2.2333286 0.5131459 -2.0138655
-1.9212224 0.53619885 -1.9929497 -2.0431767 0.52189416 -2.30061 -1.7724715 -1.738404
-3.0432448 -2.829575 -3.2023087 -3.1341681 0.47331086 -3.6806726 -3.188839 -2.974819
-3.231272 -3.5833704 0.48917538 -3.3113232 -3.1597192 -3.0678058 -3.021049 -3.5751188
-2.889441 -3.1800957 -3.6905367 -3.0128605 -3.2201238 -3.2383807 0.55165195 -2.989407
-2.6359632 0.4687697 -2.7371166 -2.9536467 0.46160418 -3.0440397 -3.000579 -2.9356835
-2.9394903 -2.5203023 -2.5697494 -2.3003871 0.56889904 -2.8533933 -1.9990842 -2.4413729
-2.051464 -3.1691988 0.53488785 -2.2527497 -2.668014 -2.5570703 -2.4908636 -2.4702997
-2.3850672 -2.5239441 -2.5384643 -2.5027752 -2.1911576 -2.205338 0.50096244 -2.655829
-2.455852 0.49455833 -2.417235 -2.2108703 0.49266282 -2.211366 -2.2874398 -1.8969392
-3.1774898 -2.7864335 -3.2115843 -2.6176176 0.43276775 -3.3647664 -2.788345 -3.324581
-3.0210495 -3.515714 0.5162245 -3.320893 -3.0240743 -3.1319401 -3.1964118 -3.145472
-2.9932725 -3.0477984 -3.4784362 -3.2259068 -3.0652242 -2.9466512 0.46227163 -3.002545
-3.1457396 0.4277975 -3.1699405 -3.0698926 0.526195 -3.355316 -3.2305894 -2.9513235
-2.8217618 -2.838462 -2.8867443 -3.0454233 0.4602346 -3.3008723 -2.719932 -2.6537519
-2.8345387 -3.2638624 0.5200891 -2.8483844 -2.779699 -2.7268558 -2.8441145 -3.181574
-3.0001528 -2.841282 -2.9318988 -2.8971517 -3.0822217 -2.9241142 0.5363047 -3.114506
-2.874354 0.5978221 -2.63333 -2.570393 0.5500324 -2.8499467 -2.5249655 -2.8992653
-2.960638 -2.7579715 -2.7845938 -2.425778 0.57025045 -2.9961472 -2.559308 -2.6299906
-2.4350297 -3.6312625 0.48548383 -2.5404835 -3.0660064 -2.998506 -2.799157 -2.8379743
-3.0152998 -2.8099844 -2.9077413 -2.7748015 -2.992369 -2.6989782 0.48443577 -2.609419
-2.4327655 0.5060258 -2.7467492 -2.536383 0.542994 -2.668125 -2.5845187 -2.6517563
-2.9358044 -2.943219 -3.355038 -3.4414613 0.39340788 -3.7616363 -3.239452 -3.2243311
-3.3804638 -3.836654 0.48804876 -3.178887 -3.2363615 -2.9157052 -3.5281436 -3.6015985
-3.4467933 -3.6054173 -3.3289235 -3.0420353 -3.244503 -3.4055257 0.44739616 -3.1530304
-3.3440762 0.5215307 -3.2197213 -2.9597194 0.4855567 -3.4499004 -3.1145935 -2.9005506
-2.8229275 -2.7043343 -3.049661 -3.0101728 0.48320144 -3.3080595 -2.7046597 -2.8149345
-2.5010753 -3.2885509 0.4976555 -3.1511018 -3.0061505 -3.0210435 -3.0424638 -3.3735678
-2.7803965 -3.408478 -3.2348523 -2.7233913 -2.6363223 -2.6878269 0.540464 -3.069258
-2.528231 0.45627075 -2.803885 -2.957184 0.51578754 -2.7879438 -2.9285166 -2.7305536
00000000: 4704 fcbf 5719 00c0 69b6 f0bf d3a2 eebf
00000010: b4e9 083f b2d4 0cc0 e448 c8bf e28c fcbf
00000020: 836f 07c0 8efa 12c0 e219 093f c923 09c0
00000030: 180a 04c0 d0e5 d6bf 5e88 dfbf 40d7 11c0
00000040: be1a f6bf 0f94 e3bf 4f0d 25c0 a182 debf
00000050: 3d38 0bc0 dbee 0ec0 885d 033f 2ce3 00c0
00000060: 9eea f5bf 5444 093f fa18 ffbf 68c3 02c0
00000070: db9a 053f 323d 13c0 59e0 e2bf 0684 debf
00000080: 86c4 42c0 c217 35c0 a0f2 4cc0 3696 48c0
00000090: cd55 f23e 2490 6bc0 f015 4cc0 6f63 3ec0
000000a0: 29cd 4ec0 f155 65c0 3275 fa3e b8ec 53c0
000000b0: d738 4ac0 ee56 44c0 de58 41c0 bfce 64c0
000000c0: 9aec 38c0 b086 4bc0 c131 6cc0 b5d2 40c0
000000d0: 8216 4ec0 a141 4fc0 1039 0d3f 7252 3fc0
000000e0: 9fb3 28c0 9502 f03e eb2c 2fc0 8c08 3dc0
000000f0: 6257 ec3e 8cd1 42c0 7d09 40c0 3de2 3bc0
00000100: 9c20 3cc0 a24c 21c0 c676 24c0 8b39 13c0
00000110: 5ea3 113f ff9d 36c0 fee1 ffbf 743f 1cc0
00000120: 304b 03c0 27d4 4ac0 69ee 083f 0d2d 10c0
00000130: bec0 2ac0 0aa7 23c0 4f6a 1fc0 6419 1ec0
00000140: f1a4 18c0 4d88 21c0 3376 22c0 782d 20c0
00000150: ed3b 0cc0 4224 0dc0 133f 003f 1af9 29c0
00000160: ae2c 1dc0 c036 fd3e fab3 1ac0 e67e 0dc0
00000170: 4d3e fc3e 0587 0dc0 6a65 12c0 e7ce f2bf
00000180: fe5b 4bc0 ed54 32c0 998a 4dc0 0c87 27c0
00000190: bc93 dd3e 5558 57c0 3f74 32c0 efc5 54c0
000001a0: e058 41c0 7501 61c0 4a27 043f 8389 54c0
000001b0: 6f8a 41c0 b571 48c0 0392 4cc0 6a4f 49c0
000001c0: c791 3fc0 210f 43c0 b39e 5ec0 4275 4ec0
000001d0: a22c 44c0 ef95 3cc0 deae ec3e b329 40c0
000001e0: cc53 49c0 4608 db3e 4ee0 4ac0 1f79 44c0
000001f0: b7b4 063f 7fbd 56c0 fac1 4ec0 7ce2 3cc0
00000200: bf97 34c0 5da9 35c0 6bc0 38c0 37e8 42c0
00000210: dfa3 eb3e 7e41 53c0 5e13 2ec0 12d7 29c0
00000220: 1569 35c0 1fe3 50c0 8f24 053f ee4b 36c0
00000230: 97e6 31c0 ce84 2ec0 f905 36c0 e99e 4bc0
00000240: 8102 40c0 90d7 35c0 3ba4 3bc0 ef6a 39c0
00000250: 1f43 45c0 b024 3bc0 444b 093f 1154 47c0
00000260: 6af5 37c0 df0a 193f 7b88 28c0 5281 24c0
00000270: ecce 0c3f 8765 36c0 0999 21c0 908d 39c0
00000280: 187b 3dc0 9b82 30c0 c936 32c0 f23f 1bc0
00000290: effb 113f e0c0 3fc0 b4cb 23c0 c451 28c0
000002a0: 87d7 1bc0 9b66 68c0 5691 f83e 4897 22c0
000002b0: 7339 44c0 86e7 3fc0 6325 33c0 5fa1 35c0
000002c0: acfa 40c0 c9d6 33c0 6f18 3ac0 5996 31c0
000002d0: f982 3fc0 0fbc 2cc0 f707 f83e b900 27c0
000002e0: 6eb2 1bc0 e88a 013f bdca 2fc0 1954 22c0
000002f0: a801 0b3f 8fc2 2ac0 c168 25c0 60b6 29c0
00000300: 38e4 3bc0 b35d 3cc0 f1b8 56c0 e740 5cc0
00000310: c26c c93e a6be 70c0 2e53 4fc0 715b 4ec0
00000320: 8559 58c0 bd8b 75c0 87e1 f93e e272 4bc0
00000330: 8c20 4fc0 ea9a 3ac0 1bcd 61c0 9780 66c0
00000340: 4398 5cc0 28bf 66c0 150d 55c0 b5b0 42c0
00000350: f0a5 4fc0 22f4 59c0 1c11 e53e 40cb 49c0
00000360: 5805 56c0 0983 053f ea0f 4ec0 0b6c 3dc0
00000370: e39a f83e 2bcb 5cc0 8055 47c0 9fa2 39c0
00000380: d8aa 34c0 d013 2dc0 a52d 43c0 aca6 40c0
00000390: 2e66 f73e 3fb7 53c0 2519 2dc0 e327 34c0
000003a0: 9e11 20c0 9e77 52c0 b4cc fe3e a7ab 49c0
000003b0: c564 40c0 c758 41c0 bab7 42c0 89e8 57c0
000003c0: 04f2 31c0 8124 5ac0 d207 4fc0 0b4c 2ec0
000003d0: 81b9 28c0 5b05 2cc0 d95b 0a3f b96e 44c0
000003e0: 89ce 21c0 529c e93e da72 33c0 8142 3dc0
000003f0: a70a 043f ac6d 32c0 d16c 3bc0 64c1 2ec0

l1.mu_bias f4 [16]
0.08608369 0.31362435 0.019865355 0.30948958 0.18096258 0.13374268 0.40858063 0.19024956
0.12105005 -0.20176508 0.016766854 -0.31163284 0.23101836 0.24484864 0.28931275 -0.27197665
00000000: a54c b03d 5f93 a03e abbc a23c 6b75 9e3e
00000010: 414e 393e d7f3 083e 7b31 d13e c8d0 423e
00000020: 17e9 f73d 819b 4ebe a45a 893c 578e 9fbe
00000030: 1490 6c3e 9ab9 7a3e cd20 943e 8640 8bbe

l1.rho_bias f4 [16]
0.08954401 -1.9460016 -0.891126 -1.7590137 -1.4718117 -1.4787892 -2.1279755 -1.4780511
-1.3304769 -1.5625281 0.12940386 -1.873539 -1.6734726 -1.79113 -1.8214769 -1.7282298
00000000: da62 b73d 9516 f9bf d520 64bf 5c27 e1bf
00000010: 5364 bcbf f748 bdbf c030 08c0 c730 bdbf
00000020: 114d aabf ec00 c8bf 7282 043e 20d0 efbf
00000030: 5a34 d6bf bf43 e5bf 2826 e9bf a236 ddbf

l2.mu_weight f4 [1, 16]
-0.048260096 0.70159936 0.21991134 0.6892835 0.4886636 0.44327843 0.8351465 0.5139619
0.39862847 -0.5271929 -0.004319244 -0.7087138 0.6166618 0.60143405 0.6654711 -0.64704025
00000000: 61ac 45bd 049c 333f 7030 613e e274 303f
00000010: 1e32 fa3e 64f5 e23e 29cc 553f 0293 033f
00000020: 0819 cc3e 1df6 06bf 7288 8dbb 456e 35bf
00000030: 8cdd 1d3f 95f7 193f 505c 2a3f 6ea4 25bf

l2.rho_weight f4 [1, 16]
-2.9526846 -4.8558717 -4.015654 -4.6776633 -4.4135723 -4.4433675 -4.771991 -4.562552
-4.377007 -4.5601635 -2.3056357 -4.6553736 -4.6716833 -4.6243935 -4.7164917 -4.641715
00000000: c9f8 3cc0 4d63 9bc0 3d80 80c0 6baf 95c0
00000010: fc3b 8dc0 1130 8ec0 26b4 98c0 6d00 92c0
00000020: 7110 8cc0 dcec 91c0 898f 13c0 d2f8 94c0
00000030: 6e7e 95c0 08fb 93c0 80ed 96c0 ee88 94c0
