BNN/model_states/BNN_model_state_FD001_noisy_NOCF.pt (torch, 57845 bytes, 14 tensors)

lstm.ih.mu_weight f4 [128, 14]
000000 75 50 64 3e ba 5d 35 3e 1d d0 a1 3d 7a 9d 0e be
       0.22296317 0.17711535 0.079010226 -0.1392726
000010 d3 03 4a 3d 45 b4 86 bd 0f 4d 01 bd 95 b9 a1 bd
       0.049320053 -0.065773524 -0.03156763 -0.07896725
000020 40 a2 17 be 32 8d f9 3d 50 d6 a6 3d 8d 72 4a bd
       -0.14807987 0.12185134 0.081463456 -0.04942565
000030 22 02 65 3d 42 62 9f 3a c8 bc 25 3d 33 db 4e 3e
       0.055910237 0.001216002 0.04046324 0.20200805
000040 09 e3 8c 3e 5a 07 f2 bd ba 07 f1 3d 2c 1a f9 bd
       0.27516964 -0.118178084 0.11769052 -0.12163195
000050 a6 c8 f4 3c ea cb ea 3c 4a 63 41 3e 5f ef 24 be
       0.029880833 0.028661687 0.18885532 -0.16106938
000060 e5 54 bf 3e 4c 33 8c 3e 7e 3d 66 3d 5d 4b b0 3d
       0.37369457 0.27382886 0.056210987 0.086081244
000070 93 7c 15 be 50 f4 06 be 74 f4 93 bd 14 87 12 3e
       -0.14598303 -0.13179135 -0.0722436 0.1430934
000080 55 d1 f4 bd f5 ab 1d be 7a c9 a2 3c e7 45 75 3e
       -0.119539894 -0.15397628 0.019871462 0.23952447
000090 e9 5c 31 3e a7 4d ea bd 21 db 00 3d 53 74 21 be
       0.17320599 -0.11440592 0.031458978 -0.1576703
0000a0 97 2b 3b be 6a 1e ba 3d 9b 64 43 be 2a c3 f9 bd
       -0.18278347 0.09087832 -0.19081347 -0.12195428
0000b0 a9 32 11 be aa 70 33 3e dd e8 81 be b8 c9 51 be
       -0.14179482 0.17523447 -0.25372973 -0.20487106
0000c0 6e 33 00 be 99 b1 51 3e d0 a5 8a 3d 08 ed 64 3d
       -0.12519619 0.20477904 0.067699075 0.055890113
0000d0 25 d7 f0 3c 89 64 df 3c ba ff aa bd 4c 69 aa 3d
       0.029399464 0.027269619 -0.08349557 0.08320865
0000e0 02 27 4c be 61 26 9a bd 41 74 39 be fc 9d a3 3e
       -0.19936755 -0.075268514 -0.18110754 0.3195647
0000f0 c5 c6 58 3d 6e a5 8b 3e f9 07 3b be bd 91 87 3e
       0.052923936 0.2727465 -0.1826476 0.26478377
000100 3e 41 2f 3e 66 9c b7 3d 34 11 26 3e 78 8c 74 3e
       0.17114732 0.089653775 0.162175 0.2388171
000110 04 87 79 3c 68 0b 00 3d 1d 96 a7 be b4 1d d1 bd
       0.015229944 0.031260878 -0.32731715 -0.102107435
000120 d8 28 16 be 25 1f 3b 3d 29 36 41 be 8d 03 85 3c
       -0.14664018 0.045684 -0.18868317 0.016237045
000130 78 bb 3c be b7 bb 0a 3e 87 00 67 be b5 2d 11 be
       -0.18430889 0.1354817 -0.22558795 -0.14177592
000140 68 f1 08 3d ae 00 11 be 9d d2 78 3e 05 1f 6b bc
       0.033433348 -0.14160416 0.24299093 -0.014350657
000150 d1 9f 10 3e 72 74 33 be db f4 2a bd 9d 86 93 3e
       0.14123465 -0.17524889 -0.04173742 0.2881364
000160 7b e2 45 3e 23 b4 ba bb 2d b1 1d be 3a b2 59 3e
       0.19324677 -0.0056977435 -0.15399618 0.21259394
000170 cc 4a 8b be cf fa 97 bc d4 c7 a5 bd bc 44 6b 3d
       -0.27205503 -0.018552212 -0.08094755 0.057438597
000180 75 df 9f be 21 9a 9d 3e 74 e8 9d 3d 8f 44 4c bd
       -0.31225172 0.30781654 0.077103525 -0.04987007
000190 3a 32 13 3e 51 54 8f 3d 3f 03 a7 3e 85 b3 b6 bd
       0.14374629 0.06998504 0.32619664 -0.089209594
0001a0 af 2b cc 3d 85 f5 8b 3d f8 c5 94 3e 00 2c 1b be
       0.099692695 0.068339385 0.29057288 -0.15153503
0001b0 09 4a 52 3e 9a 7b 23 3e 58 bf 7b 3d 4f e3 cb 3c
       0.20536055 0.15965119 0.061461776 0.024888663
0001c0 d3 ef ab be e4 b6 ee bd 26 c8 81 bd 57 60 1f be
       -0.3358141 -0.11655977 -0.063370034 -0.15564094
0001d0 34 af 64 bd 4a f2 a1 be 37 32 9a be 9d 64 bf 3e
       -0.05583115 -0.31630164 -0.30116436 0.3738145
0001e0 ab 1a 17 3e 24 79 a9 bd 18 ca a2 3a 7c 2b 93 be
       0.14756267 -0.08275059 0.0012419848 -0.28744113
0001f0 5a 88 8d 3e ee 81 88 3e 23 76 b7 bd 73 fd 8f be
       0.2764309 0.26661628 -0.0895808 -0.28123054
000200 37 ba 5c bd 3d 9a b3 3d 04 38 a5 be b3 8b 8b be
       -0.053888526 0.08769653 -0.322693 -0.2725502
000210 99 65 4f be 2a 55 1b 3e 48 e5 c7 bd a3 0e 6c be
       -0.202536 0.15169206 -0.09760529 -0.23052458
000220 f7 a3 ab bd 5f a9 57 be fd 24 a3 3c 06 97 74 3e
       -0.08380883 -0.21060704 0.019915098 0.23885736
000230 7a 46 ec 3d e2 bc 2a bb d0 d4 05 be 66 30 98 3e
       0.1153688 -0.0026052524 -0.13069463 0.29724425
000240 22 5d 14 3d e8 bb 45 3e e5 95 15 3e e8 05 70 3e
       0.03622163 0.19309962 0.14607961 0.23439753
000250 93 db 84 bd e5 af a7 bb f3 27 7b be f9 ff 5f 3e
       -0.06487193 -0.005117404 -0.24526958 0.2187499
000260 d0 98 4f bd 36 c5 41 3e 79 30 d5 be fb 3a 57 3a
       -0.050682843 0.18922886 -0.41638544 0.0008210388
000270 6c 76 00 bf 65 06 5f 3d 52 ae d6 be 13 14 a0 bc
       -0.501807 0.054449458 -0.4192987 -0.019540822
000280 21 2b de be 4f 44 c1 3e 75 32 e3 bd 2c 63 05 bd
       -0.4339228 0.37747428 -0.11093608 -0.03256528
000290 a0 b5 19 be 24 8c 75 be 9d 37 7b 3e 0e 3d 00 3e
       -0.1501069 -0.2397924 0.24532934 0.1252329
0002a0 41 7a 85 be 13 7a 4f 3d 3d 1d d7 bd 23 dd 6e 3d
       -0.26069835 0.05065353 -0.10503624 0.05831636
0002b0 d1 46 71 be 01 32 be 3d 77 63 8c bd 6f 1c b8 3e
       -0.2356217 0.09286881 -0.06854909 0.35959193
0002c0 b7 02 53 be 6b 67 01 bd 7a 96 84 be 47 75 7e bd
       -0.20606504 -0.031592768 -0.25896055 -0.062123563
0002d0 0c 32 cf 3d e4 98 e5 bc 7a 19 80 bd 2c f7 42 bc
       0.101169676 -0.028027005 -0.06254859 -0.011899751
0002e0 60 e4 72 bd 68 de e1 bd 9d 54 59 3c a5 cb a3 3c
       -0.059299827 -0.11028749 0.013264802 0.019994566
0002f0 12 97 5e 3e 6a 06 70 bd 2c 10 83 3e 45 3a ee 3d
       0.21737316 -0.058599867 0.25598276 0.11632208
000300 15 8a 4c 3e a0 fe 3d be 2d bb 39 be fa fc 0a 3d
       0.19974549 -0.18554163 -0.18137808 0.033932664
000310 94 4a 65 be 26 b1 c7 bd 13 8b b4 bc b2 30 a3 3e
       -0.2239173 -0.09750585 -0.022038972 0.3187309
000320 d4 cd e0 3d a8 cf a9 3d 84 7c 0a be 23 3d 6c bd
       0.109767586 0.082915604 -0.13524061 -0.057675492
000330 bc cb 8a 3d ad 51 f2 ba be 28 1f 3b b5 e8 96 3d
       0.067771405 -0.0018487476 0.002428576 0.07368604
000340 46 aa f8 bd 25 ba 0a be 56 58 d7 be 36 10 1e be
       -0.12141852 -0.13547571 -0.42059582 -0.15435871
000350 76 4c b4 be 3d fa 23 bc f5 1e cd be f1 d4 d2 be
       -0.35214585 -0.010008392 -0.4006268 -0.41178086
000360 36 30 7d be 61 da 8e bc 85 e4 a3 be 37 cf f5 bd
       -0.24725422 -0.017438116 -0.32010284 -0.12002414
000370 dc 51 70 be 2e 4e 3c be 15 3b 19 3e 96 85 6b be
       -0.23468727 -0.18389198 0.14963944 -0.23000178
000380 7d 8f 6c be a6 4b de 3d 24 15 a6 bd 98 20 9b 3d
       -0.23101611 0.108542725 -0.08109501 0.07574576
000390 15 59 97 be 27 78 16 be ea e4 72 be 75 ab ae 3e
       -0.29560152 -0.14694272 -0.23720136 0.34115186
0003a0 f4 3f 44 be d4 02 86 be e5 95 c6 be b1 6f 1a bd
       -0.19165021 -0.26174033 -0.38786235 -0.037704173
0003b0 91 e1 01 3e a2 99 ed 3d 7c 72 73 3d 75 05 83 3d
       0.12683703 0.11601569 0.059435353 0.06397525
0003c0 ff 48 e1 bc e3 60 cd bb 5a a9 1f bd 24 72 3a 3e
       -0.027500628 -0.0062676533 -0.038979866 0.18207604
0003d0 5e 7a 82 bd 91 e8 11 3d 52 ff a6 bd e7 22 22 3e
       -0.06370996 0.035622183 -0.08154167 0.15833627
0003e0 fb 63 9c 3e 60 38 e0 3d c4 fd 71 3e cc 8e cb 3b
       0.3054503 0.10948253 0.2363196 0.006212091
0003f0 25 62 9c bd ca 3c e7 3c 05 d4 20 be 10 6c 9d 3e
       -0.07635907 0.028227229 -0.15705879 0.30746508

lstm.ih.rho_weight f4 [128, 14]
000000 82 ee 37 c0 28 45 31 c0 97 09 31 c0 67 ef 37 c0
       -2.8739324 -2.769846 -2.7662103 -2.873987
000010 77 c8 3e c0 99 39 33 c0 07 19 33 c0 f8 c6 3e c0
       -2.9809854 -2.8003905 -2.7984025 -2.980894
000020 69 82 3f c0 5f f1 31 c0 98 0c 3d c0 be 5a 36 c0
       -2.9923346 -2.7803571 -2.9538937 -2.8492885
000030 f6 be 38 c0 13 18 3a c0 e6 9e 24 c0 ea 90 39 c0
       -2.8866553 -2.9077194 -2.5721984 -2.8994699
000040 14 35 40 c0 6b 1e 33 c0 10 47 2c c0 35 ba 2c c0
       -3.0032396 -2.7987316 -2.6918373 -2.6988652
000050 9b 90 2f c0 fb 0a 2d c0 1b 68 3e c0 3d 24 3a c0
       -2.743201 -2.7037952 -2.975104 -2.9084618
000060 3e e1 2c c0 98 30 36 c0 21 89 35 c0 03 76 27 c0
       -2.7012477 -2.846716 -2.8364947 -2.6165779
000070 36 50 33 c0 42 ef 47 c0 a1 4a 3c c0 0d cb 4a c0
       -2.8017707 -3.1239781 -2.942055 -3.1686432
000080 9c e2 43 c0 a6 72 34 c0 f3 dc 3a c0 74 54 3e c0
       -3.0607061 -2.8194976 -2.9197357 -2.9739046
000090 aa 93 45 c0 3d d6 3c c0 3e 94 35 c0 3f 3c 39 c0
       -3.0871377 -2.950576 -2.837173 -2.8943021
0000a0 53 49 31 c0 25 2b 2c c0 95 08 46 c0 8c 2f 3f c0
       -2.7701004 -2.6901333 -3.0942738 -2.987277
0000b0 69 5c 3f c0 9b 5f 47 c0 1f 34 40 c0 01 ee 37 c0
       -2.9900153 -3.1152103 -3.0031812 -2.8739016
0000c0 fd 86 38 c0 04 11 27 c0 4f 23 40 c0 c4 e5 37 c0
       -2.883239 -2.6104136 -3.002155 -2.8733988
0000d0 10 13 3c c0 8a 28 34 c0 28 32 43 c0 1b fe 32 c0
       -2.9386635 -2.8149743 -3.0499363 -2.7967594
0000e0 54 f6 45 c0 92 88 35 c0 7c eb 49 c0 bd 00 3c c0
       -3.0931597 -2.8364606 -3.1549978 -2.937545
0000f0 8f 9a 3d c0 25 5c 3c c0 ae 23 43 c0 b0 20 45 c0
       -2.9625585 -2.943124 -3.0490527 -3.08012
000100 f7 89 36 c0 e4 f6 3b c0 a0 6f 42 c0 4e da 3f c0
       -2.8521707 -2.936944 -3.038063 -2.9976993
000110 46 77 3a c0 6f 14 3c c0 e4 50 3d c0 c5 4a 33 c0
       -2.9135299 -2.9387472 -2.9580622 -2.8014386
000120 60 f0 39 c0 8c f6 39 c0 b1 26 36 c0 b3 4a 42 c0
       -2.9052963 -2.905673 -2.8461115 -3.0358093
000130 cb 94 35 c0 0b 8a 3f c0 7b 7f 48 c0 9e ea 41 c0
       -2.8372066 -2.9928005 -3.1327808 -3.029945
000140 1c ac 37 c0 ce 2d 38 c0 48 db 3f c0 c0 7e 43 c0
       -2.8698797 -2.8777957 -2.9977589 -3.0546112
000150 d9 5a 39 c0 2b 60 3b c0 34 0c 44 c0 ae 9d 3f c0
       -2.89617 -2.9277446 -3.0632448 -2.993999
000160 d3 de 34 c0 56 df 33 c0 c4 41 35 c0 d5 dd 37 c0
       -2.8261 -2.8105063 -2.832139 -2.8729146
000170 ca 0d 3c c0 8c 5d 38 c0 02 d9 33 c0 d8 8e 32 c0
       -2.9383416 -2.8807096 -2.81012 -2.7899685
000180 fe 8b 38 c0 f2 5c 3e c0 97 90 2b c0 95 72 38 c0
       -2.8835444 -2.974423 -2.6807 -2.8819935
000190 35 8b 37 c0 ef ff 30 c0 75 dc 3e c0 dd 6e 3f c0
       -2.8678715 -2.765621 -2.9822056 -2.9911416
0001a0 a1 77 3e c0 63 7f 39 c0 eb 80 40 c0 cc e0 25 c0
       -2.9760516 -2.8984 -3.0078685 -2.5918455
0001b0 de 87 40 c0 72 4f 34 c0 f2 0f 39 c0 5b 47 43 c0
       -3.0082927 -2.817349 -2.8915982 -3.0512302
0001c0 cd 1f 34 c0 a2 c1 30 c0 d3 d3 35 c0 e0 cc 40 c0
       -2.814441 -2.7618184 -2.8410537 -3.0125046
0001d0 d1 42 3c c0 4b 29 3f c0 c8 c0 38 c0 df 80 3d c0
       -2.9415781 -2.9868953 -2.8867664 -2.9609907
0001e0 0e f3 46 c0 77 61 33 c0 d8 f2 30 c0 cb 7c 37 c0
       -3.108585 -2.8028238 -2.764822 -2.8669918
0001f0 5e e8 35 c0 46 a5 36 c0 e5 c9 37 c0 ef 8c 35 c0
       -2.8423076 -2.8538375 -2.8716977 -2.836727
000200 3e fb 32 c0 66 3b 31 c0 1c 22 30 c0 78 33 3e c0
       -2.7965846 -2.7692504 -2.7520819 -2.9718914
000210 e1 0c 2b c0 ef 07 35 c0 6c 5e 2f c0 a2 67 2d c0
       -2.672661 -2.8286092 -2.740138 -2.7094502
000220 44 bd 36 c0 ea b6 3d c0 ac c0 2c c0 34 d8 33 c0
       -2.8553019 -2.9642892 -2.6992598 -2.810071
000230 0e 66 37 c0 66 77 3e c0 1a 0a 33 c0 fe 04 2f c0
       -2.865604 -2.9760375 -2.7974916 -2.7346797
000240 81 4d 51 c0 19 da 2f c0 2b f2 2f c0 3d 1b 34 c0
       -3.2703555 -2.7476866 -2.7491558 -2.8141625
000250 f3 44 2e c0 c0 0a 35 c0 0e 92 2d c0 e3 8d 42 c0
       -2.7229583 -2.8287811 -2.7120395 -3.03991
000260 88 48 38 c0 ce 6b 37 c0 ee c1 38 c0 0b af 3a c0
       -2.879427 -2.8659549 -2.8868365 -2.9169338
000270 d1 65 42 c0 e5 1a 37 c0 f6 c2 33 c0 37 52 34 c0
       -3.0374644 -2.8610165 -2.8087745 -2.817518
000280 ae b0 41 c0 ff 38 3d c0 54 6f 46 c0 47 1e 47 c0
       -3.0264087 -2.9566038 -3.100545 -3.111223
000290 a9 9c 3f c0 8b 4b 31 c0 42 5a 3c c0 bc 2a 32 c0
       -2.9939368 -2.7702358 -2.943009 -2.7838583
0002a0 29 81 36 c0 40 01 39 c0 89 f9 37 c0 38 2f 36 c0
       -2.8516333 -2.8907013 -2.8746054 -2.846632
0002b0 27 a7 32 c0 24 76 38 c0 fd d1 32 c0 f6 43 41 c0
       -2.7914522 -2.8822107 -2.7940667 -3.019773
0002c0 8b d1 2e c0 30 69 3a c0 71 e5 3b c0 45 ea 32 c0
       -2.7315395 -2.9126701 -2.935879 -2.7955487
0002d0 07 79 3a c0 d6 6b 39 c0 34 dd 3f c0 73 e0 3b c0
       -2.913637 -2.8972068 -2.9978762 -2.9355743
0002e0 9c bc 30 c0 af d5 34 c0 a4 b6 41 c0 aa b4 42 c0
       -2.7615118 -2.8255422 -3.0267725 -3.0422769
0002f0 15 a0 3d c0 e0 39 3f c0 83 7e 3c c0 15 96 47 c0
       -2.9628956 -2.9879074 -2.9452217 -3.1185353
000300 49 68 31 c0 e0 a9 3a c0 4e 50 37 c0 d9 50 31 c0
       -2.77199 -2.9166183 -2.8642764 -2.7705595
000310 12 0e 3f c0 9c c0 38 c0 bc dc 38 c0 4a 25 48 c0
       -2.9852338 -2.886756 -2.8884726 -3.127276
000320 b1 b0 3c c0 7a 66 37 c0 68 ef 36 c0 97 99 3c c0
       -2.9482844 -2.8656297 -2.8583622 -2.9468744
000330 77 fe 2a c0 a6 d4 41 c0 61 50 3a c0 8b 8f 3a c0
       -2.6717813 -3.028604 -2.911156 -2.9150112
000340 00 46 46 c0 1d 60 39 c0 06 f9 3f c0 db 68 36 c0
       -3.0980225 -2.8964913 -2.9995742 -2.8501499
000350 79 d0 36 c0 05 aa 38 c0 2c 25 3a c0 0b 3a 2d c0
       -2.8564742 -2.8853772 -2.9085188 -2.7066677
000360 90 7a 40 c0 aa d4 2f c0 00 4f 42 c0 d3 cb 2e c0
       -3.0074806 -2.747355 -3.0360718 -2.7311904
000370 2a 05 30 c0 3d 06 32 c0 8a 80 2f c0 d8 0f 3f c0
       -2.7503152 -2.7816308 -2.7422204 -2.985342
000380 08 8d 3b c0 d5 99 40 c0 7a a4 3a c0 f4 b0 3a c0
       -2.9304829 -3.0093892 -2.9162889 -2.9170504
000390 c0 5e 38 c0 bc 83 43 c0 28 1c 35 c0 21 65 36 c0
       -2.880783 -3.0549154 -2.8298435 -2.8499224
0003a0 f9 84 4a c0 d5 21 3c c0 bf 48 37 c0 8c c6 33 c0
       -3.164366 -2.939565 -2.863815 -2.8089933
0003b0 c5 1b 3d c0 5b ad 3b c0 30 3b 43 c0 5e ad 34 c0
       -2.95482 -2.9324558 -3.0504875 -2.8230815
0003c0 38 5e 34 c0 99 ac 32 c0 49 21 31 c0 30 b7 36 c0
       -2.8182507 -2.7917845 -2.7676566 -2.8549309
0003d0 f2 18 39 c0 16 34 36 c0 30 20 3b c0 07 3a 30 c0
       -2.8921475 -2.846929 -2.9238396 -2.7535417
0003e0 73 1a 39 c0 aa e6 2d c0 4e b1 2c c0 83 f6 37 c0
       -2.8922393 -2.7172036 -2.6983218 -2.874421
0003f0 b8 6b 3c c0 7e 67 38 c0 52 1f 3e c0 45 bd 3a c0
       -2.9440746 -2.8813167 -2.9706616 -2.917802

lstm.ih.mu_bias f4 [128]
000000 79 48 fe 3d 74 41 a8 3d 74 5b 9e bd 0a 76 31 3d
       0.12416167 0.08215609 -0.07732287 0.04332546
000010 c5 c4 e3 3c b6 c5 82 3e 89 da d7 3d 49 3e 63 ba
       0.027803788 0.25541466 0.10539729 -0.0008668644
000020 3f ba 45 3d 73 f2 00 bc ed 9a 6d 3c c7 21 a6 3d
       0.04827332 -0.007870304 0.014502269 0.08111911
000030 04 b4 9f 3e 55 a6 89 bd fa 31 09 3e d3 d8 22 3d
       0.3119203 -0.067211784 0.13397971 0.03975756
000040 13 a9 34 be 3d 2b b0 3d 83 f2 33 3d 4e 78 2f 3e
       -0.17642622 0.08601997 0.04393245 0.17135736
000050 14 db 82 bc 4e 10 a6 3e bf 00 8d be ee 25 88 3e
       -0.015973605 0.32434314 -0.27539632 0.26591438
000060 88 e6 d3 bc 72 fd cf 3c 96 3c 55 3e 4f 3e 59 3d
       -0.025866762 0.025389407 0.20823893 0.053037938
000070 7b 1a 9e 3d 82 fa 28 be e1 c7 54 3e b2 95 30 be
       0.077198945 -0.16501811 0.20779373 -0.17244604
000080 4f d3 86 3e 56 ed a2 3d 1f da 87 b9 61 b9 21 3e
       0.2633309 0.079554245 -0.0002591172 0.15793373
000090 6d 52 a1 3d 9f 6d af 3d e6 b0 41 3d ff b7 19 3e
       0.078770496 0.085658304 0.047287844 0.15011595
0000a0 31 0c 14 bd ed 2b 46 bd d9 17 a8 3d b2 9a 1e 3e
       -0.03614444 -0.048381735 0.082076736 0.15488699
0000b0 de 74 c5 3d 74 55 4a bd 05 f8 89 bd 8f 23 77 3e
       0.09641431 -0.0493979 -0.06736759 0.24134658
0000c0 70 68 39 bd 45 42 fa 3d 0b a9 62 3e a5 19 0b 3d
       -0.045265615 0.12219671 0.22134797 0.033960003
0000d0 e0 c4 17 be d4 03 5e 3d e5 15 c1 bc 23 47 32 3e
       -0.14821196 0.05420287 -0.02357001 0.17409949
0000e0 ca 8a 94 bd 6f 23 fb 3d 23 ae fc 3d 95 9a 16 3e
       -0.072530344 0.12262618 0.123379014 0.14707406
0000f0 74 23 9e 3d 59 41 88 bd aa 23 8c 3e 3b ae 31 be
       0.07721606 -0.06653089 0.2737096 -0.1735162
000100 e5 1a a8 be 87 0a c2 3c f8 aa 08 3e 29 16 32 be
       -0.3283302 0.02368666 0.1334647 -0.17391266
000110 51 d0 cd 3d b0 b7 a6 3d b9 f0 34 3e 6b 1b 16 be
       0.10049499 0.08140504 0.17669953 -0.14658897
000120 b5 17 06 be 26 d5 69 3d 84 fd 9b bd 13 06 9a 3d
       -0.13094981 0.05708804 -0.07616714 0.0752069
000130 b0 df 31 be 64 2e a7 3d b5 2a 8e 3d ff 80 5c 3c
       -0.17370486 0.08163145 0.069417395 0.013458489
000140 3c b6 c3 3c 24 ff a6 bd d6 23 21 be 0d 65 85 bc
       0.023890607 -0.08154133 -0.15736327 -0.016283536
000150 7b 15 48 be f2 d6 e0 3c 2a 82 7b bb db cf e7 3d
       -0.19539444 0.027446244 -0.0038377144 0.11318942
000160 6e 82 70 bd 15 02 86 3d 9c 53 08 bc 16 b4 4e 3c
       -0.058718137 0.06543366 -0.008320715 0.012616178
000170 1d dd d9 bd 89 b8 1c 3e 4d ec 90 bc 6e 0f 89 3d
       -0.10637877 0.1530477 -0.017690802 0.06692396
000180 6a 16 00 3e 6e de 68 3e 8a 3c 01 bd e8 c3 39 3d
       0.1250855 0.227411 -0.031551875 0.045352846
000190 51 4e 30 3e 63 7e 88 3e c3 6a f0 3a 3b 37 b7 3e
       0.17217375 0.26658925 0.0018342364 0.35784325
0001a0 0b d5 a4 3e 07 08 85 3e d6 3d be 3d 0a 45 82 bd
       0.3219379 0.25982687 0.09289138 -0.063608244
0001b0 7b 5c 8e 3e 5e 9b 37 3e 6b ee 7d 3d fd d4 28 3e
       0.27804932 0.17930362 0.06199495 0.16487499
0001c0 22 41 40 3e 8d c7 89 3e c7 76 8c 3d 08 db 52 3e
       0.18774846 0.26910058 0.068585925 0.20591366
0001d0 d1 72 0e 3e 08 fa c5 3e ac 52 ef 39 5a fd 90 3e
       0.13910986 0.3866732 0.00045647228 0.28318292
0001e0 71 72 8a 3d 59 b2 e5 3e c0 ed 36 3c 6e ba 26 3e
       0.06760109 0.4486263 0.011165082 0.16282055
0001f0 e5 55 61 3e f8 26 89 3e 21 1f b3 3d 11 9a b9 3d
       0.22005422 0.26787543 0.08746172 0.09062589

lstm.ih.rho_bias f4 [128]
000000 11 94 2b c0 2b 12 14 c0 2e db 24 c0 de d3 2e c0
       -2.6809123 -2.313609 -2.5758777 -2.7316813
000010 7c 55 3d c0 5a 24 2b c0 14 9d 36 c0 1c cb 30 c0
       -2.9583426 -2.6740937 -2.8533373 -2.7623968
000020 9f 19 33 c0 71 46 18 c0 bd b5 2a c0 12 05 31 c0
       -2.7984388 -2.3792994 -2.6673424 -2.7659345
000030 c5 cd 22 c0 2c 37 2f c0 c0 68 3a c0 c5 ce 3c c0
       -2.5438092 -2.7377424 -2.9126434 -2.9501202
000040 ec fd 34 c0 a4 f7 29 c0 13 a9 22 c0 a2 a3 2a c0
       -2.8279982 -2.6557398 -2.5415695 -2.6662374
000050 07 7d 34 c0 2c 86 1b c0 15 9b 31 c0 9f d4 29 c0
       -2.820131 -2.4300642 -2.7750905 -2.6536024
000060 7e e8 33 c0 1d 71 28 c0 cd 7e 31 c0 81 9e 2a c0
       -2.8110652 -2.631904 -2.7733643 -2.6659243
000070 27 73 31 c0 08 68 31 c0 e3 e9 1d c0 55 c4 32 c0
       -2.7726533 -2.7719746 -2.4674003 -2.7932332
000080 96 84 21 c0 42 c2 0d c0 69 4e 33 c0 86 9a 3a c0
       -2.5237174 -2.2149816 -2.8016608 -2.9156814
000090 f3 83 35 c0 27 2b 30 c0 80 a4 39 c0 9b 00 2f c0
       -2.8361785 -2.7526338 -2.9006653 -2.734412
0000a0 f7 12 25 c0 ec 42 2b c0 09 da 32 c0 f0 01 39 c0
       -2.5792825 -2.6759596 -2.7945578 -2.8907433
0000b0 78 b4 2d c0 b9 08 27 c0 17 4b 45 c0 42 66 2f c0
       -2.71414 -2.6099074 -3.0827081 -2.7406163
0000c0 40 9d 2b c0 f1 76 21 c0 2e f3 24 c0 83 69 2b c0
       -2.6814728 -2.5228846 -2.5773425 -2.678315
0000d0 84 d0 3f c0 67 05 2f c0 18 52 31 c0 f1 c5 1b c0
       -2.9971018 -2.7347047 -2.7706356 -2.4339564
0000e0 19 3f 39 c0 36 7f 2f c0 9d 39 1b c0 4c 66 2f c0
       -2.8944762 -2.7421393 -2.4253914 -2.7406187
0000f0 e9 e4 28 c0 7f 29 41 c0 d8 6a 22 c0 ba f6 30 c0
       -2.6389716 -3.0181577 -2.5377712 -2.765059
000100 e5 01 37 c0 d0 df 40 c0 bd 57 42 c0 5c ab 3f c0
       -2.8594906 -3.0136604 -3.0366051 -2.994834
000110 b5 f3 39 c0 c5 c4 30 c0 89 58 3a c0 a5 b1 38 c0
       -2.9054997 -2.7620099 -2.9116538 -2.8858426
000120 fd 75 4a c0 78 4f 34 c0 35 1d 30 c0 ed 47 3c c0
       -3.1634514 -2.8173504 -2.7517827 -2.94189
000130 46 87 35 c0 d1 dc 3a c0 75 6a 44 c0 ab 20 33 c0
       -2.8363814 -2.9197276 -3.0689976 -2.798869
000140 d8 27 2f c0 47 75 3b c0 a6 60 3e c0 69 79 3a c0
       -2.7368069 -2.929033 -2.974649 -2.9136603
000150 b0 af 36 c0 65 e3 3d c0 7d bb 32 c0 f4 65 35 c0
       -2.854473 -2.967004 -2.7926934 -2.8343477
000160 0f e8 3e c0 f0 3d 34 c0 3d 49 38 c0 99 64 3d c0
       -2.9829137 -2.8162804 -2.87947 -2.959265
000170 a8 99 48 c0 4c 35 42 c0 ee 4b 36 c0 f6 74 2c c0
       -3.1343784 -3.034503 -2.8483844 -2.6946387
000180 8a fd 2d c0 ef 9d 2b c0 72 b7 34 c0 72 87 34 c0
       -2.7185998 -2.6815145 -2.8236966 -2.820767
000190 79 79 2d c0 9c 7a 24 c0 00 ee 19 c0 69 cd 3a c0
       -2.710539 -2.5699835 -2.4051514 -2.9187872
0001a0 38 c9 31 c0 7b ca 2f c0 5c 69 10 c0 a4 a5 2b c0
       -2.7779064 -2.7467334 -2.2564306 -2.681985
0001b0 48 43 21 c0 c3 6f 2c c0 70 46 36 c0 2e 00 0c c0
       -2.5197315 -2.6943214 -2.8480492 -2.187511
0001c0 d0 da 1c c0 5e 05 33 c0 56 90 2e c0 03 90 2e c0
       -2.4508553 -2.7972026 -2.7275596 -2.7275398
0001d0 49 25 23 c0 51 a9 23 c0 54 55 37 c0 68 a2 35 c0
       -2.5491507 -2.5572093 -2.864583 -2.8380375
0001e0 5d 9a 1c c0 63 63 2c c0 d4 68 31 c0 2e 52 2d c0
       -2.4469216 -2.693566 -2.7720232 -2.7081409
0001f0 e4 4a 18 c0 4e d8 32 c0 44 67 3a c0 c1 13 1d c0
       -2.379571 -2.7944522 -2.9125528 -2.4543307

lstm.hh.mu_weight f4 [128, 32]
000000 82 95 84 be ca 4b 3e be 91 67 71 3e 09 77 72 bd
       -0.25895315 -0.18583599 0.23574664 -0.059195552
000010 e2 3b 48 3d 75 8f 50 3e ed 83 ef bd 8e 8e 85 be
       0.048885234 0.20367225 -0.11695085 -0.26085323
000020 45 b5 c1 bd d9 00 53 3e 80 91 ae be 29 05 fb 3d
       -0.094584025 0.20605792 -0.34095383 0.122568436
000030 b1 3d 4a be 42 f1 0c 3d 7e 7a 2d 3e 9a 1a 58 bb
       -0.19750096 0.03440977 0.16941258 -0.003297484
000040 19 f9 4d be f8 02 87 be c7 13 b1 be 95 16 da bd
       -0.20114554 -0.26369452 -0.345854 -0.106488384
000050 9c 72 e0 bd 26 74 49 be 9d 6a 19 3e 84 9c c7 3e
       -0.1095936 -0.19673213 0.14982076 0.389866
000060 4e ac eb 3d 91 61 1f bd 97 e8 35 3e fd 63 0c 3e
       0.11507474 -0.038911406 0.17764507 0.13710018
000070 70 16 6d bc 55 5d 92 3c 97 59 00 be bc 87 af 3e
       -0.014470682 0.01786677 -0.12534176 0.34283245
000080 ca de 2d be 3f 2e 60 3d 5e 64 1c 3e fc 49 75 bd
       -0.16979519 0.054731604 0.15272662 -0.05988501
000090 d7 38 83 3e 9a 3b e2 bc a1 6e 40 3c 1b 34 35 be
       0.25629303 -0.02761631 0.011745126 -0.17695658
0000a0 73 b9 0a be a2 f3 4f 3d 38 6f 18 be 29 2f cd 3d
       -0.13547306 0.050769456 -0.14886177 0.10018761
0000b0 58 5b 24 be 66 b6 bf 3e 35 28 b7 3e 30 38 17 3c
       -0.1605047 0.37443846 0.35772863 0.009229705
0000c0 e2 40 da 3d e7 2d 56 be 73 71 60 be 2f 71 12 bd
       0.10656907 -0.20915948 -0.21918277 -0.03575247
0000d0 f4 13 48 be 74 cb f6 3c ef 3c 71 be b6 85 a5 3e
       -0.19538862 0.03012631 -0.235584 0.32328576
0000e0 f2 f8 53 3e 96 52 9e 3c 23 6a 84 3e 7d 20 82 3e
       0.20700434 0.01932649 0.25862226 0.25415412
0000f0 dd 99 8a be 30 ee 2e 3e 91 4a 2b be b1 75 ef 3d
       -0.27070513 0.17083049 -0.16727664 0.1169237
000100 b7 63 8b bd 1d c0 cc bd 35 c7 8a 3d 63 eb 04 bd
       -0.068061285 -0.0999758 0.06776277 -0.032451045
000110 09 7f ee 3d 5e d0 2a 3e bb 5e 11 3e 56 e8 0b be
       0.11645324 0.16681048 0.14196293 -0.13662848
000120 3e 50 7d bd 95 28 93 bd 96 d0 8e bd 12 11 e3 3d
       -0.061844103 -0.07185475 -0.06973378 0.1108724
000130 94 ab 20 be 05 27 96 3d d8 2e 44 3e 89 9b f8 bd
       -0.15690452 0.07331661 0.19158494 -0.12139041
000140 86 e0 8a bd 11 2b 55 bd 4c 2c 85 be bb 95 12 3e
       -0.06781106 -0.052043024 -0.26010358 0.1431493
000150 4d d3 dc 3c aa 8d 2c bc a7 e4 03 3c 48 5d 46 3d
       0.026956225 -0.010531822 0.00805012 0.048428804
000160 10 34 c6 3d 03 10 7e 3e 85 9d 86 3d 02 19 14 bb
       0.09677899 0.24810795 0.06573013 -0.0022597914
000170 f3 5b b5 3e d6 c0 61 be 84 47 cd bd bb af 05 be
       0.35421714 -0.22046217 -0.10023406 -0.13055317
000180 f1 f2 bd 3d 59 09 94 bd 7f 7c 88 bd e3 e0 b5 3c
       0.09274853 -0.072283454 -0.06664371 0.02220196
000190 c1 b4 09 bd 16 a1 10 bd cf 13 36 3e d1 3d aa bd
       -0.033619646 -0.035309874 0.17780994 -0.08312572
0001a0 85 e2 a3 bd 80 a7 ea 3c b8 40 fb bd a0 f8 60 3d
       -0.080021895 0.028644323 -0.122682035 0.054924607
0001b0 61 fd 0c be 4c 1f 81 3e 90 bd 2c be 34 c1 80 3d
       -0.13768531 0.2521919 -0.16869187 0.062868506
0001c0 19 e6 23 be e9 66 25 3d 3b c8 c2 be fd 52 ad bc
       -0.16005744 0.040381346 -0.3804339 -0.021157736
0001d0 48 0b f1 bc dc 61 34 3e 5c 7f 77 3d ba 28 0d 3d
       -0.029424325 0.17615455 0.060424194 0.034462668
0001e0 6e 28 87 bb 65 a6 82 3e 5a f1 7c 3d a0 5d 00 3e
       -0.0041246926 0.25517574 0.06175361 0.12535715
0001f0 b3 37 49 3d 88 c3 9b bd 40 ea 12 be 0e 94 9a bd
       0.049125385 -0.07605654 -0.14347172 -0.075477704
000200 0a 0e 14 3d 5d 91 37 3c 7a ee c1 b9 b6 61 02 3d
       0.0361462 0.011204091 -0.00036989507 0.031831466
000210 45 7b e7 3d e6 d8 52 bd c0 01 46 3d 9b 0f e1 bd
       0.11302809 -0.05147638 0.048341513 -0.10989305
000220 9a 68 f6 3a 9e 58 6e bd 15 0c 1c be b3 75 21 be
       0.0018799484 -0.05818998 -0.15238984 -0.15767555
000230 74 55 94 bd 76 37 ac bd 97 19 04 bd 82 3c ed bb
       -0.072428614 -0.08409016 -0.032250967 -0.007239879
000240 eb 93 42 3d 95 95 ec bd 4b 58 b7 bd 0f 80 66 bc
       0.047504347 -0.11551968 -0.089523874 -0.0140686175
000250 ee 75 97 bd f6 21 83 bc f6 e0 01 3e 45 2e 3b bd
       -0.0739554 -0.016007405 0.12683472 -0.045698423
000260 45 34 76 bb 99 c4 89 3e 07 d6 0d be 40 b8 25 3d
       -0.0037567776 0.26907805 -0.13851176 0.040458918
000270 6a b4 2b bd 60 57 fb bd cd 34 66 3d 9d 82 38 3e
       -0.041920103 -0.12272525 0.0562027 0.18018575
000280 0c 2c 9e be 5d 32 9b 3d ec 77 f8 3c bc 4a 29 bc
       -0.3089298 0.075779654 0.03033062 -0.0103327595
000290 d4 f7 ce 3d 22 bb a0 3c 4c 9e 1d 3e b9 e7 2b be
       0.10105863 0.019620482 0.15392417 -0.16787614
0002a0 e5 cf 4e be 4c 41 18 3e dd b1 9b bb b4 be d0 bc
       -0.20196493 0.14868659 -0.0047514276 -0.02548156
0002b0 cc e7 7a bd 1b 94 4c 3e 09 68 c4 bd c0 8b 47 bc
       -0.061256215 0.19978373 -0.09590156 -0.012179315
0002c0 fe f9 c3 3d 21 39 39 bd a5 cf 5f be 61 1d 08 be
       0.095691666 -0.045220498 -0.21856554 -0.13292457
0002d0 dc e2 e4 bd 6b c1 d8 bd 06 1e 2a 3e e3 a1 16 bd
       -0.111760825 -0.105837665 0.16613016 -0.03677548
0002e0 57 14 f1 3d 35 93 aa 3d 13 c3 a2 bd 7e a7 61 3d
       0.11771458 0.08328859 -0.07947364 0.055091374
0002f0 ca 02 bb 3d 4e 20 d1 be 28 f5 67 bd 8a af 32 bd
       0.09131391 -0.4084496 -0.056630284 -0.04362444
000300 e1 c4 0a be 21 83 0c 3d 02 cc fb bd 07 da a8 3d
       -0.13551666 0.03430474 -0.12294771 0.082447104
000310 55 e7 4f 3d c0 26 4f bd 20 4c 55 be 78 c4 f0 3d
       0.050757725 -0.050574064 -0.2082982 0.117562234
000320 a5 4b 0f be c2 79 ac bb 54 26 e8 3c de b9 13 be
       -0.139937 -0.005263538 0.028338589 -0.14426371
000330 99 58 37 be 87 09 12 be af e3 20 3e 9a f4 ff bd
       -0.17904891 -0.14261447 0.15711854 -0.12497826
000340 3b 06 da bd 98 74 12 3e ac 58 90 bd 96 4f 26 3e
       -0.106457196 0.1430229 -0.07048163 0.16241297
000350 0f 1c 48 bc 11 ed 96 3e 94 53 27 3e 4f 28 39 be
       -0.012213721 0.29477742 0.16340476 -0.18081783
000360 cf aa 01 bd 3a d7 fb 3c e5 1e 80 bc d6 0c 3d be
       -0.031657036 0.030742276 -0.015639732 -0.18461928
000370 d0 69 b2 bd 42 62 ad bd c6 ac 03 bd 4a 19 9b bd
       -0.087115884 -0.08466007 -0.03214719 -0.07573183
000380 bc d9 23 3d 92 cf 66 bc b2 08 8e bc 62 45 8c bd
       0.04000257 -0.014087575 -0.01733813 -0.06849171
000390 bb 23 23 bd aa 9f c9 3d 44 0c 0c 3c 4c 57 d1 bc
       -0.039828997 0.09844907 0.008547846 -0.025554322
0003a0 75 f3 48 3e c3 12 87 bd f8 e2 6b be 41 87 b5 3d
       0.19624121 -0.065953754 -0.230358 0.08863688
0003b0 e9 19 60 be 36 e4 10 3d b0 5d 1c 3e 90 34 11 be
       -0.21884884 0.03537389 0.15270114 -0.14180207
0003c0 1a e2 b3 3c 0b 66 da bc a8 2f 88 3d eb dc b4 3d
       0.0219584 -0.026659986 0.06649715 0.08831199
0003d0 5a 1d 32 be 9a c6 ca bc 9b 6f 34 bc 5b ad 6a bd
       -0.17394009 -0.024752904 -0.011012937 -0.05729423
0003e0 ad 0d 6a 3e a9 49 eb 3d 14 ee 63 3d 6e c6 42 bd
       0.2285678 0.11488659 0.05564697 -0.04755252
0003f0 cd b7 86 3e 9a 17 78 be c7 82 9c 3d 20 57 c2 3c
       0.26312104 -0.24227753 0.07642131 0.023723185

lstm.hh.rho_weight f4 [128, 32]
000000 3a 1b 46 c0 0b 63 2e c0 67 a4 3f c0 7e 93 26 c0
       -3.0954118 -2.724795 -2.9944093 -2.6027522
000010 f1 e3 40 c0 b4 0f 48 c0 c1 5b 3a c0 17 96 38 c0
       -3.0139124 -3.1259584 -2.9118502 -2.8841608
000020 ad 51 36 c0 94 65 38 c0 15 56 40 c0 bf 23 47 c0
       -2.848735 -2.8811998 -3.005254 -3.1115568
000030 1d 1c 3d c0 af cc 36 c0 0e f5 3a c0 4a be 3c c0
       -2.954841 -2.856243 -2.921207 -2.9491143
000040 44 5b 32 c0 30 74 3a c0 b1 6f 3c c0 6d 4c 3b c0
       -2.7868204 -2.9133415 -2.944317 -2.9265397
000050 05 d9 4e c0 b8 53 40 c0 9a 67 30 c0 02 c4 3c c0
       -3.2319958 -3.0051098 -2.7563233 -2.9494634
000060 86 14 31 c0 cd d2 36 c0 bb 97 31 c0 2f 45 43 c0
       -2.7668777 -2.8566163 -2.774886 -3.0510976
000070 51 28 2f c0 19 20 27 c0 af 42 3b c0 28 09 30 c0
       -2.7368357 -2.611334 -2.925945 -2.7505589
000080 96 73 3e c0 77 d0 37 c0 bc 82 35 c0 0a 69 43 c0
       -2.9758048 -2.8720987 -2.8361044 -3.053286
000090 5a f2 42 c0 6b 9f 43 c0 75 10 2c c0 64 51 2d c0
       -3.046042 -3.056605 -2.6885045 -2.7080927
0000a0 75 e3 34 c0 b5 5d 3b c0 55 cb 33 c0 d0 09 32 c0
       -2.8263829 -2.9275944 -2.8092854 -2.781849
0000b0 57 14 29 c0 ec 4c 37 c0 95 03 2e c0 6f 4e 2e c0
       -2.6418664 -2.86407 -2.7189686 -2.7235372
0000c0 15 b3 38 c0 5c 0d 2b c0 92 c9 2d c0 50 ae 3a c0
       -2.8859303 -2.6726904 -2.7154279 -2.9168892
0000d0 68 c3 30 c0 e1 63 3b c0 9f 11 2b c0 49 e7 3c c0
       -2.7619267 -2.9279711 -2.6729505 -2.9516165
0000e0 42 88 2c c0 77 bf 2d c0 c2 dd 27 c0 4f 45 39 c0
       -2.6958165 -2.714811 -2.62291 -2.8948553
0000f0 94 c2 2a c0 37 50 2f c0 b2 6e 31 c0 40 8d 2a c0
       -2.668126 -2.739271 -2.7723813 -2.6648712
000100 21 a8 3f c0 61 8f 33 c0 70 03 3a c0 ca 01 43 c0
       -2.9946368 -2.8056262 -2.9064598 -3.0469842
000110 37 4c 4b c0 71 ab 3b c0 f1 98 3e c0 ab 16 3e c0
       -3.1765268 -2.932339 -2.9780848 -2.9701335
000120 b1 28 2f c0 2e eb 3e c0 20 53 3f c0 8c 8a 44 c0
       -2.7368586 -2.9831042 -2.9894485 -3.0709562
000130 a2 e3 3d c0 74 12 3e c0 b3 f6 40 c0 dd 3b 34 c0
       -2.9670186 -2.9698763 -3.0150573 -2.8161538
000140 ef 73 3c c0 bd 86 45 c0 d1 19 44 c0 65 68 33 c0
       -2.944576 -3.0863488 -3.0640757 -2.8032467
000150 64 41 33 c0 4b e9 31 c0 17 ad 3a c0 da 6f 42 c0
       -2.8008661 -2.779864 -2.9168146 -3.0380769
000160 17 e5 40 c0 7b 3c 38 c0 94 0c 39 c0 2d e9 3c c0
       -3.0139825 -2.8786914 -2.8913927 -2.951732
000170 a1 2d 3a c0 9f 28 41 c0 09 47 40 c0 ee 7c 35 c0
       -2.909035 -3.0181043 -3.0043356 -2.83575
000180 0a aa 49 c0 86 af 37 c0 79 bc 47 c0 6d b2 35 c0
       -3.1510034 -2.870088 -3.1208785 -2.8390152
000190 da 4b 39 c0 83 bb 43 c0 fe 82 42 c0 64 b3 3e c0
       -2.8952546 -3.0583198 -3.0392451 -2.9796991
0001a0 d4 c7 31 c0 0d 16 48 c0 58 4b 39 c0 e7 e6 34 c0
       -2.7778215 -3.1263459 -2.8952236 -2.8265932
0001b0 6d c1 3c c0 fd f5 39 c0 e8 af 3e c0 6e 51 3a c0
       -2.9493058 -2.905639 -2.9794865 -2.91122
0001c0 46 cb 3e c0 ba fd 35 c0 61 06 43 c0 42 f5 29 c0
       -2.9811568 -2.8436112 -3.0472643 -2.6555943
0001d0 cd 25 34 c0 de 62 34 c0 c7 8f 3a c0 13 ab 3b c0
       -2.8148072 -2.8185344 -2.9150255 -2.9323165
0001e0 8c f6 3e c0 b6 c8 38 c0 3d a1 3c c0 a2 53 3e c0
       -2.983798 -2.8872504 -2.9473412 -2.9738545
0001f0 90 7a 3e c0 c3 b9 39 c0 da 95 38 c0 81 b7 38 c0
       -2.9762306 -2.901963 -2.8841462 -2.8862002
000200 41 10 3f c0 02 99 3a c0 f2 4f 37 c0 f4 6d 36 c0
       -2.985367 -2.9155889 -2.8642545 -2.850461
000210 7a 03 36 c0 3b fa 37 c0 24 a9 3a c0 ac 30 41 c0
       -2.8439622 -2.8746479 -2.9165735 -3.0185957
000220 4f 48 2d c0 11 12 33 c0 35 89 40 c0 5c ac 3f c0
       -2.7075384 -2.7979777 -3.0083745 -2.994895
000230 2c 34 58 c0 c2 a3 3c c0 fe d2 48 c0 84 f1 2e c0
       -3.3781843 -2.947495 -3.137878 -2.733491
000240 e2 1c 39 c0 99 0f 3c c0 d5 9e 42 c0 72 96 41 c0
       -2.8923879 -2.938452 -3.0409443 -3.0248075
000250 bb 77 41 c0 73 42 3c c0 f3 79 3c c0 3e 8e 3c c0
       -3.0229328 -2.9415557 -2.9449432 -2.9461818
000260 fe 8e 39 c0 3d 78 34 c0 b1 ea 45 c0 01 5f 3e c0
       -2.8993526 -2.8198388 -3.0924494 -2.9745486
000270 15 a4 41 c0 9b c2 35 c0 f0 93 31 c0 ae c0 3b c0
       -3.0256398 -2.8400028 -2.7746544 -2.9336352
000280 85 26 3d c0 03 18 44 c0 c1 3b 43 c0 02 c6 3f c0
       -2.955476 -3.0639656 -3.050522 -2.9964604
000290 e0 3e 43 c0 35 c2 4c c0 33 2a 3b c0 09 b6 38 c0
       -3.0507126 -3.1993535 -2.9244506 -2.8861105
0002a0 9c 1f 42 c0 7f 3b 3b c0 1a 3d 3b c0 9d 96 3a c0
       -3.0331793 -2.9255064 -2.9256043 -2.9154427
0002b0 9d 97 37 c0 a5 1c 35 c0 98 06 36 c0 b9 43 39 c0
       -2.8686287 -2.8298733 -2.8441525 -2.8947585
0002c0 d6 70 3b c0 2c 78 2b c0 53 9f 39 c0 d0 3b 34 c0
       -2.928762 -2.6792097 -2.9003494 -2.8161507
0002d0 6f 42 2f c0 45 b1 30 c0 39 89 38 c0 9b 07 3a c0
       -2.7384298 -2.7608197 -2.8833754 -2.9067142
0002e0 8f af 32 c0 77 65 3d c0 a4 42 45 c0 a3 69 44 c0
       -2.7919652 -2.959318 -3.0821924 -3.0689476
0002f0 b0 eb 3b c0 5d c5 38 c0 d8 73 48 c0 89 1a 34 c0
       -2.9362602 -2.887046 -3.1320705 -2.8141196
000300 6c 74 42 c0 0b 6a 38 c0 27 3e 3d c0 46 4d 40 c0
       -3.0383558 -2.8814723 -2.9569185 -3.0047164
000310 f4 e4 3c c0 4d 69 38 c0 80 8c 39 c0 fe 8d 39 c0
       -2.9514742 -2.881427 -2.8992004 -2.8992915
000320 cd a2 3c c0 be 19 4e c0 58 ad 46 c0 c8 62 40 c0
       -2.9474366 -3.2203212 -3.10433 -3.0060291
000330 52 dc 3f c0 9f 56 43 c0 bc 82 37 c0 50 c5 48 c0
       -2.9978223 -3.052162 -2.8673544 -3.137043
000340 d8 35 35 c0 1a 01 37 c0 9e 7a 3d c0 31 35 36 c0
       -2.8314114 -2.8594422 -2.960609 -2.8469965
000350 91 f6 3c c0 6e 73 3f c0 6e 48 3f c0 1c 06 40 c0
       -2.9525492 -2.9914203 -2.9887958 -3.000373
000360 10 20 3e c0 9f 38 48 c0 50 d0 42 c0 85 d3 3b c0
       -2.970707 -3.1284559 -3.0439644 -2.9347851
000370 ab b5 45 c0 c6 27 43 c0 d8 f9 42 c0 8c 90 45 c0
       -3.0892131 -3.0493026 -3.0464993 -3.0869474
000380 98 ce 3a c0 82 8e 40 c0 63 fc 41 c0 61 bd 49 c0
       -2.9188595 -3.008698 -3.0310295 -3.1521838
000390 57 b6 47 c0 f2 91 34 c0 45 06 2b c0 9e db 34 c0
       -3.1205041 -2.8214078 -2.6722577 -2.8259044
0003a0 31 3d 33 c0 bf 26 31 c0 23 36 37 c0 30 4d 37 c0
       -2.8006098 -2.7679899 -2.8626792 -2.8640862
0003b0 46 a1 39 c0 9f 46 3c c0 9b 27 3d c0 62 ed 1a c0
       -2.9004683 -2.9418104 -2.9555423 -2.4207387
0003c0 9c c9 3c c0 ad cc 2e c0 b8 70 38 c0 ee e8 32 c0
       -2.9498053 -2.7312424 -2.8818798 -2.795467
0003d0 aa 7c 29 c0 53 8d 35 c0 5f 8d 36 c0 d9 10 31 c0
       -2.648234 -2.8367507 -2.8523786 -2.7666533
0003e0 91 fc 3a c0 75 96 2c c0 5c 66 46 c0 54 68 3f c0
       -2.9216654 -2.6966832 -3.0999975 -2.9907427
0003f0 c1 75 34 c0 39 1a 35 c0 98 df 3b c0 2e f9 30 c0
       -2.8196871 -2.8297255 -2.935522 -2.7652087

lstm.hh.mu_bias f4 [128]
000000 71 18 c1 3e d1 11 43 3e 85 48 20 bd 5d 94 07 3e
       0.3771396 0.19049765 -0.03913166 0.1324019
000010 42 c3 d8 3d ec b2 1a bd f4 dd 45 be c4 f9 d5 3d
       0.105841175 -0.03776829 -0.1932295 0.1044803
000020 33 f1 95 3c 86 6b d2 3d 93 9d 91 3b 27 df c2 3d
       0.01830349 0.10274415 0.004443833 0.09515219
000030 2c dd aa 3e 72 89 b1 bd fc e6 27 3e c1 42 96 bd
       0.33371866 -0.08668794 0.16396707 -0.07336951
000040 ba ce 29 bc 39 7c 94 3e 87 ba 2d 3e a3 c1 24 3e
       -0.010364229 0.29001024 0.16965686 0.16089492
000050 0e 23 56 be 8f 79 f6 3e a9 ce e9 3d 2f 29 45 3e
       -0.2091181 0.48139617 0.114163704 0.19253992
000060 66 1f 88 3d 70 d7 d0 3d 9a 48 33 3b e6 8e b8 bd
       0.06646614 0.101973414 0.0027356506 -0.09011631
000070 05 40 58 bd 20 1a fa bd 5d 98 c8 3e d8 5e 4e 3c
       -0.05279543 -0.12212014 0.39178744 0.012595855
000080 9e ce da 3d f7 cc cd 3d 54 d8 65 bd 69 aa 45 bd
       0.1068394 0.100488596 -0.05611451 -0.04825822
000090 2a b9 ad bd f2 f2 ef 3c ea bb 9f 3d db 14 8f 3e
       -0.08482583 0.02929065 0.07799514 0.279456
0000a0 bc c0 2c be 4e e4 d1 3d a4 34 f2 bd b6 03 14 3e
       -0.16870397 0.10248624 -0.11826447 0.1445454
0000b0 f1 6c fe 3d b3 46 5c 3d 5d 08 05 3c ee 74 fb 3d
       0.12423123 0.05377836 0.00811967 0.12278162
0000c0 e1 1e dd bc f2 bb 83 3e d4 7f 10 3c 0b 41 a9 3d
       -0.026992263 0.25729328 0.008819539 0.08264359
0000d0 f2 8e 1a 3e 67 fb e4 3d 3f 7c a7 bc 5f 36 86 3e
       0.15093592 0.11180764 -0.020444987 0.26213357
0000e0 fe 0e 8e 3e e0 e0 5f 3e d6 88 13 3e 53 e4 cb 3d
       0.27745813 0.21863127 0.14407668 0.09955659
0000f0 2d 5e 63 3d 61 d0 83 3c cf 59 b4 3d e8 0d 64 3e
       0.055509735 0.016090574 0.08806192 0.2227093
000100 c7 fd 70 bd c3 7c 24 be c2 63 c2 3d 1d 29 2c be
       -0.05883577 -0.16063218 0.094916835 -0.16812558
000110 37 e2 6a 3d 35 52 28 3e 1e 11 1b bb 42 ae b7 bd
       0.05734464 0.1643761 -0.0023661326 -0.08968784
000120 7a 25 92 bd 20 80 40 3a 36 66 e7 bd be 5b 26 bd
       -0.07136054 0.0007343311 -0.11298792 -0.040614836
000130 9b eb f1 3c 5c f9 44 39 a0 0f 01 3d 71 dc 10 3e
       0.02953129 0.0001878491 0.03150904 0.14146592
000140 65 e0 39 bd 2a 04 45 be 63 cc ea bd 42 7f 4a 3d
       -0.045380015 -0.1923987 -0.11464765 0.04943777
000150 c1 b9 ef 3d 9d 0e 2d 3d b8 16 21 be aa 88 a6 3e
       0.117053516 0.042250264 -0.15731323 0.3252614
000160 6b 8f 20 3e 61 c6 7f bd a4 b7 2a 3e cc 21 cb 3d
       0.1567971 -0.06244505 0.16671616 0.099185556
000170 8c fc a1 bd 6b 97 9e bd 4b a9 5d be 6f 48 15 bd
       -0.079094976 -0.077437244 -0.21646611 -0.03644603
000180 30 ea 3e 3e 95 8d 5b 3d 68 11 ec 3d 86 38 9d 3e
       0.18644023 0.05360182 0.115267575 0.30707186
000190 85 ca 50 3e e1 17 30 3e 21 69 95 3e 06 ce f5 3d
       0.20389755 0.17196609 0.2918177 0.120021865
0001a0 88 44 9a 3e d1 90 82 3e d6 70 72 3e 53 f2 4f 3c
       0.3013041 0.2550111 0.23675856 0.012692052
0001b0 b5 97 62 3e 1c 2b 40 3e fa ee 52 3e 2a 31 a5 3e
       0.22128184 0.18766445 0.20598975 0.32264072
0001c0 0d cc 55 3e a5 68 ad 3d c2 15 04 3d 19 c0 04 3e
       0.2087862 0.08467225 0.032247312 0.12963904
0001d0 a1 8a 16 3e 2e 70 1a 3f 60 c6 39 3e de 41 1c 3e
       0.1470132 0.6032742 0.1814208 0.15259501
0001e0 2d 0f d3 3a a4 84 a9 3e 54 c5 a1 3e 2d 32 74 3e
       0.0016102545 0.3310901 0.31595862 0.23847266
0001f0 32 1b 94 3e d6 b9 70 3d 40 31 3b 3e 64 80 44 3e
       0.28926998 0.058770977 0.18280506 0.19189602

lstm.hh.rho_bias f4 [128]
000000 2c bc 2f c0 8a 13 1b c0 2e ae 2d c0 93 a9 2f c0
       -2.74586 -2.4230676 -2.713756 -2.744725
000010 5d bb 3c c0 66 67 28 c0 62 45 2d c0 7c ff 34 c0
       -2.9489357 -2.631311 -2.7073598 -2.8280935
000020 44 0a 2b c0 cb 45 25 c0 3f df 31 c0 be 98 3f c0
       -2.6725016 -2.5823848 -2.7792509 -2.9936976
000030 e6 b5 22 c0 f0 f9 31 c0 ac 41 37 c0 e8 9b 2f c0
       -2.5423522 -2.78088 -2.8633833 -2.7438908
000040 ec 8e 36 c0 ca 71 0f c0 80 1b 2a c0 2a 1c 19 c0
       -2.8524733 -2.2413201 -2.6579285 -2.392344
000050 1a 48 3e c0 89 52 1f c0 bb 11 24 c0 27 26 31 c0
       -2.9731507 -2.4894125 -2.5635822 -2.7679536
000060 b5 67 3d c0 54 c0 30 c0 32 96 22 c0 46 9e 2f c0
       -2.9594548 -2.7617388 -2.5404172 -2.7440352
000070 13 bf 31 c0 f5 97 30 c0 ca 92 29 c0 ee 8a 25 c0
       -2.7772872 -2.7592747 -2.6495843 -2.5866046
000080 9d 05 21 c0 e5 02 0c c0 d6 3e 31 c0 2f 9e 2e c0
       -2.5159676 -2.1876767 -2.7694602 -2.7284048
000090 b3 20 3c c0 9e e9 43 c0 a1 68 1e c0 33 0d 23 c0
       -2.9394958 -3.0611339 -2.475136 -2.5476806
0000a0 3b 0e 25 c0 dd 39 31 c0 ea f6 30 c0 5f 50 41 c0
       -2.5789936 -2.7691567 -2.7650704 -3.0205305
0000b0 ba e7 3b c0 83 54 23 c0 cf 07 3d c0 92 ac 1d c0
       -2.9360185 -2.5520332 -2.9536016 -2.4636579
0000c0 a8 b1 33 c0 63 1e 22 c0 d8 16 2c c0 b8 79 3d c0
       -2.8077183 -2.5331047 -2.6888943 -2.9605541
0000d0 48 a9 2f c0 cb 3a 22 c0 bf 57 3a c0 29 9d 24 c0
       -2.744707 -2.5348384 -2.9116056 -2.5720923
0000e0 38 fa 36 c0 68 c4 3a c0 8e b5 25 c0 9a b7 1f c0
       -2.8590221 -2.9182377 -2.5892062 -2.4955812
0000f0 63 df 37 c0 7e 8a 2a c0 d0 76 15 c0 1a d7 18 c0
       -2.8730094 -2.664703 -2.3353767 -2.3881288
000100 3b 50 3d c0 dd a2 36 c0 59 61 37 c0 33 51 38 c0
       -2.9580219 -2.8536904 -2.8653166 -2.879956
000110 13 b3 3c c0 05 80 3e c0 56 7d 2e c0 04 cb 34 c0
       -2.9484298 -2.9765637 -2.7264 -2.824891
000120 3a 9c 3c c0 2d 7b 36 c0 3b d5 36 c0 c0 7a 45 c0
       -2.9470353 -2.851268 -2.8567646 -3.085617
000130 fa fa 3d c0 13 35 3a c0 c9 60 37 c0 7d dc 37 c0
       -2.9684434 -2.9094894 -2.8652823 -2.8728325
000140 1f 97 3d c0 0f 92 43 c0 f9 1a 3a c0 a0 9c 41 c0
       -2.9623487 -3.0557897 -2.9078963 -3.0251846
000150 b5 4c 3c c0 ae 9a 36 c0 39 69 37 c0 fe ee 40 c0
       -2.9421818 -2.853191 -2.8657973 -3.014587
000160 b5 b3 39 c0 ad 17 37 c0 50 7b 3d c0 7e 29 37 c0
       -2.9015934 -2.86082 -2.9606514 -2.8619075
000170 ab 29 41 c0 7f 3e 35 c0 35 69 3d c0 05 35 38 c0
       -3.0181682 -2.8319395 -2.9595463 -2.878236
000180 30 b5 2d c0 75 ea 26 c0 21 e6 29 c0 84 ed 2b c0
       -2.7141838 -2.6080601 -2.654671 -2.6863718
000190 63 7c 32 c0 0c f5 1f c0 9d c0 17 c0 df bd 33 c0
       -2.788842 -2.4993315 -2.3711312 -2.8084638
0001a0 d3 b6 19 c0 0b 52 2a c0 78 27 19 c0 52 54 1b c0
       -2.4017837 -2.6612575 -2.393034 -2.4270215
0001b0 5f cc 22 c0 d6 87 37 c0 54 29 2b c0 15 c8 09 c0
       -2.5437238 -2.8676658 -2.6743975 -2.152837
0001c0 d4 ec 1a c0 3b 91 31 c0 be 74 40 c0 46 e4 26 c0
       -2.4207048 -2.7744892 -3.0071254 -2.6076827
0001d0 bc d8 27 c0 32 d1 2a c0 48 a0 32 c0 bd 45 29 c0
       -2.6226034 -2.6690183 -2.7910328 -2.6448815
0001e0 48 c9 22 c0 bc 6a 29 c0 0a 29 35 c0 3c 6c 33 c0
       -2.5435352 -2.6471395 -2.8306298 -2.803481
0001f0 10 c9 19 c0 10 34 28 c0 34 eb 31 c0 e9 d8 18 c0
       -2.402897 -2.6281776 -2.7799807 -2.3882391

l1.mu_weight f4 [16, 32]
000000 52 12 d4 be 71 88 1d bf df e2 06 3f 97 bf 03 bf
       -0.41420227 -0.6153632 0.5268993 -0.5146422
000010 b6 bd ef 3e d4 f7 0b 3f e8 cf 12 bf d1 0a 18 bf
       0.46824425 0.5467503 -0.5734849 -0.59391505
000020 a4 ee 01 bf f8 17 1b 3f ac ca f5 be 51 ed de 3e
       -0.5075476 0.6058345 -0.4800619 0.43540433
000030 3f b6 03 bf 11 dd 0e 3f 41 22 30 3f a6 20 d0 be
       -0.5144996 0.5580607 0.6880227 -0.4064991
000040 7b f4 15 bf 60 0e e0 be 30 bd 00 bf 3b b9 18 3f
       -0.5857617 -0.43760967 -0.5028868 0.5965764
000050 87 1c c6 be 57 ba bf 3e de 91 16 3f 98 a0 d7 3e
       -0.3869364 0.37446854 0.58816326 0.4211471
000060 e9 4b 37 3f a2 fb 15 bf 7a f6 10 3f 71 34 eb 3e
       0.71600205 -0.58587086 0.56626093 0.45938447
000070 46 6c 3b bf 2d 78 02 bf db cc 02 bf 06 0b 3a 3f
       -0.7321209 -0.50964624 -0.51093835 0.7267307
000080 ea ff e5 be cb 34 ef be 2e 90 04 3f ca bd fb be
       -0.4492181 -0.46719965 0.517825 -0.49168235
000090 ef e4 e1 3e 90 b0 ae 3e b0 bc 0b bf d6 93 c2 be
       0.44119975 0.34119081 -0.5458479 -0.38003415
0000a0 4c 7e ac be 20 ad be 3e 9d 8d e1 be 2a 37 0a 3f
       -0.33690107 0.3724146 -0.44053355 0.53990424
0000b0 4c ee b2 be 7e 83 1d 3f 46 98 ed 3e 34 9e c0 be
       -0.3494743 0.61528766 0.46405238 -0.376207
0000c0 fb ff d4 be eb 8e 12 bf 3e 0c df be 5a 35 0d 3f
       -0.41601548 -0.57249326 -0.43564028 0.55159533
0000d0 c8 ee bc be 82 e6 9c 3e 10 04 03 3f 0b 39 cc 3e
       -0.36900926 0.30644614 0.51178074 0.3988727
0000e0 81 ec ee 3e 69 ef f6 be e0 76 11 3f ca 07 cd 3e
       0.46664813 -0.4822953 0.56822014 0.40045005
0000f0 8e ec e1 be f4 89 2a bf 74 ef 09 bf 8d 49 ea 3e
       -0.4412579 -0.6661675 -0.53881 0.4575924
000100 57 32 bd be 53 e9 9b be dd b2 10 3f f6 7f 03 bf
       -0.3695247 -0.3045145 0.56522924 -0.5136713
000110 38 d8 0a 3f 39 8b 1b 3f fe 3d 12 bf df 1e 09 bf
       0.54236174 0.6075931 -0.5712584 -0.5356273
000120 e4 72 11 bf 97 4f ef 3e 38 fd 29 bf f4 45 e1 3e
       -0.56815934 0.4674041 -0.66402006 0.43998682
000130 5f ec 2a bf b2 31 3d 3f a2 e7 22 3f 40 7e f0 be
       -0.66766924 0.73903954 0.63634694 -0.4697132
000140 90 c4 0d bf 87 e0 06 bf e8 f4 0d bf 57 a6 fb 3e
       -0.55378056 -0.5268635 -0.5545182 0.49150345
000150 1f 6a 2b bf 37 af d5 3e b4 42 e0 3e 54 2c 57 3f
       -0.669588 0.4173524 0.4380089 0.84052014
000160 d8 e7 c2 3e ca cf 20 bf f5 12 23 3f 24 1f 01 3f
       0.38067508 -0.6281706 0.637008 0.5043814
000170 9e 1d 0e bf 5e c9 12 bf 3b 7d 0b bf 14 4b d5 3e
       -0.5551394 -0.5733851 -0.5448796 0.41658843
000180 8d f7 0c bf 4d 55 1c bf 5f 73 79 3e bd 69 c3 be
       -0.5506523 -0.6106766 0.24360417 -0.3816661
000190 ae aa e6 3e aa c7 cb 3e 22 a8 2a bf 0c e3 0d bf
       0.45052093 0.3980077 -0.666628 -0.5542457
0001a0 86 fc c8 be 3e db 75 3e c2 7f 2f bf f1 5a fd 3e
       -0.3925516 0.24009416 -0.6855432 0.49483445
0001b0 ff 0d 0b bf ca 11 05 3f d6 12 d7 3e fe 99 bd be
       -0.5431823 0.5198027 0.42006558 -0.3703155
0001c0 71 3d fc be 0c a9 15 bf dc 74 08 bf 12 7e 03 3f
       -0.49265626 -0.5846107 -0.53303313 0.51364243
0001d0 f5 32 e5 be 29 a2 dc 3e 05 3d d1 3e c5 9b 08 3f
       -0.4476544 0.43092468 0.40866867 0.53362685
0001e0 9b 44 06 3f c6 b6 d1 be f4 86 f4 3e 1f 27 33 3f
       0.52448434 -0.40959758 0.4775921 0.6998157
0001f0 2a 72 c1 be d7 96 1e bf 58 5e d2 be 2e fd e1 3e
       -0.37782413 -0.61948913 -0.41087604 0.44138473
000200 7d 17 2b bf 81 01 25 bf 22 f5 02 3f 5a 50 20 bf
       -0.66832715 -0.6445542 0.51155293 -0.62622607
000210 08 07 05 3f 88 0c 13 3f fa bb 10 bf 10 07 12 bf
       0.51963854 0.57440996 -0.5653683 -0.57042027
000220 5d 0b 33 bf 7e 07 30 3f 25 05 09 bf fc a4 02 3f
       -0.69939214 0.6876143 -0.53523475 0.51032996
000230 01 01 0d bf b0 54 d1 3e d9 9a d5 3e e7 a4 e4 be
       -0.55079657 0.40884924 0.41719702 -0.4465706
000240 b8 0f 12 bf fc 59 0e bf a8 f2 a8 be 56 bb 29 3f
       -0.57055235 -0.55606055 -0.32997632 0.66301477
000250 8f cc fe be 2b 53 e3 3e 27 c9 14 3f 68 19 2b 3f
       -0.4976544 0.4439939 0.58119434 0.6683564
000260 36 c2 0a 3f 38 fe f1 be 2f b9 0e 3f a4 1f 0c 3f
       0.5420259 -0.47264266 0.5575132 0.5473578
000270 2f a5 1e bf 8a 38 96 be 7a e3 1e bf 70 3d 1d 3f
       -0.619708 -0.2934001 -0.6206585 0.6142187
000280 aa 62 f7 be f9 70 f9 be eb a0 2a 3f eb 24 fc be
       -0.48317462 -0.48719004 0.6665179 -0.49246916
000290 43 ba 08 3f eb 66 fe 3e 2f d2 04 bf c2 9a fc be
       0.5340921 0.49687895 -0.51883215 -0.4933682
0002a0 e3 89 07 bf b8 d3 e3 3e 35 7c 1a bf f2 57 ee 3e
       -0.52944773 0.44497466 -0.60345775 0.46551472
0002b0 a8 23 00 bf 58 8b 2d 3f 84 c7 1b 3f 5a d8 d5 be
       -0.5005441 0.67790747 0.6085131 -0.41766626
0002c0 d1 37 b1 be a5 ab 0e bf 3f 5b 26 bf ea f1 e1 3e
       -0.34612897 -0.5573066 -0.6498298 0.44129878
0002d0 77 e6 97 be 7b 1e 15 3f 47 55 1a 3f 0f 3a bc 3e
       -0.29668018 0.58249635 0.6028637 0.36763045
0002e0 f1 d9 d0 3e cc dd 09 bf 9b c0 df 3e d1 ac 0f 3f
       0.40791276 -0.5385406 0.43701634 0.5612307
0002f0 80 84 23 bf 39 05 fd be cd b9 2b bf 5d af 0f 3f
       -0.63874054 -0.49418047 -0.67080384 0.5612696
000300 08 77 ee be 5b a6 fa be 75 b8 e4 3e cd c2 08 bf
       -0.4657519 -0.48955044 0.4467198 -0.5342224
000310 17 d6 e2 3e 4d 48 23 3f 65 b1 ba be fb 39 fc be
       0.44303963 0.637822 -0.36463466 -0.49262986
000320 43 c5 11 bf 9d 59 02 3f ed bb c9 be 5e 73 1c 3f
       -0.5694162 0.5091799 -0.39401188 0.61113536
000330 50 7a 11 bf 73 6c fe 3e 23 20 14 3f 23 1b d8 be
       -0.5682726 0.49692115 0.57861537 -0.42208204
000340 93 dc 0e bf 12 47 ca be 60 80 03 bf 35 0b b6 3e
       -0.5580532 -0.39507347 -0.5136776 0.35555425
000350 0b da 20 bf d5 7c 89 3e 12 bd e8 3e ad 9f c0 3e
       -0.6283271 0.26853052 0.4545675 0.37621823
000360 cf 86 08 3f a4 3e f9 be 94 69 e7 3e b9 2a ce 3e
       0.533307 -0.48680604 0.45197737 0.4026697
000370 df e9 e7 be cc fe f4 be ec 4d 1b bf c0 d4 f0 3e
       -0.45295617 -0.47850645 -0.60665774 0.47037315
000380 be 9a e3 be bc f2 a7 be 69 f7 36 3f 65 a0 df be
       -0.44453996 -0.3280238 0.7147127 -0.4367706
000390 05 f8 0b 3f 80 2b 10 3f d7 e4 09 bf 1b 9e 05 bf
       0.5467532 0.56316376 -0.53864807 -0.52194375
0003a0 9c 7d 1b bf b9 61 18 3f 17 c8 02 bf d4 fb 0c 3f
       -0.6073854 0.5952411 -0.5108656 0.5507176
0003b0 32 d2 01 bf b8 b5 c8 3e fa 45 01 3f 4f d0 d1 be
       -0.5071136 0.3920114 0.504974 -0.4097924
0003c0 c2 45 27 bf 54 79 07 bf 20 96 14 bf 51 c4 01 3f
       -0.65340817 -0.5291951 -0.5804157 0.5069018
0003d0 6d a6 10 bf 18 0c c1 3e ba 41 b4 3e 09 5d 19 3f
       -0.56503946 0.3770454 0.35206395 0.59907585
0003e0 c0 7e df 3e 96 02 cd be 69 65 10 3f 5f 68 00 3f
       0.4365139 -0.40041035 0.5640474 0.5015926
0003f0 b4 db 0c bf ac fd 0e bf 7b 66 38 bf 55 1c 12 3f
       -0.5502274 -0.5585582 -0.7203137 0.5707448
