BNN/model_states/BNN_model_state_FD001_noisy_orig.pt (torch, 57845 bytes, 14 tensors)

lstm.ih.mu_weight f4 [128, 14]
00000000: f808 243e 8c85 5a3e 5e8b ff3d 5215 00be
00000010: 5f13 633b 1c97 e5bd 9198 31bd 1650 57bd
00000020: a375 75be 38fd 833e bc35 e6bd 0e07 0cbe
00000030: ac75 d73c d815 6fb8 a552 76bd 6b7b 8b3e
00000040: f1be 923e 3ab6 2abb e609 8e3d 4ea7 c63d
00000050: e7cd 9f3c c6ed 023e 53fa 013e e77b 553e
00000060: 5e22 b63d 621b 873e a9d6 b9bd 7ebb 913d
00000070: 26ec a2bd be6e e0bc 20ec 0ebe 4a79 203e
00000080: a37f 69be 47e4 2abe 14b5 b7bd cf45 5c3e
00000090: 70d8 993d b014 9b3d 6550 a63d 746b 8abc
000000a0: 70d8 54be 8f73 6d3e c3f1 4bbe 8188 57be
000000b0: 755b 90be 9b62 8f3e 2eb2 a0be 64f2 22be
000000c0: 69ba 4fbe 1075 7bbc a8da 19bd 1c74 f63c
000000d0: 4d89 90bc 61d1 8ebd 5b71 fdbc 9e58 363c
000000e0: 89a2 3dbe e20e 2e3d 3f59 26bc c420 403e
000000f0: 64d3 9bbd c8e8 183e b181 68be ac7b 7a3e
00000100: 7b70 533e 6419 4d3e 2bf6 613e 2ed3 483e
00000110: 2e0a 483d cf71 aa3d 9ad3 61be 8d83 b7bc
00000120: c4c8 02be 1aa5 643d ba9a 0fbe 3e7d 94be
00000130: 64cc 0fbd 813c 113d 2fc5 66be 6651 a2be
00000140: e3b9 163d f572 87bd 792f 9e3b b92c 5fbc
00000150: 11ce 57bd 8953 f13d 2c0a 203e 15b4 2d3e
00000160: 8f28 c13d f9fb 89bd a92e 80be 7470 6e3e
00000170: 896e 8ebe 5c86 d1bc 4b2d 3bbd 932e 663d
00000180: ccc7 91be 01a1 013e 7fb6 b73b 5310 b6bd
00000190: 655e 03bd 58e0 083e b275 a63d 9b14 5ebe
000001a0: d587 b4bd 9279 cc3d cbe1 e23d 1870 6cbc
000001b0: e8f1 84bc dfd6 8c3d 8bd3 703d 60f4 d53d
000001c0: bcfe a1be e0d3 56be f993 9bbe 174d 033d
000001d0: faf3 48bb 5e2a 0bbe 7456 efbd aa7b 413d
000001e0: ecb0 eabc 86ee fbbd 3982 04bb 5fe4 35be
000001f0: 1eed 6a3e 1135 923d fdce f93c 8e1d 34be
00000200: ab79 253e 090b c53d c0ac 83be 84b0 8cbe
00000210: ad91 64bd 35de 7b3e 5775 a83d 1299 15be
00000220: 9dc8 ab3d 8a61 a4bd 8536 df3c 2980 1b3e
00000230: 06d6 983c 6706 123e ae0d 2dbe d0c7 9b3e
00000240: 70e6 8cbe 16c4 803d 9ff9 6dbc a1ac be3e
00000250: 0424 06be 6e75 1e3d 7069 12be 2f97 a23d
00000260: c7f3 b23d 103e b23e e2e4 85be 50be 78bd
00000270: 14bd d7be 6e30 8f3d 0e2d a4be 11d4 06be
00000280: 321c cabe 5814 573e a4e7 e8bc 4604 dabd
00000290: 90be 5dbd 5723 f6bd 1f46 4d3e da6d 7b3d
000002a0: 572d 87be d281 11bd c7ae 573c 6a4c c13d
000002b0: 7b5d a2be 47bd 00bc af92 75bd 324b 9a3e
000002c0: a0c2 18be 0ee5 c9bd 93d4 34be 02a0 00be
000002d0: 3172 963d 5f89 92bd c73c 19be 01c8 05be
000002e0: d1ba 02be e41b 05be 0885 51be 7e2b b9bc
000002f0: 8b71 ad3d 203d c0bd 4439 0f3e fcb4 1f3e
00000300: d791 4d3e e4dc 0bbe 1da6 b83d 980f e13c
00000310: 4d6b 5ebe e822 91bd 215b 8abd c5e6 5e3e
00000320: 0913 afbd 7de8 313e 4fb4 32be 2c60 87bd
00000330: 80f6 d03c 33ac 243e 0ed3 2d3e 853f 253d
00000340: 83e5 54bd 3559 b9bb 7a4b 2fbe d3bb 2bbe
00000350: a9d2 e7bd 1d85 503e 2eae cc3c 97e0 55be
00000360: 4904 45be b4b2 753e edea 50be 616d 153e
00000370: 9548 32be d298 52be 0c94 343e d025 813e
00000380: f399 2bbe 9804 2a3e 2a23 993c c19b 23bc
00000390: ad6e c7be 9e80 01bd ba7c f3bd 3a56 eb3e
000003a0: 38bd 4bbe 6864 e037 e4ac babe 02de 403b
000003b0: bc4e 9d3d 3060 e43d 7c2a 6c3d 3bd5 423e
000003c0: a048 073d d9a0 3d3c f437 a33c 1f4a d43d
000003d0: a577 ddbc 2e55 f13b 4fb0 9cbd 254c 803e
000003e0: ffce 0f3e 0828 603d ac58 5b3d 4efd 123c
000003f0: a7de a1bc 2c9e 7cb9 1a7a 87bc 5aa2 893d
0.16019046 0.21340007 0.12477754 -0.12508133 0.0034648997 -0.112104625 -0.04335839 -0.05256661
-0.23970656 0.25779128 -0.11240718 -0.13674566 0.026301228 -5.7002384e-05 -0.06013741 0.27242598
0.28661302 -0.0026048557 0.06935482 0.096998796 0.019507362 0.12786016 0.12693147 0.20848046
0.08893274 0.2638808 -0.09074146 0.071158394 -0.07955198 -0.027396556 -0.13957262 0.15671268
-0.22802596 -0.16688643 -0.08970085 0.21511005 0.07511985 0.07572305 0.08120803 -0.01689694
-0.2078569 0.23188613 -0.19916444 -0.21048166 -0.28194776 0.28004918 -0.3138594 -0.15912777
-0.20285954 -0.015347734 -0.037562042 0.030084662 -0.017643595 -0.069735296 -0.030937841 0.011129526
-0.18519033 0.042494662 -0.010153114 0.18762499 -0.07608679 0.14932549 -0.22705723 0.2446124
0.20648377 0.20029217 0.22066562 0.19611809 0.048837833 0.083224885 -0.22053376 -0.022401595
-0.12771899 0.055821516 -0.14023867 -0.29001802 -0.03510703 0.03545809 -0.22536157 -0.31702727
0.03679837 -0.06613723 0.0048274365 -0.013621503 -0.052686755 0.11783511 0.1562888 0.16963227
0.09431564 -0.06737513 -0.250356 0.23285085 -0.27818707 -0.025576763 -0.04569749 0.05619676
-0.28472745 0.12659074 0.005606472 -0.08889832 -0.032072444 0.1336683 0.08127917 -0.21687548
-0.088149704 0.09984125 0.11078223 -0.014431022 -0.016228631 0.06876921 0.058795493 0.104470015
-0.3163966 -0.20979261 -0.30386332 0.03205594 -0.0030663 -0.1359038 -0.116864115 0.047237076
-0.028648816 -0.12301354 -0.002021922 -0.17762898 0.22942016 0.07139028 0.030494208 -0.17589399
0.16159694 0.096212454 -0.25717735 -0.2747842 -0.05580299 0.24596484 0.08225506 -0.14609173
0.08387873 -0.080264166 0.027247677 0.15185608 0.018656742 0.14260255 -0.1689975 0.30425882
-0.2751956 0.062874004 -0.014524846 0.3724108 -0.13099676 0.03868621 -0.14298034 0.07938992
0.08737903 0.34812975 -0.26151186 -0.06072837 -0.42136443 0.06991659 -0.32065624 -0.13166834
-0.39474636 0.21003854 -0.028430767 -0.10645346 -0.054136813 -0.12018459 0.2004628 0.06138406
-0.2640178 -0.035524197 0.013164229 0.09438403 -0.31711945 -0.007857627 -0.05995434 0.30135494
-0.14917994 -0.09858142 -0.17659216 -0.12561038 0.07345999 -0.07155108 -0.14964591 -0.13064577
-0.12766577 -0.1299892 -0.20460904 -0.022603747 0.08468922 -0.09386659 0.13986689 0.15596384
0.20075165 -0.13658482 0.090160586 0.027473256 -0.2172062 -0.07086736 -0.06755663 0.21767719
-0.085485525 0.17373843 -0.17451595 -0.0661014 0.025508165 0.16081314 0.16975042 0.04034378
-0.051976692 -0.0056563863 -0.17118636 -0.16770868 -0.11319477 0.20363279 0.0249854 -0.20886455
-0.19239916 0.23993951 -0.20402117 0.14592506 -0.174105 -0.20566109 0.176346 0.2522416
-0.16757946 0.16603315 0.018693525 -0.009985865 -0.38951626 -0.0316168 -0.11889024 0.45964223
-0.198964 2.6749636e-05 -0.3646003 0.0029429202 0.07681033 0.11151159 0.057657704 0.19026653
0.033028245 0.011573994 0.019924141 0.103657 -0.02703459 0.0073648905 -0.07650816 0.25058094
0.14043806 0.054725677 0.05355136 0.008971525 -0.01975949 -0.00024091516 -0.016537715 0.06720419

lstm.ih.rho_weight f4 [128, 14]
00000000: e41d 36c0 f673 30c0 4a2f 38c0 255e 39c0
00000010: e8cf 3cc0 4340 35c0 71bf 3dc0 cb25 39c0
00000020: 046b 35c0 0a8c 2ec0 b3f7 3ec0 0730 36c0
00000030: bc8d 38c0 7413 32c0 bdf4 29c0 b2b7 32c0
00000040: 22dd 42c0 98b2 35c0 e78a 30c0 1974 2cc0
00000050: f49f 2fc0 2de6 32c0 9ad7 36c0 7e74 3ac0
00000060: 5492 2bc0 5e17 2cc0 6c48 2dc0 96a9 30c0
00000070: e633 35c0 98a1 47c0 6136 3bc0 fd96 45c0
00000080: 58ce 42c0 da34 36c0 afd1 36c0 a88d 3ac0
00000090: e324 40c0 9631 3ec0 1e5c 36c0 af1a 3ec0
000000a0: 70e6 31c0 07bd 34c0 dba9 45c0 f1e8 38c0
000000b0: a0c8 3bc0 223c 41c0 e9ab 42c0 b6bc 36c0
000000c0: 0238 3ac0 945f 33c0 9919 37c0 c224 3cc0
000000d0: b2fb 3dc0 c32d 33c0 6ad4 3fc0 e8b6 37c0
000000e0: 377d 3ec0 5cd3 33c0 a201 46c0 2922 38c0
000000f0: 40c4 3ac0 b48b 41c0 16c4 44c0 07c6 3fc0
00000100: f7d3 38c0 ae20 3dc0 6888 35c0 16cb 45c0
00000110: bd24 2ec0 474c 3ac0 c681 3fc0 3f81 2fc0
00000120: 8f24 3cc0 7827 3bc0 d460 3bc0 0b1c 3ac0
00000130: 9bc7 3cc0 a598 3dc0 06cd 45c0 46a4 42c0
00000140: 5c2b 34c0 0015 36c0 3be4 3ac0 1830 37c0
00000150: 4782 38c0 2b45 3fc0 f330 3fc0 7ac6 40c0
00000160: 2528 32c0 9000 33c0 7b57 39c0 8057 44c0
00000170: f79e 3cc0 ecf6 2dc0 89a8 38c0 0462 31c0
00000180: d01a 3fc0 d47c 3dc0 6457 2dc0 4ffc 32c0
00000190: 3e44 39c0 8c68 31c0 a255 3ac0 d45a 38c0
000001a0: 0fbc 43c0 644b 30c0 537f 3cc0 ccce 22c0
000001b0: a6e5 34c0 5815 33c0 da9e 2ec0 bcdd 34c0
000001c0: 1cd4 2fc0 a687 2fc0 883e 2ec0 26f9 37c0
000001d0: 3845 36c0 0588 3cc0 b964 38c0 2e73 38c0
000001e0: 15a4 3fc0 eea6 37c0 2e96 3ac0 4f6b 3ac0
000001f0: d699 35c0 31e5 2dc0 560e 38c0 3ca7 34c0
00000200: 837f 36c0 eaed 33c0 f2ae 32c0 313c 39c0
00000210: 831d 2fc0 5d1f 3ec0 6b42 31c0 2fa5 36c0
00000220: 42dd 3bc0 2d0c 37c0 ec11 30c0 f546 30c0
00000230: 82f4 33c0 0aa4 3bc0 c7fe 34c0 60b4 2fc0
00000240: abdb 4dc0 b3f0 35c0 00a5 29c0 bd49 32c0
00000250: 7526 28c0 ce2a 30c0 541d 2ec0 3344 3ec0
00000260: a18d 37c0 23ed 2dc0 bc99 39c0 a007 3bc0
00000270: a196 3bc0 ac8a 33c0 b4ad 35c0 bc50 3cc0
00000280: 278b 3ec0 11df 3ec0 5a69 40c0 779e 43c0
00000290: 4d9e 39c0 c279 37c0 0e37 36c0 33bd 35c0
000002a0: c760 39c0 a77c 37c0 9f5a 36c0 76cc 33c0
000002b0: 53a5 37c0 08ff 32c0 b5a2 2fc0 8cee 3ac0
000002c0: 78d9 2dc0 3b11 43c0 bc9a 3ec0 1140 34c0
000002d0: 6602 3bc0 5a24 3cc0 afb1 38c0 2cf7 3cc0
000002e0: 59d7 35c0 33ba 32c0 c963 44c0 4adc 3cc0
000002f0: 8e4c 3fc0 8e1c 39c0 0b6b 3fc0 87d9 41c0
00000300: 9101 34c0 f2f6 39c0 6135 38c0 860e 38c0
00000310: 1d2a 3ec0 cc3c 3ac0 da2d 35c0 71e5 41c0
00000320: c089 44c0 4d3d 38c0 abb4 38c0 5fe5 34c0
00000330: 5d57 30c0 c9ce 3ec0 a762 38c0 f46c 33c0
00000340: a883 40c0 fca4 39c0 aa12 3cc0 bb81 3ac0
00000350: a558 33c0 955f 38c0 e055 3cc0 4f88 2dc0
00000360: 9e09 34c0 2cdd 32c0 decf 41c0 2e0c 33c0
00000370: e5ec 2ec0 4563 36c0 02db 34c0 8de2 34c0
00000380: 80c8 40c0 b5d7 3bc0 970f 3ec0 4f0b 3fc0
00000390: eedd 3fc0 bf34 3cc0 9bae 33c0 55e2 37c0
000003a0: 167e 49c0 ef21 36c0 08b2 37c0 e164 39c0
000003b0: f572 3ac0 7b0a 47c0 80ab 39c0 ac79 37c0
000003c0: a685 3dc0 04e2 32c0 052f 32c0 1158 3cc0
000003d0: 24db 39c0 1b8d 33c0 f5fd 3ec0 a166 24c0
000003e0: 6902 36c0 c44c 32c0 5e54 2ec0 3ab9 31c0
000003f0: 6824 3fc0 4a74 39c0 9ab7 3dc0 4d7c 3ac0
-2.8455744 -2.7570777 -2.8778863 -2.8963711 -2.9501896 -2.8320472 -2.9648097 -2.8929317
-2.8346567 -2.7272973 -2.9838684 -2.8466814 -2.8836508 -2.7824373 -2.6555626 -2.7924619
-3.0447469 -2.8390255 -2.758478 -2.694586 -2.7441378 -2.7952988 -2.8569093 -2.91336
-2.6808062 -2.6889262 -2.7075453 -2.7603507 -2.8312926 -3.119238 -2.925194 -3.0873406
-3.0438442 -2.8469758 -2.856548 -2.914896 -3.0022514 -2.9717765 -2.8493724 -2.9703786
-2.7796898 -2.8240373 -3.0884922 -2.8892176 -2.9341202 -3.0192952 -3.0417426 -2.855268
-2.9096684 -2.8027086 -2.8609374 -2.9397435 -2.9684873 -2.799668 -2.9973397 -2.8705387
-2.9763925 -2.8097754 -3.0938497 -2.877085 -2.9182281 -3.0241518 -3.0744681 -2.9964616
-2.8879373 -2.9551196 -2.8364506 -3.0905204 -2.7209923 -2.9109056 -2.9922957 -2.7422636
-2.9397314 -2.924284 -2.927785 -2.9079616 -2.949683 -2.9624417 -3.0906386 -3.0412765
-2.8151464 -2.8450317 -2.92018 -2.8623104 -2.8829515 -2.9885967 -2.9873626 -3.012114
-2.7837002 -2.7969093 -2.8959644 -3.0678406 -2.9472024 -2.718196 -2.8852866 -2.7716074
-2.9860115 -2.960744 -2.708459 -2.7966497 -2.8947902 -2.772006 -2.9114766 -2.8805437
-3.0583532 -2.7546015 -2.9452713 -2.5438719 -2.8265166 -2.7981777 -2.7284455 -2.8260336
-2.7473211 -2.7426543 -2.7225666 -2.8745818 -2.8479748 -2.945802 -2.8811476 -2.88203
-2.9943898 -2.8695636 -2.9154162 -2.9127996 -2.8375144 -2.7171137 -2.875875 -2.8227072
-2.8515327 -2.8113961 -2.7919278 -2.8942988 -2.7361763 -2.9706643 -2.7696788 -2.853832
-2.9353795 -2.8601182 -2.7510939 -2.7543309 -2.8117986 -2.9318871 -2.8280504 -2.7453842
-3.2165325 -2.842816 -2.6506958 -2.7857506 -2.6273472 -2.7526126 -2.72054 -2.9729125
-2.8680193 -2.7175987 -2.9000082 -2.9223404 -2.9310687 -2.8053389 -2.838727 -2.9424276
-2.9772432 -2.982365 -3.0064301 -3.056547 -2.900287 -2.8668065 -2.8471103 -2.8396728
-2.8965318 -2.8669832 -2.849281 -2.8093543 -2.8694656 -2.7968159 -2.7443058 -2.9208097
-2.7163982 -3.0479267 -2.9781942 -2.8164103 -2.9220214 -2.9397187 -2.885845 -2.9525862
-2.8412688 -2.7926147 -3.0685904 -2.9509454 -2.9890475 -2.8923678 -2.9909084 -3.0289018
-2.8125956 -2.9056973 -2.878258 -2.8758864 -2.9713204 -2.9099607 -2.8309236 -3.029629
-3.0709076 -2.8787415 -2.886027 -2.8264997 -2.7553322 -2.9813712 -2.8810213 -2.803525
-3.0080357 -2.9006948 -2.9386392 -2.9141681 -2.8022854 -2.8808339 -2.9427414 -2.7114446
-2.813087 -2.7947493 -3.0283122 -2.7976184 -2.733209 -2.849809 -2.8258672 -2.8263276
-3.0122375 -2.9350407 -2.9697015 -2.9850652 -2.9979205 -2.9407194 -2.807532 -2.8731892
-3.1483207 -2.8458211 -2.8702412 -2.8967822 -2.9132664 -3.1100147 -2.9010925 -2.8668013
-2.9612823 -2.795045 -2.7841198 -2.9428751 -2.9040003 -2.8054874 -2.9842503 -2.568764
-2.843897 -2.7859354 -2.7238994 -2.7769303 -2.986597 -2.8977227 -2.9643312 -2.9138367

lstm.ih.mu_bias f4 [128]
00000000: 3fe1 c93d 8647 2ebc f26c 9abc 9657 0d3b
00000010: 8d6e 2b3d 78ee 2e3e c4e3 cd3d a3cf f33d
00000020: 200b 883d ebff c3bd 70ce 863d 080c b23d
00000030: 373b 8a3e 33c8 0a3d 9ae7 223e dd25 deba
00000040: fefb 23be cb14 2e3d c9ff 4f3c e795 d93d
00000050: dbf5 0dbc 9ea7 c73a e58a 60be f0c5 a53e
00000060: 55e3 f1bc 1793 52bc b7e3 653e 0c5c ac3d
00000070: 7d79 c73d a316 9cbd ec60 6c3e 801d bfbd
00000080: 92fd 233e 82ee e23c 423a 0dbc 50fd fc3d
00000090: 7f7b 953d ab14 533d c5c3 083d e67e 3a3e
000000a0: 5f22 41bd 0ed9 2abd 3140 0f3e 6014 323e
000000b0: 5d31 873d a1cc 74bd d69e 6cbd 0921 ce3d
000000c0: 8c35 bdbc 310d b43d 75df 813e 3551 953b
000000d0: 31ac 25be 4665 3b3d d9a5 5bbd 9dcb 003e
000000e0: 898e e4bd bf26 81bd 973a 673e 243e 0a3e
000000f0: 124d 9a3d 5190 83bd 0299 763e 18e4 d1bd
00000100: dfe3 9abe ee3a b83d c784 603e 3458 2bbe
00000110: cdfb 2f3e 7987 953d dc99 393e 40c6 4fbe
00000120: e1ef 27bd b669 b43d 27e0 d1bd abec 993d
00000130: 48ad 1cbe 0612 113e 4632 f33d 48fb 0b3d
00000140: 2437 febc 55fb 18bd e98a 21be f081 f0bc
00000150: f5f8 56be e34b 643d 1985 60bb ca19 123e
00000160: 0ab7 523d 81b7 003e 12be f1ba 9fcf c73d
00000170: f74a e5bd a1a9 123e 2ab8 acbd af42 f23d
00000180: 9917 f03d 7a94 5d3e 4544 8c3c 781b 8d3d
00000190: e599 643e 9fb6 7a3e 726a 84bd 1c6b d63e
000001a0: a288 783e ac84 2f3e 33fe e93d 0b00 9abc
000001b0: 15e3 503e 4d8f 4f3e da48 513d 8fc6 183e
000001c0: 6be8 053e e5ba 533e b699 133e cf36 303e
000001d0: 2d9b 1f3e 5493 1a3e 919d 523b b77c 803e
000001e0: e44d 453e c2f1 383e 9ed2 b13d 09bf 343e
000001f0: 3e96 4a3e 8a77 ab3e ad89 bd3d 7334 1a3e
0.098574154 -0.01063717 -0.018850777 0.0021567098 0.041853476 0.17083156 0.100532085 0.11904838
0.06642747 -0.09570297 0.065823436 0.08693701 0.26998302 0.03388233 0.15908661 -0.001694854
-0.16014096 0.0425003 0.012695261 0.10624295 -0.008664574 0.0015232449 -0.21927984 0.32377577
-0.029527346 -0.012852452 0.22450148 0.08415994 0.09739969 -0.07621505 0.23083848 -0.093317986
0.16014698 0.02770162 -0.008619847 0.12353003 0.07298946 0.051533382 0.033389825 0.1821247
-0.04715192 -0.041710906 0.13989331 0.17390585 0.06601212 -0.05976546 -0.057768665 0.10064895
-0.023096822 0.087915786 0.25365797 0.0045568 -0.16178967 0.04575088 -0.05362496 0.12577672
-0.11159999 -0.06306218 0.22580944 0.13500267 0.07534231 -0.064240105 0.24081805 -0.102485836
-0.30251977 0.08995615 0.2192565 -0.16732866 0.17185898 0.0730123 0.18125099 -0.2029047
-0.04100025 0.08809225 -0.10247832 0.07515844 -0.15300477 0.14167032 0.11874823 0.034175187
-0.031032152 -0.037349064 -0.15775646 -0.029358834 -0.20993407 0.055736434 -0.003425902 0.1426765
0.05144409 0.12570001 -0.0018443486 0.097563975 -0.11195939 0.14322521 -0.08433564 0.11829125
0.11723251 0.2163867 0.017122397 0.06890005 0.22324331 0.24483727 -0.06465615 0.41878593
0.24270871 0.17140454 0.11425438 -0.018798849 0.20399125 0.20269509 0.051094867 0.14919494
0.13076942 0.20676763 0.14414105 0.17208408 0.15586539 0.15095264 0.0032137374 0.2509515
0.19267994 0.18060973 0.0868275 0.17650999 0.19783875 0.3348964 0.09254775 0.1505907

lstm.ih.rho_bias f4 [128]
00000000: fbf3 27c0 4265 21c0 acc8 27c0 3a16 30c0
00000010: 29bd 3bc0 c233 29c0 5151 31c0 9bfe 21c0
00000020: 156f 2ac0 ceac 20c0 25c4 2dc0 5af5 40c0
00000030: be7c 29c0 512a 2ec0 d6f7 2fc0 2d60 35c0
00000040: f0b6 35c0 3556 28c0 0233 23c0 9d59 2dc0
00000050: 05d0 33c0 83cd 2cc0 8084 2cc0 0917 17c0
00000060: 62ba 2fc0 aa52 2ac0 22da 33c0 0c5e 2fc0
00000070: db4a 30c0 38f6 2dc0 e304 21c0 22be 2ac0
00000080: c5e9 28c0 55dd 29c0 c52d 30c0 0529 3ac0
00000090: eec0 2ec0 70f1 2bc0 8909 34c0 2b31 2cc0
000000a0: b976 29c0 fb4c 32c0 6d5a 23c0 df7c 3dc0
000000b0: a99d 2ec0 5dc1 29c0 1ad0 3cc0 3c7e 31c0
000000c0: 43fc 32c0 18c1 2ac0 e908 2ac0 4434 2fc0
000000d0: 242d 3dc0 3be6 39c0 8718 31c0 6239 20c0
000000e0: c1ff 33c0 ad89 2dc0 eca3 1ac0 9a94 2fc0
000000f0: fc52 2fc0 71c2 39c0 c5de 23c0 9cc8 2dc0
00000100: ea43 32c0 c1eb 41c0 5f3a 3fc0 b86d 3ac0
00000110: 38de 35c0 06dc 30c0 7a5c 3dc0 d2be 3dc0
00000120: bf0e 49c0 2cb7 36c0 7d47 2fc0 20f9 40c0
00000130: ffdc 37c0 5b88 3ac0 5677 47c0 bfc9 3bc0
00000140: 1ed3 37c0 ad3f 39c0 4fd2 3ac0 c74e 38c0
00000150: 0c58 32c0 aec7 3dc0 6435 33c0 c937 2cc0
00000160: 19f4 3ac0 1d37 38c0 9d49 30c0 5976 3cc0
00000170: 2f67 4dc0 d074 40c0 e9e8 36c0 89de 2ec0
00000180: 13d1 3ac0 555d 3bc0 40e8 27c0 02c9 36c0
00000190: f5d9 2fc0 3b8a 2bc0 a90a 29c0 965e 39c0
000001a0: ef2a 33c0 b713 34c0 ddea 20c0 41a6 32c0
000001b0: 88ba 2cc0 0bad 34c0 1eb8 2fc0 be6c 22c0
000001c0: f87b 2fc0 af77 40c0 8fc3 34c0 9285 3ac0
000001d0: 2950 2ec0 182d 36c0 00de 3ec0 9c1e 3ac0
000001e0: 6be8 26c0 6a8e 35c0 36cf 33c0 72c7 31c0
000001f0: 8921 21c0 75b1 33c0 722d 3ec0 e345 2cc0
-2.6242664 -2.5218053 -2.621623 -2.7513566 -2.9334204 -2.643784 -2.7705882 -2.531165
-2.66303 -2.5105472 -2.7150967 -3.014975 -2.6482387 -2.7213328 -2.7495017 -2.833995
-2.8392906 -2.6302617 -2.5499883 -2.7085946 -2.8095715 -2.7000434 -2.6955872 -2.360781
-2.745751 -2.6612954 -2.8101888 -2.7401152 -2.7545688 -2.718153 -2.5159233 -2.6678548
-2.6392682 -2.654134 -2.7527936 -2.9087536 -2.7305255 -2.6866112 -2.813082 -2.690501
-2.6478713 -2.7859485 -2.5523942 -2.9607465 -2.7283728 -2.652427 -2.9502015 -2.7733297
-2.7966468 -2.6680355 -2.6567938 -2.737565 -2.9558802 -2.9046772 -2.767122 -2.5035024
-2.812485 -2.711528 -2.416255 -2.743445 -2.73944 -2.9024928 -2.5604718 -2.7153692
-2.7853951 -3.0300143 -2.9879377 -2.9129467 -2.8416882 -2.7634292 -2.9587693 -2.9647717
-3.141525 -2.85493 -2.7387383 -3.0152054 -2.8728635 -2.9145725 -3.1166587 -2.9341886
-2.8722606 -2.8945115 -2.9190862 -2.8798082 -2.786624 -2.9653125 -2.8001337 -2.6909049
-2.9211485 -2.8783638 -2.754493 -2.9447234 -3.2094228 -3.0071297 -2.8579657 -2.7323325
-2.9190109 -2.9275715 -2.6235504 -2.8560185 -2.747678 -2.680312 -2.6412756 -2.896398
-2.7994955 -2.8137033 -2.514335 -2.7913973 -2.698885 -2.8230617 -2.7456126 -2.537887
-2.7419415 -3.007305 -2.824436 -2.9144025 -2.7236426 -2.8465023 -2.9822998 -2.9081182
-2.6079357 -2.8368173 -2.8095222 -2.7777982 -2.5176718 -2.807706 -2.9715238 -2.6917655

lstm.hh.mu_weight f4 [128, 32]
00000000: 6073 18be fba0 bfbd a086 603e 2e7a 9dbc
00000010: 4b36 c13b c2da 323e 8845 b9bd b1b4 72be
00000020: b299 adbd 23ff 5a3e f7c5 a4be 358a df3d
00000030: 1516 24be 2574 29bc 4d4b 003e 5d4d 0bbe
00000040: a692 83be b4a1 41be e3d5 8bbe 95c9 a2bd
00000050: f2f5 a9bd d2d5 d8bd 916c 253e 5185 9c3e
00000060: 0c5a d23d 5e9a 18bd f04e 123e de7a 803d
00000070: e684 80bd 4cfe 23bd 3dac 74bd fc48 a73e
00000080: 4dcb 343c e073 1e3e 2a6d 1ebd f928 f03d
00000090: c12d db3d 1d67 5ebe 5e19 0dbd 9166 e2bc
000000a0: 21ec c53c 6009 85bd 64c5 9a3a f16a 88bd
000000b0: ac56 d5ba 9eb6 263e 9b6e 0b3e b647 223d
000000c0: 29fe 583e 4e81 12bd 23fe c83c e540 4fbe
000000d0: 26e2 9abd 6765 55bc c993 94be 2ade 0d3e
000000e0: 8fa0 d6ba f62a 093e 0ae8 e73d e4b7 a73d
000000f0: b25d 0dbe 2424 2b3e 8e72 c63b 51e6 2cbc
00000100: 8ffa 8dbd f39e b7bd 99c9 5a3d 2306 32bc
00000110: e0ba ec3d e71c 363e 4d1e d13d 9f91 fabd
00000120: 5b12 45bd 2f0a fb3d 897d e0bd 1c14 d93d
00000130: 5ad2 3abe aa6a 2a3d 2750 3d3e ee29 68be
00000140: 6476 23be c444 49bd 33fe 79be cad6 7e3e
00000150: 4a53 9d3c 4bc6 ff3d e449 c43d 9535 383d
00000160: c5d3 c23d 5b22 523d 7a67 793d f7fe debc
00000170: 8035 7f3e 5453 87be 9402 c5bd 811d 33bd
00000180: de85 fe3d 9b48 2abd 9736 e0bd daa3 843d
00000190: 4771 76bd a32d 09be 5b8b 3a3e ea59 3fbd
000001a0: 4acb 19bc ca92 b23c 8fcd fbbd 487e 48bc
000001b0: f002 a0bd 6eb6 5b3e 7725 49be 9078 ce3d
000001c0: 7779 37bd 311f 913d f324 9fbe 749a 8dbc
000001d0: ddc7 e5bb 1c09 7e3e ecaa cbbc 9e39 34bb
000001e0: 920a 8dbd 5e33 2d3e ff65 203d e3cb c63d
000001f0: 1b96 023e d97f 9bbd a959 ccbd aa53 8fbd
00000200: b4f5 943c da1c 94bc 96b7 3d3c 2246 173d
00000210: 3cb4 e43d 2433 82bd 7dc5 b63a 17d1 edbd
00000220: 9e45 d7bc b5b7 fdbd 6cf4 14be 524f 0fbe
00000230: 7def 66bd da60 a5bd 7412 7bbc e576 1cbe
00000240: cca4 943c 3ce5 09be fcb1 c2bd 0a51 1d3d
00000250: ec65 b4bd 83aa 873d 65e9 a13d f704 20bd
00000260: 3787 a8bc ae4d b73d f01a e3bd 1988 453d
00000270: c510 87bd a594 f9bd d3cb 4a3d c8e1 4c3e
00000280: b444 81be 89f1 ed3d f21c 70bd 1380 a43c
00000290: 1827 9f3c eead a23c 4e5e 013e 96d4 bdbd
000002a0: 7a87 5cbe dfb5 db3d bd95 a43c e451 bebd
000002b0: a33d 12bd 43e3 023e 077e 22be 90cb 97bd
000002c0: 42a3 083e 1089 303c aead ebbd c1ec 9cbd
000002d0: 25f8 65bd cc35 25bd 6387 543e 4542 edbd
000002e0: 3a4c 613d f2d2 223b 00cc 10be 1f50 afbc
000002f0: f01a 113e cd45 74be 29d9 853c be2b 88bd
00000300: 3144 23be 4fd2 a03c 7d7b e3bd ccce 953d
00000310: e523 473d 93dc 07bd 3bb5 4abe b7b0 d73d
00000320: d0f6 28be 5db7 10bd d421 7d3d 2456 05be
00000330: b60c 66be 344c 07be fe62 143e 3673 d5bd
00000340: 1d92 07bd cafb 073e cab7 debd eac6 223c
00000350: 90c7 07bc 1b00 6a3e 444e 0d3e 2801 27be
00000360: 441a 45bd 28cf 053d 355b 8f3b 02ce 31be
00000370: 4671 3fbd d371 8ebd 0019 41bd e108 d7bd
00000380: 7a88 babc 5066 70bd 9c6b 413d 67bf 0cbe
00000390: c9b5 353c b225 f33d 2951 423b 3de1 c3bd
000003a0: 3fb9 fe3d ae71 283d 1188 83be 924c 1e3e
000003b0: 2ec0 87be 4831 a93d 9bdd 6b3e beb3 7ebe
000003c0: 405e 80be 18d4 c9bd e7ed 993d 499d 293e
000003d0: 9e91 64be 1558 da3d b856 933d 1846 6c3c
000003e0: 87e7 993e 9321 03bd 6395 da3d 4351 d0bb
000003f0: e75d a33c d6a1 9cbe 4574 a83c 96bd 013e
-0.14887762 -0.093568765 0.21926355 -0.019223299 0.005896365 0.17466262 -0.09046465 -0.23701741
-0.08476581 0.2138639 -0.32182285 0.10915033 -0.16024049 -0.010342632 0.12528725 -0.1360373
-0.2569782 -0.18909341 -0.2731162 -0.07948605 -0.082988635 -0.10587658 0.16154696 0.30570462
0.10271081 -0.03725659 0.14287925 0.06273435 -0.06275348 -0.04003744 -0.05973457 0.3267287
0.011034799 0.1547389 -0.038678326 0.11726565 0.10702086 -0.21719022 -0.03444802 -0.027636798
0.024160447 -0.06495929 0.0011808095 -0.066610225 -0.0016276441 0.162806 0.13616411 0.03961917
0.21190704 -0.035767846 0.024535244 -0.20239599 -0.07562666 -0.0130246645 -0.29019 0.1385428
-0.0016374754 0.13395295 0.11323555 0.08189371 -0.13805273 0.16713005 0.0060561365 -0.010552959
-0.06932556 -0.08965864 0.053414915 -0.010865721 0.11559081 0.17784463 0.102108575 -0.12234806
-0.04811321 0.12257802 -0.10961444 0.10599539 -0.18244305 0.04160563 0.18487607 -0.22672245
-0.15963131 -0.049137846 -0.24413376 0.24886623 0.019204754 0.12488993 0.09584406 0.044972975
0.09513048 0.051302295 0.0608897 -0.027221186 0.24922752 -0.26430762 -0.09619632 -0.04372931
0.12427877 -0.04157315 -0.10947912 0.06476565 -0.060166623 -0.13396315 0.18217222 -0.046716608
-0.009386847 0.02179851 -0.122950666 -0.012237139 -0.0781306 0.2145631 -0.19643198 0.10081589
-0.044793572 0.070860274 -0.31082878 -0.017285563 -0.007012351 0.24808162 -0.024861775 -0.0027500163
-0.06886782 0.16914126 0.03915977 0.09706857 0.12752573 -0.075927444 -0.09978039 -0.069983795
0.018183567 -0.018080164 0.011579415 0.03693212 0.111671895 -0.063574106 0.0013944354 -0.11612146
-0.026278313 -0.12388555 -0.14546365 -0.13995102 -0.056380738 -0.080751136 -0.015324224 -0.1527973
0.018144988 -0.13466352 -0.09506604 0.038407363 -0.088085026 0.066243194 0.079058446 -0.039067235
-0.020572288 0.08950363 -0.11089122 0.048225496 -0.065949954 -0.12186555 0.04951079 0.20008004
-0.2524773 0.11618335 -0.058621354 0.020080602 0.019427821 0.019858327 0.1263363 -0.09269063
-0.21536055 0.107280485 0.020090932 -0.09292963 -0.035703313 0.12782006 -0.15868388 -0.07411873
0.13343528 0.010774866 -0.11507736 -0.07662345 -0.056144852 -0.040334508 0.20754771 -0.115849055
0.055004336 0.0024844971 -0.1414032 -0.02140051 0.14170432 -0.23854752 0.016338902 -0.06648968
-0.15943982 0.019631533 -0.11107538 0.07314834 0.048618216 -0.03316934 -0.19795696 0.105317526
-0.16500401 -0.03533112 0.06179984 -0.13021141 -0.22465786 -0.13212663 0.14490888 -0.10422365
-0.03309833 0.13279644 -0.10874899 0.00993512 -0.0082873255 0.22851603 0.13799387 -0.16309035
-0.048120752 0.032668263 0.0043748864 -0.17363742 -0.046738885 -0.06955304 -0.047142982 -0.104997404
-0.022770155 -0.058691323 0.047221765 -0.13744889 0.011090704 0.11872424 0.0029650426 -0.09564445
0.12437677 0.04112404 -0.25689748 0.15458897 -0.2651381 0.08261353 0.23033755 -0.24873254
-0.25071907 -0.09854907 0.075160794 0.16563906 -0.22321174 0.106613316 0.07194275 0.0144210085
0.30059454 -0.03201444 0.106730245 -0.0063573434 0.019942237 -0.3059222 0.020563254 0.12669978

lstm.hh.rho_weight f4 [128, 32]
00000000: 4af1 41c0 75ea 3bc0 0daa 3fc0 630e 2ec0
00000010: 65ff 3dc0 990f 43c0 66f7 37c0 f6a1 38c0
00000020: 4bfa 31c0 4126 39c0 0b09 3dc0 9988 44c0
00000030: 9c92 39c0 f022 36c0 629b 38c0 e1c2 3cc0
00000040: 33cd 2bc0 ff7e 36c0 9858 3cc0 5a72 37c0
00000050: 22c4 44c0 7e22 3ec0 7132 3ac0 8bb7 3dc0
00000060: e5dd 34c0 186f 34c0 f9ad 33c0 6928 44c0
00000070: 281f 30c0 c258 2cc0 ed1a 40c0 772d 34c0
00000080: cec1 3ac0 0fca 39c0 b34b 30c0 f161 3dc0
00000090: 8f94 3fc0 dd95 3cc0 1d87 2cc0 1a5a 29c0
000000a0: 84f5 2ec0 d943 34c0 57b6 34c0 8229 3ec0
000000b0: 0220 39c0 8014 3cc0 3c47 37c0 75cb 33c0
000000c0: 5a5c 44c0 5dff 31c0 968d 39c0 3d2d 45c0
000000d0: d8da 36c0 b0b8 41c0 d987 3bc0 ba88 35c0
000000e0: bb5e 3fc0 9bfe 2fc0 be29 3dc0 1a04 41c0
000000f0: a026 3ac0 ba4c 2fc0 0066 3bc0 ac0b 32c0
00000100: f29d 3ac0 4e22 38c0 9b36 42c0 b855 3ec0
00000110: ec61 49c0 eab2 3cc0 9f51 41c0 9020 3fc0
00000120: 1f11 35c0 4231 42c0 8f83 3ec0 3a28 48c0
00000130: 0caa 38c0 1750 3bc0 c735 43c0 bdf1 37c0
00000140: 56d8 39c0 6ed1 4dc0 161d 44c0 7094 31c0
00000150: efe6 38c0 72a3 36c0 4c54 3fc0 ce07 3dc0
00000160: 35bf 3cc0 3053 3dc0 4b82 40c0 1746 35c0
00000170: 499d 2ac0 8373 44c0 75e5 3ac0 4b33 33c0
00000180: 45d9 3dc0 468f 3ac0 4ac2 40c0 d41c 33c0
00000190: de8f 3ec0 e8cb 40c0 fc4a 46c0 60f8 37c0
000001a0: 1913 35c0 7fd2 3cc0 e136 3dc0 3691 3ec0
000001b0: 0c5d 3ac0 8824 3cc0 1ad4 37c0 0228 32c0
000001c0: 4f66 3cc0 43ca 32c0 e4b2 40c0 6e6b 3bc0
000001d0: 0e09 3ac0 d6ef 33c0 bea4 36c0 5b71 39c0
000001e0: b184 3bc0 5242 37c0 7667 41c0 ff01 3bc0
000001f0: c218 43c0 79b6 3ac0 41c6 3ac0 e58d 3bc0
00000200: b7b7 3bc0 22de 3ec0 e816 3cc0 bf3d 32c0
00000210: f678 36c0 42e2 3cc0 ddf7 3ac0 83e5 3ac0
00000220: 6c28 2ec0 4b80 30c0 c1bf 36c0 9653 38c0
00000230: 3065 4fc0 dfc0 3bc0 c821 39c0 3afa 38c0
00000240: 3d54 3ec0 766c 41c0 99da 3fc0 0429 38c0
00000250: c974 46c0 f6d7 41c0 5e22 43c0 d562 3fc0
00000260: 1f37 36c0 9389 30c0 226e 3fc0 d778 3ac0
00000270: 6847 42c0 5b43 36c0 6f56 3ac0 460b 39c0
00000280: 89ba 3bc0 1b07 3bc0 6ba7 41c0 3115 3bc0
00000290: c688 42c0 04a9 4bc0 9e3a 36c0 eb8e 36c0
000002a0: f1f4 47c0 4500 3dc0 cbb1 35c0 fe46 41c0
000002b0: b22c 41c0 d3a7 32c0 aa4a 37c0 265b 3ac0
000002c0: 33d2 3ec0 d6ba 31c0 5e6d 3cc0 3db5 35c0
000002d0: 9a43 33c0 efab 3ac0 d24f 3ac0 447e 39c0
000002e0: d3f9 32c0 6638 42c0 13db 3ec0 7918 41c0
000002f0: 4914 42c0 8505 3dc0 4bd5 4dc0 5ba0 2bc0
00000300: 95c4 41c0 715b 3dc0 40c2 3ac0 c7e6 45c0
00000310: 0f31 3bc0 66de 37c0 1ae0 34c0 234b 45c0
00000320: 01fc 37c0 b984 50c0 ffd4 41c0 ab60 39c0
00000330: 763f 39c0 99cf 3ec0 a109 34c0 caa2 46c0
00000340: 89e2 3bc0 8063 3ac0 2254 46c0 bdf1 3ec0
00000350: f785 42c0 7e2e 42c0 7af0 36c0 a5c3 39c0
00000360: 0d09 40c0 093d 44c0 ac0d 3fc0 eb92 3fc0
00000370: adcb 44c0 e72a 41c0 19a6 41c0 76ab 42c0
00000380: 3469 3ac0 bf71 36c0 d8df 3ec0 c71c 46c0
00000390: a95a 3dc0 b118 3fc0 3831 2fc0 86df 3fc0
000003a0: caaa 35c0 7cab 38c0 93a0 31c0 5bf5 3bc0
000003b0: 491f 3cc0 2d65 35c0 a8b7 39c0 f91d 1ec0
000003c0: 9005 3ec0 5c6d 37c0 4752 35c0 5d48 39c0
000003d0: ba94 2fc0 431f 3cc0 b0d6 2ec0 b0a8 2dc0
000003e0: 52ab 38c0 f1c9 2ec0 a324 47c0 6d5e 38c0
000003f0: a997 38c0 ad5e 31c0 52e4 36c0 105f 27c0
-3.030352 -2.9361851 -2.994754 -2.719628 -2.968713 -3.047827 -2.874475 -2.8848853
-2.7809017 -2.8929598 -2.953677 -3.0708373 -2.8995733 -2.8458824 -2.8844838 -2.9493945
-2.6843994 -2.8515012 -2.9429073 -2.8663545 -3.074471 -2.9708552 -2.9093287 -2.9643276
-2.8260434 -2.8192806 -2.8074934 -3.0649664 -2.7519016 -2.6929173 -3.0016434 -2.815275
-2.918079 -2.9029577 -2.7546203 -2.9591029 -2.9934423 -2.946647 -2.6957467 -2.6461244
-2.733735 -2.816641 -2.8236291 -2.9712834 -2.8925786 -2.9387512 -2.8637228 -2.809293
-3.0681367 -2.7812111 -2.8992667 -3.0808861 -2.8571072 -3.0268974 -2.9301665 -2.8364701
-2.990157 -2.749915 -2.9556727 -3.0158753 -2.9086075 -2.739058 -2.9281006 -2.7819624
-2.9158902 -2.8770938 -3.0345829 -2.9739819 -3.1466017 -2.94842 -3.0206068 -2.9863625
-2.82917 -3.0342565 -2.9767797 -3.1274552 -2.8853788 -2.9267633 -3.0501573 -2.8741295
-2.903829 -3.2159076 -3.0642753 -2.774685 -2.889095 -2.853726 -2.98952 -2.9536014
-2.9491704 -2.9582024 -3.0079525 -2.832403 -2.66585 -3.0695503 -2.920255 -2.8000057
-2.966386 -2.9149947 -3.0118585 -2.7986345 -2.977531 -3.0124454 -3.0983267 -2.8745346
-2.8292906 -2.9503477 -2.9564745 -2.977613 -2.9119291 -2.9397297 -2.8723207 -2.783692
-2.9437444 -2.793595 -3.0109186 -2.928432 -2.9068027 -2.8115134 -2.853805 -2.8975437
-2.9299738 -2.8634229 -3.0219398 -2.9219968 -3.048386 -2.9173872 -2.9183505 -2.9305356
-2.933088 -2.982308 -2.938898 -2.7850187 -2.8511329 -2.9513097 -2.9213784 -2.9202583
-2.7212172 -2.7578304 -2.8554537 -2.8801017 -3.240551 -2.933647 -2.8926868 -2.8902726
-2.9738915 -3.022245 -2.9977171 -2.8775034 -3.100878 -3.0288062 -3.0489726 -2.9904072
-2.8471143 -2.7583969 -2.991097 -2.9136255 -3.0356083 -2.847861 -2.9115255 -2.891313
-2.9332602 -2.9223087 -3.0258434 -2.9231684 -3.039598 -3.182191 -2.8473277 -2.852473
-3.124325 -2.9531415 -2.8389766 -3.019958 -3.018353 -2.7914932 -2.8639321 -2.9118133
-2.9815795 -2.7770286 -2.9441752 -2.839187 -2.801001 -2.916744 -2.9111218 -2.8983316
-2.796498 -3.0346923 -2.9821212 -3.0171187 -3.032488 -2.953462 -3.2161434 -2.6816623
-3.0276234 -2.9587061 -2.918106 -3.0922105 -2.9248693 -2.8729491 -2.826178 -3.082711
-2.874756 -3.2581007 -3.0286252 -2.8965251 -2.8944983 -2.9814208 -2.8130877 -3.1036859
-2.9357016 -2.912323 -3.098885 -2.9835045 -3.0394266 -3.0340877 -2.8584275 -2.9025662
-3.0005524 -3.0662253 -2.9852095 -2.9933422 -3.0749314 -3.0182436 -3.0257628 -3.0417151
-2.912671 -2.8506925 -2.9824123 -3.0955064 -2.9586585 -2.985882 -2.737379 -2.9980178
-2.8385491 -2.8854666 -2.7754257 -2.9368503 -2.9394095 -2.8343003 -2.9018345 -2.4705794
-2.9690895 -2.8660498 -2.8331468 -2.8950417 -2.7434525 -2.939408 -2.7318535 -2.7134209
-2.8854566 -2.7310755 -3.1116111 -2.8807633 -2.8842566 -2.7714036 -2.8576856 -2.6151772

lstm.hh.mu_bias f4 [128]
00000000: 621d b33e 41fa cf3d 145c 9e3c 5524 bb3d
00000010: 4e9a f43d b0c6 f8bd 71d5 4abe 8c27 653e
00000020: 82ef 173d 09d9 783c a5ae 643d 55b5 ce3d
00000030: f666 953e 21f3 6c3c 838f 413e 526d ecbd
00000040: 8f88 bd3b 2a10 7a3e e6af 0d3e 3dae c33d
00000050: 4357 4ebe 07ad 273e a688 2d3e 60dc 803e
00000060: 43bd 7f3d c3ef 833d a782 a13c 20a4 71bd
00000070: 9a57 09bd 4d06 08bd ccb9 d33e 5bce b63d
00000080: 153f 283b 6070 493d 91e8 83bd 7059 a9bd
00000090: 1f64 b6bd 5e49 98bb 1e60 833d 9558 a03e
000000a0: eddc 35be 1175 e03d a420 7abd 357d 273e
000000b0: 3630 c03d 6c13 2a3d dee7 8f3c ce95 97bc
000000c0: 5fc7 9dbb 49d5 653e 01d6 273d 1ba4 5a3d
000000d0: f23c 0c3e 6563 d63d bfe4 4ebd 7f07 5b3e
000000e0: b8e1 6f3e 9ae9 0a3d 2061 7c3e 192f b33d
000000f0: f520 5b3d 3fb3 9a3c a474 5c3d 5d9b 933e
00000100: 61d2 07bd ce73 c1bd b004 393e 886b 25be
00000110: bad5 033e 93ae 1f3e de33 0a3b 4e97 15be
00000120: 1cae 983c e80a 023d 17a1 0ebe cf9e 26bd
00000130: 29b3 4d3d c6bb 763d e09a a53d 4021 263e
00000140: 2d6d cdbd 28c8 17be 27c4 ebbd b7e9 143d
00000150: 3cc0 d13d a57e 903d daa1 20be 973f b53e
00000160: 3195 883e 512a 0bbb d92a 313e 6787 3c3e
00000170: 0365 adbd 8db9 b2bd a5f5 90be 3679 763c
00000180: 9f1a 373e 002f 1a3d c9ac 273e 17e9 a93e
00000190: 5885 823e e647 193e 9c31 6d3e 0183 363e
000001a0: 7281 633e 318c 2a3e 1b0e 863e fecb 6e3d
000001b0: e119 163e be1a 583e f31d 483e d364 a03e
000001c0: 07de 1b3e c7b5 ae3c 997a dc3d c694 c13d
000001d0: 68cc 273e b505 c03e 0b8a 3d3e 8893 f53d
000001e0: 572f 013e d2c1 7d3d 2ba3 c93e 0843 813e
000001f0: 389e 893e c8ed fa3d b8f0 403e ecac 813e
0.34983355 0.10155154 0.019331016 0.09137789 0.11943494 -0.12147272 -0.19807984 0.22378367
0.037093647 0.015188464 0.055830617 0.1009318 0.29180115 0.014462263 0.18902402 -0.11544289
0.0057841013 0.24420229 0.13836631 0.09554718 -0.20150475 0.16374598 0.16946658 0.25168133
0.062436353 0.06442215 0.01971562 -0.058994412 -0.03353081 -0.033209134 0.4135269 0.08926078
0.0025672365 0.049179435 -0.06440843 -0.08269012 -0.08905815 -0.004647418 0.06414817 0.31317583
-0.17760058 0.10959829 -0.061066285 0.16356356 0.093841955 0.04152243 0.017566618 -0.01850405
-0.0048150267 0.22444643 0.040975574 0.05337916 0.13695124 0.10468177 -0.050511118 0.21389578
0.23425949 0.033914186 0.24646425 0.087492175 0.053498227 0.0188843 0.053822175 0.2882947
-0.033159617 -0.09445916 0.18068194 -0.16154301 0.12874499 0.15593939 0.0021088044 -0.146085
0.01863771 0.031748682 -0.13928638 -0.040678795 0.05021969 0.06023767 0.08086181 0.16223621
-0.10030589 -0.14822447 -0.115120225 0.0363557 0.10241744 0.070554055 -0.15686741 0.35400078
0.26676324 -0.002123494 0.17301501 0.18411027 -0.08466532 -0.08726797 -0.28312412 0.015043547
0.17881249 0.03764248 0.16374506 0.33185646 0.25492358 0.14968833 0.23163456 0.17823412
0.22217348 0.16655041 0.26182637 0.05830001 0.1465831 0.21103951 0.19542675 0.31326923
0.15221415 0.021326913 0.10765571 0.094522044 0.16386569 0.37504354 0.1850969 0.1199103
0.12615715 0.06195242 0.393823 0.25246453 0.26878524 0.122523844 0.18841827 0.2532724

lstm.hh.rho_bias f4 [128]
00000000: b9b7 2ac0 9ec1 26c0 fd23 2ac0 09a3 37c0
00000010: 3730 3dc0 9c6d 31c0 2589 2ec0 2181 2dc0
00000020: 32e5 28c0 7c4c 2cc0 3902 2cc0 10e5 36c0
00000030: 27cd 22c0 9e5a 2ac0 b16f 35c0 4b58 34c0
00000040: 21cf 32c0 bbb5 0cc0 f7ab 2dc0 3122 27c0
00000050: efae 39c0 7c5a 2fc0 adc6 29c0 bb26 1fc0
00000060: b1e7 36c0 f76e 35c0 234c 20c0 7881 2cc0
00000070: c949 2dc0 c221 2fc0 4edb 20c0 bd27 27c0
00000080: 9d1f 2ec0 2052 25c0 a6c4 2cc0 1731 36c0
00000090: 5f8b 35c0 308e 3dc0 5731 28c0 ac66 20c0
000000a0: 4932 29c0 a1b6 32c0 6ac3 2cc0 8372 3bc0
000000b0: 3396 37c0 53af 29c0 ab3c 3ac0 71e0 1bc0
000000c0: 7d25 33c0 a7eb 2ac0 8c69 39c0 4027 35c0
000000d0: 2c9c 2ec0 bfcc 20c0 9bd9 3bc0 3edc 24c0
000000e0: fcc6 2cc0 cff9 35c0 bdae 21c0 88eb 20c0
000000f0: 156c 34c0 4751 24c0 a640 1dc0 23e4 26c0
00000100: e086 41c0 973a 35c0 d8fa 3dc0 aff9 39c0
00000110: e2cc 38c0 2dc5 3ec0 17db 35c0 34d8 39c0
00000120: 7d20 3fc0 decb 30c0 e29e 34c0 b139 45c0
00000130: 24d4 3dc0 09c5 39c0 f51d 3cc0 843f 34c0
00000140: b8fc 3fc0 17f3 41c0 2b87 3ac0 917b 3ec0
00000150: 6eb9 3cc0 f0ce 37c0 eefc 37c0 2845 36c0
00000160: ca50 37c0 2f1c 41c0 52de 37c0 966d 32c0
00000170: 25ef 3dc0 9a26 3ac0 2189 43c0 a24e 32c0
00000180: 1dfc 2cc0 09c0 2fc0 4c14 29c0 a927 2fc0
00000190: d371 31c0 9d89 24c0 e94e 25c0 bc8a 37c0
000001a0: d92d 23c0 2904 31c0 1ca1 31c0 87f6 2cc0
000001b0: 38d1 2fc0 1fc4 38c0 00e3 28c0 fb55 1fc0
000001c0: 272b 2fc0 8e31 36c0 dc59 44c0 07b2 29c0
000001d0: 4c94 30c0 7e24 3cc0 052b 36c0 b6a9 35c0
000001e0: c581 21c0 dba3 30c0 f035 3bc0 4a2a 29c0
000001f0: 7ef7 2dc0 6dd7 2ec0 4a36 32c0 846c 2bc0
-2.6674635 -2.6055675 -2.6584466 -2.8693259 -2.9560678 -2.772315 -2.7271206 -2.7110064
-2.638989 -2.6921682 -2.6876357 -2.8577309 -2.5437715 -2.6617808 -2.834942 -2.817889
-2.7938921 -2.198592 -2.713621 -2.6114619 -2.901302 -2.7398977 -2.6527512 -2.486739
-2.8578913 -2.8348978 -2.504647 -2.6954021 -2.7076285 -2.7364354 -2.5133853 -2.6118004
-2.7206795 -2.5831375 -2.6995025 -2.8467462 -2.8366315 -2.9618034 -2.6280115 -2.5062666
-2.6436942 -2.7923968 -2.6994271 -2.9288642 -2.8685424 -2.651326 -2.9099529 -2.4355738
-2.799163 -2.670633 -2.897067 -2.8305206 -2.728282 -2.5124967 -2.9351566 -2.5759425
-2.699645 -2.843372 -2.5262902 -2.5143757 -2.8190968 -2.5674608 -2.4570708 -2.6076744
-3.023857 -2.831701 -2.9684353 -2.9058645 -2.887505 -2.9807847 -2.8414972 -2.903821
-2.986358 -2.762443 -2.8221974 -3.0816462 -2.966073 -2.902651 -2.9393284 -2.8163767
-2.9997997 -3.030462 -2.9145 -2.976292 -2.9488177 -2.8720055 -2.8748126 -2.847971
-2.864306 -3.0173452 -2.8729444 -2.7879386 -2.9677212 -2.908606 -3.0552447 -2.7860494
-2.7028878 -2.746096 -2.6418638 -2.7367957 -2.7725723 -2.5708992 -2.5829413 -2.8678427
-2.5496733 -2.765879 -2.7754583 -2.7025468 -2.7471447 -2.8869703 -2.638855 -2.4896228
-2.7370088 -2.8467746 -3.0679846 -2.651491 -2.7590513 -2.9397273 -2.8463757 -2.8384833
-2.5235455 -2.760001 -2.925167 -2.6432061 -2.7182307 -2.7318985 -2.7845635 -2.6784983

l1.mu_weight f4 [16, 32]
00000000: 63df c7be 48d8 19bf 5ed1 023f 4bbd febe
00000010: bf9b eb3e 24ff 033f 7f97 0dbf 11cd 13bf
00000020: 9af4 f7be 7ea0 1f3f 4297 f6be 1e56 d43e
00000030: 7a95 f3be 7b93 083f 947a 2b3f 686e e5be
00000040: ef9c 13bf 524a d4be 38d9 fcbe 8f53 133f
00000050: 55f3 bfbe 0e51 ee3e 621e 1a3f e490 ce3e
00000060: be67 343f f209 18bf bd7f 0c3f 0808 e23e
00000070: 4a3b 3cbf b00b f7be 9b36 fcbe c647 373f
00000080: eb04 dabe 9d7b e9be 8a17 003f d110 f2be
00000090: 5fde dd3e c63f a03e 4e20 08bf c7a3 b9be
000000a0: 1938 a2be f2ee ca3e a39f e5be 0f1a 043f
000000b0: e0e8 a2be d48e 173f c85b e43e 888d d6be
000000c0: e6da cebe 84dd 0dbf 400d d9be 4609 0b3f
000000d0: ad9b b9be e045 d83e 7786 063f efc1 c43e
000000e0: 1a8e ea3e 2958 fcbe fcf9 0c3f 6776 c43e
000000f0: 96ed e2be 0704 24bf 3f3b 05bf 692a e63e
00000100: c8d7 adbe 1266 94be 989f 0a3f dfcc fcbe
00000110: 9bc3 083f 15ed 133f 369b 0dbf eb7f 04bf
00000120: cb28 0cbf 2f68 f93e 0da6 2bbf 63af d43e
00000130: 497c 23bf d186 363f ca11 1e3f 795f 03bf
00000140: 90f6 09bf b5ef 01bf 9f4d 0abf 15e9 fe3e
00000150: 9021 29bf bc60 093f f0e6 e53e 97dd 523f
00000160: 9d2d bd3e dfa7 23bf f359 1e3f 13a2 f93e
00000170: 0184 0dbf 5230 0dbf 6582 06bf e6e8 d33e
00000180: 4a2f 08bf e8e8 17bf 8300 643e 4edd b8be
00000190: 9703 e23e 17eb bc3e 4283 26bf 9209 09bf
000001a0: 459d bdbe c63a 853e 5a6a 31bf a135 ee3e
000001b0: 5682 02bf e7f5 fc3e 11d7 cc3e 4c0c d3be
000001c0: 6202 f5be 2c78 10bf b900 05bf 2862 013f
000001d0: 9fd9 e0be c433 0b3f 2663 d63e 6a62 043f
000001e0: 5e8e 033f 3fab d7be cdbb ea3e 0187 2e3f
000001f0: 9a8c c1be 5258 19bf 1325 c8be 7fe2 dc3e
00000200: bfb1 26bf 26b8 21bf 773f fc3e e5e1 1bbf
00000210: 6b65 033f 9467 0c3f cf2f 0dbf ddeb 0dbf
00000220: 2d15 2ebf bbc2 353f 202a 0bbf b56f f73e
00000230: 532c 05bf 837f c53e 1dd3 cc3e 31f8 fabe
00000240: 9821 0fbf 35e6 09bf 5e2a a3be 8483 273f
00000250: f692 fbbe 9eee 0d3f c017 183f a481 273f
00000260: fdb1 083f 3e9b f8be a394 0a3f c042 083f
00000270: ea34 1fbf 3a7e 89be 7589 1abf fadc 1b3f
00000280: 1e59 ebbe 0382 f1be 5634 263f 91cd f2be
00000290: a3d4 063f d106 f03e 29de 01bf e13f f4be
000002a0: 9e25 04bf d17b ef3e 0183 1cbf 0bd2 e23e
000002b0: bc23 f0be c06f 273f 5058 173f 83c1 f0be
000002c0: 0a42 aabe 0e49 0abf 1353 23bf 2e8b de3e
000002d0: b37b 92be 7d60 313f f1f1 1e3f 3c9a b43e
000002e0: b5bf cd3e cd5f 0ebf a07f d73e 32aa 0b3f
000002f0: 2dfc 23bf 93c2 f2be a62b 27bf ae1d 0e3f
00000300: e084 e6be 3bc2 f3be 0af0 db3e 87a1 04bf
00000310: 3a68 e03e 2c55 1d3f cd97 b3be b591 f4be
00000320: 07d2 0cbf dfaa 073f d845 cebe b41c 173f
00000330: b53a 0abf 0f85 f33e f51f 103f d2b2 edbe
00000340: 5014 0cbf 0921 c2be 1adc 00bf e72b b33e
00000350: 9c90 1fbf 1dc3 c03e a7ba ee3e 5534 ba3e
00000360: 1bbd 063f 9d0a 00bf 85ce df3e 733b c73e
00000370: 7c47 e9be 938f e8be 7262 17bf 77d4 ec3e
00000380: 6747 d9be 8186 9ebe dc7d 313f c193 d4be
00000390: c46b 093f 4a67 083f ab01 06bf 4994 00bf
000003a0: e6b6 15bf 1b8b 1d3f ffa5 03bf aed0 053f
000003b0: 6767 f1be 8b8f bb3e 0b20 f83e 4a24 e7be
000003c0: 8fa5 22bf c941 02bf 13f0 10bf ac37 003f
000003d0: bd9f 0ebf a445 fd3e 89d1 b93e 0fc7 143f
000003e0: 5c43 d93e c31c d3be 1962 0b3f b92d f73e
000003f0: 1e9b 0cbf 0f52 08bf a202 33bf 82e2 0e3f
-0.39037618 -0.60095644 0.5110072 -0.49753794 0.46017262 0.5156119 -0.5530929 -0.5773478
-0.48428804 0.62354267 -0.48162276 0.41471952 -0.4757498 0.5335004 0.66983914 -0.44810796
-0.57661337 -0.41462952 -0.49384475 0.57549375 -0.37490335 0.46546215 0.6020261 0.40344918
0.704708 -0.59390175 0.54882413 0.44146752 -0.7352797 -0.48251104 -0.4926041 0.7159389
-0.42581877 -0.45602122 0.5003592 -0.47278455 0.43333718 0.31298655 -0.53174293 -0.36257765
-0.31683424 0.39635426 -0.44848356 0.5160226 -0.31818295 0.59202313 0.44601274 -0.41904855
-0.4040138 -0.5541613 -0.4239292 0.54311025 -0.36251584 0.4224081 0.5254893 0.3842921
0.4581154 -0.4928601 0.55068946 0.38371584 -0.4432189 -0.64068645 -0.5204353 0.4495423
-0.3395369 -0.28984123 0.5414977 -0.49375054 0.5342347 0.57783633 -0.5531496 -0.5175769
-0.54749745 0.48712298 -0.6705025 0.4154006 -0.6386152 0.71299464 0.61745894 -0.51317555
-0.5389185 -0.5075639 -0.5402469 0.49787202 -0.6606684 0.5366323 0.44902754 0.8236937
0.36948863 -0.63928026 0.61856 0.48756465 -0.55279547 -0.55151856 -0.52542716 0.41388625
-0.5319716 -0.5933976 0.2226582 -0.36106342 0.44143364 0.3689811 -0.65044034 -0.5353023
-0.3703405 0.26021403 -0.69302905 0.4652529 -0.50980127 0.4940636 0.40007833 -0.4122032
-0.4785338 -0.5643337 -0.5195423 0.505404 -0.43916032 0.54375863 0.4187252 0.5171267
0.5138911 -0.42122838 0.45846406 0.6817475 -0.37802583 -0.5990039 -0.39090785 0.43141553
-0.6511497 -0.63171613 0.4926717 -0.6089156 0.51326627 0.5484555 -0.55151075 -0.55438024
-0.6800106 0.7100026 -0.5436115 0.48327413 -0.5202076 0.38573846 0.40004817 -0.4901748
-0.55910635 -0.53866893 -0.3186826 0.6543505 -0.4913556 0.55442226 0.5941124 0.6543219
0.5339659 -0.4855594 0.5413305 0.5322685 -0.62190115 -0.26854116 -0.6036599 0.6088406
-0.4596643 -0.47169504 0.6492361 -0.4742246 0.5266821 0.468802 -0.50729614 -0.47704986
-0.516199 0.46774152 -0.61137396 0.44300875 -0.46902263 0.6540489 0.5911913 -0.47022638
-0.3325351 -0.5401772 -0.63798636 0.4346556 -0.2861 0.69287854 0.62087923 0.3527392
0.40185323 -0.5561493 0.42089558 0.5455657 -0.64056665 -0.47414073 -0.6530098 0.5551404
-0.4502325 -0.47609124 0.42956573 -0.5180897 0.4382952 0.61458087 -0.35076752 -0.47767416
-0.55007976 0.52995104 -0.40287662 0.5902817 -0.5399583 0.47562453 0.5629876 -0.46425492
-0.54718494 -0.3791583 -0.5033585 0.34994432 -0.6233003 0.3764886 0.4662678 0.3636805
0.526323 -0.50016195 0.4371225 0.38912544 -0.4556235 -0.45422038 -0.5913459 0.46255848
-0.42437288 -0.30961993 0.6933267 -0.41518977 0.5368006 0.53282607 -0.52346295 -0.50226265
-0.58482206 0.61540383 -0.51425165 0.52271545 -0.47149202 0.36632952 0.48461947 -0.45144874
-0.6353387 -0.5088163 -0.56616324 0.5008495 -0.5571249 0.49467194 0.36292675 0.5811624
0.42434204 -0.4123288 0.5444656 0.4827707 -0.5492419 -0.5325021 -0.6992589 0.55814373

l1.rho_weight f4 [16, 32]
00000000: 7b94 3fc0 182d 35c0 05b1 4bc0 e2a1 36c0
00000010: 0e6c 3ec0 7ad9 39c0 fb33 44c0 c496 33c0
00000020: f5c7 3bc0 dc97 36c0 f644 3ec0 fa13 49c0
00000030: 5f12 3dc0 d9fe 3bc0 b18c 43c0 c722 43c0
00000040: dc33 3cc0 a17d 46c0 3203 45c0 4b5a 3cc0
00000050: 2a5c 3ac0 db9f 41c0 d7b8 40c0 cabf 3ac0
00000060: 35a8 3bc0 b726 3ec0 a8d5 36c0 a5de 3bc0
00000070: 58cf 40c0 6dec 40c0 88ba 41c0 5d6d 48c0
00000080: 53f4 34c0 e51e 3dc0 4bbf 3ec0 4cdd 3fc0
00000090: b856 3ec0 58b8 3bc0 4be2 3dc0 1698 3bc0
000000a0: 7631 3dc0 9013 3bc0 8c0c 3bc0 0503 39c0
000000b0: 9e9e 41c0 5577 3dc0 acd2 3bc0 d9b2 30c0
000000c0: abee 42c0 9cdc 3ec0 41ef 40c0 1dcb 44c0
000000d0: 2ebf 43c0 baed 3ac0 8996 37c0 6433 49c0
000000e0: b7f8 47c0 7488 3ac0 4a43 3cc0 50a0 34c0
000000f0: 4079 4ac0 bc6d 3ec0 37de 42c0 771e 42c0
00000100: 9401 4ac0 b1f2 39c0 9829 4bc0 c3f8 3fc0
00000110: e5cd 3ec0 34bf 3bc0 0556 46c0 f9b8 41c0
00000120: 661d 3fc0 5194 41c0 3559 36c0 4a15 3bc0
00000130: d46d 37c0 fb6e 47c0 9a2f 44c0 ee3f 38c0
00000140: ceb0 48c0 f5df 37c0 be12 3cc0 b4de 39c0
00000150: 06f0 38c0 468e 40c0 0ec8 3bc0 45aa 46c0
00000160: 4dcf 39c0 08e5 46c0 5c4b 40c0 7674 45c0
00000170: 9a1d 3fc0 6a65 3ac0 6c30 43c0 824a 32c0
00000180: 43be 3ac0 63c3 48c0 58f2 39c0 6c97 3fc0
00000190: d87e 3ec0 d42d 3fc0 2044 3ac0 4f91 39c0
000001a0: 463d 3ec0 afac 38c0 0803 3fc0 9499 48c0
000001b0: 546d 3cc0 0d1d 4bc0 d6ca 3ec0 d5fb 3bc0
000001c0: 8a36 38c0 3783 34c0 16c9 44c0 3ae0 31c0
000001d0: d623 39c0 e04c 43c0 f8d3 4bc0 d7fe 44c0
000001e0: 5a16 46c0 507c 43c0 6279 4ac0 5f18 36c0
000001f0: 7954 44c0 e9fb 46c0 cae9 48c0 7e2a 45c0
00000200: 5541 3ac0 d149 44c0 1870 40c0 5b81 3dc0
00000210: c41c 4ac0 895f 42c0 5c10 3fc0 ed8e 31c0
00000220: 8d00 37c0 8910 36c0 f09b 3bc0 5656 40c0
00000230: 657e 3bc0 df8f 3bc0 0dcb 3fc0 fad7 41c0
00000240: 3879 44c0 65ac 3dc0 09ef 41c0 136a 3fc0
00000250: 48eb 3ec0 67b2 37c0 fda6 47c0 52d2 3fc0
00000260: d5c7 38c0 b2a1 30c0 f506 3fc0 6c95 3dc0
00000270: 2795 36c0 32e2 45c0 96ad 3cc0 717e 2fc0
00000280: d811 3bc0 d425 3ec0 998f 3cc0 114f 3fc0
00000290: 6109 41c0 e1c7 34c0 90f1 3ac0 79ca 3fc0
000002a0: ab5f 48c0 fae7 41c0 1b6e 49c0 542e 41c0
000002b0: 71f2 3ac0 7927 3cc0 d4b2 38c0 df23 38c0
000002c0: b895 38c0 b2fd 30c0 d527 40c0 4c90 4ec0
000002d0: b35d 3fc0 f6ca 4cc0 2d0e 45c0 d595 3bc0
000002e0: cc2d 38c0 7666 40c0 3e6a 4dc0 1cfd 40c0
000002f0: 9f08 3ac0 20c0 43c0 8143 3cc0 0dee 34c0
00000300: df5e 42c0 e3d7 46c0 aa78 47c0 80f0 40c0
00000310: 3198 4ac0 f535 40c0 5bb5 4cc0 a080 3dc0
00000320: 4275 42c0 1d86 3fc0 306e 41c0 f3e4 44c0
00000330: 1fa4 3dc0 792e 3ec0 e628 43c0 e805 38c0
00000340: 3a6e 40c0 8b61 43c0 e6c7 38c0 d26f 42c0
00000350: eb3f 45c0 9072 3ac0 17b2 42c0 401b 3ec0
00000360: 27c9 4cc0 0adb 38c0 253a 47c0 91e1 36c0
00000370: 895e 3ac0 1b5b 42c0 fdab 3cc0 41a8 47c0
00000380: 54a6 46c0 1ee9 43c0 e06c 3cc0 1326 44c0
00000390: 84a9 3bc0 07f1 4dc0 bc0d 3cc0 d911 41c0
000003a0: 87db 3bc0 e7b6 33c0 7e97 35c0 3f8b 3fc0
000003b0: d8ac 3dc0 9295 41c0 5122 48c0 7036 47c0
000003c0: abcb 34c0 2479 43c0 ac59 45c0 06a3 38c0
000003d0: e92c 4cc0 7773 3fc0 c9a0 37c0 1f7a 41c0
000003e0: bb5c 3cc0 4163 3cc0 c28b 41c0 a249 49c0
000003f0: 72cf 33c0 e4da 2fc0 771e 4ac0 6a24 42c0
-2.9934375 -2.8308773 -3.1826794 -2.8536305 -2.9753451 -2.9038987 -3.0656726 -2.806077
-2.9340794 -2.8530188 -2.972959 -3.1418443 -2.9542463 -2.9374297 -3.0554621 -3.0489976
-2.9406652 -3.1014178 -3.07832 -2.943011 -2.9118752 -3.0253818 -3.0112817 -2.9179559
-2.9321415 -2.971113 -2.8567905 -2.9354641 -3.0126553 -3.0144303 -3.02701 -3.131675
-2.8274124 -2.9550107 -2.9804256 -2.997882 -2.974043 -2.9331264 -2.9669368 -2.9311576
-2.9561439 -2.923069 -2.9226408 -2.8908093 -3.0253062 -2.9604084 -2.9347334 -2.760916
-3.0458171 -2.982215 -3.014603 -3.074897 -3.0585437 -2.9207597 -2.868563 -3.1437616
-3.1245553 -2.9145784 -2.941607 -2.8222847 -3.1636505 -2.9754477 -3.044813 -3.0331094
-3.1563463 -2.9054377 -3.1744137 -2.9995582 -2.9813168 -2.933545 -3.0990002 -3.0269148
-2.9861693 -3.0246775 -2.8491948 -2.9231744 -2.8660784 -3.1161487 -3.0654054 -2.878902
-3.1357913 -2.8730443 -2.938644 -2.9042177 -2.8896499 -3.0086837 -2.9340854 -3.1041424
-2.9032776 -3.107729 -3.0045996 -3.0852332 -2.9861817 -2.9124398 -3.0498304 -2.7857976
-2.9178627 -3.1369255 -2.9054165 -2.993617 -2.976492 -2.9871721 -2.910408 -2.899494
-2.9724898 -2.8855398 -2.98456 -3.1343737 -2.9441729 -3.173648 -2.9811301 -2.9372456
-2.8783288 -2.8205087 -3.0747733 -2.7793107 -2.8928123 -3.051567 -3.1848125 -3.0780542
-3.0951142 -3.0544624 -3.1636586 -2.8452375 -3.0676558 -3.1091254 -3.1392694 -3.0807185
-2.9102376 -3.0670054 -3.0068417 -2.9610202 -3.1580057 -3.037081 -2.9853735 -2.7743485
-2.8594086 -2.8447592 -2.9313927 -3.0052695 -2.9295895 -2.9306562 -2.9967682 -3.0288072
-3.0698986 -2.9636471 -3.0302145 -2.9908493 -2.9831104 -2.8702638 -3.1195672 -2.997212
-2.8871968 -2.759869 -2.9847996 -2.962245 -2.8528535 -3.0919309 -2.9480948 -2.7420924
-2.922964 -2.9710588 -2.9462645 -2.9892008 -3.0161974 -2.8246996 -2.9209938 -2.996733
-3.130839 -3.0297837 -3.1473453 -3.0184526 -2.9210474 -2.9399092 -2.8859148 -2.8771894
-2.884138 -2.7654843 -3.0024312 -3.2275572 -2.990094 -3.1998878 -3.0789902 -2.93102
-2.8777952 -3.0062537 -3.2096095 -3.0154486 -2.9067762 -3.0586014 -2.94162 -2.8270295
-3.0370405 -3.1069267 -3.1167397 -3.014679 -3.165539 -3.0032933 -3.198569 -2.9609756
-3.0384068 -2.9925606 -3.0223503 -3.076474 -2.9631422 -2.9715865 -3.0493712 -2.8753605
-3.0067277 -3.0528286 -2.8872008 -3.038075 -3.0820262 -2.9132423 -3.0421197 -2.9704132
-3.1997774 -2.888369 -3.1129239 -2.8575175 -2.91202 -3.0368106 -2.9479973 -3.1196444
-3.1039019 -3.0611033 -2.9441452 -3.0648239 -2.9322214 -3.2178361 -2.9383383 -3.0167143
-2.935274 -2.8080385 -2.8373713 -2.992874 -2.9636745 -3.024754 -3.1270945 -3.1126976
-2.824931 -3.0542688 -3.0835981 -2.8849502 -3.190241 -2.9914224 -2.8691885 -3.0230787
-2.9431598 -2.943558 -3.0241551 -3.1451192 -2.8095365 -2.747735 -3.1581094 -3.0334725

l1.mu_bias f4 [16]
00000000: 5b54 d33e ca80 063f 04a6 023f fcbd 1c3f
00000010: 211b ea3e fb43 c83e 4541 133f ea2c f53e
00000020: 6a66 f53e a7a8 153d 8eb0 093e cf68 3fbd
00000030: ada0 ad3e a05a 193f 1266 123f 1e8a cebd
0.41275296 0.52540267 0.5103457 0.61227393 0.45723823 0.39114365 0.5752147 0.4788583
0.47929698 0.036537793 0.13446257 -0.046730813 0.33911648 0.5990391 0.57186997 -0.100849375

l1.rho_bias f4 [16]
00000000: df16 30c0 8135 39c0 6984 42c0 7f60 46c0
00000010: 023b 4dc0 8808 45c0 8bfd 3bc0 b6a2 3ac0
00000020: dc42 3ec0 ad47 1ec0 c954 18c0 c672 07c0
00000030: 33bb 38c0 01d0 39c0 9ddf 42c0 0225 10c0
-2.751396 -2.8938906 -3.0393317 -3.0996397 -3.2067266 -3.0786457 -2.93735 -2.916181
-2.9728308 -2.4731247 -2.3801749 -2.1163802 -2.8864257 -2.9033206 -3.0448983 -2.2522588

l2.mu_weight f4 [1, 16]
00000000: 66b0 093f 1e84 2e3f 68b1 0c3f 31bd 213f
00000010: a5cc 183f 8486 163f af0c 323f 8c0c 153f
00000020: 46eb 103f 913c 1a3e 6716 653e 62e8 e93b
00000030: e985 2a3f b481 113f 1e1d 1f3f e9de d1bd
0.5378479 0.68170345 0.549582 0.6317931 0.5968726 0.58799005 0.69550604 0.5822227
0.56609 0.15062167 0.22371827 0.007138298 0.6661058 0.56838536 0.62153804 -0.10247595

l2.rho_weight f4 [1, 16]
00000000: 8c00 44c0 7f51 48c0 b87d 39c0 531f 48c0
00000010: ad75 44c0 ad75 3bc0 bcda 39c0 9398 44c0
00000020: c35e 4ac0 f5e8 2bc0 b039 25c0 3ab0 0fc0
00000030: dca8 39c0 3c28 3ac0 18ae 3dc0 af90 0ec0
-3.0625334 -3.1299741 -2.8982983 -3.1269119 -3.0696824 -2.9290574 -2.9039755 -3.0718124
-3.1620338 -2.6860936 -2.581646 -2.245131 -2.9009314 -2.9087057 -2.9637508 -2.2275808
