BNN/model_states/BNN_model_state_FD001_test.pt (torch, 57845 bytes, 14 tensors)

lstm.ih.mu_weight f4 [128, 14]
000000 12 64 81 3e 5d 50 80 3e 5f 3e 1f 3e ca 96 6f be
       0.2527166 0.25061312 0.15551136 -0.23397365
000010 0e 22 03 3e 62 8f 1f be 45 df e8 3d a2 bb 55 be
       0.1280596 -0.1558204 0.1137071 -0.20872357
000020 d9 ed 3c bc 69 39 1e 3e 2b 95 4e 3d b0 77 a2 bd
       -0.011531317 0.15451588 0.050435226 -0.07932985
000030 48 c6 1e be 1c e9 03 be 44 b6 92 be cd cf 1c be
       -0.15505326 -0.12881893 -0.28654683 -0.15313645
000040 09 f3 1e bd d5 ec 4c 3e d7 ff 7d be 49 83 10 bd
       -0.038805995 0.20012219 -0.24804626 -0.035281453
000050 11 dd a0 be e5 b9 a6 3e 0e 49 94 bd 3f 21 01 3e
       -0.3141866 0.325637 -0.072404966 0.12610339
000060 55 18 f8 bd 21 e2 a5 bd 32 ea 8f 3e ff 43 ba 3e
       -0.12114016 -0.08099771 0.28108364 0.36380002
000070 c3 89 48 3c 32 34 8a 3d 08 e5 93 3c eb a2 aa 3d
       0.012239876 0.06748237 0.018053547 0.083318554
000080 c0 3e a3 bd 37 84 a3 bd 40 20 64 3d 10 69 2b 3e
       -0.07970953 -0.07984202 0.05569482 0.16739297
000090 d2 27 be 3d 8e 28 95 bd 65 11 ad 3d 71 d3 8d bb
       0.09284939 -0.07283126 0.08450583 -0.0043281843
0000a0 87 a6 1e be 4f 60 29 3d f7 83 68 be 0f 92 6e be
       -0.15493213 0.041351613 -0.2270659 -0.23297904
0000b0 0e 6d 9e be 2b d2 e1 3e 3e e1 b9 be bc b5 0a be
       -0.30942577 0.44105658 -0.3630466 -0.13545889
0000c0 24 a5 9b be 2d 33 be 3d e8 d0 93 be c9 a6 ee bc
       -0.3039943 0.09287105 -0.2887032 -0.029132264
0000d0 23 07 59 be e1 64 b9 bd 90 2b f9 3d 73 d5 9b 3d
       -0.21194129 -0.09052444 0.12166512 0.076090716
0000e0 1e 16 9b be 57 0c 26 be 96 66 6a be 76 6e 8e 3e
       -0.30290312 -0.16215645 -0.22890696 0.2781865
0000f0 5a 70 b4 ba 64 92 3f 3e d4 1e 61 be 58 5c ab 3e
       -0.0013766394 0.18708187 -0.21984416 0.3346889
000100 b2 13 1b 3e 44 db 29 3d df e0 6f 3d 9f ac d6 bd
       0.15144232 0.041468874 0.058564063 -0.104821436
000110 6e e8 13 3e da ec 02 3e 30 2b 61 be 1b 75 8a 3c
       0.14444134 0.12785664 -0.21989131 0.016901543
000120 c0 dc 0d be 8c 2e 18 3e 3d b6 23 be 85 92 04 be
       -0.1385374 0.14861506 -0.15987487 -0.12946518
000130 5c dd c0 bd 44 77 aa 3d f0 c6 b3 be b9 3e fd bd
       -0.09417221 0.08323529 -0.35112715 -0.12365479
000140 a9 a7 0d be ef f5 38 be 0f ee 8c bc 08 a9 d7 3d
       -0.13833489 -0.18062566 -0.017203359 0.10530287
000150 dd f7 5c 3d c1 25 bd 3d 52 46 21 3e b0 3e bf bc
       0.05394732 0.092357166 0.15749481 -0.023345321
000160 f8 ef 0a 3e 05 f9 a2 bd 77 d3 4e bd da 98 8c 3c
       0.13568103 -0.07957653 -0.050494637 0.017162729
000170 29 b7 07 be 44 fe 13 be b6 23 32 3e c8 87 29 bc
       -0.13253464 -0.14452463 0.17396435 -0.010347314
000180 ba 24 ad be ef a6 17 3d cb b6 d5 3c e5 b6 30 bd
       -0.33817083 0.037024435 0.026088139 -0.04314317
000190 11 ee b9 3c 84 a1 24 3e 8b 7c 30 3d fa bb 18 be
       0.022696527 0.16077238 0.043087523 -0.14915457
0001a0 d4 41 30 bd c7 61 f0 3d 4a 0e 0b bd 5a a0 39 bd
       -0.04303153 0.117373995 -0.033949174 -0.04531894
0001b0 1e 7f 9a bc 7e 23 8d 3d a9 d3 6a 3d 4c d4 31 b8
       -0.018859442 0.06891535 0.05733076 -4.2397805e-05
0001c0 6d 2b 8d be 19 20 d6 bd 6d 32 17 be a6 29 35 3e
       -0.27572194 -0.10455341 -0.1476533 0.17691669
0001d0 4f b1 b8 3c 1f 75 a3 bd 01 cc b2 bd 4e 9b 16 3e
       0.022545485 -0.079813235 -0.08730317 0.14707682
0001e0 f5 48 8d bc 30 ef 70 bc 93 90 c2 bd 66 73 f3 bc
       -0.017246703 -0.014705464 -0.095002316 -0.029718112
0001f0 42 4d 40 3e 98 a4 f2 3d fc 10 ad 3d 58 28 00 3d
       0.18779472 0.118478 0.08450505 0.031288475
000200 55 31 44 3e b8 cd 72 3d 3d 8c b7 bd 7b 72 99 bc
       0.19159444 0.05927822 -0.08962295 -0.018731346
000210 81 cb 64 3c 9c cc 1e 3e 98 57 33 3e b5 33 0c 3e
       0.013964535 0.1550774 0.17513883 0.136916
000220 3c 7a 25 3e 2c af 53 3c fb 82 67 be 1c 4b 7a 3d
       0.1615991 0.012920182 -0.22608559 0.061106786
000230 a6 3d 99 bd 34 59 eb 3d 38 f8 cd bc 07 7f a7 3d
       -0.07482462 0.114916235 -0.025142774 0.081785254
000240 99 66 84 bd f2 96 d5 3d e9 a9 3e 3e 2c 59 f3 3d
       -0.064648814 0.10429181 0.18619503 0.118822426
000250 ab 08 bd 3d 7e 5e 99 3d 18 a5 bc bd d7 db 7b 3c
       0.09230169 0.07488726 -0.09211177 0.015372238
000260 60 01 07 3d 45 70 53 3d b7 32 44 be b7 14 95 3c
       0.032960296 0.05162074 -0.19159971 0.018198354
000270 cf 64 ae be db 96 20 3e 31 3f 0a be c4 59 d5 3d
       -0.34061286 0.15682547 -0.13500668 0.10417512
000280 8c e5 8a be 6f f6 d8 3d 29 5d f5 3c 7c b4 57 bd
       -0.27128255 0.105938785 0.029951649 -0.052662358
000290 b0 44 e1 bd 0f ce 37 be c1 d8 0f 3e c3 36 80 bd
       -0.10999429 -0.17949699 0.14047529 -0.06260445
0002a0 8e fd b4 be 82 b0 5b bd ac 99 58 bd e7 95 6b 3e
       -0.35349697 -0.053635128 -0.052880928 0.23006402
0002b0 99 19 95 be 0e ad 22 bc 35 ef 9a bd 53 ff c0 3e
       -0.29121092 -0.009928955 -0.07565156 0.37694797
0002c0 11 ef e0 bd c3 72 91 bd b5 aa 7d be 3d 19 38 be
       -0.10983098 -0.07101967 -0.24772151 -0.17978378
0002d0 59 da 85 3d a6 d0 04 3c cb e6 70 be b8 16 10 be
       0.06535787 0.008106386 -0.2352554 -0.14071167
0002e0 04 0d 0e be a0 ba bf bd 05 75 83 be 87 c2 80 3d
       -0.13872153 -0.09361768 -0.25675216 0.06287103
0002f0 5c 0b 52 3c de 1c 74 3d df 5e 8d 3d ae 25 d3 3d
       0.012820091 0.059597842 0.06902861 0.10309921
000300 ff 54 8d 3d c5 5f 45 be d2 69 27 3e 57 af e1 3d
       0.06900977 -0.19274814 0.16348961 0.110197715
000310 d3 0b 44 be 2a d9 b6 bd 67 4e 8b bc 49 cb 7e 3e
       -0.19145136 -0.089281395 -0.017005159 0.24882235
000320 b5 42 d9 3d fd 80 a4 3e 93 1a db bd 48 f2 2d bd
       0.106084265 0.3212966 -0.10698428 -0.042467386
000330 ec 4b 19 3e c1 a3 a4 3d 5e 55 5d 3d b0 4c 3d 3d
       0.14970368 0.08039046 0.05403649 0.046215713
000340 88 d2 2a 3b b7 6f aa bd fb 38 0b be 62 83 2e be
       0.0026065428 -0.08322089 -0.13595955 -0.17042306
000350 cb 32 a7 bd a4 e8 34 3e e5 08 01 be 80 50 4a be
       -0.08163985 0.1766687 -0.12601049 -0.19757271
000360 03 c4 24 be 42 a5 58 3e ba 7d 86 be d7 3e 55 3e
       -0.16090398 0.21156791 -0.26267797 0.20824753
000370 dc c6 bc bd c4 13 ff bd 36 17 47 3e 4b cc 87 3e
       -0.09217617 -0.12454942 0.19442448 0.2652305
000380 7f 67 58 bd 6e 9a 0a 3d 74 47 ce bd 77 9b f3 3c
       -0.052833077 0.033838682 -0.10072222 0.029737217
000390 19 81 13 be 7e 92 98 3c ca 91 58 bd c8 97 71 3e
       -0.14404716 0.01862454 -0.05287341 0.23593056
0003a0 b5 c5 98 be f4 a0 84 3b d0 ac 5f be 4a f3 44 be
       -0.29838338 0.0040475074 -0.21843266 -0.19233432
0003b0 be b0 06 3e a1 4b 85 3d f6 b7 04 3e 96 a8 0f 3e
       0.1315336 0.06508566 0.129608 0.14029154
0003c0 ab a9 43 3c 97 be cc bd 86 06 9c 3d c8 d4 91 3e
       0.011942307 -0.0999729 0.07618432 0.28482652
0003d0 ef 47 da ba 13 5d c3 bd d7 47 fa 3d b4 41 55 3e
       -0.0016653518 -0.09539237 0.122207336 0.20825845
0003e0 65 c3 6a 3e 4e 6e f6 3d bd ae 3c 3c 45 f8 97 bd
       0.229261 0.12032758 0.01151627 -0.074204005
0003f0 8a d4 b6 3c eb 39 04 3d 15 e7 0f 3d ff 84 9e 3d
       0.022318143 0.032281797 0.035132486 0.07740211

lstm.ih.rho_weight f4 [128, 14]
000000 f4 4c 3f c0 3d 2c 31 c0 b8 03 38 c0 a1 51 3b c0
       -2.9890718 -2.768325 -2.875227 -2.9268572
000010 09 27 3f c0 13 e0 38 c0 14 a1 3b c0 19 38 39 c0
       -2.9867575 -2.8886764 -2.9317064 -2.894049
000020 14 96 3f c0 57 3d 28 c0 52 94 43 c0 d5 be 39 c0
       -2.993535 -2.628744 -3.0559278 -2.9022725
000030 65 5d 3a c0 4a 6d 34 c0 a2 86 2e c0 53 1b 38 c0
       -2.9119503 -2.8191705 -2.7269673 -2.8766677
000040 93 ae 45 c0 f3 1d 36 c0 a7 e4 31 c0 af 1a 2c c0
       -3.0887802 -2.845578 -2.7795808 -2.6891286
000050 5a 80 3a c0 7a e4 32 c0 03 8a 33 c0 b7 84 3b c0
       -2.914084 -2.795195 -2.8052986 -2.9299753
000060 f9 bf 2f c0 8a 34 31 c0 72 2a 2e c0 96 1e 3a c0
       -2.746092 -2.7688317 -2.7213407 -2.9081168
000070 d9 cb 37 c0 91 b6 46 c0 23 c2 3a c0 5a 31 42 c0
       -2.8718169 -3.104893 -2.9180992 -3.0342622
000080 5d 16 3c c0 b7 18 2e c0 75 72 2e c0 ff 30 3c c0
       -2.938865 -2.7202585 -2.725736 -2.9404905
000090 13 0d 3c c0 5b c7 3c c0 43 0f 34 c0 d7 c8 36 c0
       -2.938298 -2.9496677 -2.8134315 -2.8560083
0000a0 00 3e 37 c0 99 0a 34 c0 ab 8c 41 c0 3e 9b 40 c0
       -2.8631592 -2.8131468 -3.0242107 -3.0094752
0000b0 f6 60 3c c0 84 5a 37 c0 15 58 3d c0 f8 08 31 c0
       -2.943418 -2.8648996 -2.958501 -2.7661724
0000c0 bb 84 37 c0 ea db 38 c0 1e 64 37 c0 17 c2 33 c0
       -2.8674762 -2.8884225 -2.8654857 -2.8087213
0000d0 89 6b 33 c0 19 dc 35 c0 78 3d 42 c0 c5 52 33 c0
       -2.8034384 -2.8415587 -3.0350018 -2.8019269
0000e0 55 6c 37 c0 f7 43 2e c0 a6 9e 43 c0 40 14 35 c0
       -2.865987 -2.7228982 -3.0565581 -2.829361
0000f0 da ea 38 c0 19 3a 3f c0 db 49 3f c0 cc 10 43 c0
       -2.8893342 -2.987921 -2.9888828 -3.0479002
000100 7b 0d 3a c0 93 2e 3a c0 84 a8 38 c0 f0 bf 45 c0
       -2.9070728 -2.9090927 -2.8852854 -3.08984
000110 79 99 34 c0 32 a3 33 c0 7b dc 45 c0 02 e2 35 c0
       -2.8218672 -2.8068357 -3.091582 -2.8419194
000120 4b b7 40 c0 48 4c 44 c0 3b be 3a c0 f6 f4 3d c0
       -3.0111873 -3.0671558 -2.9178607 -2.9680762
000130 17 83 3e c0 75 31 3f c0 8c fe 41 c0 f7 e8 41 c0
       -2.976751 -2.9873936 -3.0311613 -3.029844
000140 76 f1 3a c0 a0 a5 39 c0 1d 11 3d c0 c5 c0 3c c0
       -2.9209876 -2.900734 -2.9541695 -2.9492657
000150 52 c9 37 c0 e0 3f 40 c0 dc 4c 3e c0 cf 14 43 c0
       -2.8716626 -3.0038986 -2.9734411 -3.048145
000160 44 25 30 c0 a5 da 2d c0 f7 df 38 c0 80 cd 3e c0
       -2.7522745 -2.71647 -2.8886697 -2.9812927
000170 60 7a 33 c0 1c 40 35 c0 df bb 36 c0 58 cc 37 c0
       -2.8043442 -2.832038 -2.8552167 -2.8718472
000180 cf 1d 38 c0 35 64 3b c0 cb 1e 30 c0 b8 3d 35 c0
       -2.8768194 -2.9279912 -2.7518795 -2.831892
000190 12 07 32 c0 d6 72 36 c0 82 86 40 c0 49 a3 36 c0
       -2.7816815 -2.850759 -3.0082097 -2.8537161
0001a0 b1 45 40 c0 ad 84 36 c0 d3 fe 35 c0 60 0d 28 c0
       -3.0042536 -2.851848 -2.8436782 -2.6258163
0001b0 14 f8 35 c0 e2 b0 33 c0 42 25 30 c0 d1 3a 3b c0
       -2.8432665 -2.807671 -2.752274 -2.9254649
0001c0 db 4a 35 c0 66 36 33 c0 1e 5f 3a c0 35 f5 39 c0
       -2.8326938 -2.8001952 -2.9120555 -2.9055912
0001d0 56 ed 3a c0 b4 a1 3c c0 f4 eb 38 c0 5c 48 37 c0
       -2.9207358 -2.9473696 -2.8894014 -2.8637915
0001e0 e5 61 3e c0 6c 88 30 c0 0f 60 38 c0 cf 26 3d c0
       -2.974725 -2.7583265 -2.880863 -2.9554937
0001f0 cd 10 3e c0 fc fa 37 c0 2d 90 40 c0 9b 7e 35 c0
       -2.9697754 -2.8746939 -3.0087998 -2.8358524
000200 6b 1f 31 c0 46 17 34 c0 8a 8c 39 c0 7c 73 39 c0
       -2.7675426 -2.8139205 -2.8992028 -2.8976736
000210 3f 7b 30 c0 7c 00 39 c0 34 4e 32 c0 7f 9d 3a c0
       -2.7575223 -2.8906546 -2.7860231 -2.9158628
000220 e5 b3 3b c0 91 46 43 c0 2b 4c 33 c0 7c d9 37 c0
       -2.932855 -3.051182 -2.801524 -2.8726492
000230 a0 b3 31 c0 95 a1 3d c0 2b 0c 34 c0 dc 6a 36 c0
       -2.7765884 -2.9629872 -2.8132427 -2.8502722
000240 e0 ef 57 c0 cb b2 39 c0 7f 57 21 c0 77 3f 33 c0
       -3.3740158 -2.9015377 -2.5209653 -2.8007486
000250 79 f5 2d c0 07 92 33 c0 a2 72 2c c0 31 9a 3a c0
       -2.7181075 -2.8057878 -2.6944966 -2.915661
000260 9b 66 3a c0 f2 b7 30 c0 76 32 40 c0 ef e8 35 c0
       -2.9125125 -2.7612271 -3.00308 -2.8423421
000270 ff 0b 3f c0 46 d4 33 c0 6c 2e 39 c0 85 41 3c c0
       -2.9851072 -2.8098311 -2.8934584 -2.941499
000280 cb 41 3c c0 73 c3 43 c0 ba f4 3a c0 79 7a 3f c0
       -2.9415157 -3.0588043 -2.921187 -2.9918501
000290 d1 98 3c c0 a0 66 3a c0 2d 86 3e c0 6d 82 35 c0
       -2.9468272 -2.9125137 -2.9769394 -2.8360856
0002a0 bc 7b 41 c0 bd dd 42 c0 6c 58 3a c0 6a 6b 3b c0
       -3.0231771 -3.0447838 -2.9116468 -2.928431
0002b0 a8 18 3e c0 6f 92 33 c0 a4 c0 33 c0 89 58 40 c0
       -2.970255 -2.8058126 -2.8086329 -3.0054038
0002c0 8b 14 36 c0 c8 e6 44 c0 50 32 41 c0 9a 5a 34 c0
       -2.8450038 -3.0765858 -3.0186958 -2.8180299
0002d0 b2 7b 3f c0 05 3e 39 c0 32 a9 39 c0 ef d7 34 c0
       -2.9919248 -2.8944104 -2.9009519 -2.8256795
0002e0 ee 46 35 c0 43 af 38 c0 48 22 44 c0 b4 d3 38 c0
       -2.8324542 -2.8856971 -3.0645924 -2.8879213
0002f0 0d ab 39 c0 d8 0b 3a c0 7a 0d 3c c0 ca a1 44 c0
       -2.901065 -2.906973 -2.9383225 -3.0723748
000300 f0 7d 33 c0 ff 79 3a c0 8d f6 37 c0 44 d3 39 c0
       -2.8045616 -2.913696 -2.8744233 -2.9035196
000310 3d 23 3b c0 51 0e 37 c0 fb 3c 3a c0 59 bd 45 c0
       -2.9240258 -2.8602488 -2.909972 -3.0896819
000320 47 15 46 c0 67 00 38 c0 ec 28 3b c0 60 81 32 c0
       -3.0950487 -2.8750246 -2.9243727 -2.7891464
000330 d5 99 39 c0 39 28 43 c0 38 b8 35 c0 a6 20 3d c0
       -2.9000142 -3.04933 -2.8393688 -2.9551177
000340 7f dc 41 c0 26 a2 3c c0 c7 e3 3f c0 c1 0d 38 c0
       -3.029083 -2.9473968 -2.9982774 -2.8758395
000350 71 94 32 c0 e4 90 38 c0 62 9a 3e c0 0c 56 2f c0
       -2.7903101 -2.8838434 -2.9781728 -2.739627
000360 05 e3 32 c0 50 48 37 c0 95 ce 43 c0 15 ae 2c c0
       -2.7951062 -2.8637886 -3.0594838 -2.6981251
000370 bc 47 3d c0 b6 29 35 c0 9b 02 35 c0 b8 1d 38 c0
       -2.9575033 -2.8306708 -2.828284 -2.876814
000380 01 0b 42 c0 8c ef 42 c0 a4 fe 35 c0 47 61 3c c0
       -3.0319216 -3.0458708 -2.843667 -2.9434373
000390 4f 6b 42 c0 52 cc 40 c0 b2 91 32 c0 3e 15 36 c0
       -3.0377996 -3.0124707 -2.7901425 -2.8450465
0003a0 55 49 4b c0 0f 29 3b c0 b4 03 3a c0 ce c2 38 c0
       -3.1763508 -2.924381 -2.906476 -2.88689
0003b0 bc 53 3f c0 79 16 3d c0 65 4b 3d c0 da 42 35 c0
       -2.9894857 -2.9544966 -2.9577267 -2.8322053
0003c0 16 87 40 c0 14 0a 36 c0 6b 17 33 c0 e7 4e 39 c0
       -3.008245 -2.8443651 -2.7983043 -2.8954408
0003d0 77 59 3f c0 40 ea 3f c0 6f c4 3d c0 6c 0f 27 c0
       -2.9898355 -2.9986725 -2.9651144 -2.6103163
0003e0 3d 78 35 c0 42 14 3a c0 7e 90 33 c0 09 2f 3e c0
       -2.8354638 -2.9074864 -2.805694 -2.9716208
0003f0 6d 56 46 c0 78 d4 3d c0 3b d1 38 c0 38 2e 45 c0
       -3.099025 -2.966093 -2.8877704 -3.080946

lstm.ih.mu_bias f4 [128]
000000 d2 47 97 3d a6 f7 87 3c 72 33 af 3d 58 f4 ec 3b
       0.073867455 0.01659758 0.08554734 0.0072312765
000010 39 9d 26 3d cc 9d 41 3e 14 26 3a 3e cc 67 52 3e
       0.040677283 0.18907851 0.18178588 0.20547408
000020 ad b3 73 3e d0 9a a8 bd 7c 80 27 3c 4f 00 e6 3d
       0.2379901 -0.08232653 0.010223504 0.112305276
000030 45 07 71 3e ef c0 58 bb 84 0b 11 3e 98 27 11 3e
       0.2353793 -0.0033073982 0.14164549 0.1417526
000040 fa 11 41 be e8 cd a5 3d 80 b5 ba 3d 8e 24 40 3e
       -0.18854514 0.08095914 0.0911665 0.18763945
000050 cb c0 ad 3c 99 a7 87 3d 6b b4 68 be 72 78 6d 3e
       0.021210095 0.066237636 -0.22725074 0.23190477
000060 ed 55 8d 3b 39 d1 e9 3d 92 bf 5a 3e 62 d0 64 3e
       0.0043132217 0.11416859 0.21362141 0.22345117
000070 aa 7b 92 3e cf 41 cb bd 94 9f 09 3e 42 bc 13 be
       0.28609973 -0.09924661 0.1343978 -0.14427283
000080 57 1f 2b 3e c1 56 af bd 12 7b 13 3e b1 f6 d1 3d
       0.16711174 -0.08561469 0.14402416 0.10252131
000090 c4 76 8f 3b aa 48 2c 3c 59 95 e0 3d 28 e8 8c 3e
       0.0043781716 0.010515371 0.10965986 0.2752087
0000a0 0f 01 2a 3a 28 7a 58 3c 51 11 2f 3e ac b8 07 3e
       0.0006485143 0.013212718 0.1709645 0.1325404
0000b0 ae 98 23 3c 2f e1 e0 bd 38 8e db bd 42 a1 ce 3d
       0.009985132 -0.1098045 -0.107204854 0.10089351
0000c0 c9 56 b2 3d 78 22 64 3d 16 2a 8e 3e a6 c7 1e 3e
       0.08707959 0.055696934 0.27766484 0.15505847
0000d0 3d 20 ba bd 01 a2 3c 3d 8d 7a 91 3d 14 74 8a 3d
       -0.0908818 0.046052936 0.07103453 0.067604214
0000e0 8d 3e 02 be f3 ab 23 3d 83 b7 2d 3e b6 65 77 3e
       -0.12719174 0.039958905 0.16964535 0.24159893
0000f0 23 01 86 3e 68 00 23 be 8a 88 54 3e 31 91 30 be
       0.26172742 -0.15918124 0.2075521 -0.17242886
000100 35 43 bb be 26 d6 26 3e 8b 7e 8f 3e 6d e4 d6 bd
       -0.36574712 0.16292629 0.28026232 -0.104927875
000110 67 6d 42 3e 4f 6e 0f 3d 94 94 d2 3d a7 7e 94 be
       0.18987046 0.035017308 0.10282245 -0.29002878
000120 fd ba 33 3e d1 2e 45 3e 4c 54 07 bd ce 90 a3 3d
       0.17551799 0.1925614 -0.033039376 0.07986604
000130 10 eb 29 be 21 5d fc bd 70 d2 32 3e 75 f8 a1 3d
       -0.16593575 -0.123224504 0.17463088 0.079087175
000140 f6 6a 6a 3c 54 2c 06 be 88 ff 78 be f8 8b ef 3d
       0.014307728 -0.13102847 -0.24316227 0.11696619
000150 5c 11 a0 be 9b 93 e9 3d f5 46 63 3b 32 0a 47 be
       -0.31263244 0.11405107 0.0034679745 -0.19437483
000160 d1 af 6d bd 83 35 13 bd 8f e9 d5 3d cd 7f 71 3e
       -0.058029 -0.035939705 0.104449384 0.23583908
000170 18 b4 90 be a2 be eb 3d 87 65 e0 bb 74 7d 78 3c
       -0.282624 0.1151097 -0.0068480405 0.015166629
000180 2a 76 40 3e 47 01 f7 3d 49 53 a2 3d 88 1e 4c 3c
       0.18795076 0.120607905 0.07926042 0.012458451
000190 19 02 ac 3e 85 f2 fd 3d dd 3f b5 bc f7 3a d4 3e
       0.3359535 0.123997726 -0.022125179 0.41451237
0001a0 5e 40 a7 3e b9 6c 8b 3e 13 6e 1e 3e d7 fc a7 3d
       0.32666296 0.27231386 0.15471677 0.08202522
0001b0 46 16 44 3e c0 fc 6a 3e 7a 6e 43 3e 57 1c 65 3e
       0.19149122 0.22947979 0.19085112 0.22374092
0001c0 a3 d7 b3 3e b0 b4 8f 3e e4 fb 1e 3e 04 5c 83 3e
       0.35125455 0.2806754 0.15525776 0.2565614
0001d0 32 2e 56 3e f7 21 6b 3e 39 d5 be 3d 30 08 32 3e
       0.2091606 0.22962175 0.09318013 0.17385936
0001e0 e3 ca 02 3e c4 77 86 3e 30 1b 3d 3e df d8 78 3e
       0.12772708 0.2626325 0.18467402 0.2430148
0001f0 68 84 91 3e d2 f9 cb 3e 91 76 87 3d bb 9e f1 3c
       0.2842133 0.39839035 0.066144116 0.029494634

lstm.ih.rho_bias f4 [128]
000000 5e 32 30 c0 99 92 1f c0 ab 81 1a c0 fe b0 22 c0
       -2.7530742 -2.4933226 -2.4141643 -2.5420527
000010 80 11 35 c0 6d bf 25 c0 a2 b2 2e c0 30 87 26 c0
       -2.829193 -2.5898087 -2.729653 -2.6020012
000020 43 7b 2a c0 9d 9a 1c c0 22 21 37 c0 7a e5 37 c0
       -2.6637733 -2.4469368 -2.8613973 -2.8733811
000030 8b 13 29 c0 b9 40 2a c0 4e fc 2f c0 75 6a 37 c0
       -2.6418178 -2.6602004 -2.7497745 -2.8658726
000040 84 bc 2f c0 b2 3a 29 c0 bc f2 1e c0 ef 8f 27 c0
       -2.745881 -2.6442075 -2.4835653 -2.61816
000050 4d d1 2a c0 a0 93 20 c0 2e 0c 28 c0 2f bd 19 c0
       -2.6690247 -2.5090103 -2.6257434 -2.4021719
000060 dd c4 2a c0 71 1e 28 c0 a8 b3 39 c0 97 61 29 c0
       -2.6682656 -2.626858 -2.9015903 -2.6465814
000070 b2 40 1d c0 d7 36 24 c0 f2 86 27 c0 18 12 2d c0
       -2.4570737 -2.5658472 -2.6176114 -2.7042294
000080 f4 74 2b c0 bc 6a 2d c0 d8 80 1a c0 62 62 34 c0
       -2.6790133 -2.7096395 -2.414114 -2.8185048
000090 95 a3 29 c0 49 70 2c c0 3a 4a 2e c0 1a 1b 1a c0
       -2.6506093 -2.6943533 -2.7232804 -2.4079041
0000a0 ff 77 26 c0 9d 50 2a c0 30 ed 29 c0 a9 d9 36 c0
       -2.601074 -2.6611702 -2.6551018 -2.857035
0000b0 53 b1 32 c0 85 38 24 c0 1c e1 3b c0 88 58 38 c0
       -2.792073 -2.5659497 -2.9356146 -2.8804035
0000c0 e7 ab 2c c0 1b 28 18 c0 0f f6 23 c0 58 c2 1d c0
       -2.697992 -2.3774478 -2.5618932 -2.4649868
0000d0 5b d0 30 c0 7a 1b 2b c0 d2 16 26 c0 46 ab 18 c0
       -2.762717 -2.673552 -2.5951428 -2.3854537
0000e0 31 7b 39 c0 81 aa 2a c0 4d 40 28 c0 83 e1 21 c0
       -2.898144 -2.6666567 -2.6289246 -2.5293891
0000f0 85 49 08 c0 6e f5 39 c0 a7 1b 2c c0 e7 a8 39 c0
       -2.1294873 -2.9056048 -2.6891878 -2.900934
000100 d0 4d 33 c0 90 18 3e c0 e5 39 38 c0 93 b2 43 c0
       -2.8016243 -2.9702492 -2.8785336 -3.0577743
000110 a3 e7 32 c0 3c 07 2c c0 08 39 37 c0 ff b4 35 c0
       -2.795388 -2.6879416 -2.862856 -2.8391721
000120 95 ae 47 c0 6e 52 33 c0 72 6f 2e c0 2b c4 3d c0
       -3.1200306 -2.801906 -2.725552 -2.9650981
000130 9b 9b 36 c0 6a 74 31 c0 a3 81 45 c0 bc 0c 41 c0
       -2.8532474 -2.7727304 -3.0860374 -3.0164022
000140 9c c2 33 c0 f0 bb 31 c0 24 cd 39 c0 34 bf 37 c0
       -2.808753 -2.7770958 -2.9031458 -2.871045
000150 2e f6 2d c0 e6 79 36 c0 6f 7b 2e c0 9e f0 35 c0
       -2.7181506 -2.85119 -2.7262838 -2.842811
000160 81 5d 43 c0 70 82 2e c0 25 fa 30 c0 00 a7 33 c0
       -3.052582 -2.7267113 -2.7652676 -2.8070679
000170 3f 07 42 c0 a2 cc 32 c0 45 82 3b c0 04 f2 38 c0
       -3.0316923 -2.7937398 -2.929826 -2.8897715
000180 cf 87 34 c0 69 60 32 c0 2b 52 2a c0 51 64 36 c0
       -2.820789 -2.7871344 -2.6612651 -2.8498728
000190 b9 07 1f c0 5a ce 29 c0 58 14 30 c0 78 02 32 c0
       -2.4848464 -2.6532197 -2.7512417 -2.7814007
0001a0 d0 9c 38 c0 5e a2 2f c0 d4 7a 29 c0 0e 36 22 c0
       -2.884571 -2.744285 -2.6481218 -2.5345492
0001b0 4b dd 24 c0 c4 69 2d c0 8c 5c 24 c0 1a 9a 31 c0
       -2.5760067 -2.7095804 -2.5681486 -2.7750306
0001c0 7a e6 2c c0 af e8 39 c0 09 aa 2f c0 e9 00 2c c0
       -2.7015672 -2.9048269 -2.7447531 -2.6875556
0001d0 1e ab 28 c0 44 07 33 c0 d2 de 35 c0 db 69 38 c0
       -2.6354442 -2.7973185 -2.8417249 -2.881461
0001e0 b3 a9 31 c0 c3 ed 39 c0 20 fb 29 c0 06 46 25 c0
       -2.7759826 -2.9051368 -2.6559525 -2.582399
0001f0 c4 4a 23 c0 59 31 30 c0 53 b0 3a c0 c0 ea 2c c0
       -2.5514383 -2.753012 -2.917012 -2.701828

lstm.hh.mu_weight f4 [128, 32]
000000 4e 8a e8 bd d3 4f 82 3c 76 c6 e1 3d dd e7 f2 3d
       -0.113545045 0.015907204 0.110241815 0.11860631
000010 8f 0d c6 bd 1f 3a 88 3d 73 22 42 bd 1a 58 03 be
       -0.09670555 0.06651711 -0.047396135 -0.12826577
000020 24 a7 8f 3d dd 3f 3b 3e a9 51 25 be 54 29 c5 3c
       0.070143014 0.1828608 -0.16144432 0.024067558
000030 8f a6 a4 bd 55 f7 0c be 90 fc 76 3d 3f 8b 3a bc
       -0.08039581 -0.13766225 0.060299456 -0.011385738
000040 77 72 83 bd 70 4c cc bd 3a 04 45 be 67 39 fe bd
       -0.06418317 -0.09975517 -0.19239894 -0.124132924
000050 bf bf 97 3c 58 33 15 be b0 a4 02 3e 4f 77 f2 3d
       0.018524049 -0.14570367 0.12758136 0.118391626
000060 44 9b 92 bc 07 db 00 bd 50 18 44 3d 12 5d 99 bc
       -0.017896302 -0.03145888 0.04787475 -0.018721137
000070 43 e2 78 3d 99 bb 4a 3d 2f aa 69 3d ff 9e 88 3e
       0.060762655 0.049495313 0.057047065 0.26683804
000080 79 42 4e bc ff 41 05 3e 82 82 08 3d 94 de c6 3c
       -0.0125890905 0.13013457 0.033327587 0.024276055
000090 09 22 5e 3e 1e c6 0a be 0a 84 9d bc 6e 6e ec bd
       0.21692671 -0.13552138 -0.019228 -0.115445
0000a0 03 3e ba 3d 80 1d bc 3d 68 19 28 be f7 9a 1a bc
       0.09093859 0.09185314 -0.16415942 -0.009436361
0000b0 ea 95 0b be c4 34 9a 3c af 14 e0 3d 3f c6 06 be
       -0.13631406 0.018823989 0.10941445 -0.13161562
0000c0 2d 92 03 bd ab 79 ec bd 79 14 2b bc f2 49 04 3e
       -0.032121826 -0.11546644 -0.010441893 0.12918833
0000d0 79 de 35 be f2 69 c3 3e 7d 22 b0 bd 79 16 c8 bc
       -0.17760648 0.38166767 -0.08600328 -0.024424778
0000e0 11 c0 93 bd 4f 6d 04 be 59 6d 01 3e af 82 1a 3e
       -0.07214368 -0.12932323 0.12639369 0.15088914
0000f0 99 34 75 be 8b 1f 33 bd ee c8 cd 3b e0 ea 65 be
       -0.23945846 -0.043731254 0.006280056 -0.22452879
000100 2f 41 84 be 3c 13 5f bd 15 20 72 3e 64 9e ec 3a
       -0.2583098 -0.054461703 0.23645051 0.0018052575
000110 ac 15 3c 3e 04 bc e5 3d 7c 31 f1 bd f5 4a 70 be
       0.18367642 0.11217502 -0.117770165 -0.23466094
000120 af 40 1f 3e c3 e0 41 3e 45 66 39 be 52 75 1d 3e
       0.15552019 0.18933396 -0.18105419 0.15376785
000130 4f 3b f2 bd d3 6b 98 bd 86 68 89 3e 51 74 ab bd
       -0.118277185 -0.07442441 0.26837558 -0.08371795
000140 62 8b e7 bd ce 0d 48 be 5e cf c6 be d6 9b 7c 3e
       -0.11305882 -0.19536516 -0.38830084 0.24668822
000150 54 04 0a be 97 d8 ed 3c 0c 10 40 3c d3 45 24 be
       -0.13478214 0.029033942 0.011722576 -0.16042261
000160 2d a4 93 3d a9 d6 89 3c 31 a5 41 3e 18 61 c0 3d
       0.072090484 0.01682599 0.18910672 0.09393519
000170 5f 22 eb 3d e5 7c 42 be 0b ac 7e bd 18 d7 80 bd
       0.11481165 -0.18992956 -0.06217579 -0.06291026
000180 87 7a 53 3d b0 2c 28 be bc a1 22 bb db ec 9b bc
       0.051630523 -0.16423297 -0.002481564 -0.01903384
000190 77 3e 8d 3d 20 ce 16 bd 98 86 b4 3c 91 91 1c be
       0.0689668 -0.03681767 0.022036836 -0.15289904
0001a0 c7 31 01 3d df 94 14 3d cb a7 07 be ac 23 1c 3e
       0.031541612 0.036274787 -0.13247602 0.15247983
0001b0 88 aa 41 be 80 69 73 3d 24 09 05 be 2c 7c 49 3d
       -0.18912709 0.059426785 -0.12991768 0.049190685
0001c0 7f cc 71 be 8a c8 12 bd fd 8c d3 be f3 9d 46 3c
       -0.23613165 -0.03583578 -0.41318503 0.012122619
0001d0 c3 a0 0f be 7d 53 b3 3e 28 99 33 3d 4b 36 c5 bd
       -0.1402617 0.35024634 0.043847233 -0.09629496
0001e0 82 dc 9d be 9c f4 c8 bd 9d d2 07 3e be 9d 4c 3e
       -0.30832297 -0.098122805 0.13263936 0.19982049
0001f0 47 02 45 bc 37 e7 82 be 79 16 33 bd 43 1d 2f be
       -0.012024469 -0.25567028 -0.043722603 -0.17101006
000200 48 88 ae 3d c2 03 43 be 7f 71 f6 bc 7a 82 1f be
       0.08522087 -0.19044402 -0.030083416 -0.15577117
000210 45 ad ec 3d d6 96 13 3e 5e 22 ad 3d 63 a5 5c bd
       0.11556486 0.14413008 0.08453821 -0.053868663
000220 fe 93 09 be 31 f2 3c be bf c4 5b be a1 56 30 be
       -0.13435361 -0.18451764 -0.21461771 -0.17220546
000230 4c 4a 8e bc 21 05 18 3d de 3f 2f bd 45 c4 3b 3d
       -0.017369412 0.037114266 -0.042785518 0.045841474
000240 37 01 99 3e 19 13 a8 bd 35 9e 29 bd 56 73 19 be
       0.2988374 -0.082067676 -0.041410644 -0.14985403
000250 60 e0 ac bc 76 fb 50 be 66 45 3b be 26 0c 8c 3d
       -0.021103084 -0.20408425 -0.18288192 0.06838255
000260 5b 94 c7 bd dd 5f 54 3e 31 8d f6 bd 2e 8f 31 bc
       -0.097450934 0.20739694 -0.12038649 -0.010837359
000270 ca 65 8d bb 64 18 cf 3d f8 89 5d be 3a 81 e9 bd
       -0.0043151127 0.10112074 -0.21634662 -0.11401601
000280 48 30 d2 be 59 03 e2 3c 52 b4 86 3d 58 b5 b5 bd
       -0.4105246 0.027589487 0.06577362 -0.08872479
000290 af 54 fa 3d ff 5d 13 3d 47 6b 49 be be a0 4a be
       0.12223183 0.035978314 -0.1966983 -0.19787881
0002a0 29 e1 28 bd a2 e4 f6 3d 28 2a 65 3d d8 b8 e3 bd
       -0.041230354 0.12055327 0.055948406 -0.111192405
0002b0 98 a1 dc bd 3b 50 b9 bd f1 ef 2b be 95 b9 1b be
       -0.10773009 -0.09048506 -0.16790749 -0.15207513
0002c0 f0 f3 87 be 6b e9 b7 bd 17 5d 78 be d5 05 d2 3d
       -0.26553297 -0.08980068 -0.24254261 0.102550186
0002d0 c6 eb 3d be 0c c9 66 3e 28 b7 5a 3e dd 4e a6 be
       -0.18546972 0.22537631 0.21358931 -0.32482043
0002e0 29 2d b8 bd 78 50 a6 be 80 e4 8f bd aa 34 b4 3d
       -0.089929886 -0.32483268 -0.07026005 0.087991074
0002f0 70 b0 6f ba 5e d9 c9 be f8 81 eb bc eb 06 91 be
       -0.00091434177 -0.3942365 -0.028748497 -0.2832559
000300 cf 77 90 be 5a 2f b6 3d 48 58 1a bb 43 cf 27 3e
       -0.28216407 0.0889575 -0.0023551155 0.16387658
000310 26 7f b4 3d 97 36 65 bd 99 05 87 be e2 a3 e5 3c
       0.08813314 -0.055960264 -0.26371458 0.028032247
000320 41 99 bf bd a2 6f 89 bc c8 aa cd 3c b2 fe e3 bd
       -0.09355403 -0.016776863 0.025105849 -0.11132564
000330 40 45 e7 bd ce de 15 be 5b b2 55 3e 45 0e 2b bd
       -0.11292505 -0.14635774 0.20868818 -0.041761655
000340 66 d9 2b bd be 8d 50 3d 9c 85 55 be ef 64 a4 bd
       -0.041955374 0.050916426 -0.20851749 -0.08027064
000350 50 5f 8a bd 5e 53 10 3e 8e 19 38 bc 2b 9a 5f be
       -0.06756461 0.14094302 -0.011236561 -0.21836154
000360 2c 13 0d bd 40 b0 a1 3c 2b d1 93 3d 7b db a9 bd
       -0.03444211 0.019737363 0.0721763 -0.08293816
000370 e4 95 d8 bd 8b c5 80 bd a2 09 cf bc 99 57 05 bd
       -0.10575464 -0.06287678 -0.025273148 -0.032554243
000380 fc 6b 60 be 63 ea f2 bd 2c b8 4d 3e e6 44 33 be
       -0.21916193 -0.11861112 0.20089787 -0.17506751
000390 a5 a2 a8 3d c2 9d 78 3e 69 41 ae bd e5 0a 40 be
       0.08234147 0.2427893 -0.0850857 -0.18754156
0003a0 1b 76 bc 3e 4c 6b 21 3e 9a 48 54 be 9d c3 61 3e
       0.36808857 0.15763587 -0.2073082 0.22047277
0003b0 12 2c 8c be 80 8d 2d be 52 2d 92 3e d5 ee 47 bd
       -0.27377373 -0.16948509 0.28550202 -0.048811752
0003c0 50 72 87 bd 14 7e 55 be 25 dd 98 bd 7a 87 70 3e
       -0.066136 -0.20848876 -0.07464055 0.2348918
0003d0 72 f4 b5 be 05 c1 ed 3d 03 f8 cc 3d 4c 3c 5d be
       -0.3553806 0.11609081 0.10008242 -0.21605033
0003e0 ff 72 b0 3d 06 cd ec bd 93 b1 5a 3e 33 4e cf 3d
       0.08615684 -0.115625426 0.21356802 0.10122337
0003f0 8a 9b 0b 3d d5 58 11 be a9 80 be bc 78 44 95 bd
       0.03408388 -0.14194043 -0.02325471 -0.0728845

lstm.hh.rho_weight f4 [128, 32]
000000 e8 f8 44 c0 9e 79 33 c0 15 48 40 c0 c6 75 2c c0
       -3.077692 -2.804298 -3.0043995 -2.6946883
000010 d5 36 42 c0 9c 15 45 c0 a0 40 3b c0 be e2 36 c0
       -3.0345967 -3.079444 -2.9258194 -2.8575892
000020 28 3d 3a c0 0e 7c 36 c0 7a f1 3e c0 3b a4 42 c0
       -2.9099827 -2.8513217 -2.9834886 -3.0412738
000030 10 8f 3d c0 b9 c0 2d c0 9a 83 39 c0 6c a8 51 c0
       -2.9618568 -2.7148879 -2.8986573 -3.2759047
000040 7c 23 36 c0 af 82 3e c0 af 2e 39 c0 0a 3c 34 c0
       -2.8459158 -2.9767263 -2.8934743 -2.8161645
000050 32 58 48 c0 2a 62 41 c0 bd 62 3e c0 1d 17 3f c0
       -3.130383 -3.0216165 -2.9747765 -2.9857857
000060 11 18 39 c0 77 b5 44 c0 a6 44 30 c0 42 7c 47 c0
       -2.892094 -3.0735757 -2.75419 -3.116959
000070 fb 91 36 c0 3d 7a 34 c0 eb b2 41 c0 dc da 36 c0
       -2.85266 -2.8199608 -3.0265453 -2.857108
000080 65 f5 35 c0 3f 26 3c c0 86 7e 32 c0 16 0a 41 c0
       -2.8431027 -2.9398344 -2.7889724 -3.0162406
000090 bf f3 3f c0 df 60 3d c0 d7 21 30 c0 75 97 2b c0
       -2.999252 -2.9590375 -2.7520654 -2.6811192
0000a0 05 98 31 c0 ca 8b 37 c0 da 30 33 c0 5b 7b 43 c0
       -2.7749035 -2.867907 -2.7998567 -3.054404
0000b0 6f 48 3a c0 96 0b 3b c0 49 20 3b c0 eb 1d 3e c0
       -2.910671 -2.9225821 -2.9238455 -2.970576
0000c0 95 9b 44 c0 ad 92 35 c0 70 45 36 c0 cb 33 46 c0
       -3.071996 -2.8370774 -2.8479881 -3.0969112
0000d0 27 34 3a c0 de 3a 3f c0 89 78 3d c0 3e 52 3d c0
       -2.9094331 -2.987968 -2.960482 -2.9581447
0000e0 58 39 3c c0 27 06 3b c0 b1 fc 3a c0 d4 07 47 c0
       -2.941 -2.9222505 -2.921673 -3.1098528
0000f0 16 de 36 c0 42 6c 3b c0 f9 a0 3a c0 bf c3 31 c0
       -2.857305 -2.9284825 -2.916075 -2.7775724
000100 88 fc 31 c0 6e 65 34 c0 81 c2 3b c0 1f 8d 3f c0
       -2.7810383 -2.8186908 -2.9337466 -2.9929883
000110 dc 1b 40 c0 61 f7 3b c0 0e 7b 39 c0 c3 8b 39 c0
       -3.0017004 -2.9369738 -2.8981357 -2.8991554
000120 a1 e6 2c c0 54 92 3d c0 54 07 35 c0 56 0d 44 c0
       -2.7015765 -2.9620562 -2.8285723 -3.063314
000130 dd 93 38 c0 e8 46 34 c0 89 82 3c c0 1a 02 36 c0
       -2.8840249 -2.8168278 -2.9454672 -2.8438783
000140 c6 0b 3a c0 a2 64 44 c0 54 b0 43 c0 6b 20 34 c0
       -2.9069686 -3.0686421 -3.0576372 -2.8144786
000150 26 7c 32 c0 27 9f 2f c0 86 51 3c c0 05 9f 35 c0
       -2.7888274 -2.744089 -2.9424758 -2.8378308
000160 f2 dd 36 c0 ff ef 3c c0 86 79 3c c0 6c 8a 35 c0
       -2.8572965 -2.9521482 -2.9449172 -2.8365736
000170 28 fc 2d c0 0d 09 39 c0 8f 87 38 c0 16 b7 30 c0
       -2.7185154 -2.8911774 -2.8832738 -2.7611747
000180 e9 9a 40 c0 f1 38 3a c0 4d 97 44 c0 d1 b7 34 c0
       -3.009455 -2.9097254 -3.0717347 -2.8237193
000190 97 4d 3a c0 6d 2c 3e c0 ce 26 3d c0 71 44 3a c0
       -2.9109857 -2.9714615 -2.9554935 -2.9104273
0001a0 19 de 2a c0 53 03 3d c0 27 d9 3a c0 57 0f 38 c0
       -2.6698058 -2.953328 -2.919504 -2.8759363
0001b0 84 bf 37 c0 3e 6e 38 c0 26 35 3d c0 5c 5e 39 c0
       -2.8710642 -2.8817286 -2.956369 -2.8963842
0001c0 0a 29 3f c0 71 3f 2b c0 6a 4b 3f c0 b8 88 3a c0
       -2.9868798 -2.6757472 -2.988978 -2.9145947
0001d0 b9 85 36 c0 f4 23 38 c0 dc 9a 41 c0 ad bc 3d c0
       -2.8519118 -2.8771944 -3.0250769 -2.9646409
0001e0 f3 f9 36 c0 9a a9 3e c0 d8 16 42 c0 6a fb 39 c0
       -2.8590057 -2.9791017 -3.0326443 -2.90597
0001f0 b5 08 44 c0 8e 3c 39 c0 ee f1 3d c0 d3 f6 37 c0
       -3.0630314 -2.894321 -2.9678912 -2.87444
000200 03 42 3a c0 9e ce 39 c0 ed 70 40 c0 79 0c 35 c0
       -2.910279 -2.903236 -3.0068924 -2.8288863
000210 ac 6d 34 c0 92 f1 32 c0 bd ad 33 c0 c1 cd 3b c0
       -2.8191938 -2.7959943 -2.8074791 -2.9344332
000220 7b 79 2d c0 3e e9 32 c0 6e 63 33 c0 7c 2a 39 c0
       -2.7105396 -2.795486 -2.8029437 -2.893218
000230 7e 06 4d c0 70 f4 38 c0 cd 0d 43 c0 f5 74 43 c0
       -3.2035213 -2.8899193 -3.0477173 -3.0540135
000240 d8 98 38 c0 60 75 3d c0 f2 4b 3b c0 35 3d 48 c0
       -2.8843288 -2.960289 -2.9265103 -3.1287358
000250 4a fc 44 c0 91 af 3a c0 4a 41 3f c0 8f ad 3c c0
       -3.0778985 -2.9169657 -2.98836 -2.9480932
000260 96 86 38 c0 0f 7c 32 c0 f9 56 3e c0 ab fb 3d c0
       -2.8832145 -2.788822 -2.9740584 -2.9684856
000270 f8 2b 3d c0 38 4f 37 c0 7c dc 39 c0 51 2a 34 c0
       -2.9558086 -2.8642101 -2.9040823 -2.8150828
000280 41 d7 32 c0 46 30 34 c0 4b 15 47 c0 94 03 40 c0
       -2.794388 -2.8154464 -3.1106746 -3.0002184
000290 79 d6 3f c0 fd e0 4b c0 dc bc 32 c0 0b 71 3a c0
       -2.9974654 -3.1856072 -2.792777 -2.9131496
0002a0 83 3f 45 c0 26 5d 3c c0 e2 8a 34 c0 8d 92 3b c0
       -3.0820014 -2.9431853 -2.8209767 -2.9308197
0002b0 8b 13 37 c0 d3 a7 33 c0 df 5f 3b c0 be dd 38 c0
       -2.8605678 -2.8071182 -2.9277265 -2.888534
0002c0 22 19 3e c0 d9 c1 2c c0 8e e2 32 c0 f6 d7 36 c0
       -2.970284 -2.6993315 -2.7950778 -2.8569312
0002d0 2f 46 33 c0 a2 7f 3f c0 a5 66 3c c0 32 13 40 c0
       -2.8011587 -2.992165 -2.943765 -3.0011716
0002e0 2d 0c 33 c0 9a ed 3f c0 4b 5d 43 c0 7f 78 41 c0
       -2.7976182 -2.998877 -3.0525692 -3.0229795
0002f0 9c e5 41 c0 e3 2d 37 c0 04 03 4b c0 6d 64 31 c0
       -3.0296392 -2.8621757 -3.172059 -2.7717545
000300 3b 71 3e c0 41 d4 3e c0 44 19 37 c0 a2 5e 40 c0
       -2.975661 -2.981705 -2.860917 -3.005776
000310 91 4c 38 c0 93 b1 39 c0 19 a9 33 c0 1a e3 38 c0
       -2.8796732 -2.9014633 -2.807196 -2.8888612
000320 cf 05 3c c0 66 36 4c c0 d5 c3 3b c0 8b f9 3a c0
       -2.9378545 -3.1908202 -2.9338276 -2.921481
000330 b6 09 37 c0 a6 3b 43 c0 d3 7f 29 c0 7d 59 49 c0
       -2.8599677 -3.0505157 -2.6484268 -3.146087
000340 1e 00 35 c0 4e c1 3b c0 d4 63 44 c0 e3 b9 38 c0
       -2.8281322 -2.9336734 -3.068593 -2.8863456
000350 fd d0 3b c0 3f 4e 42 c0 05 dc 31 c0 1b 28 3a c0
       -2.9346306 -3.0360258 -2.779054 -2.9086978
000360 91 ca 3d c0 d1 98 43 c0 20 da 45 c0 fd 35 3d c0
       -2.9654887 -3.0562022 -3.0914383 -2.9564202
000370 66 73 49 c0 32 f6 42 c0 79 26 3a c0 9c c2 3b c0
       -3.1476684 -3.0462766 -2.9085982 -2.933753
000380 ac a4 2a c0 27 d2 38 c0 a9 1b 37 c0 b9 48 4b c0
       -2.6663008 -2.8878267 -2.8610632 -3.1763136
000390 d5 7f 39 c0 e9 90 3f c0 ba c9 26 c0 67 d6 3d c0
       -2.8984272 -2.9932196 -2.6060624 -2.966211
0003a0 61 4b 2c c0 a9 c3 31 c0 b0 df 23 c0 64 56 39 c0
       -2.6921008 -2.7775671 -2.5605278 -2.8958979
0003b0 ed 09 36 c0 5e e5 2b c0 03 73 30 c0 23 9f 28 c0
       -2.8443558 -2.6858745 -2.7570198 -2.634713
0003c0 da 33 3e c0 27 fc 2c c0 5a f2 34 c0 83 3d 38 c0
       -2.9719148 -2.7028902 -2.827292 -2.8787544
0003d0 f6 ba 2b c0 c4 20 40 c0 17 51 2c c0 f1 e8 27 c0
       -2.6832862 -3.0019999 -2.6924493 -2.6235926
0003e0 b4 f3 31 c0 8d 46 28 c0 dd ed 41 c0 62 95 36 c0
       -2.7804995 -2.629306 -3.030143 -2.8528676
0003f0 77 d6 3a c0 df a4 32 c0 65 e1 39 c0 f9 9c 2e c0
       -2.91934 -2.791313 -2.904382 -2.7283309

lstm.hh.mu_bias f4 [128]
000000 68 58 a6 3e af 3c 04 3e 5a 0c fc 3d 2d 7f c2 3d
       0.32489324 0.12913774 0.123070434 0.09496913
000010 a9 2b f0 3d 6c 57 cf bd 3a eb e8 bd 33 8c 9e 3e
       0.117270775 -0.10124096 -0.11372991 0.3096634
000020 dc 26 55 3e fd fc e8 3c 8e 1d 24 3a 8b 37 01 3e
       0.20815605 0.028440947 0.00062605075 0.12618844
000030 b4 ad 83 3e c6 12 b6 bc 9d 88 2f 3e 14 85 de 3c
       0.25718462 -0.022225749 0.17141958 0.027163066
000040 55 2c c5 bc 3e f2 90 3e 58 1f 5d 3e 6f 3e 35 3e
       -0.02406899 0.28309816 0.21593988 0.17699598
000050 85 e3 2e be f3 4c 6a 3e 19 6c 24 3e cd 1f 24 3e
       -0.1707898 0.22880916 0.16056861 0.16027756
000060 a9 ac c5 3d 39 d3 43 3e 2f 40 e4 3b e9 1a a7 3d
       0.09652073 0.19123544 0.006965659 0.081594296
000070 7a 23 22 3e f1 8f 65 bd e1 a3 a2 3e d3 a5 29 3d
       0.15833846 -0.056045476 0.31765655 0.041417908
000080 4c 82 2c 3c 1d 8b 82 bd d7 39 b8 3d 32 b6 d3 bd
       0.010529112 -0.0637419 0.08995407 -0.103374854
000090 fc a0 1f be 5c fe 3a bd e0 7b 0f 3e 91 15 ce 3e
       -0.15588754 -0.045652732 0.14012098 0.4025083
0000a0 3f 3c 06 be 9f 4f 26 3e 2c b2 d3 bc c0 58 fa 3d
       -0.1310892 0.1624131 -0.025841795 0.12223959
0000b0 f6 db 1a 3d ac 14 0f bc 16 c0 03 bd 22 33 a1 bc
       0.037807427 -0.008732956 -0.03216561 -0.019677702
0000c0 4c 98 d7 3d d8 7d 43 3e 0f c9 89 3d a4 ae 50 3e
       0.10527095 0.19090974 0.06727802 0.2037912
0000d0 6b ed 51 3e 89 8e d7 3d 88 d4 97 3d 14 c4 1d 3e
       0.20500724 0.10525233 0.07413584 0.15406829
0000e0 6c 88 66 3e 33 3d 0c 3e a0 32 43 3e c3 e4 47 3e
       0.22512978 0.1369522 0.1906228 0.1952086
0000f0 bd 9e 76 3e e2 b9 9b bd e1 20 9c 3c 02 1b 74 3e
       0.24083991 -0.07603814 0.019058647 0.23838428
000100 60 84 c6 bd b0 e5 ae bc b0 a3 77 3e e0 0a cb bd
       -0.09693217 -0.021349758 0.24183536 -0.099141836
000110 2e 67 16 3e b7 7d f1 3d 77 a2 9b bd e2 f4 6e be
       0.14687797 0.11791556 -0.07599347 -0.23335603
000120 f7 ba 70 3e 59 b3 0b 3e cc 08 8f bd d5 dd 12 bd
       0.23508821 0.13642634 -0.069841 -0.035856087
000130 9e ff 17 3d 77 18 51 be f3 12 0c 3e 4b 57 54 3e
       0.03710901 -0.20419489 0.13679104 0.20736425
000140 2d 8e 60 bd f8 07 77 be 92 62 4d be 18 dc 3a 3e
       -0.05482309 -0.24124134 -0.20057133 0.18248022
000150 6a 62 9a ba 5a eb 03 3e 72 6d 19 be 1c 39 91 3c
       -0.0011778597 0.12882748 -0.14983156 0.017727427
000160 72 cd 21 3e e2 7a 27 be 40 bb 8e 3e 44 eb a4 3e
       0.15801027 -0.1635547 0.27877235 0.32210743
000170 35 d0 82 be 24 b7 ea bd 91 00 53 be 0d 93 b5 bd
       -0.25549474 -0.114607126 -0.20605685 -0.08865938
000180 8b d6 7e 3e a3 3d 73 bd 1c e9 66 3e 48 81 8c 3e
       0.24886529 -0.059384953 0.22549862 0.27442384
000190 8a ef bb 3e 2e 97 ea 3c 50 7c 8d 3e dc ea 33 3e
       0.3670619 0.028636541 0.27633905 0.1757006
0001a0 35 9a 9c 3e 78 f4 88 3e 4b e2 99 3e 5a c1 21 3e
       0.305864 0.26749015 0.3005546 0.15796414
0001b0 f8 c7 09 3e 1a 57 73 3e ba 44 aa 3e 04 eb c7 3e
       0.13455188 0.23763695 0.3325556 0.3904649
0001c0 0a c9 be 3e 80 ef c3 3d 25 d6 f3 3d 50 12 37 3e
       0.37262756 0.095671654 0.11906079 0.1787808
0001d0 64 62 5e 3e d1 17 e9 3e 45 cd 8b 3e 9e c2 34 3d
       0.2171722 0.45525983 0.27305046 0.044130914
0001e0 b5 2d 77 3d f5 27 12 3e 69 7c fa 3e bb 0e a3 3e
       0.060346324 0.14273055 0.48923042 0.31847176
0001f0 77 f1 b5 3e 07 c5 3e 3e 02 63 25 3e 43 b0 07 3e
       0.35535786 0.18629847 0.1615105 0.13250832

lstm.hh.rho_bias f4 [128]
000000 fb 1a 2b c0 b8 aa 2b c0 23 68 22 c0 3a 49 26 c0
       -2.6735218 -2.6822948 -2.537606 -2.5982194
000010 73 09 37 c0 d2 c7 28 c0 79 07 24 c0 b8 32 27 c0
       -2.8599517 -2.637196 -2.562956 -2.6124706
000020 2a a9 26 c0 ea d8 25 c0 34 e3 2a c0 3e 36 38 c0
       -2.604075 -2.5913644 -2.6701174 -2.8783107
000030 40 60 27 c0 29 f5 24 c0 c5 00 2f c0 b8 c4 32 c0
       -2.6152496 -2.5774634 -2.734422 -2.7932568
000040 a8 37 2d c0 2d 20 0c c0 40 26 30 c0 7b cf 17 c0
       -2.706522 -2.1894639 -2.7523346 -2.3720386
000050 93 03 31 c0 a9 88 29 c0 86 c8 29 c0 d3 78 22 c0
       -2.7658432 -2.648966 -2.652864 -2.5386245
000060 7c 0b 31 c0 e6 8b 2f c0 f2 24 27 c0 03 23 2a c0
       -2.766326 -2.7429137 -2.61163 -2.658387
000070 ae f1 1b c0 7d f5 38 c0 9f 2d 29 c0 97 94 2c c0
       -2.436626 -2.8899834 -2.6434095 -2.6965692
000080 e6 d2 2c c0 07 43 33 c0 54 ad 16 c0 2e 85 2c c0
       -2.7003722 -2.800966 -2.354329 -2.6956286
000090 7f 66 2f c0 94 d4 39 c0 0b 58 1f c0 1d c8 0e c0
       -2.7406309 -2.9035997 -2.4897487 -2.230964
0000a0 9c 03 23 c0 ba 39 28 c0 2b 2f 37 c0 dc f6 36 c0
       -2.5470953 -2.6285233 -2.862254 -2.858817
0000b0 41 29 3c c0 3a 5e 23 c0 b0 2b 36 c0 75 ac 25 c0
       -2.940018 -2.5526261 -2.8464165 -2.588651
0000c0 75 2d 30 c0 3c 3d 20 c0 08 5f 32 c0 f2 d1 22 c0
       -2.7527745 -2.5037374 -2.7870502 -2.544064
0000d0 1a e0 1f c0 6d 91 18 c0 26 6e 35 c0 cd bd 18 c0
       -2.498053 -2.383876 -2.834848 -2.3865845
0000e0 e4 31 31 c0 84 3d 3e c0 ec ee 33 c0 c6 be 10 c0
       -2.76867 -2.9725046 -2.8114576 -2.261644
0000f0 19 23 14 c0 d0 25 26 c0 c4 2c 25 c0 3c 36 2f c0
       -2.3146422 -2.596058 -2.5808573 -2.7376852
000100 05 c5 3a c0 38 60 2d c0 d6 7a 35 c0 2d c2 45 c0
       -2.918275 -2.7089977 -2.8356223 -3.0899765
000110 db 52 36 c0 2b 34 41 c0 c5 ff 2d c0 93 44 2c c0
       -2.848807 -3.018809 -2.718736 -2.6916854
000120 be 33 40 c0 10 b8 2f c0 76 ab 31 c0 1b 73 47 c0
       -3.003158 -2.7456093 -2.7760901 -3.1164005
000130 26 1c 3f c0 3b 14 32 c0 fc cf 34 c0 47 2a 37 c0
       -2.986093 -2.7824848 -2.8251944 -2.8619554
000140 cd 1b 48 c0 23 f2 38 c0 0f d1 3b c0 a2 8e 3c c0
       -3.1266968 -2.8897789 -2.934635 -2.9462056
000150 34 fe 3a c0 14 b0 3a c0 e6 ae 3c c0 20 f1 3b c0
       -2.9217653 -2.916997 -2.948175 -2.936592
000160 ef 75 34 c0 95 21 36 c0 38 1c 35 c0 40 57 32 c0
       -2.819698 -2.8457997 -2.8298473 -2.7865753
000170 24 7c 35 c0 e5 4e 36 c0 54 7c 4a c0 ac 69 3f c0
       -2.835702 -2.8485653 -3.1638384 -2.9908247
000180 66 61 2d c0 9b ba 22 c0 59 0e 2c c0 08 07 2a c0
       -2.7090697 -2.5426395 -2.6883757 -2.6566792
000190 83 8e 22 c0 e5 06 24 c0 8f ca 2b c0 ac 1f 2e c0
       -2.5399482 -2.5629208 -2.6842382 -2.720683
0001a0 5a 9b 26 c0 97 dd 2e c0 fa 3d 35 c0 fd 41 23 c0
       -2.603232 -2.7322748 -2.8319077 -2.5509026
0001b0 23 28 2a c0 22 d3 32 c0 d9 dc 1d c0 0c f1 28 c0
       -2.6586998 -2.7941365 -2.4666045 -2.6397123
0001c0 08 72 31 c0 5e 4e 32 c0 5c 48 3b c0 f0 36 24 c0
       -2.772585 -2.7860332 -2.9262915 -2.565853
0001d0 00 39 31 c0 07 ad 3b c0 48 64 2b c0 d5 c7 2f c0
       -2.769104 -2.9324358 -2.6779957 -2.7465718
0001e0 c3 f4 2d c0 78 9d 37 c0 1a 06 32 c0 a1 62 2a c0
       -2.718064 -2.8689861 -2.7816224 -2.6622698
0001f0 16 0e 31 c0 25 3c 28 c0 46 53 2f c0 ff c7 2b c0
       -2.7664847 -2.628671 -2.7394576 -2.6840818

l1.mu_weight f4 [16, 32]
000000 88 64 d7 be 27 6c 24 bf 2f 0a 06 3f 7c f8 06 bf
       -0.42068887 -0.6422753 0.5235929 -0.5272291
000010 46 da f4 3e 51 1d 0d 3f 1d 0a 17 bf 9c 1b 15 bf
       0.4782278 0.5512286 -0.58999807 -0.58245254
000020 40 b7 0a 3f 5d c4 24 3f f3 ff e8 3e e6 40 e4 3e
       0.5418587 0.64362127 0.45507774 0.44580764
000030 b6 55 05 bf 15 92 00 bf 53 dc 32 3f 12 d7 1f 3f
       -0.5208391 -0.50222903 0.6986744 0.62437546
000040 fb 52 07 bf f3 1b d9 be 97 79 00 bf af b4 13 3f
       -0.52860993 -0.42404136 -0.5018553 0.57697576
000050 5a b2 ce be b0 72 f5 3e a6 0c 06 3f b3 37 23 bf
       -0.40370446 0.47939062 0.5236305 -0.63756865
000060 f8 63 b8 be 69 1e 1b bf bd 88 12 3f 8e 07 e7 3e
       -0.3601377 -0.6059328 0.57239896 0.4512295
000070 38 91 3e bf b3 6a ff be 3f e7 02 bf 5f 7b a8 be
       -0.74440336 -0.49886093 -0.51134104 -0.32906625
000080 1f a3 dc be 85 e3 fc be 53 70 04 3f 27 96 ff be
       -0.43093202 -0.49392334 0.51733893 -0.49919245
000090 cd 94 eb 3e e4 41 b2 3e 9e 01 0c bf e2 c9 ba be
       0.46011963 0.34815896 -0.5468997 -0.3648215
0000a0 13 27 23 3f 84 0b d1 3e 71 fa d2 3e e4 cd 0a 3f
       0.637315 0.40829098 0.41206697 0.54220414
0000b0 58 6c b9 be 6f 9b bd be b4 a3 f2 3e 64 74 0e 3f
       -0.36215472 -0.3703265 0.4739052 0.5564635
0000c0 69 19 bb be 7e 7b 0f bf 0a 22 df be 93 25 0b 3f
       -0.36542824 -0.5604781 -0.43580657 0.5435421
0000d0 75 e4 c3 be 68 9c de 3e d1 6c ef 3e aa 53 14 bf
       -0.38260236 0.43478703 0.46762708 -0.5794016
0000e0 a9 72 0a bf 8b 76 fd be 5a ef 11 3f d4 90 c9 3e
       -0.5408121 -0.49504504 0.57005847 0.39368308
0000f0 c7 7c e7 be 83 c6 29 bf 5d bb 08 bf d5 77 0a bf
       -0.45212385 -0.6631853 -0.53410894 -0.540891
000100 4c 2d b7 be ea bb aa be 19 af 10 3f ea 61 07 bf
       -0.35776746 -0.33346492 0.5651718 -0.5288378
000110 b9 db 10 3f d3 ea 1e 3f 95 a8 14 bf b5 cc 06 bf
       0.5658527 0.62077063 -0.58069736 -0.5265611
000120 29 61 ec 3e ec ce 01 3f 34 82 75 3e a5 9c e9 3e
       0.46167877 0.5070636 0.2397545 0.45627323
000130 27 1a 30 bf 6d 38 9c be ef 76 26 3f e1 9b 06 3f
       -0.68789905 -0.305118 0.6502523 0.525816
000140 ab e5 00 bf 25 5d 05 bf 9b 16 0d bf a6 89 01 3f
       -0.50350446 -0.5209525 -0.5511262 0.5060066
000150 3c 82 2f bf 32 fd 0c 3f e7 02 cb 3e e5 e9 4a be
       -0.68558097 0.55073845 0.39650652 -0.19815786
000160 ee 2a 2f bf f7 15 27 bf 3a ad 25 3f 61 fb 00 3f
       -0.6842488 -0.6526789 0.6471745 0.50383574
000170 5e ea 11 bf 36 8f 16 bf 4f bc 0c bf 76 65 21 bf
       -0.5699824 -0.5881227 -0.54974836 -0.6304544
000180 c8 6c 08 bf 0b c2 22 bf 71 54 7b 3e 64 fa c8 be
       -0.53290987 -0.63577336 0.2454393 -0.39253533
000190 42 f1 f1 3e d6 b3 d0 3e 2b 31 2b bf 34 e6 0a bf
       0.47254378 0.40762204 -0.668719 -0.5425751
0001a0 94 8a 1a 3f 26 87 8f 3e 7e ed 3e 3e 0c 5b 00 3f
       0.60367703 0.28032798 0.18645284 0.50138927
0001b0 1d dc 0e bf 57 60 fe be c9 cb dd 3e 4c 24 15 3f
       -0.55804616 -0.49682876 0.43319538 0.5825851
0001c0 1f af e2 be 03 14 13 bf 50 02 09 bf fd 2f 06 3f
       -0.44274232 -0.5745241 -0.53519154 0.52416974
0001d0 c1 c5 ed be c6 95 0d 3f 68 09 b9 3e c7 5f ed be
       -0.46439937 0.5530666 0.3613999 -0.46362135
0001e0 1b b6 02 bf 5a 16 dc be 5c 30 f7 3e bf 45 32 3f
       -0.5105912 -0.42985803 0.48279083 0.69637674
0001f0 a5 3a c8 be a6 2d 21 bf 83 d8 d1 be ca 24 15 bf
       -0.39107242 -0.6296028 -0.40985498 -0.5825926
000200 b6 36 26 bf c9 69 2c bf 71 da 03 3f 73 19 24 bf
       -0.6492723 -0.67348915 0.5150519 -0.6410133
000210 17 6e 0b 3f ca 39 16 3f b3 54 12 bf 6b c8 0f bf
       0.5446486 0.5868193 -0.5716049 -0.5616519
000220 ab e5 93 3e 78 b7 3a 3f 6b 65 ad 3e 3b ed 04 3f
       0.2888616 0.729362 0.33866438 0.51924485
000230 9d 7f 11 bf 25 fb 19 bf 56 c7 dd 3e 4b e8 ff 3e
       -0.5683535 -0.6014884 0.43316144 0.49981913
000240 f4 3b 06 bf fd 7a 0c bf 33 27 ab be 13 7f 2c 3f
       -0.5243523 -0.54875165 -0.33428344 0.673814
000250 f5 62 04 bf 13 6c 10 3f 06 d7 09 3f d6 df a5 be
       -0.51713496 0.5641491 0.53843725 -0.32397336
000260 4f 4e fa be 65 f2 fd be 2f ab 10 3f d2 e9 0b 3f
       -0.4888787 -0.49598995 0.56511205 0.54653656
000270 1b 72 22 bf 22 2f 9a be 69 87 1f bf f3 1f ce be
       -0.6345536 -0.30114084 -0.62315995 -0.4025875
000280 91 cc f2 be 99 5a 02 bf 16 52 2b 3f 68 3d 01 bf
       -0.47421697 -0.5091949 0.6692213 -0.50484324
000290 10 cb 0e 3f 46 4e 02 3f 4d ae 05 bf ce 95 f7 be
       0.557786 0.50900686 -0.52219087 -0.4835648
0002a0 de df f9 3e 6c b0 f6 3e ee c5 92 3e d0 1a f4 3e
       0.4880361 0.48181474 0.28666633 0.47676706
0002b0 ff 3d 04 bf 74 2c b3 be b0 b4 1f 3f 90 54 0f 3f
       -0.516571 -0.34994853 0.6238508 0.5598841
0002c0 32 80 95 be 70 07 0d bf 83 7a 27 bf 40 5b e4 3e
       -0.29199368 -0.55089474 -0.65421313 0.44600868
0002d0 9b 09 a2 be 18 dc 32 3f 92 37 0d 3f 58 03 28 bf
       -0.31647953 0.69867086 0.5516292 -0.656301
0002e0 bb a4 23 bf fa dd 0e bf 83 c2 e3 3e ac 21 0f 3f
       -0.63923234 -0.5580746 0.44484338 0.55910754
0002f0 f1 d7 26 bf 05 6d 00 bf 45 ef 2b bf 0b b4 ee be
       -0.6517325 -0.5016635 -0.6716197 -0.46621737
000300 17 f8 e8 be 96 67 03 bf 57 4c e7 3e 2f b5 0b bf
       -0.45501778 -0.51329935 0.4517543 -0.5457334
000310 78 ff ee 3e 1d 66 26 3f ca f4 bd be db 95 f6 be
       0.46679282 0.6499956 -0.37100822 -0.48161206
000320 c4 28 c5 3e d1 14 0b 3f 52 86 df 3e 7c 44 1e 3f
       0.38507664 0.5432864 0.43657166 0.6182325
000330 76 1a 15 bf 29 d5 f1 be 6d be 17 3f a9 c2 f7 3e
       -0.582435 -0.4723294 0.5927494 0.483907
000340 0b 05 03 bf b6 b6 c5 be e2 f5 04 bf 4f 76 bb 3e
       -0.5117957 -0.3861596 -0.5193769 0.366137
000350 2b 72 25 bf c5 03 c4 3e 76 e4 cf 3e 0d e9 12 bf
       -0.6462733 0.38284126 0.4060399 -0.5738686
000360 7e f2 e6 be e8 21 02 bf d6 34 ea 3e 91 86 cd 3e
       -0.45106882 -0.50832987 0.45743436 0.4014173
000370 16 0e ef be 33 cc f8 be cf 0b 1b bf 85 18 02 bf
       -0.46690434 -0.48593292 -0.60564893 -0.50818664
000380 61 da d9 be 97 d6 b6 be 0b 59 37 3f a6 06 e6 be
       -0.42549422 -0.35710594 0.71620244 -0.44926947
000390 5f d6 11 3f 0e f4 12 3f 79 f9 0a bf 87 0a 03 bf
       0.5696773 0.5740365 -0.54286915 -0.5118794
0003a0 8a 37 d2 3e 1a df 22 3f 24 62 c3 3e df c6 0f 3f
       0.41057998 0.63621676 0.38160813 0.5616283
0003b0 db d5 05 bf e1 3c 26 bf 22 f1 04 3f 91 a5 11 3f
       -0.5227944 -0.64936644 0.5193044 0.5689326
0003c0 1e 89 1a bf dc 73 05 bf d7 65 15 bf 7c 6b 05 3f
       -0.60365474 -0.5212991 -0.5835852 0.52117133
0003d0 7d 56 15 bf 14 ee 01 3f 01 a2 9c 3e a0 3c d9 be
       -0.58335096 0.50753903 0.3059235 -0.42429066
0003e0 ef ad 1f bf d8 5b d8 be 1f 33 12 3f 75 38 ff 3e
       -0.62374777 -0.4225757 0.57109255 0.4984776
0003f0 37 6f 10 bf f3 46 11 bf 92 d1 38 bf af 5c f5 be
       -0.564197 -0.56748885 -0.7219478 -0.47922274
