BNN/model_states/BNN_model_state_FD001_denoised_orig.pt (torch, 57845 bytes, 14 tensors)

lstm.ih.mu_weight f4 [128, 14]
000000 0c a9 1f 3e b9 55 12 3e 72 75 16 3e b9 b5 7b be
       0.1559183 0.14290513 0.1469324 -0.2458104
000010 56 39 6d 3d b7 93 8c be 4a 7d 48 3d 1a 0d 14 be
       0.057916008 -0.27456447 0.04894761 -0.14458123
000020 82 90 50 bd 72 f0 32 3d 1b b8 c1 bc c3 e4 1d be
       -0.050919063 0.043686338 -0.023647359 -0.15419297
000030 9d 88 fc bd a5 aa 6b bd 3b d3 f2 bd 8d 86 19 3d
       -0.123307444 -0.057535786 -0.11856695 0.037481833
000040 9b 43 42 3e 13 51 d1 bc dd b0 d7 bd 4c b4 28 bd
       0.18971102 -0.025551355 -0.10531781 -0.04118757
000050 20 3c 43 bd 3b 48 08 3e c5 8c 94 3d d2 fa aa 3d
       -0.04766476 0.13308804 0.07253412 0.083486214
000060 1b 82 d2 3d 3e 2b dc 3d 71 b5 63 3d c1 2c 1c 3e
       0.10278722 0.10750435 0.055592958 0.15251447
000070 4c 2f 4d bd 86 20 8a 3c 0d c7 79 3d c0 5a d1 3c
       -0.050093934 0.016861212 0.060980845 0.025555968
000080 f8 51 e7 bd e9 7f da bd c4 a8 6a 3d 6b e6 11 3e
       -0.11294931 -0.10668928 0.057289854 0.14248054
000090 00 4b c2 3d c7 46 87 bd 66 a8 80 3d 74 11 3f bd
       0.09486961 -0.066052966 0.062821195 -0.046647504
0000a0 e3 25 5d be 3e 22 8e 3d ae 52 9d be af 91 21 be
       -0.21596484 0.06940125 -0.30727142 -0.1577823
0000b0 71 90 55 be bd 77 90 3e 11 ed 17 be cc 54 cb b9
       -0.20855881 0.28216353 -0.14836527 -0.00038782356
0000c0 99 4f 07 be 38 0a e4 3d d4 b2 c1 3d c6 48 21 3e
       -0.13213958 0.111347616 0.09457937 0.15750417
0000d0 e5 6d 7d be 4c 98 fa 3c 38 bf 49 bc 1b b0 8e 3c
       -0.24748953 0.030590199 -0.0123136565 0.017417958
0000e0 d5 00 5e be 34 91 0d bd 72 90 a4 3c a7 9c 75 3d
       -0.21680005 -0.034562305 0.020088408 0.05996385
0000f0 bf 66 0c bd 37 1f 06 3e 54 cd be bd 9a f6 37 3e
       -0.034277674 0.13097845 -0.09316507 0.17965165
000100 b3 ee 42 3e 13 35 1f 3c cd 76 2d 3e 79 b0 fa 3c
       0.19036369 0.009717244 0.1693985 0.030601727
000110 93 e4 fc 3c 49 93 06 3b f7 6f 1a be 8b 5d eb bc
       0.030870711 0.0020534566 -0.15081774 -0.028731128
000120 55 04 2c be 91 db 67 3e 1a a2 16 be 98 7a 29 be
       -0.16798528 0.22642352 -0.14710274 -0.16550672
000130 03 e3 0c be ba 02 02 3d e0 fe f0 be 97 46 3e be
       -0.13758473 0.03174088 -0.47069454 -0.18581615
000140 82 dc 7f bd c2 ff 4a be 96 cd 75 3c 90 75 b7 3d
       -0.062466152 -0.19824126 0.015002629 0.0895797
000150 a3 33 a8 3d 14 94 c0 3d ff 15 54 3e 36 db 9b bd
       0.08212974 0.09403244 0.20711516 -0.076101705
000160 d0 2c c4 3d 2e c1 c4 bd 82 3a a3 bb a6 ad b4 3c
       0.0957886 -0.096071586 -0.00498134 0.022055458
000170 0f e1 e0 bd 20 a9 45 be a5 fa 41 3e 05 86 a3 3d
       -0.109804265 -0.19302797 0.1894327 0.079845466
000180 d7 ea a9 be 57 e1 f6 ba 25 6e a7 3c 1b e6 cd bd
       -0.3318698 -0.0018835467 0.020438263 -0.10053655
000190 7a 61 11 ba b0 ad 0d 3e c4 83 c1 bc f5 6b b9 bd
       -0.0005545836 0.13835788 -0.023622401 -0.09053794
0001a0 21 cc b2 bd 90 c5 18 3e 24 00 18 be 4b 9e fa 3c
       -0.08730341 0.14919114 -0.14843804 0.030593058
0001b0 4a f0 d7 3b c6 65 04 3c 39 40 7e 3d 36 0c 66 3d
       0.006589924 0.008080905 0.062072966 0.05616399
0001c0 7c 17 92 be 40 86 33 bd a8 34 05 be 90 49 ca 3d
       -0.28533542 -0.043829203 -0.13008368 0.09877312
0001d0 85 f1 34 bc dc 60 94 3d 11 a5 9f bd 47 67 28 3e
       -0.011043911 0.07245037 -0.07795156 0.16445647
0001e0 71 13 15 bd f4 fe d5 3c ce bd c5 bd 5a 4c b0 bc
       -0.036395494 0.026122548 -0.09655343 -0.021520782
0001f0 c3 fd 13 3e cf 1e 12 3e ef 85 de 3c 80 90 9e 3c
       0.14452271 0.14269565 0.027163474 0.019356012
000200 47 ff 3d 3e 88 54 d9 3d e3 f2 30 be 10 57 2e be
       0.18554412 0.10611826 -0.17280154 -0.17025399
000210 36 5b fd bb 20 b7 21 3e 8d a4 2a 3d be 98 3e 3d
       -0.0077318205 0.15792513 0.041660834 0.046532385
000220 e4 d4 a4 3d 31 0b 2e bc 5d b8 03 be c3 90 c7 3d
       0.08048418 -0.010622785 -0.12863298 0.09744408
000230 ac 22 38 bd f6 97 84 3d 4c 38 01 be 38 a5 06 3e
       -0.04495494 0.06474297 -0.12619132 0.13148963
000240 d1 ba 04 be 26 bb 35 3e c6 99 ea 3d c4 22 1c 3e
       -0.1296189 0.17747173 0.11455111 0.15247637
000250 82 a2 9b 3c a4 fe e6 bc 1d 4a 05 be db ee e9 3c
       0.018998388 -0.028197594 -0.13016553 0.028556278
000260 95 02 ee 3d 0c 90 00 3e 04 8b 71 be 4c 7d 0b 3d
       0.11621586 0.1255495 -0.23588187 0.03405504
000270 7b 3a c5 be 64 95 d8 3d a2 74 53 be ee d1 ce bd
       -0.3852118 0.10575369 -0.2064996 -0.10098635
000280 63 dc a1 be 27 21 84 3e bc d8 d0 bb d4 fe 20 bd
       -0.31613454 0.25806543 -0.006373493 -0.039305523
000290 f7 4d 39 be 96 57 90 be bc d7 ba 3d e2 57 54 3d
       -0.18096147 -0.28191823 0.09123179 0.051841624
0002a0 31 31 4b be 6c 81 04 bd 89 29 f6 3c e3 1e 39 3e
       -0.19842984 -0.03234999 0.030049102 0.18078189
0002b0 ee 53 a1 be 72 09 19 be ca e4 37 bd 84 2e 98 3e
       -0.31509346 -0.1494501 -0.044895925 0.2972299
0002c0 21 b4 5c be ed 2a 59 bd 54 4c 2a be 0d 01 ca bd
       -0.21553089 -0.053019453 -0.1663068 -0.09863482
0002d0 5a e2 0f 3c 80 f7 50 bd 1e e5 8e be 76 1c 21 be
       0.008781994 -0.051017284 -0.27909178 -0.15733513
0002e0 8c a9 29 be 09 91 be bc ac af 81 be ff 8e 27 be
       -0.16568583 -0.023262518 -0.2532934 -0.16363142
0002f0 db 05 bb 3c a5 59 27 3e 54 84 cc 3d 41 05 a4 bc
       0.02282994 0.1634279 0.09986177 -0.020022037
000300 63 af 3c bc b0 ae 7f be e3 31 13 3e 51 70 ea 3d
       -0.011516425 -0.24968982 0.14374499 0.11447204
000310 16 34 55 be 2e 03 af 3c 10 c3 47 bd 15 51 65 3e
       -0.2082065 0.02136382 -0.04877001 0.22394212
000320 85 e3 9b 3d 5c ab 7e 3e a6 d3 db bd 2e 12 41 3c
       0.07611755 0.24870056 -0.10733728 0.0117841195
000330 6d 18 b6 3d 08 e5 ea 3d ee 02 98 bb 6c 01 a6 3c
       0.088913776 0.114694655 -0.004639021 0.02026435
000340 be a2 9d bc a6 91 11 bd e0 fc 2f bc f1 f4 57 be
       -0.01924264 -0.03553929 -0.010741442 -0.21089531
000350 0b fe fe bd c6 88 78 3e eb b0 0f be 2f ef a0 be
       -0.124507986 0.24270925 -0.14032333 -0.31432483
000360 4c ec 57 be 30 60 4c 3e 94 1f a1 be 45 8b c3 3d
       -0.21086234 0.19958568 -0.31469405 0.09548048
000370 72 83 b7 bd 3e 10 01 be a4 6c 82 3e 27 61 83 3e
       -0.08960618 -0.12603852 0.2547351 0.2566006
000380 dd fb c2 3c 35 20 f7 3d b2 ee c6 bd ae 70 ae 3c
       0.023801738 0.1206669 -0.09713496 0.021293964
000390 7d 3f 03 be db 43 da 3d 98 4e be bd c9 46 65 3e
       -0.12817188 0.10657474 -0.09292334 0.22390284
0003a0 81 23 25 be 8a a2 0f be 78 73 7a be 54 6b 24 be
       -0.16126825 -0.14026847 -0.2445811 -0.16056567
0003b0 af 41 f4 3d 2f 9e d6 3d 30 21 46 3d 52 7f c5 3d
       0.11926591 0.1047939 0.048371494 0.09643425
0003c0 1a 73 02 3d fa 31 9a bd cc 05 5a bc 2b 56 89 3d
       0.03184805 -0.075290635 -0.013307046 0.06705888
0003d0 0d 22 17 3d f3 6f cb bd 5c a7 72 3d 6e f6 c7 3d
       0.036897708 -0.09933462 0.059241638 0.097637996
0003e0 8d 25 44 3e 57 26 ec 3c 40 88 d0 3b c5 72 ba bc
       0.1915495 0.028826876 0.0063638985 -0.022759805
0003f0 84 49 27 bc 32 5d cc 3d 22 32 7a 3d c9 8f 73 bd
       -0.010210399 0.09978713 0.061082967 -0.059463296

lstm.ih.rho_weight f4 [128, 14]
000000 83 8a 37 c0 83 bb 31 c0 6d 7c 3d c0 b0 f9 3b c0
       -2.867829 -2.7770698 -2.9607193 -2.9371147
000010 54 28 3f c0 35 84 3d c0 d5 dd 3f c0 64 c2 3c c0
       -2.9868364 -2.9611943 -2.9979146 -2.9493647
000020 48 8c 35 c0 77 3c 2e c0 61 ee 3d c0 7a 81 35 c0
       -2.836687 -2.7224405 -2.9676745 -2.8360276
000030 e8 48 3d c0 e2 36 33 c0 09 54 29 c0 bf e9 33 c0
       -2.9575748 -2.8002248 -2.645754 -2.8111417
000040 eb 29 40 c0 8e ad 31 c0 7e 70 33 c0 62 44 28 c0
       -3.0025585 -2.776218 -2.803741 -2.6291738
000050 62 ed 34 c0 ae f3 32 c0 fe 96 35 c0 75 8c 34 c0
       -2.8269887 -2.796123 -2.8373408 -2.8210728
000060 6d e0 30 c0 3b 7c 30 c0 54 6b 30 c0 27 f8 33 c0
       -2.7636979 -2.7575824 -2.7565508 -2.812021
000070 f9 97 36 c0 11 ce 42 c0 53 b1 3b c0 e8 36 47 c0
       -2.8530257 -3.0438273 -2.932698 -3.1127262
000080 81 06 41 c0 3b 82 35 c0 8d 0a 34 c0 a2 d8 3d c0
       -3.016022 -2.8360736 -2.813144 -2.9663472
000090 fb 61 3f c0 49 a6 3f c0 57 1b 36 c0 e6 58 3b c0
       -2.9903553 -2.9945242 -2.8454187 -2.927301
0000a0 81 13 2f c0 95 b9 32 c0 21 e6 46 c0 3c 61 3d c0
       -2.7355654 -2.792577 -3.107796 -2.9590597
0000b0 89 25 39 c0 2e a4 3d c0 56 d9 41 c0 10 2b 35 c0
       -2.892916 -2.9631457 -3.0288901 -2.8307533
0000c0 62 18 3c c0 8a 62 32 c0 7f 4f 36 c0 fe 43 32 c0
       -2.9389882 -2.7872643 -2.848602 -2.7854
0000d0 ab 99 3d c0 30 b1 31 c0 78 a9 3b c0 ea b9 39 c0
       -2.9625041 -2.7764397 -2.9322186 -2.9019723
0000e0 ed dd 39 c0 05 47 32 c0 c7 51 3f c0 38 85 37 c0
       -2.9041703 -2.7855847 -2.9893663 -2.867506
0000f0 fb 80 31 c0 69 fb 44 c0 2e 76 41 c0 ec b1 3a c0
       -2.7734973 -3.0778449 -3.022838 -2.9171095
000100 29 a6 37 c0 43 30 3c c0 6d 3d 39 c0 7a d7 44 c0
       -2.8695166 -2.9404457 -2.8943741 -3.0756516
000110 e8 55 2c c0 4f 3c 33 c0 4b e6 3f c0 b1 31 31 c0
       -2.6927433 -2.800556 -2.998431 -2.768658
000120 6a 58 38 c0 8d 4d 3b c0 ac 48 40 c0 77 eb 3a c0
       -2.8803964 -2.9266083 -3.0044355 -2.9206216
000130 70 32 3f c0 e1 f3 3a c0 5b a5 43 c0 dc ac 3d c0
       -2.9874535 -2.9211352 -3.0569675 -2.9636755
000140 df 5e 33 c0 93 69 3d c0 2c de 3e c0 89 ce 3b c0
       -2.8026655 -2.9595687 -2.9823103 -2.934481
000150 a3 70 3f c0 3c df 41 c0 90 cd 3c c0 26 5e 3b c0
       -2.9912498 -3.0292501 -2.9500465 -2.9276214
000160 9b 70 35 c0 e4 f8 2f c0 7f ae 3d c0 d0 aa 42 c0
       -2.834998 -2.749566 -2.9637754 -3.0416756
000170 77 9c 35 c0 7a d7 28 c0 75 4c 33 c0 00 da 34 c0
       -2.8376749 -2.6381516 -2.8015416 -2.8258057
000180 83 f8 38 c0 b5 a6 3d c0 ec 59 34 c0 94 78 35 c0
       -2.890168 -2.9633 -2.8179884 -2.8354845
000190 75 be 37 c0 a4 11 32 c0 d4 19 3a c0 f9 63 39 c0
       -2.8709996 -2.7823267 -2.9078264 -2.8967268
0001a0 aa 6c 44 c0 33 a0 38 c0 a5 28 43 c0 19 5e 28 c0
       -3.0691323 -2.8847778 -3.0493557 -2.6307433
0001b0 a0 68 41 c0 f9 ca 31 c0 55 5f 3c c0 ac 92 39 c0
       -3.0220108 -2.7780135 -2.9433186 -2.8995771
0001c0 f3 88 33 c0 2d 02 2d c0 6b 14 34 c0 bc 4e 41 c0
       -2.8052337 -2.7032578 -2.8137462 -3.0204306
0001d0 c3 1a 3a c0 12 ff 3c c0 6f 18 35 c0 25 66 39 c0
       -2.9078834 -2.9530683 -2.8296163 -2.8968594
0001e0 05 8c 44 c0 81 b9 2f c0 01 99 39 c0 8e 8a 38 c0
       -3.071046 -2.7456973 -2.8999636 -2.8834567
0001f0 bf cd 3c c0 2a 24 37 c0 ca 52 40 c0 9f 07 37 c0
       -2.9500577 -2.8615823 -3.005053 -2.8598402
000200 af 2a 38 c0 f3 0a 38 c0 b4 dc 2f c0 22 81 36 c0
       -2.8776052 -2.8756683 -2.7478456 -2.8516316
000210 a5 07 31 c0 98 6e 35 c0 31 2c 36 c0 8b 5c 32 c0
       -2.7660916 -2.834875 -2.8464472 -2.7868984
000220 ea 84 43 c0 bb 9c 3c c0 22 82 3b c0 74 d3 38 c0
       -3.0549874 -2.947066 -2.9298177 -2.887906
000230 43 13 38 c0 6b 14 40 c0 a7 6e 37 c0 4c 27 36 c0
       -2.8761756 -3.0012462 -2.8661287 -2.8461485
000240 c1 5d 4f c0 d2 86 3b c0 3a 01 32 c0 61 fb 31 c0
       -3.2400973 -2.9301038 -2.7813249 -2.780968
000250 1c 45 2a c0 54 4d 36 c0 5a 5b 32 c0 13 12 42 c0
       -2.660468 -2.8484697 -2.7868257 -3.0323532
000260 b4 b2 41 c0 2e c0 37 c0 43 fb 39 c0 08 ba 3b c0
       -3.0265322 -2.8711047 -2.9059608 -2.9332294
000270 23 e6 3e c0 1a 3e 36 c0 9a 06 36 c0 9d cd 39 c0
       -2.9827964 -2.8475404 -2.844153 -2.9031746
000280 51 a4 40 c0 db cb 42 c0 f8 f9 3e c0 5a a5 41 c0
       -3.010029 -3.0436924 -2.984007 -3.0257173
000290 42 25 3c c0 ee fd 35 c0 d3 76 37 c0 e0 15 36 c0
       -2.939774 -2.8436236 -2.8666275 -2.8450851
0002a0 d5 45 39 c0 5e 53 40 c0 74 e3 32 c0 07 61 33 c0
       -2.8948872 -3.0050883 -2.7951326 -2.802797
0002b0 b4 19 38 c0 33 b4 35 c0 c1 68 30 c0 cd 04 3c c0
       -2.8765688 -2.8391235 -2.7563937 -2.937793
0002c0 a0 c6 34 c0 9e 97 40 c0 b0 a7 39 c0 72 6d 36 c0
       -2.824623 -3.009254 -2.9008598 -2.85043
0002d0 c0 c1 3c c0 a7 24 3d c0 0f ea 38 c0 d7 44 3b c0
       -2.9493256 -2.955362 -2.8892858 -2.9260767
0002e0 3d 92 3a c0 07 b8 38 c0 30 17 46 c0 b9 73 3c c0
       -2.9151757 -2.8862321 -3.0951653 -2.9445632
0002f0 2f 5a 3a c0 e5 5b 3d c0 fc 78 3a c0 e5 3c 42 c0
       -2.9117544 -2.9587338 -2.9136343 -3.0349667
000300 14 e3 39 c0 e1 36 3f c0 c5 94 3d c0 f8 e3 3d c0
       -2.9044847 -2.9877245 -2.9622052 -2.967039
000310 00 34 3e c0 a4 ee 3d c0 df b2 35 c0 1f 5b 47 c0
       -2.9719238 -2.9676905 -2.8390424 -3.1149366
000320 24 7e 45 c0 85 6b 36 c0 4c c6 3d c0 2a ca 33 c0
       -3.085824 -2.8503125 -2.965228 -2.809214
000330 ee dc 2f c0 94 81 3f c0 83 aa 30 c0 c9 ae 34 c0
       -2.7478595 -2.9922838 -2.7604072 -2.823168
000340 8e 0f 43 c0 44 40 3b c0 a1 95 3e c0 97 e8 40 c0
       -3.0478244 -2.9257975 -2.9778826 -3.0141962
000350 ca 2d 3a c0 3a 0f 37 c0 3d 7e 3a c0 ab f1 32 c0
       -2.9090447 -2.8603044 -2.913955 -2.7960002
000360 e2 1c 38 c0 7d df 32 c0 d1 00 41 c0 1d e9 2f c0
       -2.8767629 -2.7948906 -3.0156748 -2.748603
000370 b2 70 35 c0 95 79 33 c0 51 1a 38 c0 1f b2 37 c0
       -2.8350034 -2.8042958 -2.8766062 -2.8702466
000380 2c 68 3f c0 cf fa 3c c0 c6 89 34 c0 c5 22 41 c0
       -2.9907331 -2.9528081 -2.820909 -3.0177472
000390 a9 6d 47 c0 82 bc 41 c0 60 f5 37 c0 04 e7 3b c0
       -3.1160681 -3.0271306 -2.8743515 -2.935975
0003a0 81 37 4a c0 f3 5f 3a c0 34 44 34 c0 9a 5f 36 c0
       -3.1596377 -2.9121063 -2.8166628 -2.849585
0003b0 f2 57 45 c0 14 5f 3e c0 a5 cf 40 c0 84 13 37 c0
       -3.0834928 -2.974553 -3.0126736 -2.8605661
0003c0 7c cc 3b c0 3a 3a 3b c0 66 c2 2f c0 00 a3 35 c0
       -2.9343557 -2.9254289 -2.7462401 -2.8380737
0003d0 4d 24 34 c0 40 0e 33 c0 9d 03 3d c0 9d 5e 29 c0
       -2.8147156 -2.7977448 -2.9533455 -2.6463997
0003e0 ae 6f 3a c0 18 80 33 c0 26 f2 34 c0 df 40 37 c0
       -2.9130664 -2.8046932 -2.8272796 -2.8633344
0003f0 ba c4 3a c0 2e ef 3c c0 16 12 3f c0 a9 3b 3b c0
       -2.9182572 -2.9520984 -2.9854789 -2.9255164

lstm.ih.mu_bias f4 [128]
000000 40 50 4c 3d 96 8a 27 3e d9 74 6c 3d 1f 9a 9f bb
       0.04988122 0.1636146 0.057728622 -0.0048706676
000010 3f da 10 3e 72 4c 5c 3e ab cf 7d 3e fb 6a 31 3d
       0.14145754 0.21513537 0.2478625 0.043314915
000020 89 fe fa 3d 32 49 e7 bd f4 3c 5c bc 9b de b1 3d
       0.1225558 -0.11293258 -0.013442267 0.08685037
000030 c4 b0 8f 3e c7 76 07 3d 41 36 c7 3d 59 da 69 3d
       0.2806455 0.03307226 0.09727145 0.057093
000040 fa bc 57 be c3 a4 65 3d 05 04 13 bc 56 44 38 3e
       -0.21068183 0.056065332 -0.008973126 0.17994818
000050 71 cf 55 3a e2 b0 77 3d 8d 44 39 be 17 0c 49 3d
       0.00081562164 0.060471423 -0.18092556 0.049083795
000060 33 a9 2b 3d 91 f4 8d bc 5a cf 2c 3e 2a 52 09 3e
       0.041909408 -0.017328532 0.16875973 0.1341025
000070 2e 4e 81 3e b7 b6 5a bc c6 c4 8c 3e f4 ed 0a be
       0.2525496 -0.013349227 0.27493876 -0.13567334
000080 08 b7 17 3e 75 89 0b 3e fc 7d b9 3d 64 2d d5 3d
       0.14815915 0.13626654 0.09057233 0.10409048
000090 c4 58 1b 3e b1 c4 4d 3d 79 57 2c 3e 66 6a 89 3e
       0.1517058 0.050236408 0.16830243 0.26838988
0000a0 87 5c 0a bd d8 c3 97 bd 01 8e b4 3d 54 99 eb 3d
       -0.033779647 -0.07410401 0.088161476 0.115038544
0000b0 ab 07 54 3d 06 67 16 be 6b 23 ed bd c7 30 61 3d
       0.051765125 -0.14687738 -0.11579021 0.05497816
0000c0 d4 27 e5 bb e5 97 bb 3d 24 97 7d 3e 0c dc db 3d
       -0.0069932733 0.09159831 0.24764687 0.1073533
0000d0 65 17 a5 bd b3 29 41 3d 87 98 66 bc f2 fc af 3d
       -0.08061103 0.047158908 -0.014074451 0.08593167
0000e0 12 04 c0 bd d1 88 2d bd e9 ce d8 3d 9e d1 26 3e
       -0.09375776 -0.042366806 0.1058634 0.162909
0000f0 c9 7d 80 3e 70 0c 2e be b0 de 8e 3e d8 b8 0f be
       0.25095966 -0.16996932 0.27904272 -0.14035356
000100 5f fd ac be 85 b3 59 bc 66 48 84 3e bc 69 11 be
       -0.33787057 -0.01328743 0.25836486 -0.1420049
000110 0b 9c 75 3e ba e3 3f 3d b3 28 77 3d cf 66 d9 bd
       0.23985307 0.046848036 0.06034155 -0.10615312
000120 bb 75 fe bd 01 a8 9d 3d 5b 27 47 bd c9 dd 91 3d
       -0.12424799 0.0769806 -0.048621517 0.0712238
000130 4a d9 1c be 4f b3 f4 3d 01 6a 3b 3e bb a5 77 3d
       -0.15317264 0.11948263 0.18302156 0.060460787
000140 f7 6e ca bc fb 9d aa bd e0 90 49 be d5 4b 96 3d
       -0.024711115 -0.08330914 -0.19684172 0.073386826
000150 45 88 4f be bb 14 ac 3d 50 27 8e 3a 6c 9d 2a bd
       -0.20266826 0.084023915 0.0010845456 -0.041654035
000160 53 24 47 bd b5 38 33 3d f7 16 5c 3c 3e b9 fd 3d
       -0.048618626 0.043755252 0.01343321 0.12388848
000170 1e 56 45 be cd ac 31 3e 1c e3 ea bd 2f 41 5a 3c
       -0.19271132 0.17351075 -0.11469099 0.013321205
000180 58 20 ea 3d 87 52 7c 3e e0 4b 80 3d 4a 4d c7 3d
       0.1143195 0.24640857 0.06264472 0.097315386
000190 e0 88 8a 3e 74 21 7c 3e d7 40 16 bd 76 7e 18 3f
       0.27057552 0.24622136 -0.03668293 0.59567964
0001a0 95 cf 63 3e ff a9 5e 3e 43 a8 b5 3d 9e 3a e5 bb
       0.22247155 0.21744536 0.08869984 -0.006995513
0001b0 81 28 81 3e 7f dd 48 3e 74 07 e1 3d fc e5 e3 3d
       0.25226215 0.19615744 0.1098775 0.111278504
0001c0 fd 05 38 3e 05 08 5b 3e e5 b4 17 3e 64 12 09 3e
       0.17971034 0.21389778 0.148151 0.13385922
0001d0 cf ce 1f 3e 6b 24 47 3e 0e e9 34 bc 93 2d b2 3e
       0.15606235 0.19447486 -0.011041893 0.34800395
0001e0 a9 dc 0c 3e 5e da 26 3e 39 9b f4 3d 04 d5 3e 3e
       0.1375605 0.16294238 0.11943669 0.18635947
0001f0 22 cb 6c 3e c1 a5 b1 3e 6a 4e a7 3d d8 28 9b 3d
       0.23124364 0.34696773 0.08169253 0.0757615

lstm.ih.rho_bias f4 [128]
000000 6d a2 28 c0 a5 26 1f c0 5c e4 1c c0 f8 d1 2a c0
       -2.6349137 -2.4867337 -2.451438 -2.6690655
000010 f9 da 29 c0 ac 3d 23 c0 ed 09 2b c0 e4 50 25 c0
       -2.65399 -2.5506392 -2.6724808 -2.5830622
000020 52 c6 2e c0 b6 d4 1d c0 57 a8 29 c0 16 7c 39 c0
       -2.7308545 -2.4661078 -2.6508996 -2.8981986
000030 bb 4b 22 c0 89 b6 37 c0 14 c5 32 c0 ff 80 3b c0
       -2.5358722 -2.870516 -2.7932787 -2.9297483
000040 25 1d 2a c0 bd e6 35 c0 d2 0d 24 c0 98 35 22 c0
       -2.6580288 -2.8422081 -2.5633435 -2.534521
000050 98 4d 2e c0 4e d0 24 c0 a8 30 2f c0 25 d0 26 c0
       -2.723486 -2.575214 -2.7373447 -2.6064541
000060 5f d3 2f c0 cd 7a 26 c0 48 d7 37 c0 04 e7 2a c0
       -2.747276 -2.6012452 -2.8725147 -2.67035
000070 e6 cd 21 c0 9a ab 27 c0 15 96 1f c0 ee e4 2b c0
       -2.528192 -2.6198487 -2.4935353 -2.6858478
000080 6e db 28 c0 04 83 19 c0 98 5a 26 c0 b3 51 37 c0
       -2.638393 -2.3986216 -2.5992794 -2.8643615
000090 7c 38 21 c0 25 d5 2a c0 99 52 24 c0 bd cb 31 c0
       -2.5190725 -2.6692593 -2.5675414 -2.7780602
0000a0 44 4b 28 c0 c1 1c 2a c0 5a 14 33 c0 a8 47 39 c0
       -2.6295938 -2.658005 -2.7981172 -2.8949986
0000b0 e6 c4 2e c0 c6 77 2b c0 27 4e 3c c0 ed ae 37 c0
       -2.7307677 -2.6791854 -2.94227 -2.8700516
0000c0 73 c5 2f c0 59 0e 21 c0 95 d3 2e c0 58 a5 19 c0
       -2.7464263 -2.5165007 -2.731664 -2.4007168
0000d0 59 fb 31 c0 ca 88 2a c0 c1 30 2e c0 ce 63 35 c0
       -2.780966 -2.664599 -2.7217257 -2.8342166
0000e0 cb ed 30 c0 ee 58 31 c0 09 bb 2e c0 5a 0a 26 c0
       -2.7645137 -2.7710528 -2.7301657 -2.5943818
0000f0 44 8e 19 c0 76 b3 37 c0 00 4e 1a c0 ae db 39 c0
       -2.3993082 -2.8703284 -2.4110107 -2.9040332
000100 b1 de 36 c0 85 89 37 c0 b0 d2 35 c0 db 8d 43 c0
       -2.857342 -2.8677685 -2.8409843 -3.0555332
000110 3f b8 2d c0 1a 7c 35 c0 ac 2c 3d c0 c4 09 35 c0
       -2.7143705 -2.8356996 -2.9558516 -2.828721
000120 c1 d2 46 c0 df fc 32 c0 14 ab 2c c0 1a 9e 3f c0
       -3.1066134 -2.796684 -2.6979418 -2.9940248
000130 88 06 35 c0 34 a2 39 c0 06 85 42 c0 c7 17 44 c0
       -2.8285236 -2.900525 -3.039369 -3.0639513
000140 21 79 31 c0 a9 e0 30 c0 96 b3 38 c0 4f 7d 38 c0
       -2.7730181 -2.7637122 -2.885961 -2.8826482
000150 7f 32 31 c0 6b 41 37 c0 87 13 37 c0 eb 21 36 c0
       -2.768707 -2.8633678 -2.8605669 -2.8458202
000160 b8 fb 45 c0 92 d8 2c c0 b0 0f 37 c0 74 db 33 c0
       -3.0934887 -2.7007184 -2.8603325 -2.8102694
000170 e4 13 47 c0 54 2f 3a c0 26 b8 34 c0 3e 6a 2f c0
       -3.110589 -2.9091387 -2.8237395 -2.7408595
000180 ca 89 37 c0 75 86 35 c0 a0 bc 2c c0 02 7a 2c c0
       -2.867785 -2.8363316 -2.6990128 -2.6949468
000190 27 6e 2b c0 4b 80 30 c0 a8 c2 34 c0 f2 05 29 c0
       -2.6785982 -2.7578304 -2.8243809 -2.6409879
0001a0 50 ab 31 c0 5b dc 2e c0 ee 43 1c c0 e3 2c 2e c0
       -2.776081 -2.7321994 -2.441646 -2.7214897
0001b0 41 53 26 c0 c6 29 28 c0 6e 4a 27 c0 3d 70 2f c0
       -2.5988314 -2.6275496 -2.6139178 -2.7412255
0001c0 cc 61 2e c0 45 ac 3c c0 01 ef 32 c0 f3 76 30 c0
       -2.724719 -2.9480145 -2.7958376 -2.75726
0001d0 ec 1f 30 c0 8b 76 2d c0 15 31 37 c0 e8 2d 35 c0
       -2.7519484 -2.7103603 -2.8623707 -2.830927
0001e0 63 14 2e c0 20 9a 3a c0 06 9b 29 c0 1a 06 2a c0
       -2.7199943 -2.915657 -2.6500869 -2.6566224
0001f0 aa 3e 27 c0 be 0a 34 c0 66 ef 3d c0 dc eb 2a c0
       -2.6131997 -2.8131557 -2.9677367 -2.6706457

lstm.hh.mu_weight f4 [128, 32]
000000 01 3b f9 bd 9c 36 6c bd 8c a8 2f 3e 49 81 2a 3d
       -0.12169457 -0.057669267 0.1715414 0.041627202
000010 f6 f3 57 bd be a0 d7 3d 1c 20 d7 bd ee a4 15 be
       -0.052722894 0.10528706 -0.10504171 -0.14613697
000020 fe 32 17 bd 08 0e 4e 3e 53 68 7e be fb a2 31 3d
       -0.036913864 0.2012254 -0.24844484 0.04336832
000030 6c a2 ec bd 91 77 8c bd e0 f7 b8 3d d9 7e d1 bb
       -0.11554417 -0.06858743 0.090316534 -0.0063932952
000040 34 e8 28 be b1 fb 0a be 17 9f 6c be fe eb 86 bd
       -0.16494828 -0.13572575 -0.23107563 -0.06587981
000050 e5 e9 6c bb 4c ca ce bd 6a 96 42 3e 46 19 8b 3d
       -0.0036150154 -0.10097179 0.19002691 0.0679193
000060 ec 25 d4 bc 69 cf bc bd 73 66 93 3d 3f f1 cb 3c
       -0.025896989 -0.09219248 0.07197275 0.024895309
000070 03 1c 3e bc 7f 14 dd 3c 48 c4 4d bc d9 c2 29 3e
       -0.011603358 0.026987312 -0.012559004 0.16578235
000080 61 1d 31 be b1 d3 47 3c 5a f7 44 3e 39 6c 1e bd
       -0.17296363 0.012196467 0.19234982 -0.038677428
000090 e9 8d 99 3e b6 6a e0 bd d5 ee 3f be f1 65 1f be
       0.2999108 -0.109578535 -0.18743451 -0.15566231
0000a0 e7 6a 22 be bb 18 00 3e 34 57 50 be ed 98 54 3d
       -0.15861093 0.12509434 -0.20345765 0.051903654
0000b0 23 ce 0f be e9 07 88 3e 91 a9 9a 3e 1b 6e 08 3d
       -0.14043479 0.26568535 0.30207494 0.03330813
0000c0 af ff 8b 3d bb 22 4f be f1 1f 18 be 5e 66 18 3e
       0.06835877 -0.20228092 -0.14855935 0.148828
0000d0 d0 10 6c be 23 2e 8b 3e 17 8f 0d be 3d 49 40 3c
       -0.23053288 0.27183637 -0.13824116 0.011736211
0000e0 9f 17 e2 3c 89 40 bd bd 3a cf 63 3e 9b c9 7a 3e
       0.027599154 -0.09240825 0.2224702 0.24490969
0000f0 f8 6a d4 be b6 02 48 bb 75 ac 32 be ae 4f ea bc
       -0.4148786 -0.0030519194 -0.174486 -0.028602447
000100 de 6e 69 be 8c 7b 69 be 44 0a 5e 3e 3d cf 55 bd
       -0.22796199 -0.22801036 0.21683604 -0.05219959
000110 eb e7 68 3e 38 fa 14 3e a1 17 dd bd 5a 75 25 be
       0.2274472 0.14548576 -0.107955225 -0.16158047
000120 da ed cf bd 9a bf 22 3d d4 a4 f4 bd dc 70 db 3d
       -0.101527885 0.039733507 -0.11945501 0.107148856
000130 44 e8 b2 bd af a8 aa 3d 17 43 85 3e f1 8d b4 bd
       -0.087357074 0.08332955 0.26027748 -0.08816136
000140 6d 73 fe bd 16 73 4e be 7f 1c be be eb 87 a3 3e
       -0.124243595 -0.2016109 -0.37131116 0.31939635
000150 5b b0 fa bd 15 97 d0 3d 79 99 18 bc 44 a1 7e 3c
       -0.122406684 0.101850666 -0.0093139345 0.015541378
000160 b6 f4 cd 3d c7 c3 5f 3c bf e0 28 3e 15 0c f2 3d
       0.100564405 0.013657517 0.16491984 0.11818711
000170 b5 8d cb 3d 37 b9 89 bd 12 66 75 be b2 61 8e bd
       0.09939138 -0.0672478 -0.23964718 -0.06952228
000180 2c e9 1d 3e 6c 8e 2f bd 2d 6c e0 bd 0a ea 8d 3d
       0.1542098 -0.042860433 -0.10958133 0.06929405
000190 6f 63 97 bd 60 6e df 3d 1c 8d 3b 3e b7 ea 91 3d
       -0.07392012 0.10909724 0.18315548 0.071248464
0001a0 8c d0 de 3b b5 ff 89 bd c6 17 ee bd 8e 8d f6 3b
       0.006799763 -0.06738225 -0.11625628 0.007524199
0001b0 5d 5a 7b be 7f 87 7f 3e c4 3b 49 be b8 68 8c 3e
       -0.2454619 0.24954031 -0.19651705 0.27423644
0001c0 5f 52 4a bc d2 42 a5 3d bf 20 a1 be 65 c6 28 be
       -0.01234874 0.080693856 -0.31470296 -0.16481932
0001d0 d8 51 53 3b 61 59 9a 3d d2 cd fc 3c cb a2 a2 3d
       0.0032244828 0.07536579 0.030859862 0.079412065
0001e0 d6 9b 83 be 9f 70 1f 3e 08 c3 88 3d 65 4f a0 3d
       -0.2570483 0.15570305 0.06677824 0.07827643
0001f0 93 60 f3 3d 93 cb ab bd 92 eb 99 bd 5c b8 a3 be
       0.118836544 -0.08388438 -0.075156346 -0.31976593
000200 ae 3c c7 bd a5 7c 40 be 27 b0 21 3e 26 db a9 bd
       -0.097283706 -0.18797548 0.15789853 -0.08293752
000210 77 d8 68 3e e0 e9 e6 3b c6 90 34 be ec 46 44 be
       0.22738825 0.007046923 -0.17633352 -0.1916768
000220 e9 7b 21 be ca 0e a3 bd e1 8c 80 be 36 96 91 bd
       -0.15769924 -0.07961805 -0.25107482 -0.071087286
000230 db 09 f6 bd ae 6f 44 3d ad e8 c3 3d 54 2d ef bc
       -0.120135985 0.04795807 0.09565864 -0.029196419
000240 a6 c5 6c bd fc d0 8d be a0 fb 6f be 0a 53 f4 3d
       -0.05780568 -0.27698505 -0.23435831 0.11929901
000250 fe c2 52 be 5c f7 b1 3d 96 52 e0 3b 40 cb 8e bd
       -0.20582196 0.08689758 0.0068457825 -0.069723606
000260 ad 16 09 bd f8 1d 94 bd a2 f9 26 3d 75 6a 35 3e
       -0.03346889 -0.072322786 0.040765412 0.17716391
000270 d5 0c 72 be f8 71 c9 bb 99 5c c0 bd b8 e6 12 3e
       -0.23637708 -0.0061476193 -0.093926616 0.14345825
000280 5a bf bd be 12 72 88 bc 20 0e 84 3d 91 d6 e1 bd
       -0.37060052 -0.016655955 0.06448007 -0.110272534
000290 b2 7c fa 3d 92 91 db bc f2 0e 9a bc c6 88 e3 be
       0.12230815 -0.026802812 -0.018805955 -0.44440287
0002a0 a8 36 c8 be 3c d2 27 3e b3 6b 2e be fe 7f 54 3c
       -0.391042 0.16388792 -0.17033271 0.012969969
0002b0 87 c6 0a bc 6c 44 1c 3e 97 89 84 bd 99 ff 2e bd
       -0.008470184 0.15260476 -0.06471556 -0.042724226
0002c0 f7 b7 e1 bd 13 2e dd bd e3 5b 78 be 26 4a 56 3d
       -0.11021417 -0.107998036 -0.24253802 0.052316807
0002d0 e9 e7 37 be e9 7a d3 3d 8f 4f ee bb 79 11 a6 be
       -0.1795956 0.103261776 -0.0072726677 -0.32435206
0002e0 78 25 37 bd 62 64 7e be 4b e7 83 bd b2 2f b0 3d
       -0.044713467 -0.2484298 -0.064406 0.08602847
0002f0 0a 74 5a 3a b6 48 fc be 3b 36 d2 bd 45 99 5d be
       0.0008333331 -0.49274224 -0.1026425 -0.21640499
000300 d8 a7 99 be 49 39 a5 bd 80 7d 55 3d 8b 1d 80 3c
       -0.30010867 -0.08067567 0.05212164 0.015639087
000310 ff 1a 1c 3e cf e3 a7 bc e5 ff aa be 03 80 12 3d
       0.15244673 -0.02049437 -0.33398357 0.035766613
000320 3c 4c 7f be d2 b7 a7 bc 30 12 7a ba 35 1a dc bd
       -0.24931425 -0.020473395 -0.00095394533 -0.10747186
000330 ce b0 01 be 85 db 6c bd e8 a3 74 3e f2 66 04 bd
       -0.12665102 -0.057826538 0.2389065 -0.03232474
000340 33 a5 9a bd b6 61 bd 3c 6e 77 7b be 12 00 07 bd
       -0.075510405 0.023117881 -0.24557278 -0.03295905
000350 77 d8 c5 bd 82 59 2f 3e 29 bc 6e 3c 52 b7 47 be
       -0.09660428 0.17123988 0.014571228 -0.19503525
000360 26 ee 13 bd 72 7b c2 3b 2e ce b7 3d d5 c4 39 bd
       -0.036115788 0.005935126 0.089748725 -0.04535373
000370 27 f2 24 be d1 1f 2a bd 63 bb 27 be 6c 69 c3 bd
       -0.16107999 -0.04153425 -0.16380076 -0.09541592
000380 8b 21 f0 3d f6 cd 28 3d e9 a2 b8 bd 4e e6 3a be
       0.11725148 0.041212045 -0.09015448 -0.18251917
000390 6a 8d d8 bd a8 60 de 3e f2 67 14 3e 8f d2 17 3e
       -0.105738476 0.43433118 0.14492777 0.14826415
0003a0 3e 5d 68 3e d9 e0 91 3e ff 56 c1 be c2 24 b6 3e
       0.22691819 0.28491858 -0.37761685 0.3557492
0003b0 b7 66 bb be ef d2 81 3e c0 f0 1a 3e c3 44 f0 bc
       -0.36601803 0.25356242 0.15130901 -0.029329663
0003c0 ed 49 5e 3c 1e 35 83 3c 46 f8 25 3e e7 6e 35 3d
       0.01356743 0.01601654 0.1620799 0.044295218
0003d0 3d ba b0 bd b4 c2 16 bd 65 c4 87 3e 7b 7f ac be
       -0.08629272 -0.036806777 0.26517025 -0.3369101
0003e0 c8 89 05 be c2 c0 f1 3d f4 19 b6 3d b2 88 ef bd
       -0.1304084 0.11804344 0.08891669 -0.116959944
0003f0 92 c4 a2 3e dc 90 f6 bc 05 fc f0 3d d7 fc 42 be
       0.31790596 -0.030098371 0.11766819 -0.19041763

lstm.hh.rho_weight f4 [128, 32]
000000 95 97 43 c0 54 09 39 c0 9a f4 3f c0 81 61 32 c0
       -3.0561268 -2.8911943 -2.9993043 -2.7872012
000010 3d b7 40 c0 21 61 48 c0 f3 fd 3d c0 b9 f2 3b c0
       -3.011184 -3.1309283 -2.9686248 -2.9366896
000020 7d 50 3e c0 1e 13 43 c0 ed 6a 47 c0 b8 cd 44 c0
       -2.9736626 -3.0480418 -3.1159012 -3.075056
000030 91 c6 3a c0 00 f7 36 c0 7e 19 37 c0 fd 4a 45 c0
       -2.9183695 -2.8588257 -2.860931 -3.082702
000040 99 3d 2b c0 1f cd 39 c0 80 34 3a c0 99 b9 37 c0
       -2.6756346 -2.9031446 -2.9094543 -2.870703
000050 4a 8e 48 c0 48 b0 3e c0 09 6e 3d c0 65 fc 39 c0
       -3.1336846 -2.9795094 -2.959841 -2.90603
000060 06 02 38 c0 bd c9 3a c0 9d c0 30 c0 51 a7 43 c0
       -2.8751235 -2.9185631 -2.7617562 -3.0570872
000070 a4 bb 32 c0 da 34 34 c0 32 2c 3e c0 17 ee 33 c0
       -2.7927027 -2.8157258 -2.9714475 -2.8114069
000080 24 a2 32 c0 13 2c 3c c0 bc b2 2b c0 1c 17 36 c0
       -2.7911463 -2.94019 -2.682784 -2.8451605
000090 c8 50 38 c0 29 57 3b c0 29 50 23 c0 d6 69 24 c0
       -2.8799305 -2.9271948 -2.5517676 -2.5689597
0000a0 17 3d 28 c0 36 77 37 c0 fb 20 31 c0 59 84 36 c0
       -2.6287286 -2.866651 -2.767638 -2.8518279
0000b0 74 69 31 c0 0c 6b 39 c0 28 cc 34 c0 85 fb 2c c0
       -2.7720613 -2.8971586 -2.8249607 -2.7028515
0000c0 cb 14 36 c0 30 2c 2b c0 53 5f 30 c0 8b d6 40 c0
       -2.845019 -2.674572 -2.7558181 -3.0130947
0000d0 3c f6 34 c0 d7 5e 34 c0 ef 9c 32 c0 3c c6 2a c0
       -2.827529 -2.8182886 -2.7908285 -2.6683493
0000e0 b9 cb 30 c0 b0 5c 34 c0 0b c2 38 c0 5d 77 40 c0
       -2.7624342 -2.8181572 -2.8868434 -3.0072854
0000f0 85 9f 36 c0 a4 73 31 c0 52 ec 33 c0 dc 2f 29 c0
       -2.8534863 -2.7726831 -2.8112988 -2.643546
000100 24 3f 38 c0 9c f1 33 c0 18 ca 3c c0 56 b8 3c c0
       -2.8788538 -2.8116217 -2.9498348 -2.948751
000110 3d 24 42 c0 65 b8 41 c0 4e 2d 3a c0 23 0b 34 c0
       -3.0334618 -3.0268795 -2.9090152 -2.8131797
000120 7c a0 30 c0 d1 93 3c c0 01 5e 3b c0 9a 25 48 c0
       -2.7597952 -2.946522 -2.9276125 -3.127295
000130 c3 a9 39 c0 5d da 34 c0 29 52 3d c0 4e 3d 34 c0
       -2.9009864 -2.8258278 -2.9581397 -2.8162417
000140 44 04 3a c0 ca 92 42 c0 ba 56 43 c0 bd 85 2c c0
       -2.9065104 -3.0402093 -3.0521684 -2.6956627
000150 b9 6b 37 c0 1a 0d 2d c0 49 ef 39 c0 d7 18 38 c0
       -2.8659499 -2.7039247 -2.9052298 -2.876516
000160 4a 95 3a c0 55 66 3c c0 11 df 3d c0 00 b1 2f c0
       -2.915362 -2.9437459 -2.96674 -2.7451782
000170 72 87 2c c0 61 bb 46 c0 92 90 3a c0 f8 f2 2f c0
       -2.695767 -3.1051867 -2.9150739 -2.7492046
000180 2d a6 3a c0 4f 28 38 c0 63 ff 3c c0 d8 16 32 c0
       -2.9163926 -2.8774602 -2.9530876 -2.7826443
000190 75 1c 3b c0 fe dd 3a c0 38 7a 47 c0 e0 f7 34 c0
       -2.9236119 -2.9197993 -3.1168346 -2.827629
0001a0 29 87 2d c0 48 11 3e c0 f1 2a 3c c0 bb 33 3b c0
       -2.7113745 -2.9698048 -2.940121 -2.9250324
0001b0 8c 75 38 c0 de d0 37 c0 de 06 3a c0 2d 32 34 c0
       -2.8821745 -2.8721232 -2.9066691 -2.8155625
0001c0 47 86 37 c0 47 74 34 c0 a4 34 3b c0 93 94 3a c0
       -2.8675706 -2.819597 -2.925088 -2.9153183
0001d0 05 8d 38 c0 08 95 34 c0 73 5c 3d c0 28 2d 3a c0
       -2.8836071 -2.8215961 -2.9587677 -2.909006
0001e0 5e 58 3a c0 54 ba 3a c0 a2 e0 40 c0 b0 bd 3b c0
       -2.9116435 -2.9176226 -3.0137105 -2.9334526
0001f0 e3 1d 3d c0 d8 53 3e c0 2d fe 36 c0 7a c2 31 c0
       -2.9549491 -2.9738674 -2.8592637 -2.777495
000200 78 a9 37 c0 5c 67 38 c0 80 15 3a c0 fe 50 34 c0
       -2.8697186 -2.8813086 -2.9075623 -2.8174434
000210 fc 6e 33 c0 fb cc 31 c0 e8 d8 32 c0 d7 62 3d c0
       -2.803649 -2.778136 -2.794489 -2.9591577
000220 6f e4 2a c0 7b b6 2e c0 04 df 36 c0 77 a1 30 c0
       -2.6701925 -2.7298877 -2.8573618 -2.759855
000230 dd c0 46 c0 3e 7b 3b c0 dc 04 3d c0 ce 2b 3c c0
       -3.1055214 -2.929397 -2.9534216 -2.9401736
000240 a2 3a 37 c0 f9 f4 3f c0 a4 cd 40 c0 68 0d 38 c0
       -2.8629537 -2.999327 -3.0125513 -2.8758183
000250 66 76 44 c0 55 c9 39 c0 a5 89 3c c0 60 c3 31 c0
       -3.0697265 -2.9029133 -2.9459012 -2.7775497
000260 1b 19 26 c0 42 26 2f c0 7f cd 34 c0 16 19 39 c0
       -2.5952823 -2.73671 -2.8250425 -2.8921561
000270 5e 8f 3f c0 3c 9f 2c c0 e9 45 36 c0 ba 11 2b c0
       -2.9931254 -2.697219 -2.848017 -2.672957
000280 36 6d 41 c0 04 32 36 c0 c5 1b 3d c0 d6 31 3f c0
       -3.0222907 -2.8468027 -2.95482 -2.9874167
000290 95 8d 3f c0 02 6d 4a c0 13 b0 35 c0 de 7d 32 c0
       -2.9930165 -3.1629033 -2.8388717 -2.7889323
0002a0 5b 05 46 c0 db 79 3c c0 be 64 36 c0 c0 81 3c c0
       -3.0940769 -2.9449375 -2.8498988 -2.9454193
0002b0 9d 1c 3e c0 18 ee 37 c0 b2 b6 38 c0 11 8c 39 c0
       -2.9704964 -2.873907 -2.8861508 -2.899174
0002c0 86 08 40 c0 e3 b9 31 c0 67 89 36 c0 75 e7 36 c0
       -3.0005202 -2.7769706 -2.8521364 -2.857877
0002d0 2c 69 32 c0 9d 90 3f c0 e6 26 39 c0 4f aa 38 c0
       -2.7876692 -2.9932015 -2.8929992 -2.8853948
0002e0 66 03 36 c0 e8 d3 41 c0 64 4a 40 c0 d6 fd 3e c0
       -2.8439574 -3.0285587 -3.0045404 -2.984243
0002f0 cd 48 3a c0 f9 38 38 c0 3f 88 4c c0 e5 8e 29 c0
       -2.9106934 -2.8784773 -3.1958158 -2.6493466
000300 cf ef 44 c0 bc f5 3a c0 97 5c 3b c0 86 15 46 c0
       -3.0771368 -2.9212484 -2.9275262 -3.0950637
000310 f6 2e 38 c0 fd c4 39 c0 90 bb 2d c0 fa 3d 3d c0
       -2.8778663 -2.9026482 -2.714573 -2.9569077
000320 dc ce 31 c0 3f c2 47 c0 a5 97 3f c0 84 5f 44 c0
       -2.7782507 -3.1212308 -2.9936306 -3.0683298
000330 6a bf 40 c0 1f 1a 41 c0 e3 df 33 c0 1b 2e 44 c0
       -3.011683 -3.0172193 -2.81054 -3.065314
000340 0d d4 3c c0 ab 5c 3a c0 89 54 3b c0 9c 3f 36 c0
       -2.9504426 -2.911906 -2.9270346 -2.8476324
000350 93 87 3b c0 0d c1 42 c0 8a d4 34 c0 70 28 37 c0
       -2.9301498 -3.043033 -2.8254724 -2.861843
000360 83 4c 3d c0 74 38 3f c0 08 61 3f c0 fc f1 41 c0
       -2.957795 -2.9878206 -2.9902973 -3.0303946
000370 06 c3 41 c0 63 16 3f c0 e6 8f 3c c0 4a 3c 43 c0
       -3.0275283 -2.9857414 -2.9462829 -3.0505548
000380 00 a5 35 c0 4e 9a 40 c0 74 80 37 c0 16 ca 45 c0
       -2.8381958 -3.009418 -2.8672152 -3.0904593
000390 0f b2 3e c0 88 61 3d c0 a1 76 2e c0 b7 cc 3a c0
       -2.9796178 -2.9590778 -2.7259905 -2.9187448
0003a0 2c 06 34 c0 2e 4e 2f c0 c6 06 33 c0 6f 00 3b c0
       -2.8128767 -2.7391467 -2.7972884 -2.9219015
0003b0 90 87 3a c0 5c 6a 32 c0 d9 ed 3d c0 79 14 28 c0
       -2.914524 -2.7877417 -2.967642 -2.6262496
0003c0 0d d6 40 c0 fc c1 36 c0 0e 97 32 c0 3d 69 38 c0
       -3.0130646 -2.8555899 -2.7904696 -2.8814232
0003d0 4b bd 27 c0 f2 d9 3e c0 05 b0 35 c0 1b 67 30 c0
       -2.6209285 -2.9820523 -2.8388684 -2.756293
0003e0 02 ea 34 c0 97 45 2f c0 d6 75 44 c0 28 c2 3c c0
       -2.8267827 -2.7386224 -3.0696921 -2.9493504
0003f0 33 a2 31 c0 2e 20 34 c0 5e 1e 3d c0 8c 4c 2a c0
       -2.7755249 -2.814464 -2.9549785 -2.660922

lstm.hh.mu_bias f4 [128]
000000 cb 63 99 3e e1 4b 8c 3e 6b 45 c3 3d 25 e5 ab 3d
       0.29958948 0.2740164 0.09534725 0.08393315
000010 42 9f 5f 3e 7d a4 9c bd 76 61 3a bd d0 25 17 3e
       0.21838096 -0.07648561 -0.045503102 0.14760518
000020 4c 54 bf 3d f5 55 6f bb bd 81 bf bc 3c 69 ce 3d
       0.0934225 -0.003651974 -0.023377294 0.100786656
000030 37 cb 9a 3e a1 70 60 3c ae 37 02 3e 0c 63 65 bd
       0.30233166 0.013698728 0.12716553 -0.05600266
000040 d6 28 3b bd 8f c0 84 3e a5 5a ed 3d ae 6a 2d 3e
       -0.04569324 0.2592816 0.11589555 0.16935226
000050 4d cc 43 be 4c c5 62 3e d9 11 55 3e 65 a4 bd bc
       -0.19120903 0.22145575 0.2080759 -0.023149678
000060 69 15 08 3e 49 5d 74 3d 88 f0 1b bd 4d 61 05 bc
       0.13289417 0.059659276 -0.038071185 -0.008140874
000070 cc e3 fb 3d ad 37 f3 3c 87 66 e9 3e 6b 18 57 3d
       0.12299308 0.029689634 0.45586035 0.05251352
000080 e0 d6 ed bb e2 3b 21 3e 3d d1 12 3d 5f 9a cf bd
       -0.007258281 0.157455 0.035844076 -0.10136866
000090 ad 4a 21 bc d9 c1 c4 bb 56 35 4b 3e 56 44 cc 3e
       -0.009844464 -0.0060045538 0.19844565 0.39895886
0000a0 12 42 25 be de 27 98 3d ab 64 e0 bd d4 7d d6 3d
       -0.16138485 0.07429479 -0.10956701 0.104732186
0000b0 e4 f2 a2 3d 92 0c 35 bd 91 f7 26 bd 87 24 84 bd
       0.07956484 -0.04420144 -0.04076344 -0.064522795
0000c0 20 8b 37 3c d7 68 68 3e 9f 22 19 3d 0e 09 20 3e
       0.011202604 0.22696243 0.037386533 0.15628454
0000d0 cd fe 5c 3e 66 52 d9 3d f8 9a 33 bc fd 79 32 3e
       0.21581574 0.106114194 -0.01096224 0.17429347
0000e0 8a d2 83 3e fb 16 5f 3d 01 ea 01 3e cc 6f ed 3d
       0.25746566 0.054465275 0.12686922 0.11593589
0000f0 2f 0a 6b 3e 2a 1c b1 bd 13 f0 c1 3d 82 b9 88 3e
       0.22953103 -0.0864795 0.09469619 0.2670403
000100 1b 57 8d bd 7c 15 4a be 7e 2f 61 3e ff 7c 0b be
       -0.0690138 -0.19734758 0.21990773 -0.13621901
000110 55 8e 49 3e dc e8 04 3e 10 a6 f2 bd 79 3c 4a bd
       0.19683202 0.12979454 -0.1184808 -0.049374077
000120 19 7f 84 bd 04 a0 a9 3c 1b e2 ae bd c8 8f 36 bd
       -0.064695545 0.020706184 -0.0853922 -0.044570714
000130 ab 9b 4c 3d 8d a7 1b 3d 48 b2 14 3e 4b 3c 41 3e
       0.049953144 0.038001586 0.14521134 0.18870656
000140 f7 2c c0 bd cf 99 46 be c2 f2 1d be 72 2f 0e 3e
       -0.09383576 -0.19394611 -0.15424636 0.13885286
000150 58 d4 df 3d 70 5c ca 3d e3 ee 1b be d6 e3 2e 3e
       0.10929173 0.09880912 -0.15227847 0.170791
000160 50 88 2b 3e 08 5e ab bd 8e 7b 40 3e 2b 4b 57 3e
       0.16751218 -0.083675444 0.18797132 0.21024768
000170 ec 77 29 be 73 ae 69 bd 71 42 a0 be 82 58 b9 bd
       -0.16549653 -0.057051133 -0.3130069 -0.09050085
000180 ce 3f 33 3e 98 df 86 3d 06 b8 55 3e b3 eb b6 3e
       0.17504808 0.06585616 0.2087098 0.357267
000190 6b cb 9a 3e 3b 20 1a 3e 89 db 86 3e 3f 00 b8 3e
       0.3023332 0.15051357 0.26339367 0.35937688
0001a0 4a e8 4e 3e 33 d7 59 3e 66 56 70 3e c6 88 8e 3d
       0.20205799 0.21273498 0.23470458 0.06959681
0001b0 03 b1 47 3e 3a 49 51 3e 4d 9b 81 3e 96 b8 8d 3e
       0.19501118 0.2043809 0.25313798 0.2767989
0001c0 20 e9 4d 3e 4a 03 eb 3c 2d 55 e5 3d 4c cc 63 3d
       0.20108461 0.028688092 0.111978866 0.055614755
0001d0 48 05 28 3e b6 96 d6 3e 04 f3 2d 3e 8d ca 5f 3e
       0.16408265 0.41911858 0.16987234 0.2185461
0001e0 f1 a5 90 3d c8 82 31 3d a0 89 d7 3e 34 33 86 3e
       0.07062901 0.043337613 0.42097187 0.2621094
0001f0 7d fc 9a 3e b0 a9 09 3e 40 a9 35 3e b7 8d 3a 3e
       0.30270758 0.13443637 0.17740345 0.18218122

lstm.hh.rho_bias f4 [128]
000000 0b 46 31 c0 bf 80 24 c0 42 b4 28 c0 37 9d 33 c0
       -2.7699 -2.570358 -2.636002 -2.8064706
000010 59 7a 2e c0 bd 8e 29 c0 9c fe 24 c0 93 39 34 c0
       -2.7262175 -2.649337 -2.5780401 -2.816014
000020 c7 64 1f c0 4d 04 27 c0 b0 e8 20 c0 b8 cd 32 c0
       -2.490526 -2.6096375 -2.514202 -2.793806
000030 c5 01 23 c0 50 9c 2e c0 56 d4 32 c0 34 49 37 c0
       -2.546983 -2.7282906 -2.79421 -2.863843
000040 39 67 31 c0 3e b6 12 c0 f1 26 2b c0 8f 1d 15 c0
       -2.7719252 -2.2923732 -2.6742518 -2.329929
000050 21 67 30 c0 6f 02 2a c0 d5 4f 21 c0 3d 0a 30 c0
       -2.7562945 -2.6563985 -2.5204976 -2.750625
000060 28 e9 35 c0 ec 5f 29 c0 9b f9 2e c0 ad 02 2c c0
       -2.8423557 -2.6464796 -2.7339847 -2.6876633
000070 6a 71 2a c0 13 60 2f c0 3b e9 1c c0 d3 f2 23 c0
       -2.6631722 -2.740239 -2.4517353 -2.5616958
000080 ea 64 26 c0 5e 7e 14 c0 0e bf 26 c0 0c 5d 2f c0
       -2.5999093 -2.3202128 -2.605411 -2.7400541
000090 30 37 30 c0 f9 1e 3e c0 3e c7 11 c0 eb 2a 22 c0
       -2.7533684 -2.9706404 -2.2777858 -2.5338695
0000a0 15 23 2d c0 87 46 2d c0 60 53 2c c0 e2 95 39 c0
       -2.7052662 -2.7074296 -2.6925888 -2.8997731
0000b0 22 3d 3d c0 84 81 2b c0 bf 69 39 c0 15 0f 27 c0
       -2.9568563 -2.67978 -2.8970792 -2.6102955
0000c0 85 41 34 c0 4d e9 22 c0 5c 27 35 c0 e0 6d 27 c0
       -2.816499 -2.5454895 -2.8305273 -2.6160812
0000d0 cc 74 22 c0 18 b1 1f c0 32 83 3a c0 c0 da 34 c0
       -2.5383787 -2.495184 -2.9142575 -2.8258514
0000e0 e5 85 35 c0 f2 30 33 c0 b9 48 33 c0 18 c3 16 c0
       -2.8362973 -2.7998624 -2.8013136 -2.3556576
0000f0 34 d5 24 c0 2c 16 2a c0 f4 c0 13 c0 f1 00 32 c0
       -2.575513 -2.6576033 -2.308652 -2.7813075
000100 89 5e 3b c0 11 44 2b c0 fe 7f 35 c0 28 89 3a c0
       -2.927645 -2.6760294 -2.835937 -2.9146214
000110 98 75 36 c0 a1 a8 3e c0 31 03 2c c0 4e 89 38 c0
       -2.8509274 -2.9790423 -2.6876948 -2.8833804
000120 4e 2d 40 c0 82 93 30 c0 f6 36 2e c0 51 05 49 c0
       -3.0027652 -2.7590032 -2.7221045 -3.1409495
000130 ba fa 39 c0 b4 51 36 c0 0e 9c 31 c0 9e 22 38 c0
       -2.9059281 -2.8487368 -2.7751498 -2.8771129
000140 18 8b 40 c0 b4 40 3e c0 77 e2 3d c0 36 ac 3a c0
       -3.0084896 -2.9726992 -2.9669473 -2.916761
000150 39 cc 37 c0 c5 f1 3d c0 12 69 36 c0 fc cc 3a c0
       -2.8718398 -2.9678814 -2.850163 -2.9187613
000160 c2 09 3e c0 9c 7c 38 c0 bc a4 2f c0 bb 03 33 c0
       -2.9693456 -2.8826056 -2.7444296 -2.7971027
000170 91 65 35 c0 93 fa 3b c0 97 d6 45 c0 0a da 3b c0
       -2.8343241 -2.9371688 -3.0912225 -2.935183
000180 d7 a9 29 c0 31 cf 2b c0 88 77 2d c0 99 27 22 c0
       -2.6509912 -2.684521 -2.7104206 -2.5336668
000190 cf 53 33 c0 08 85 2d c0 39 c0 31 c0 f3 41 23 c0
       -2.8019903 -2.7112446 -2.7773573 -2.5509002
0001a0 44 e5 23 c0 3c 52 2b c0 d4 e9 31 c0 ba 4e 20 c0
       -2.5608683 -2.6768942 -2.7798967 -2.504805
0001b0 40 19 30 c0 d7 04 2a c0 2e cb 25 c0 c8 f2 2d c0
       -2.7515411 -2.6565454 -2.590526 -2.7179432
0001c0 18 c5 2d c0 ee 31 31 c0 39 1a 3f c0 9e 22 2d c0
       -2.7151546 -2.7686725 -2.9859755 -2.7052379
0001d0 63 89 2c c0 e6 bc 2e c0 89 6b 2f c0 3f 3a 2d c0
       -2.6958854 -2.7302794 -2.7409384 -2.70668
0001e0 50 c5 31 c0 98 f7 2f c0 1c 94 2d c0 00 60 2a c0
       -2.777668 -2.749487 -2.7121649 -2.6621094
0001f0 1c 3e 39 c0 ce 90 2a c0 ce 67 32 c0 41 06 26 c0
       -2.8944159 -2.6650882 -2.7875857 -2.5941317

l1.mu_weight f4 [16, 32]
000000 4b e2 d6 be c8 e3 1e bf ec 27 0a 3f e3 a6 07 bf
       -0.41969523 -0.62066317 0.53967166 -0.52989024
000010 04 bb f4 3e 9f e6 0b 3f 51 4a 14 bf 7e 65 16 bf
       0.47798932 0.54648775 -0.579259 -0.58748615
000020 4d 29 02 bf 2d ce 25 3f fd 8f ff be ca f0 e3 3e
       -0.5084427 0.64767724 -0.49914542 0.44519645
000030 0e f8 04 bf 52 7d 10 3f f7 51 32 3f 6e a9 16 3f
       -0.51941 0.56441224 0.6965632 0.5885228
000040 bc 59 19 bf b6 4e de be f2 7d 04 bf b8 45 18 3f
       -0.5990255 -0.43419427 -0.5175468 0.5948138
000050 1a 67 cb be 2e 99 fc 3e 26 20 11 3f f6 73 1e bf
       -0.39727098 0.49335617 0.5668968 -0.6189569
000060 53 87 a1 be cc af 1a bf 07 20 13 3f 59 7a ec 3e
       -0.31548557 -0.60424495 0.57470745 0.46187094
000070 08 1d 41 bf 6e 6a 01 bf 51 5d 02 bf 62 09 a0 be
       -0.75434923 -0.50553024 -0.5092364 -0.3125716
000080 3b 48 dd be 81 ec f3 be 4c e8 05 3f 6f 20 ff be
       -0.4321917 -0.47641376 0.5230758 -0.49829432
000090 7f 89 e4 3e 62 63 ad 3e 12 b3 0c bf 09 c3 bb be
       0.4463615 0.33864886 -0.5496074 -0.36672238
0000a0 37 d8 ae be 89 8b d2 3e 78 ca ef be ff a6 09 3f
       -0.34149334 0.41122082 -0.4683416 0.5377044
0000b0 d3 76 b4 be 18 7f 1b 3f ec 3c ef 3e f6 d9 05 3f
       -0.35246906 0.60740805 0.46726167 0.52285707
0000c0 98 94 d7 be d4 f7 10 bf b7 06 e5 be 0e bc 0e 3f
       -0.42105556 -0.56628156 -0.44731686 0.557557
0000d0 8a f3 c1 be 45 96 e4 3e ff 99 03 3f 96 88 11 bf
       -0.37881118 0.44645897 0.51406854 -0.5684904
0000e0 5a e7 fc be 32 35 01 bf b1 c9 11 3f c9 21 cd 3e
       -0.49395257 -0.50471795 0.5694838 0.4006484
0000f0 4c bc eb be 56 9b 28 bf b2 17 08 bf 9f d1 08 bf
       -0.46042097 -0.65862024 -0.53161156 -0.53444856
000100 55 27 b3 be ac b2 a2 be c3 86 10 3f bc 71 06 bf
       -0.34990945 -0.3177694 0.5645563 -0.52517295
000110 87 a3 0d 3f 80 d7 1b 3f f3 0d 13 bf ab 61 07 bf
       0.5532765 0.608757 -0.5744316 -0.52883404
000120 f5 56 13 bf b4 89 01 3f 75 c5 30 bf da 8e e3 3e
       -0.5755456 0.50600743 -0.69051296 0.44444925
000130 44 ce 2d bf d1 a7 3b 3f df 02 24 3f 1d bd f5 3e
       -0.6789286 0.7330294 0.6406688 0.47995844
000140 ce e6 0e bf b1 c7 06 bf 5b b3 10 bf 23 4a 05 3f
       -0.5582093 -0.52648455 -0.56523675 0.5206625
000150 d8 78 2e bf 6f 14 10 3f f3 ad df 3e 1c 53 34 be
       -0.6815314 0.5628118 0.436874 -0.17609829
000160 68 3e 26 bf 90 b7 28 bf 71 e6 24 3f e2 8d 02 3f
       -0.64938974 -0.65905094 0.64414126 0.50997746
000170 3b 0a 13 bf 50 03 15 bf da 0f 0b bf a7 e7 1b bf
       -0.57437485 -0.5820818 -0.5432106 -0.6090035
000180 0d 65 08 bf 02 bf 1d bf 19 a1 7d 3e 4a 9d c7 be
       -0.5327919 -0.6161958 0.24768485 -0.3898719
000190 09 e8 e9 3e 33 23 cb 3e cf 0f 2b bf c3 f9 0a bf
       0.4568484 0.39675292 -0.66820997 -0.54287356
0001a0 76 66 c9 be 9c 47 8e 3e a2 6d 37 bf 93 ac fa 3e
       -0.39335984 0.2778901 -0.7165166 0.4895979
0001b0 04 c6 0b bf 27 3c 03 3f bd f7 d8 3e 25 00 0b 3f
       -0.5459902 0.5126366 0.4237651 0.54297096
0001c0 e0 aa fd be 38 26 14 bf 57 68 0b bf 1c 28 09 3f
       -0.4954443 -0.5787082 -0.54456085 0.5357683
0001d0 00 09 eb be 2b 6d 10 3f 49 0f cf 3e 76 0b e6 be
       -0.45905304 0.5641658 0.4044135 -0.4493062
0001e0 09 0d ec be d0 54 e0 be 60 96 f5 3e 21 6e 33 3f
       -0.46103695 -0.43814707 0.4796629 0.7008992
0001f0 ab 63 cb be 33 6d 1f bf 69 9a cf be 05 39 12 bf
       -0.39724478 -0.62276 -0.40547493 -0.57118255
000200 f5 3f 27 bf c2 48 27 bf 12 2d 04 3f 6d 80 23 bf
       -0.65331966 -0.65345395 0.5163127 -0.6386784
000210 d4 8a 07 3f 75 c8 13 3f 80 4f 12 bf 94 11 10 bf
       0.5294621 0.5772775 -0.5715256 -0.5627682
000220 0f c0 34 bf 57 83 39 3f e7 84 0f bf 9d 51 02 3f
       -0.7060556 0.72466034 -0.5606217 0.5090578
000230 91 d9 0e bf aa ac d1 3e 55 39 d9 3e 21 85 ec 3e
       -0.5580073 0.40952045 0.42426553 0.4619532
000240 93 65 14 bf cf d4 0d bf 65 0a b0 be 87 c0 2f 3f
       -0.5796749 -0.55402845 -0.3438293 0.6865315
000250 e3 24 03 bf d8 7b 13 3f 6b da 14 3f 18 69 9e be
       -0.5122816 0.57610846 0.5814578 -0.30939555
000260 d5 e9 e1 be a3 06 01 bf 36 43 10 3f 1a 6d 0d 3f
       -0.44123712 -0.5040075 0.56352556 0.552446
000270 2e 47 24 bf 9d fe 96 be 67 74 1e bf 80 87 c7 be
       -0.6417111 -0.2949113 -0.61896366 -0.38970566
000280 27 67 f3 be c3 91 fb be 58 47 2a 3f 3e b9 00 bf
       -0.47539636 -0.49134645 0.6651511 -0.5028266
000290 89 8c 0b 3f 7c ed ff 3e 32 0a 06 bf 0b 6c f8 be
       0.54511315 0.49985874 -0.52359307 -0.4851993
0002a0 ea 51 09 bf 11 cc f6 3e 8f bb 21 bf 8c ab f0 3e
       -0.53640616 0.48202565 -0.63176817 0.4700588
0002b0 95 44 02 bf f6 41 2d 3f 8b b3 1d 3f 18 62 03 3f
       -0.508859 0.67678773 0.61602086 0.51321554
0002c0 76 ca b4 be 84 e3 0e bf bc 9d 28 bf f2 9c eb 3e
       -0.35310715 -0.5581591 -0.65865684 0.46018177
0002d0 0e 4a 9f be c2 7a 36 3f 70 58 19 3f d7 27 25 bf
       -0.31111187 0.71281064 0.5990057 -0.64513916
0002e0 68 91 17 bf fd 65 11 bf e3 0a e4 3e af 04 11 3f
       -0.5920625 -0.56796247 0.44539556 0.5664777
0002f0 5c 88 28 bf 92 80 fe be 3a b1 2a bf 84 d4 e9 be
       -0.6583307 -0.49707466 -0.66676676 -0.4566995
000300 97 5b e7 be 8b 93 fd be e2 45 e8 3e 78 17 0b bf
       -0.45187065 -0.4952663 0.45365816 -0.54332685
000310 7e bc e6 3e da 91 23 3f 4d 2f bc be 69 d1 f6 be
       0.45065683 0.63894427 -0.36754838 -0.48206642
000320 a3 ab 12 bf b2 04 0b 3f 09 25 d9 be f6 57 1c 3f
       -0.57293147 0.5430404 -0.42411068 0.6107172
000330 3b 6e 12 bf f6 3c fc 3e 89 94 15 3f 19 24 e6 3e
       -0.5719945 0.4926526 0.5842977 0.44949415
000340 9d 93 10 bf e7 d0 c7 be 7d f4 06 bf 04 fa c0 3e
       -0.5647524 -0.39026567 -0.5271681 0.37690747
000350 4a f4 23 bf 7e 8c c9 3e 0d dd e5 3e 90 5e 0f bf
       -0.6404463 0.39365 0.4489521 -0.56003666
000360 fc ff ce be 41 89 03 bf f9 cf e8 3e 55 c4 cf 3e
       -0.40429676 -0.5138131 0.4547117 0.40579477
000370 58 b5 f1 be a0 0e f5 be 33 4b 1a bf f2 52 fd be
       -0.47208667 -0.4786272 -0.60270995 -0.49477345
000380 1d 4e db be 38 40 aa be 69 a4 37 3f 57 33 e4 be
       -0.42833033 -0.3325212 0.71735245 -0.4457042
000390 bc bf 0d 3f fe ee 0f 3f 4f b6 0a bf 38 f6 02 bf
       0.5537069 0.5622405 -0.5418443 -0.5115695
0003a0 9f 91 1b bf fb ed 22 3f c8 86 08 bf 86 c2 0c 3f
       -0.60769075 0.6364438 -0.5333066 0.5498432
0003b0 98 cf 02 bf ca 09 c9 3e 8a 55 02 3f 06 2d 07 3f
       -0.5109801 0.3926528 0.5091177 0.52803075
0003c0 a2 cc 27 bf 91 6f 06 bf 45 7c 17 bf aa b7 07 3f
       -0.6554662 -0.52513987 -0.59173995 0.53014624
0003d0 c8 03 14 bf a3 9d 04 3f b6 33 b2 3e c3 29 d0 be
       -0.5781827 0.51803035 0.34805077 -0.40656862
0003e0 e8 b9 11 bf 4c 0e dd be 22 65 11 3f 49 de 00 3f
       -0.56924295 -0.4317497 0.5679494 0.5033918
0003f0 20 d4 11 bf 57 64 0f bf 9a 23 37 bf 26 7f ee be
       -0.569643 -0.5601248 -0.715387 -0.46581382
