BNN/model_states/BNN_model_state_FD001_denoised_NOCF.pt (torch, 57845 bytes, 14 tensors)

lstm.ih.mu_weight f4 [128, 14]
00000000: 0aff 5a3e a0d6 363e e3a5 1c3e 59ab 5cbe
00000010: b7ae b63d faa2 4fbe 75b1 e23c 98e1 3cbe
00000020: 308b 92bd 3d05 bf3d 92e5 ec3a 46b7 03be
00000030: b301 e3bd ff9f e2bd bd14 acbd 90b7 8d3d
00000040: c8f9 4d3e 6db9 233a aa2e 73bd 887b 36bc
00000050: 9ff2 85bd ce03 c53d 523c 7c3d b2a4 ef3d
00000060: 3133 173e 6796 fa3d dde5 2a3d 9dae d03d
00000070: b14f d13c 5c9d 423d d3c6 86bc 6669 323d
00000080: cc2a babd a116 a2bb becf 2b3c b1c0 113e
00000090: 6833 c53d 6d6a 66bc 733e 123d 5d48 aabc
000000a0: 2804 3abe 843e a23d 7409 cebd 00d2 8ebd
000000b0: 0990 20be c6fe 623e abcf d6bd 3e4d a6bd
000000c0: ccef ccbd 4373 30bd 318f 333d 7621 d83b
000000d0: e108 afbd 7952 bf3d d33e b6bd 3933 44bc
000000e0: ab06 43be 4dee 6ebc 8288 3ebd 36bb e53d
000000f0: af4d 4e3d 31d5 883e 252f f3bd 6273 383e
00000100: 8d0c 823e 718d b63d 503b 163e 6c62 90b9
00000110: d758 01bb 3f7e 0d3d c9f3 47be 80f0 7f3c
00000120: e69c bfbd 2756 373e 5087 c7bd ed21 a53d
00000130: c739 d0bb feb5 513c d029 a7be 39d8 8f3c
00000140: 233d 33bd 9326 0bbe 9c87 22bd fa35 2cbd
00000150: fe95 85bc 6e5c c1bc a403 a23d 5630 cd3d
00000160: 6fc4 073d 3552 1e3d 2ae3 12be 9d5d e03d
00000170: d909 3ebe 6dc9 bbbd 5a94 833d b4d2 56ba
00000180: 12c0 46be 501e 903d ab70 8f3d 73fb 85bc
00000190: a816 9d3d 3b35 d03d 36bc d43d 80a1 e43d
000001a0: 6730 b6bc f550 c03d f4e7 c03d cfd8 b33d
000001b0: 96d5 9e3c fc6d 0b3e 7cda 8139 2c29 a2bc
000001c0: 943c 55be 255a ecbc d8ee 8bbd e7a2 573d
000001d0: 9b02 833d bf24 5ebe 42ea a8bd 3a8d d33d
000001e0: 34a1 25bd 5693 8bbd d219 23bd 101b debb
000001f0: 22f9 e03d 6bee f23d 7e2c 9abc 75a8 9abd
00000200: 2f17 553d 41be 4f3e ca07 96be 0926 41be
00000210: 4c32 2cbe 57b5 963e 472a 16be 4079 c93d
00000220: c67f c43c e7ec 07be 1691 84bd 5a6a 5a3e
00000230: c761 25be b186 ab3a f03c 2ebe 80f4 4b3e
00000240: b50a 16be d48c 113e 2f55 bf3c c159 853e
00000250: 840b 05bd e58d 2ebb cb29 38be 5531 b9bd
00000260: da04 f53d 5dec 3a3e a48c 5dbe 4333 46bd
00000270: 4c23 d6be 84d3 4b3e 301f b0be 598e 1d3d
00000280: cf42 b5be e3cd 4e3e ac24 79be 40c5 29bd
00000290: 4b40 febd 76da 83be 2083 773e 8deb b03d
000002a0: e718 84be 2c47 653c c23e 423d 853c c13d
000002b0: 02d0 7cbe 3a2c 393d 9556 2abc b5be 8f3e
000002c0: 8e83 c9bd 91bf 123d e523 20be e978 04be
000002d0: 92b6 55bb d876 99bd fe45 89be 95cf 0dbe
000002e0: ed73 0fbe 5052 103a b408 46be ba81 94bb
000002f0: e28e d93c 8ce5 a73d 3a63 953d f684 ab3d
00000300: aa79 3c3d 3878 83be e457 f43d 159e 5e3d
00000310: aef5 59be 6e75 90bc 3c79 85bb 6d77 7c3e
00000320: 2097 bf3d e170 8f3e 48cf 75bd f157 92bc
00000330: c55f 8d3d 686a f23d 85bc 713d 687c 8abd
00000340: 2c36 b5bd c7ae 60bd 8f9c 32be 42bd 3dbe
00000350: 2b32 d6bd 725f 763e 017e b6bc 532a 8dbd
00000360: 402e 03be 9fc0 753e 8eda 2ebe 7a6e 853e
00000370: f894 cabd eb93 37be f5cd 183e 36c5 933e
00000380: 5841 11be bb2e cd3c e561 0abe 3b26 393d
00000390: a150 90be 6cc1 003b 1e93 15be 4dfd af3e
000003a0: 6194 7dbe d741 82bd 1dfc b2be 4f6e 66be
000003b0: f056 253e a8a5 273e f2aa b53d 8bfa dd3d
000003c0: aceb f23b 729f c7bc dd5e b43b 19af 1ebd
000003d0: c14c 37bc ae68 84bd fa8b 0f3c e608 9b3d
000003e0: 6f7e 4e3e fa79 58bc ecb0 853c 70ea 2bbd
000003f0: 915a 5b3d 91d4 6e3d 8018 bb3d 5858 0f3d
0.21386352 0.1785531 0.15297656 -0.21549739 0.08920043 -0.20277014 0.027672509 -0.18445432
-0.07155454 0.09327171 0.0018073788 -0.12862882 -0.110843085 -0.11065673 -0.08402393 0.069197774
0.20114815 0.0006245587 -0.059370674 -0.011137851 -0.06540417 0.09619866 0.061580963 0.11701335
0.14765622 0.12235718 0.04172312 0.10189555 0.025550695 0.04751335 -0.016452229 0.043557547
-0.09090194 -0.004946545 0.010486541 0.14233662 0.096289456 -0.01406346 0.035704087 -0.020786459
-0.18165648 0.0792208 -0.10060397 -0.06973648 -0.15679945 0.22167501 -0.10488828 -0.081202015
-0.10006675 -0.043078672 0.04383773 0.0065957857 -0.085466154 0.09341902 -0.088987015 -0.011975103
-0.19045512 -0.0145831825 -0.046516903 0.11217348 0.050367054 0.26725152 -0.118742265 0.18012765
0.254002 0.089136966 0.14671063 -0.0002753915 -0.001973679 0.034544226 -0.1952659 0.0156213045
-0.09356098 0.17903958 -0.09742606 0.080631115 -0.006354544 0.012799738 -0.32649088 0.017559158
-0.043759476 -0.13588934 -0.03968011 -0.042043664 -0.016306873 -0.023603644 0.07910851 0.10018985
0.033146318 0.038652617 -0.14344469 0.10955355 -0.18558444 -0.09169278 0.0642478 -0.00081948494
-0.19409207 0.07037032 0.070039116 -0.016355252 0.07670337 0.10166403 0.10387461 0.11163616
-0.022239877 0.09390441 0.094192415 0.08781587 0.019388955 0.13616174 0.0002476758 -0.019795023
-0.2082389 -0.028851578 -0.06832665 0.05264559 0.06396981 -0.21693705 -0.08247806 0.10329671
-0.04043694 -0.068152115 -0.039819546 -0.0067781284 0.10985018 0.11861881 -0.018820044 -0.07551662
0.052024063 0.2028742 -0.29302818 -0.18862166 -0.16816062 0.29435226 -0.14664565 0.0983758
0.023986708 -0.13273965 -0.064729854 0.21329632 -0.1615058 0.0013086406 -0.17015433 0.19917488
-0.14652522 0.14213878 0.023356048 0.2604504 -0.032481685 -0.0026634869 -0.17984693 -0.090426125
0.11963816 0.18254228 -0.21635681 -0.04838873 -0.41823804 0.19904906 -0.34398794 0.03846583
-0.35402533 0.20195727 -0.24330395 -0.041447878 -0.12414607 -0.2575261 0.24171114 0.08638678
-0.2580025 0.0139940195 0.04742313 0.09435371 -0.24688724 0.045208193 -0.010396619 0.28075185
-0.09839545 0.035827223 -0.15638693 -0.12936749 -0.003261004 -0.07493371 -0.26811212 -0.13848718
-0.14009066 0.00055054296 -0.19339257 -0.004532066 0.02655739 0.081980795 0.072943166 0.0837497
0.046014465 -0.25677657 0.11930826 0.054349978 -0.21285126 -0.01763412 -0.00407329 0.24654932
0.09354997 0.28015807 -0.060012132 -0.0178642 0.06903032 0.11836702 0.059017677 -0.0676201
-0.08848223 -0.05485418 -0.17442535 -0.18529227 -0.104587875 0.24059847 -0.02227688 -0.06892838
-0.12810612 0.2399926 -0.1707556 0.2606085 -0.09891695 -0.1792752 0.14922316 0.28861398
-0.14185083 0.025046697 -0.13513906 0.045202475 -0.28186515 0.0019646538 -0.14606902 0.3437294
-0.24763633 -0.06360214 -0.34957972 -0.22503017 0.16146445 0.16371787 0.08870496 0.10838803
0.007413348 -0.024368022 0.0055044726 -0.038741205 -0.011187733 -0.064652786 0.0087614 0.075700566
0.20165418 -0.013212675 0.016319714 -0.041971624 0.053553168 0.058308188 0.091355324 0.03499636

lstm.ih.rho_weight f4 [128, 14]
00000000: c2ba 42c0 d688 2ec0 018c 32c0 0183 35c0
00000010: 52b1 47c0 0069 36c0 b951 35c0 ac82 3cc0
00000020: 8e09 38c0 0e64 2cc0 55a9 3ec0 eed4 39c0
00000030: e414 36c0 4b8f 3ec0 9b7c 2dc0 e975 37c0
00000040: e280 42c0 d5c6 2fc0 a7ce 32c0 21e0 2cc0
00000050: 6d1d 2bc0 7525 32c0 1b1d 40c0 e0f5 32c0
00000060: abb0 38c0 59ee 31c0 0249 37c0 6ad5 36c0
00000070: 4634 39c0 cd9f 49c0 cc6d 3ec0 4b9e 43c0
00000080: 76a5 3ac0 6dcc 32c0 8ad4 36c0 0151 39c0
00000090: 7594 3dc0 8690 35c0 2bd5 32c0 63ec 39c0
000000a0: 4a5a 30c0 5176 36c0 8f44 49c0 5ecd 40c0
000000b0: e881 3ec0 00f6 45c0 6367 42c0 19ce 38c0
000000c0: 70c4 37c0 7cdc 33c0 d583 3cc0 ce44 35c0
000000d0: 451e 3ec0 70ef 31c0 3b07 45c0 f18d 35c0
000000e0: b1f8 44c0 c8e7 2fc0 e0f1 45c0 8e67 36c0
000000f0: da86 40c0 67bb 3fc0 30de 46c0 e6e2 43c0
00000100: 4728 33c0 2d47 37c0 4a0e 3fc0 20db 4ac0
00000110: 78b1 33c0 9935 3ac0 82cd 41c0 9631 2fc0
00000120: 427a 38c0 ae00 39c0 1f25 3fc0 c8f2 3cc0
00000130: 4a74 40c0 7f15 3ec0 7ab9 4cc0 68fd 41c0
00000140: 62ff 3bc0 f349 37c0 53f5 39c0 7163 3dc0
00000150: d13b 3dc0 a74b 41c0 c724 41c0 b819 45c0
00000160: dcf1 32c0 15bf 2dc0 51e6 3cc0 5d78 48c0
00000170: 162c 39c0 1660 2fc0 27db 38c0 a3e4 35c0
00000180: 82b6 3bc0 0dd9 3ec0 ce0c 32c0 681c 37c0
00000190: 460c 38c0 ab05 3ac0 d955 3dc0 cc5c 38c0
000001a0: b92a 47c0 f12b 33c0 ae2f 38c0 5f8d 30c0
000001b0: 81f9 3ec0 6eaf 35c0 4cf4 31c0 e57e 37c0
000001c0: de3d 3bc0 f0cb 30c0 3614 36c0 b662 45c0
000001d0: 8b2a 3cc0 a11d 42c0 ebb1 35c0 b32c 37c0
000001e0: 3ac8 44c0 e21e 36c0 87c1 37c0 5d20 3fc0
000001f0: fff6 39c0 f9b1 39c0 4cdb 38c0 af91 2ec0
00000200: cdb7 37c0 c78c 36c0 a857 30c0 ff69 3cc0
00000210: cd24 29c0 cf8e 39c0 cba9 2fc0 fb55 36c0
00000220: 8a32 3bc0 ebce 3cc0 d5c1 3ac0 2013 35c0
00000230: b81c 30c0 0625 3bc0 58c9 2fc0 de1e 31c0
00000240: 1445 4bc0 c299 39c0 d999 2dc0 a67d 30c0
00000250: 7803 2cc0 bd5e 33c0 655c 30c0 64ed 40c0
00000260: 072f 3bc0 7ea1 38c0 1909 36c0 b2bd 35c0
00000270: 7618 3ec0 830b 37c0 eff8 2cc0 1551 3ec0
00000280: bc2a 3ec0 7ac1 46c0 4e9f 46c0 bb7a 43c0
00000290: f927 39c0 12b0 39c0 73e7 3fc0 2b72 3ac0
000002a0: 33f4 36c0 9099 42c0 967b 3ac0 92c1 36c0
000002b0: 04a1 35c0 c44c 2fc0 d59d 31c0 f465 3ec0
000002c0: 0610 2fc0 e8e7 41c0 6b04 3fc0 4708 37c0
000002d0: eb7c 40c0 51cb 3fc0 63ce 3ec0 9d41 3cc0
000002e0: 7069 3ac0 f73a 32c0 4c2a 47c0 8101 41c0
000002f0: 1cbb 43c0 0289 3cc0 1b60 3fc0 8640 43c0
00000300: 73f1 3bc0 e81d 3ec0 e127 32c0 f54c 3ec0
00000310: cb72 3bc0 3cfc 38c0 b90d 3ac0 caa2 46c0
00000320: 09ba 42c0 48a2 38c0 6c84 41c0 101f 34c0
00000330: 23d7 37c0 4d3a 41c0 05c1 36c0 71b0 35c0
00000340: 501c 48c0 08bc 3ec0 e644 3bc0 4a5c 3ec0
00000350: cb7d 3bc0 1c8d 33c0 d1ab 40c0 40fe 31c0
00000360: 82ab 3cc0 4909 3ac0 c6a9 41c0 01d4 3ac0
00000370: 561a 35c0 a841 38c0 3c93 34c0 017c 3bc0
00000380: 1f0b 40c0 12c5 3ec0 f0b5 37c0 d014 3cc0
00000390: 3a92 3fc0 9558 3ec0 8420 2cc0 c809 3ec0
000003a0: c1ba 49c0 00f9 32c0 3a94 38c0 57d6 31c0
000003b0: 57a7 42c0 7acb 38c0 4cea 42c0 479d 3ac0
000003c0: cd0d 3dc0 74cf 39c0 a847 35c0 313e 3bc0
000003d0: ba6a 38c0 2bee 3ec0 85dd 3cc0 1014 2bc0
000003e0: a04e 36c0 2add 36c0 a051 35c0 3c8a 3ac0
000003f0: 47e7 40c0 41b0 37c0 5fce 3dc0 436f 3ac0
-3.0426488 -2.7271018 -2.7897952 -2.8361208 -3.1201978 -2.8501587 -2.833113 -2.9454756
-2.8755832 -2.6936069 -2.9790852 -2.9036212 -2.845025 -2.977496 -2.7107303 -2.8665717
-3.0391164 -2.7465107 -2.793863 -2.7011797 -2.673671 -2.7835362 -3.0017765 -2.796257
-2.885783 -2.7801726 -2.863831 -2.8567758 -2.8938155 -3.1503785 -2.9754515 -3.0565364
-2.916349 -2.7937272 -2.8567224 -2.895569 -2.962186 -2.836946 -2.7942607 -2.905053
-2.7555108 -2.8509715 -3.1448095 -3.0125346 -2.9766788 -3.0931396 -3.0375602 -2.8875792
-2.8713646 -2.8103323 -2.9455464 -2.8323245 -2.9705975 -2.780239 -3.0785663 -2.8367884
-3.077679 -2.7485218 -3.0928879 -2.8500705 -3.0082307 -2.9958131 -3.1073112 -3.0607238
-2.7993333 -2.8637192 -2.9852471 -3.1696243 -2.8077068 -2.9095213 -3.0281682 -2.7374015
-2.882462 -2.8906665 -2.9866407 -2.9523182 -3.0070977 -2.970062 -3.1988206 -3.0310917
-2.9374623 -2.8638885 -2.9055984 -2.9591944 -2.956776 -3.0202425 -3.0178697 -3.0796947
-2.796012 -2.7147877 -2.9515574 -3.1323464 -2.8933158 -2.7402396 -2.888376 -2.8420799
-2.9330144 -2.9819977 -2.7820315 -2.8611088 -2.875749 -2.906596 -2.9583647 -2.8806639
-3.1119826 -2.799557 -2.8779101 -2.7586286 -2.9839785 -2.8388324 -2.7805357 -2.86712
-2.925651 -2.7624474 -2.8449836 -3.0841498 -2.9400966 -3.0330584 -2.8389843 -2.8621032
-3.0747209 -2.845635 -2.871187 -2.9863503 -2.9057004 -2.9014876 -2.8883848 -2.7276418
-2.8705933 -2.8523424 -2.75535 -2.9439695 -2.6428711 -2.8993413 -2.7447383 -2.8489978
-2.9249597 -2.9501293 -2.9180806 -2.8292923 -2.7517529 -2.9241347 -2.746664 -2.767509
-3.1760912 -2.9000096 -2.712515 -2.757669 -2.6877117 -2.8026574 -2.7556393 -3.0144892
-2.9247453 -2.8848567 -2.8443053 -2.839703 -2.970243 -2.8600776 -2.7026937 -2.9736989
-2.9713583 -3.1055589 -3.1034732 -3.0543659 -2.8930647 -2.9013715 -2.9985015 -2.9132183
-2.8586547 -3.0406227 -2.913793 -2.8555646 -2.8379526 -2.7390604 -2.7752583 -2.9749727
-2.735353 -3.0297794 -2.9846447 -2.8598802 -3.0076244 -2.9967844 -2.9813468 -2.9415047
-2.9126854 -2.784849 -3.1119566 -3.0157168 -3.0582952 -2.9458623 -2.9902408 -3.0508132
-2.936612 -2.9705753 -2.783684 -2.973447 -2.9288814 -2.8903952 -2.9070876 -3.1036859
-3.0426047 -2.8849049 -3.0237074 -2.814396 -2.872506 -3.0191834 -2.855531 -2.8388941
-3.126728 -2.9802265 -2.9260802 -2.9743829 -2.9295528 -2.8054876 -3.0104868 -2.7811432
-2.947968 -2.9068167 -3.0259871 -2.9191897 -2.8297324 -2.8790073 -2.8214865 -2.9294436
-3.0006788 -2.9807782 -2.8704796 -2.9387703 -2.9933 -2.9741566 -2.6894846 -2.969347
-3.1520236 -2.7964478 -2.884047 -2.7787073 -3.0414636 -2.8874192 -3.0455503 -2.9158494
-2.9539673 -2.903287 -2.8324986 -2.9256709 -2.881514 -2.9832866 -2.9510205 -2.6730995
-2.848549 -2.8572488 -2.833107 -2.9146872 -3.014116 -2.8701327 -2.965721 -2.9130409

lstm.ih.mu_bias f4 [128]
00000000: 83df 583d 5237 183e e579 733d a31f 1ebc
00000010: 9b0d 3a3d 515f 1b3e 4073 7b3e 5f1a 0e3e
00000020: c8c1 a23d 33fc f2bc 32fc 693d aed0 993d
00000030: 7afa 433e d452 4fbc 488c 1b3e 3a5e cb3c
00000040: d6d3 0cbd 770f 7f3d ea64 6b3d 5437 d23c
00000050: 3832 5a3c 4bb1 203d 3c6f 17be df71 7d3e
00000060: 5091 4dbc 98dc d73c 3182 783e 9538 1b3e
00000070: dfea 7a3e 1d7e 543d 0804 283e 39a6 f4bd
00000080: b32b 6e3e 985e 113e c8d8 e93d 2e77 053e
00000090: 5495 ac3d 4402 2d3e 9c3c c73d 91df 453e
000000a0: 149e 04bd af61 c2bc ee76 4b3d f716 753e
000000b0: 064a 173e 1340 ecbd 5700 b3bd 9ac4 863d
000000c0: 3df4 a2bb 367b bd3d 418e a73e 87d7 71bd
000000d0: 3349 2bbe 9ed8 fd3c 417f b6ba 1913 c83d
000000e0: e9ce 96bd a117 173e 2ecd 4a3e 464f 303e
000000f0: 34ac 0c3e 0ae1 25be 4a61 573e c5fa 1ebe
00000100: 2d39 afbe 2a9a 18bd 071e 813e 15fd 82be
00000110: 29e2 693e 3ff3 9d3d 6912 173d 5163 8bbe
00000120: 442e f0bd 3c79 b13d 0bbd 96bd 978b 9b3d
00000130: b737 3ebe cc42 313e 0afb 383e dea9 a23d
00000140: 729a 7bbb b9d9 9fbd 0958 5dbe d225 44bd
00000150: aaf5 7dbe 8522 8d3d c383 a53c 64df d63d
00000160: cc2e 36bd e538 343c 43e0 383d ab10 0e3e
00000170: 7b57 83be 0322 2a3e 3afd 21bd 91f6 10bd
00000180: 5cce 033e d396 993e 68c5 2d3d c9f7 e03d
00000190: 6b4f 943e bfaa c83e ce17 e43c b184 f13e
000001a0: d51c 523e df91 5e3e 8ded 893d 00f3 ec3d
000001b0: de3b af3e ea63 803e 410d d73d be9d 1a3e
000001c0: 895c 673e 6ba0 6a3e 6b27 393e 1e3d c43d
000001d0: e053 6f3e 3f54 343e d474 c23b 923b 3d3e
000001e0: 78e3 023e 5774 b43e 8747 053e a30b 653e
000001f0: 2702 8f3e 8159 cf3e 0a7e ee3d e7fb fc3d
0.052947532 0.14864853 0.05944242 -0.0096510975 0.04542313 0.15173079 0.24555683 0.13877247
0.07947117 -0.029661274 0.057125278 0.075105056 0.19138518 -0.012654025 0.15190232 0.024825204
-0.03438171 0.062270608 0.057469286 0.025661148 0.013317637 0.03923158 -0.14788526 0.2475047
-0.012546852 0.026350304 0.24268414 0.15158303 0.24503659 0.051878083 0.16407788 -0.11945767
0.23258857 0.14196241 0.11418301 0.13033745 0.084269196 0.16895396 0.09728357 0.19323565
-0.032377318 -0.02372822 0.049673967 0.23934542 0.14774331 -0.11535659 -0.08740299 0.065804675
-0.004972963 0.09252016 0.3272572 -0.059043434 -0.16727142 0.03098708 -0.0013923423 0.097692676
-0.07363684 0.14755107 0.19804832 0.1721774 0.13737565 -0.16199127 0.21033207 -0.15525348
-0.3422331 -0.037256397 0.25218222 -0.2558371 0.2284018 0.07712411 0.03688279 -0.2722421
-0.117275745 0.08665702 -0.07360276 0.07594984 -0.18575941 0.17310637 0.18064514 0.07942556
-0.0038391617 -0.07805199 -0.21615614 -0.04788763 -0.24800745 0.0689135 0.02020443 0.10491827
-0.044478223 0.010999893 0.045135748 0.13873546 -0.2565268 0.16614537 -0.039548136 -0.035391394
0.12871689 0.29997882 0.04242459 0.10984761 0.2896684 0.3919277 0.027843382 0.47171548
0.20518811 0.21735333 0.06734762 0.11569786 0.34225363 0.25076228 0.10500575 0.15099236
0.22593893 0.22912757 0.18081443 0.0958197 0.2337184 0.17610262 0.005934337 0.18479756
0.12782085 0.3524501 0.13015567 0.2236772 0.2793133 0.40497974 0.11645134 0.12352734

lstm.ih.rho_bias f4 [128]
00000000: 2bcc 2bc0 0986 1dc0 7ad8 19c0 b77e 2ec0
00000010: 3045 38c0 15d3 2bc0 df59 2dc0 e194 2cc0
00000020: b3aa 33c0 ae9f 22c0 5c61 2ac0 2a93 32c0
00000030: 396f 28c0 3fc0 33c0 bf2c 2ac0 b8a1 38c0
00000040: 92e1 27c0 d1b9 2fc0 cbc8 22c0 8280 33c0
00000050: 45c8 35c0 2b04 2ec0 0c17 34c0 6f0e 26c0
00000060: 260d 30c0 6649 25c0 6239 2dc0 1b52 33c0
00000070: 7589 26c0 34a0 28c0 6c25 2cc0 c224 27c0
00000080: a8e9 1ec0 a47a 14c0 9d6f 23c0 426d 34c0
00000090: 3fc3 2cc0 cffe 29c0 a402 28c0 0ba7 2dc0
000000a0: db52 2dc0 fd9a 30c0 a5b5 2fc0 945c 37c0
000000b0: 9de7 27c0 d3c6 2fc0 c1a5 3ac0 1add 2ec0
000000c0: a5bd 33c0 d8e7 1ec0 e7af 20c0 224e 33c0
000000d0: e8be 40c0 b133 2ec0 1779 28c0 be7b 1fc0
000000e0: 30ea 33c0 a6f8 34c0 a8d3 15c0 4932 33c0
000000f0: fcbd 24c0 1986 3fc0 0c15 28c0 64b2 31c0
00000100: bbb4 32c0 a821 3cc0 f158 39c0 1336 3bc0
00000110: 645e 34c0 db62 2ec0 26c0 3cc0 cc43 37c0
00000120: 2658 43c0 c6f2 31c0 b29a 2ec0 f1f2 3cc0
00000130: ca7a 3ac0 2749 3ac0 f5f1 46c0 543a 43c0
00000140: 5c58 2cc0 cb83 3ac0 7914 39c0 f243 3dc0
00000150: 5ce2 33c0 5c2f 36c0 44da 34c0 860a 35c0
00000160: eb7f 3dc0 8fef 30c0 508d 2cc0 ca12 38c0
00000170: 777d 47c0 ae65 40c0 502e 31c0 f3ef 32c0
00000180: 73a3 33c0 0a4c 33c0 c544 2cc0 d2de 2ec0
00000190: b029 28c0 a0e7 2ac0 a222 2bc0 2b71 33c0
000001a0: 8379 3bc0 b63c 33c0 8b84 21c0 0373 2cc0
000001b0: 354e 24c0 b2d9 26c0 ee98 2dc0 3ced 1fc0
000001c0: 1357 30c0 e8d3 3ac0 936a 36c0 619a 30c0
000001d0: c7e1 27c0 b9a0 28c0 1b83 3ac0 0f47 36c0
000001e0: 1517 33c0 c408 36c0 757b 34c0 eb8b 2dc0
000001f0: 35da 21c0 983f 38c0 1e35 38c0 8714 24c0
-2.6843364 -2.4613059 -2.4038377 -2.726484 -2.8792229 -2.6847584 -2.7086103 -2.6965868
-2.8072937 -2.540996 -2.6621923 -2.7902322 -2.6317885 -2.8086088 -2.658981 -2.8848705
-2.6231427 -2.7457163 -2.5435054 -2.8047185 -2.8403485 -2.7190044 -2.8139067 -2.594631
-2.7508025 -2.582605 -2.7066274 -2.8018863 -2.6021397 -2.634778 -2.689784 -2.6116185
-2.4830112 -2.3199854 -2.5536873 -2.8191686 -2.6994169 -2.6561773 -2.6251612 -2.7133205
-2.708182 -2.7594597 -2.7454617 -2.8650255 -2.6235116 -2.7465103 -2.9163668 -2.732245
-2.80845 -2.4829006 -2.5107362 -2.8016438 -3.011652 -2.721905 -2.6323907 -2.4919276
-2.8111687 -2.8276763 -2.3410435 -2.7999442 -2.5740957 -2.9925597 -2.6262846 -2.776513
-2.792281 -2.9395542 -2.8960536 -2.9251754 -2.8182611 -2.7247837 -2.9492278 -2.863513
-3.0522552 -2.7804427 -2.7281919 -2.952328 -2.9137444 -2.9107149 -3.108518 -3.050435
-2.692893 -2.914294 -2.8918746 -2.957272 -2.8106909 -2.8466406 -2.8258219 -2.8287673
-2.9609325 -2.7646215 -2.696125 -2.8761468 -3.1170328 -3.006206 -2.7684517 -2.7958953
-2.8068511 -2.801516 -2.6916974 -2.7323499 -2.6275444 -2.6703873 -2.6739888 -2.8037822
-2.9292915 -2.8005805 -2.5237148 -2.6945198 -2.5672734 -2.607037 -2.712459 -2.4988546
-2.7553146 -2.9191837 -2.8502548 -2.7594225 -2.6231554 -2.6348097 -2.914252 -2.848087
-2.7982838 -2.844285 -2.8200352 -2.711665 -2.5289433 -2.8788815 -2.878242 -2.563753

lstm.hh.mu_weight f4 [128, 32]
00000000: 814d 1cbe bd70 11bd 5af4 313e 3a8f 803d
00000010: 57bf 85bd 8832 c73d 09f0 9fbd 6e84 15be
00000020: 3378 77bd 19c1 2c3e 71a2 61be cb29 c73c
00000030: f168 c6bd 830c c6bd 0f5e 8c3d 12cd e5bb
00000040: 79a8 f9bd 3836 08be 271e 82be b2ac 05be
00000050: d48c f33c 27e9 fdbd bb67 1b3e 9753 743e
00000060: 3bc2 1ebc 4a5f 63bd 7af3 ac3d d5d9 983c
00000070: 14af 1c3d 67e3 8d3d b1b5 c13c cf41 3b3e
00000080: 2d03 3abe 19d8 b23c f998 4d3e 7594 1abd
00000090: ec5a 933e dcae 85bd a0b3 bbbd 35ee 32be
000000a0: a8ad 16be 6168 c93d 8a73 e1bd 775b a43d
000000b0: 1371 28be 5eed 903e 9231 9e3e de6c bc3d
000000c0: 9ab3 e83d 13e0 58be 32e4 16be 8792 2bbc
000000d0: 51ed 37be 9c43 473e b221 f9bd 8db2 853e
000000e0: 005b a33c 8c84 14bd ba27 893e f69e 7f3e
000000f0: 3704 b0be 63cd 5c3d 5079 0bbe a285 adbd
00000100: 603e 7ebe d899 7bbe 227a 693e 9891 acbd
00000110: ea90 503e c449 423e 1141 01bd 82a2 5cbe
00000120: f66a 20be b01a dd3a bd7e b3bd 5bf6 0f3e
00000130: 98de 08be ec02 ff3d a83c 8c3e 886b 5dbd
00000140: 3776 aebd fef4 4abe 51bf cbbe 1b28 ed3d
00000150: 9d99 91bd d9ad 03bd dfdf d2bc 890b 213e
00000160: 5b7d f13d a7ad 843d 923a 663e 9b96 e33d
00000170: 12ba 183e 547b a6bc 08ff 4ebe 585a dbbd
00000180: 57e1 1d3e 7d69 a0bc 8edf eabd e5b9 e83d
00000190: 1495 acbd d7a6 a0bd 3c6e 8a3e fda7 33bc
000001a0: 18ba 933c a7fc 133e 73a1 0dbe 88bf 3e3a
000001b0: 15df 773c cb0c 193e 992e 4ebe a28c 183e
000001c0: c561 b1bd d6fe b03d c20b 9fbe 4503 0cbd
000001d0: f6e8 d33c 4b55 713e 269a 9f3d effb 33bd
000001e0: 8134 40be 98c3 4f3e 7007 c13c 4cc2 9d3d
000001f0: 0bfd 1c3e 109a b8bd cdb8 bdbd 181d 97bd
00000200: 2915 3b3d 953a f83c e92c 813c 348b 8b3d
00000210: 7047 143e d534 17be 5169 143e 0439 c1bd
00000220: 504a 013d 90cc ae3d dcdb 9ebe 802b 89be
00000230: 2d5c b33d 070b 72bd 794f 3c3d ea74 c9bb
00000240: 3ea1 94be 6883 f2bd e2dc c5bd 2355 913e
00000250: 6621 ccbd f720 47bd 3eeb 423e 188a 82bd
00000260: 4032 b2be c64d 8d3e 02b4 02be 6641 dc3c
00000270: 7572 ebbc e3b0 59be 6132 5b3d 0388 e53d
00000280: 514b 2dbe 7a78 3f3e cd63 dbbd 2564 7d3d
00000290: 6d04 823c 1e49 7abe d62f 843e 1709 fcbc
000002a0: 4538 c5bd c0e1 503e ac24 c6bb c214 57be
000002b0: 7ede d13d d5fa 3fbd 77f8 39be f8ff 61bd
000002c0: 0a25 0e3c 67ad 6d3d edbc 8abd 8076 1d3e
000002d0: ebff 933d c67c 03bd b43f 683e 076b 4fbe
000002e0: bb22 77be e05c 063e 6ef6 41be 272d 91bd
000002f0: aab9 453e 0346 96be d194 8e3d 3770 b7bd
00000300: 18de 9cbe d920 e2bd a509 203d bf11 4fbd
00000310: eadf 303e 1496 8f3d 4b0f a1be a355 14bd
00000320: df3d a3be c82b 0a3c 04c6 a3bb 2737 0ebc
00000330: 6a5e 80be aabd b43a 87e0 853e fe30 433d
00000340: 8cae 80bd e73a 4f3b b752 84be 0d37 a6bd
00000350: 139c c2bd 5930 503e 537e dc3c da75 83bc
00000360: ed1e b0bd fb96 fbbd 5e39 123e 6999 f9bc
00000370: bead 1bbe db97 cfbd 415a 1dbe fce1 34be
00000380: fa9e 983b 163a 68bd 2a38 1b3d cf62 d1bd
00000390: afed 493d 3854 133e c58f c83d bae1 a2bd
000003a0: 1759 323e b987 ec3d 69dc a9be 6c37 b43d
000003b0: 5ab1 13be bd90 8a3d e68f 693e baae 22bd
000003c0: cbeb ccbd 4ffb aebd e78c 843d 59f6 713e
000003d0: 2dad 5ebe 4594 e13d b04d bc3d 04a0 1fbd
000003e0: 4d7f bb3c 0b6c ca3d e588 cd3d 351f 35bc
000003f0: be8d 643e cbf9 15be b86f 0dbd bf6d b1bd
-0.1526394 -0.035507906 0.17378369 0.06277318 -0.06530636 0.09726435 -0.07809455 -0.14601299
-0.060417365 0.16870536 -0.22034623 0.02431192 -0.09687985 -0.09670355 0.06853878 -0.0070129717
-0.12190337 -0.13301933 -0.2541363 -0.1305416 0.029730238 -0.12397986 0.15176289 0.23860012
-0.009689863 -0.055510797 0.08444877 0.018658558 0.038252905 0.06928139 0.023646208 0.18286823
-0.18165274 0.021831559 0.20077886 -0.037739236 0.28780305 -0.065274924 -0.0916512 -0.17473681
-0.14714682 0.09834362 -0.110083655 0.08025258 -0.16449384 0.28306097 0.30897194 0.09200452
0.11362381 -0.21179228 -0.14735487 -0.010471947 -0.17961623 0.19459385 -0.1216463 0.26112786
0.019940853 -0.03625922 0.2678812 0.24962983 -0.34378216 0.05390681 -0.13620496 -0.08472754
-0.24828482 -0.24570405 0.22800496 -0.08426207 0.2036778 0.18973452 -0.031556193 -0.21546367
-0.15665802 0.0016868915 -0.08764408 0.14058821 -0.13366163 0.12451729 0.27390027 -0.054057628
-0.085186414 -0.1982002 -0.397944 0.11579915 -0.071093775 -0.032148216 -0.025741516 0.15727057
0.11791488 0.06478434 0.2248328 0.1111271 0.1491473 -0.02032248 -0.20214474 -0.10710591
0.15417992 -0.01958155 -0.11468421 0.113635816 -0.08426872 -0.07844322 0.27037227 -0.0109653445
0.018033072 0.14451848 -0.13831119 0.0007276465 0.0151288705 0.14946286 -0.20134963 0.14897397
-0.08661226 0.08642356 -0.31063658 -0.034182806 0.02586792 0.23567693 0.07793073 -0.043941434
-0.18770029 0.20289457 0.023563117 0.07703075 0.15330903 -0.0901376 -0.092637636 -0.07378596
0.045674477 0.030301372 0.015768485 0.0681366 0.14480376 -0.14766248 0.144933 -0.09434703
0.03156501 0.08535111 -0.31027114 -0.26791 0.087578155 -0.059092548 0.04597423 -0.0061479704
-0.29029268 -0.1184147 -0.09661271 0.28385267 -0.09967308 -0.048615422 0.1903505 -0.063739955
-0.34803963 0.275984 -0.1276398 0.026886653 -0.0287411 -0.21258883 0.053514842 0.11207583
-0.16923262 0.18698302 -0.10712395 0.061863083 0.015871251 -0.24441954 0.25817746 -0.030766053
-0.09629873 0.20398617 -0.006046852 -0.21004012 0.10247515 -0.04687007 -0.18161188 -0.05517575
0.008675823 0.058026697 -0.06774316 0.15377235 0.07226547 -0.032101415 0.22680551 -0.20255671
-0.24134342 0.13121367 -0.18941662 -0.0708869 0.19309106 -0.2935029 0.06961978 -0.0895695
-0.30638194 -0.110414214 0.039071698 -0.050554033 0.17272916 0.07011047 -0.3145698 -0.036214482
-0.3188314 0.00843329 -0.0049979705 -0.0086801415 -0.25072032 0.0013789434 0.26147863 0.047654144
-0.06283292 0.0031620802 -0.25844356 -0.08115969 -0.09502425 0.20330943 0.026915705 -0.016047407
-0.085996486 -0.122846566 0.14279696 -0.03046866 -0.15202996 -0.10136386 -0.1536646 -0.17664331
0.0046576234 -0.05669602 0.03789536 -0.10223924 0.04929894 0.14387596 0.09793047 -0.0795321
0.17416798 0.115493245 -0.33175972 0.087996334 -0.14423123 0.06765888 0.22808799 -0.039717413
-0.100059114 -0.08544027 0.064721875 0.2362913 -0.21745749 0.11014608 0.09194505 -0.038970962
0.02288785 0.09883889 0.10035876 -0.011054804 0.22319695 -0.1464607 -0.03453037 -0.086635105

lstm.hh.rho_weight f4 [128, 32]
00000000: e7ee 47c0 10c0 36c0 0c91 42c0 346b 2bc0
00000010: 4ba4 43c0 5627 3ec0 f176 44c0 0690 3bc0
00000020: bf35 35c0 fcbf 39c0 e94c 3fc0 b33f 4ac0
00000030: 4ad8 32c0 30e3 33c0 3878 3bc0 e7af 48c0
00000040: 2820 32c0 3072 37c0 565e 3dc0 ba18 40c0
00000050: 6fc5 49c0 6487 3fc0 51d2 37c0 2506 31c0
00000060: 0621 37c0 7253 42c0 75c9 2dc0 e268 4dc0
00000070: 49c5 30c0 e9ff 30c0 5b88 40c0 ecdb 39c0
00000080: 95bb 36c0 fbe5 3dc0 acc1 2cc0 59e7 33c0
00000090: 143c 3dc0 2b1c 3cc0 68bc 21c0 db31 31c0
000000a0: 8f1d 32c0 a395 32c0 5d6e 30c0 93bf 31c0
000000b0: fec5 2fc0 b224 35c0 0b11 37c0 1923 36c0
000000c0: bef1 3ec0 e3fa 2dc0 720f 2ec0 1d8d 41c0
000000d0: 5901 38c0 b39b 38c0 d132 3bc0 54a1 31c0
000000e0: a7c7 39c0 9591 31c0 34d6 38c0 1628 45c0
000000f0: a025 33c0 8f69 38c0 b589 35c0 0371 31c0
00000100: 6242 32c0 314e 32c0 3880 3dc0 d21b 3dc0
00000110: a7d8 42c0 8d7b 3ac0 7d43 39c0 8361 39c0
00000120: a2b9 2ec0 d94c 3fc0 f167 3bc0 2a90 45c0
00000130: 136b 37c0 371d 38c0 a6b4 3ec0 6c9c 35c0
00000140: 31ef 35c0 9457 47c0 1704 44c0 193a 34c0
00000150: 9c4b 35c0 94b8 31c0 0376 3ec0 dbd4 32c0
00000160: 8f80 37c0 ede5 3dc0 98f5 3ac0 c88f 32c0
00000170: 6ed8 2dc0 5ca1 3dc0 7b5d 3dc0 55fb 30c0
00000180: 47f2 40c0 e868 3bc0 9184 41c0 f577 34c0
00000190: 29d2 3ec0 8ab9 38c0 436f 3fc0 e195 33c0
000001a0: 2561 31c0 4022 3fc0 3694 40c0 eff4 35c0
000001b0: 1f9b 3fc0 c6d3 34c0 34b2 3cc0 af22 35c0
000001c0: fbce 38c0 4ba9 33c0 5ca7 3ec0 4bc0 3cc0
000001d0: 9e84 3bc0 3ebe 35c0 cb1c 40c0 589e 38c0
000001e0: 8fc5 40c0 ebe3 43c0 5ab6 3ec0 1be8 3dc0
000001f0: 508b 42c0 79df 3bc0 62c7 3cc0 0cdf 3fc0
00000200: 5894 37c0 7789 3cc0 7252 40c0 7013 3ac0
00000210: a2dc 33c0 11ed 35c0 702b 37c0 0436 3dc0
00000220: 585b 2dc0 4406 36c0 c2dc 3dc0 ae3a 45c0
00000230: c803 51c0 1c9a 3ec0 8ca2 3dc0 f243 42c0
00000240: 965d 3bc0 6213 41c0 afc9 3fc0 b308 42c0
00000250: 2e6e 40c0 dcda 3ac0 03a4 3ec0 716e 3dc0
00000260: 9764 31c0 00bf 2cc0 1a12 3cc0 c733 3cc0
00000270: 7f63 41c0 4874 30c0 506e 36c0 e788 2cc0
00000280: 8e1d 3cc0 dc29 3ec0 19f4 3ac0 a7f3 3dc0
00000290: 68f8 3fc0 805e 56c0 e7d3 3bc0 25a6 38c0
000002a0: 9876 47c0 48a2 41c0 925b 3cc0 1790 3fc0
000002b0: 2128 39c0 f55f 30c0 769e 3bc0 3811 37c0
000002c0: a250 3ec0 ff6c 2cc0 cdbf 39c0 0a1e 2bc0
000002d0: 98f1 30c0 4f36 41c0 3b07 3ec0 f0b6 3ec0
000002e0: 3d83 34c0 a2ff 42c0 9826 46c0 dfcc 41c0
000002f0: fd95 42c0 43e6 40c0 d22b 53c0 8397 28c0
00000300: 72a9 3cc0 9257 3bc0 0dd5 38c0 893a 3fc0
00000310: abe8 3dc0 e9c2 36c0 ba38 34c0 ed8a 3fc0
00000320: 940d 3dc0 262c 4ec0 eb2f 44c0 236b 42c0
00000330: f748 42c0 9af6 42c0 69af 2dc0 f4c5 46c0
00000340: 451c 36c0 16e3 38c0 0cdd 3cc0 c0c7 3ac0
00000350: 947e 36c0 98dd 3cc0 054e 37c0 6ad0 38c0
00000360: 69ce 3ec0 2592 41c0 d9d0 40c0 876a 42c0
00000370: 87aa 49c0 0066 4ac0 6900 3ec0 fce1 49c0
00000380: d888 2fc0 5edf 40c0 1e53 3bc0 e44b 4ec0
00000390: 20fa 41c0 0b42 41c0 a21a 2dc0 7fe6 36c0
000003a0: 4b33 2dc0 64bd 36c0 fdc8 28c0 5728 36c0
000003b0: 8fcf 3dc0 bc52 3ac0 5ef3 37c0 f03b 23c0
000003c0: d62c 47c0 4140 3cc0 0519 37c0 18cb 3bc0
000003d0: 0b3d 2cc0 57fb 3ac0 8828 36c0 6bca 2fc0
000003e0: a055 37c0 4a51 31c0 f652 47c0 31bb 38c0
000003f0: 9897 3ac0 a55f 33c0 3549 41c0 e8d4 28c0
-3.1239564 -2.8554726 -3.040103 -2.6784182 -3.0569026 -2.9711509 -3.0697596 -2.9306655
-2.8314054 -2.9023428 -2.9890692 -3.160138 -2.7944512 -2.8107414 -2.9292126 -3.1357362
-2.7832127 -2.8663445 -2.9588828 -3.0015092 -3.1526754 -2.9926386 -2.8722117 -2.766
-2.8613906 -3.036343 -2.715421 -3.2095265 -2.7620413 -2.7656195 -3.0083225 -2.904048
-2.855199 -2.967162 -2.6993208 -2.8109953 -2.9567919 -2.9392192 -2.5271244 -2.768668
-2.783054 -2.790383 -2.756736 -2.7773178 -2.7464595 -2.8303647 -2.8604152 -2.8458922
-2.9835048 -2.718438 -2.7196927 -3.0242379 -2.8750823 -2.8845031 -2.9249766 -2.7754717
-2.9028108 -2.7745106 -2.888074 -3.0805717 -2.7991714 -2.8814428 -2.83653 -2.7725227
-2.7853017 -2.7860224 -2.9609509 -2.954823 -3.0444734 -2.913791 -2.8947442 -2.8965766
-2.7300801 -2.9890654 -2.928219 -3.086924 -2.8659103 -2.8767831 -2.979776 -2.8376722
-2.842724 -3.1147203 -3.0627496 -2.816046 -2.8327398 -2.7768908 -2.9759529 -2.7942417
-2.8672216 -2.9671586 -2.9212399 -2.7900257 -2.7163348 -2.9629736 -2.9588306 -2.76534
-3.0147874 -2.928278 -3.0237162 -2.8198216 -2.9815772 -2.8863244 -2.9911659 -2.806023
-2.7715542 -2.9864655 -3.009046 -2.8430746 -2.9938428 -2.8254256 -2.9483767 -2.830242
-2.887633 -2.8072078 -2.9789648 -2.9492366 -2.9299693 -2.8397365 -3.0017574 -2.8846645
-3.012058 -3.060786 -2.9798799 -2.9672916 -3.039753 -2.9355147 -2.9496694 -2.9979887
-2.8684292 -2.9458902 -3.005032 -2.9074364 -2.8103414 -2.8425944 -2.8620262 -2.9564219
-2.7087002 -2.8441324 -2.966599 -3.0817065 -3.2658558 -2.978156 -2.963046 -3.035397
-2.927587 -3.016808 -2.9966848 -3.031781 -3.0067248 -2.919608 -2.9787605 -2.9598658
-2.7717645 -2.6991577 -2.9386048 -2.9406602 -3.0216978 -2.7570972 -2.850483 -2.6958559
-2.9393039 -2.971305 -2.9211485 -2.9679964 -2.9995365 -3.3495178 -2.9348085 -2.8851407
-3.1166134 -3.0255299 -2.943089 -2.9931695 -2.8930743 -2.7558568 -2.9315467 -2.860426
-2.9736714 -2.6941526 -2.9023316 -2.6737084 -2.7647457 -3.0189397 -2.9691913 -2.9799156
-2.8205101 -3.0468526 -3.0961056 -3.0281293 -3.0404046 -3.014054 -3.2995496 -2.6342475
-2.9478421 -2.9272199 -2.8880036 -2.9879477 -2.967326 -2.8556464 -2.8159623 -2.9928544
-2.9539537 -3.2214446 -3.0654247 -3.037789 -3.0357034 -3.0463014 -2.7138312 -3.105832
-2.8454754 -2.8888602 -2.9509916 -2.9184418 -2.8514757 -2.951025 -2.864137 -2.8877206
-2.9813483 -3.024545 -3.012747 -3.037752 -3.1510332 -3.1624756 -2.968775 -3.154418
-2.7427273 -3.0136333 -2.926948 -3.223382 -3.0308914 -3.019656 -2.7047505 -2.8578184
-2.7062557 -2.8553095 -2.6372674 -2.8462121 -2.9657934 -2.9112997 -2.874229 -2.5505333
-3.1121116 -2.9414217 -2.860902 -2.9342709 -2.6912258 -2.9215906 -2.8462238 -2.7467296
-2.8646011 -2.7705865 -3.1144385 -2.8864253 -2.9155025 -2.8027127 -3.0200932 -2.6379948

lstm.hh.mu_bias f4 [128]
00000000: 9222 9b3e 2115 853e 80e0 c63d be5d a23d
00000010: 24f3 f73d 7816 10be c174 4cbd fdf5 783e
00000020: 2e90 4b3d 4919 a03d 74a4 413d 0256 b63d
00000030: d63e 5a3e 0567 03bd 371e 3a3e da1a b7bd
00000040: 1caa 043e ee61 883e 1a8f 3a3e 51a1 723c
00000050: 8927 38be f937 4e3e 1f63 793e 1074 343e
00000060: dbac a13d bdb2 d33d bdae 213d f046 113c
00000070: 6be6 ec3d c3ae c23d 0d17 b23e 994d 8c3d
00000080: 4a9f a13d c4ec 263e ee4c 733d fd28 9abd
00000090: 2a2b a0bd dff7 e63d 78ba 023e 1dc7 a53e
000000a0: 4bef 26be 0229 003e 14ea 13be 588a 6a3e
000000b0: 42af 333e ddaf 58bc 64f0 4abc 203a 5cbd
000000c0: a41a 583c 5143 693e 5981 f33d cfa9 13bc
000000d0: f753 073e ccc5 b83d 0de6 e03a e384 3b3e
000000e0: f211 8e3e 213f 7a3e 50ab 5f3e 0d0f 003e
000000f0: e908 ed3d d39f a0bd 8faf bb3c 9db6 7c3e
00000100: d026 96bd 98a6 62be 53da 5a3e 0608 80be
00000110: 1ad5 3d3e a8e3 233e 2344 11be a0b5 5cbe
00000120: 4631 6cbd ada3 f83c e41e e2bd 4613 23bd
00000130: e52f 8d3c edb5 bb3d 9836 123e 5b81 543e
00000140: c0a2 95bd 2441 41be a5aa 31be f319 923c
00000150: 526e 833d dd72 ab3d 2366 08be 9627 a23e
00000160: f6b6 2f3e 28e7 eebd 8a8a 603e f898 663e
00000170: a4d8 6abe 6ffe 83bd 5ae4 73be d074 0ebe
00000180: c5f0 413e 1220 f53d e860 413e fdd7 bd3e
00000190: ce82 a33e 7fd6 973e d77e a63e f0ab 6e3e
000001a0: 6bc6 3c3e c2be 593e 8708 5a3e c602 453e
000001b0: 5123 923e b497 843e 2579 7e3e ce02 a13e
000001c0: a748 7d3e fd08 343d 1f1b 143e 009a 903c
000001d0: 657a 773e 1991 cd3e 1cf6 3f3e bdd3 693d
000001e0: 80c3 793d ecaf 6e3e f2cb de3e 205b 993e
000001f0: 365c b33e ec23 443e ccfa 583e 04a3 693e
0.30299813 0.25992683 0.09710789 0.07928036 0.12106922 -0.14071071 -0.049916033 0.24312587
0.049698047 0.07817323 0.047275975 0.089031234 0.21313033 -0.03208067 0.18175589 -0.089406684
0.12955517 0.26637214 0.18218651 0.014808969 -0.17983831 0.2013854 0.24354218 0.176224
0.07894298 0.10336826 0.039473284 0.0088670105 0.11567386 0.095059894 0.3478321 0.06850738
0.0789171 0.16301256 0.059399538 -0.07527349 -0.07820733 0.112777464 0.12766445 0.32378474
-0.1630222 0.12515643 -0.14444762 0.22904336 0.17547324 -0.013225523 -0.012386415 -0.05376637
0.013189945 0.22779585 0.118899055 -0.0090126535 0.13215624 0.09022102 0.0017158404 0.18312411
0.27748066 0.24438144 0.21842694 0.12505741 0.11573965 -0.07842984 0.022910861 0.24679036
-0.07331622 -0.22133863 0.21372347 -0.2500612 0.18538323 0.16004813 -0.14186148 -0.2155366
-0.05766418 0.030351484 -0.11041048 -0.039813302 0.017234752 0.09165559 0.14278638 0.2075247
-0.07306433 -0.18872505 -0.17350252 0.01783464 0.06417526 0.08371518 -0.13320212 0.31670827
0.17159638 -0.11665183 0.21927848 0.2251929 -0.22934204 -0.06445014 -0.23817578 -0.13911748
0.18939503 0.119690076 0.18884623 0.37078848 0.31935734 0.29655835 0.32518646 0.23307776
0.18435065 0.21264175 0.21292315 0.19239339 0.2854257 0.2589699 0.248509 0.31447452
0.24734746 0.043953884 0.14463471 0.017651558 0.24167784 0.40149763 0.18746227 0.057086695
0.06097746 0.23309296 0.43514973 0.29952335 0.3503129 0.19154328 0.21189421 0.22816092

lstm.hh.rho_bias f4 [128]
00000000: b73e 2ec0 f708 21c0 be41 1fc0 109c 33c0
00000010: 95e7 34c0 622f 34c0 8eed 24c0 7637 25c0
00000020: 5719 2ec0 a5f8 22c0 f5a1 27c0 6c35 30c0
00000030: ea94 28c0 dab1 30c0 f172 33c0 b65d 37c0
00000040: ee8d 2bc0 7fb2 0fc0 66d4 32c0 3efa 20c0
00000050: 60e3 3bc0 afbd 2ac0 ae08 2dc0 6c1a 2fc0
00000060: d77a 36c0 50ae 2bc0 2d1a 20c0 b7b0 2fc0
00000070: 908d 29c0 9ecc 31c0 6640 23c0 6703 21c0
00000080: b796 1ec0 2bea 16c0 815c 21c0 6f29 34c0
00000090: e72c 33c0 33b1 39c0 d1b9 1bc0 0b29 26c0
000000a0: 37ee 29c0 c237 31c0 4966 32c0 736a 32c0
000000b0: be1a 3ac0 2e4d 25c0 9217 31c0 ce17 1ec0
000000c0: 84f7 2ac0 9879 22c0 fa8f 2cc0 ec8f 3ac0
000000d0: b8a3 35c0 9382 1cc0 978b 38c0 1244 27c0
000000e0: 5dcb 26c0 87e9 3bc0 2fa0 1cc0 996f 19c0
000000f0: baaa 2cc0 9662 2cc0 f23c 21c0 a95d 2ec0
00000100: e470 37c0 80f8 2fc0 b520 35c0 7581 36c0
00000110: 6334 39c0 bd8e 40c0 4a12 2bc0 6bec 35c0
00000120: 8133 43c0 8c46 30c0 476e 36c0 244a 45c0
00000130: 93c2 3ec0 0b6b 3ec0 e807 3ac0 9619 38c0
00000140: e799 41c0 88d4 47c0 a46f 38c0 a784 45c0
00000150: 05eb 3cc0 7c57 40c0 cf8c 32c0 cf7b 3cc0
00000160: a7a6 3dc0 5538 38c0 4896 30c0 5a3d 35c0
00000170: 26dd 37c0 77a5 35c0 a86f 3ec0 94a9 39c0
00000180: 5ab4 2bc0 9885 29c0 fd08 2cc0 c90a 2bc0
00000190: 190c 2cc0 4f8b 2bc0 3a91 28c0 692e 2fc0
000001a0: 7cf3 27c0 db8d 2ec0 990d 2ac0 40f4 22c0
000001b0: 22c0 2ac0 fd63 31c0 bff3 28c0 49bb 1cc0
000001c0: 87db 30c0 1a9f 31c0 a927 3dc0 7a11 2ac0
000001d0: 323d 2bc0 7ff0 35c0 7332 31c0 1f0a 2ec0
000001e0: 985a 2cc0 044d 2bc0 e3fd 32c0 2ea2 33c0
000001f0: 8993 2cc0 0cc2 2cc0 6a84 31c0 b850 27c0
-2.7225778 -2.5161722 -2.4883876 -2.8064003 -2.8266346 -2.815392 -2.5769992 -2.58151
-2.7202966 -2.546426 -2.61926 -2.7532606 -2.634089 -2.7608552 -2.8038905 -2.8650947
-2.6805377 -2.2452695 -2.7942138 -2.5152736 -2.9357529 -2.6678274 -2.7036548 -2.7359877
-2.8512475 -2.6825142 -2.5015976 -2.7451608 -2.6492653 -2.7781138 -2.5508056 -2.5158327
-2.477949 -2.3580425 -2.521271 -2.815029 -2.7996156 -2.9014404 -2.4332163 -2.596255
-2.6551645 -2.7690282 -2.787493 -2.7877471 -2.9078822 -2.5828357 -2.7670636 -2.470203
-2.6713572 -2.5386715 -2.6962876 -2.9150343 -2.8381176 -2.4454696 -2.88352 -2.6135297
-2.6061623 -2.9361284 -2.4472768 -2.3974364 -2.6979203 -2.6935172 -2.5193448 -2.7244666
-2.8662653 -2.7495422 -2.8301213 -2.8516514 -2.8938224 -3.008712 -2.6729913 -2.8425548
-3.0500185 -2.7543058 -2.8504808 -3.0826502 -2.9806259 -2.9752834 -2.9067326 -2.8765616
-3.0250185 -3.1223469 -2.881814 -3.0862215 -2.9518445 -3.0053396 -2.7898443 -2.9450567
-2.9632967 -2.8784382 -2.7591724 -2.8318696 -2.8728728 -2.8382242 -2.975565 -2.9009752
-2.6828828 -2.648779 -2.6880486 -2.6725333 -2.6882384 -2.6803777 -2.633864 -2.7372077
-2.624236 -2.7274082 -2.65708 -2.5461578 -2.6679769 -2.7717278 -2.639877 -2.448931
-2.763399 -2.7753358 -2.9555457 -2.6573167 -2.67561 -2.8428037 -2.7687042 -2.7193677
-2.6930294 -2.6765757 -2.796746 -2.8067737 -2.6965048 -2.6993437 -2.773707 -2.6143017

l1.mu_weight f4 [16, 32]
00000000: c068 d6be a4cd 1ebf f8c4 083f 3b43 04bf
00000010: 705e fb3e b3ce fb3e e7ba 13bf 9364 18bf
00000020: c246 00bf 4b6b 283f 2d55 02bf ec8b cd3e
00000030: 5901 f5be 6a5b 0d3f 3fef 323f b57f 193f
00000040: 80e6 1cbf 0f12 dfbe 9305 02bf 93f2 193f
00000050: 827d d0be 231c 033f 8eeb f83e 62c7 c83e
00000060: d3ab b3be e713 13bf 63e2 103f fc8a ec3e
00000070: eb21 40bf 9cf9 04bf 6b3a 04bf 5a29 b2be
00000080: fccf debe 63a9 efbe 9b88 043f f251 f7be
00000090: 63a7 e63e 80de 903e a390 0abf 09ed bbbe
000000a0: 55ff aabe b04f cc3e e2ab ebbe 1bcd 003f
000000b0: 80eb 9dbe 15b2 183f 3622 ee3e 1c71 073f
000000c0: 57d9 dbbe 4b5b 0fbf 5d28 e0be 7803 0e3f
000000d0: ccdf bfbe d679 e83e 03ad e03e a890 c33e
000000e0: 3ca1 03bf d83b f1be 42d1 0e3f 3863 c93e
000000f0: 8344 e7be 22f1 29bf 86e0 07bf 86d0 0cbf
00000100: e998 b7be b1c0 9cbe 0e61 103f fcfc 01bf
00000110: c801 0e3f 9e3a 0c3f 54ef 10bf 24c6 06bf
00000120: bdf7 0fbf b02c 023f e088 31bf 4302 ce3e
00000130: cad7 20bf 9220 3a3f 707d 233f 1972 fb3e
00000140: 25fd 11bf 7465 04bf ba83 0ebf 8ce4 033f
00000150: 5cbd 2dbf 7da5 113f 70bc b63e 90c5 513f
00000160: 9999 2abf 0bb1 1fbf b524 213f 389f ff3e
00000170: 3e2c 11bf 023c 16bf 7847 0abf 8631 23bf
00000180: 3f70 08bf 78c6 1bbf 4e11 793e 0956 c0be
00000190: 8e67 ec3e bdc9 ad3e 90af 28bf bf3b 0bbf
000001a0: 2727 c5be 5937 8d3e dd2a 37bf b25a e93e
000001b0: a683 00bf 0b74 ff3e b0ca d83e f187 0d3f
000001c0: c4e7 02bf 1bad 12bf 494e 09bf f4f2 083f
000001d0: cd8c e8be c3be 123f fd83 a83e 3219 053f
000001e0: 899e fbbe 52cc cebe 1ae7 ef3e 8f96 313f
000001f0: 245a c7be 6420 21bf b096 cfbe 7122 17bf
00000200: 3ed7 26bf 32e2 24bf c86b 033f 6347 1fbf
00000210: 614c 083f b6b4 043f b0a1 0fbf f2d9 0fbf
00000220: 5ef0 31bf 7b11 393f 2f20 11bf 6f3e f23e
00000230: 420e 03bf 23c7 c63e 201d d83e efb5 f03e
00000240: e019 17bf bde2 0bbf c511 abbe 0d06 2f3f
00000250: 0378 01bf 045e 153f f7a0 013f 9367 273f
00000260: 6c9b f1be 287e f0be a6ee 0c3f c00a 0b3f
00000270: c013 22bf d3f2 99be 0eec 1dbf b7ab d0be
00000280: 4a2b f6be dd85 f6be d961 2a3f 7d84 f9be
00000290: 8847 0c3f 041f e13e cb7d 03bf 6eb5 f8be
000002a0: 13c3 06bf 9bf3 f63e 1dc5 21bf c159 dd3e
000002b0: 4dd0 ebbe c607 2b3f aa0b 1d3f 9123 083f
000002c0: d6d2 b6be 34b4 0cbf 1202 27bf 4927 ea3e
000002d0: b9af 9bbe 4c5c 383f 9e59 033f 6192 af3e
000002e0: 187b 1fbf 1797 07bf cc9d dc3e 849f 0e3f
000002f0: f6b0 26bf 22c8 00bf c2cb 2abf 1342 f5be
00000300: 6565 e8be 7927 f9be 02b2 e53e 7e3c 07bf
00000310: 2a16 e83e 2b22 153f 40de b7be 108f f6be
00000320: b89d 10bf 841f 0b3f 1305 d8be f19f 133f
00000330: 4a58 07bf a358 f43e 2ffe 143f 9337 e93e
00000340: 7c3d 13bf ac34 c4be bf02 05bf e6d2 bf3e
00000350: be60 22bf 7411 cd3e 20d8 c03e 4e9c bc3e
00000360: 06d5 dbbe 7080 f6be 46d3 e23e 0142 cb3e
00000370: 8aa3 edbe fa28 f8be 50d6 19bf d2e2 03bf
00000380: 34c0 dabe e99f a8be 0704 373f 774a ddbe
00000390: 7b87 0f3f e451 013f 1fa1 08bf f2a9 03bf
000003a0: cd05 1abf 91b6 213f bc31 0abf 391a 043f
000003b0: ce50 efbe 767d be3e 108d 023f 0a0a 0a3f
000003c0: 300d 2cbf a655 05bf af77 15bf 710e 083f
000003d0: a2de 12bf 6ae9 063f 40fb 8a3e fbaa 153f
000003e0: 7d14 1abf 7040 cbbe 38ce 0e3f 7e07 ff3e
000003f0: 3050 10bf aa5d 11bf fb95 37bf 969f f7be
-0.41876793 -0.6203253 0.5342555 -0.51665086 0.49095488 0.49181136 -0.57707065 -0.59528464
-0.5010797 0.65788716 -0.5091122 0.40145814 -0.4785259 0.5521761 0.6989631 0.5996049
-0.61289215 -0.43568465 -0.50789756 0.60135764 -0.40720755 0.5121481 0.48617214 0.39214617
-0.3509203 -0.57452244 0.5659544 0.46199787 -0.75051755 -0.51943374 -0.5165164 -0.34797174
-0.43518054 -0.4680892 0.51770943 -0.48304707 0.4504958 0.28294754 -0.5412695 -0.3670428
-0.33397928 0.39904547 -0.46029574 0.50312966 -0.30843735 0.5964673 0.46510476 0.52906966
-0.42939255 -0.55998677 -0.43780795 0.5547404 -0.3747543 0.45405453 0.43881997 0.381963
-0.514179 -0.4711597 0.5578805 0.3933351 -0.45169458 -0.66383564 -0.5307697 -0.5500568
-0.3585885 -0.30615762 0.56398094 -0.5077665 0.5547147 0.5477694 -0.56615186 -0.5264609
-0.56237394 0.5084944 -0.6934948 0.402361 -0.6282927 0.7270595 0.6386328 0.49110487
-0.5702689 -0.51717305 -0.5566975 0.5152061 -0.67867064 0.5689314 0.3569064 0.8194208
-0.6664062 -0.6237952 0.62946635 0.49926162 -0.56708133 -0.58685315 -0.540153 -0.6374744
-0.53296274 -0.60849714 0.24323007 -0.3756564 0.46172756 0.33942977 -0.6589289 -0.5438804
-0.38506433 0.2758129 -0.7154978 0.45577008 -0.5020088 0.4989322 0.42342138 0.55285555
-0.51134896 -0.5729539 -0.5363508 0.5349572 -0.45419922 0.5732233 0.329132 0.5199157
-0.4914439 -0.4039026 0.46856004 0.6937036 -0.3893596 -0.6294005 -0.40544653 -0.5903693
-0.65172184 -0.64407647 0.51336336 -0.622183 0.53241545 0.51838243 -0.5610609 -0.56191933
-0.69507396 0.722923 -0.56689733 0.47313258 -0.5119363 0.38823804 0.4220972 0.47013804
-0.5902386 -0.5464285 -0.33411995 0.6836861 -0.5057375 0.5834658 0.5063624 0.65392417
-0.4718889 -0.4697125 0.5505165 0.5431328 -0.63311386 -0.30068073 -0.61688316 -0.40756008
-0.48079902 -0.48149005 0.66555554 -0.48733893 0.5479665 0.43968976 -0.5136382 -0.4857592
-0.5264141 0.4823273 -0.63191396 0.4323254 -0.46057358 0.66808736 0.6134592 0.5317927
-0.3570773 -0.5496247 -0.65237534 0.45733097 -0.30407503 0.72015834 0.5130862 0.34291366
-0.622972 -0.5296492 0.4308914 0.5571215 -0.6511377 -0.5030538 -0.6671716 -0.47901973
-0.45389858 -0.48662928 0.44862372 -0.5282668 0.4532941 0.5825526 -0.3591175 -0.48156023
-0.5649066 0.54344964 -0.4219137 0.57665926 -0.52869093 0.47723874 0.58200353 0.45550212
-0.5751569 -0.38321435 -0.51957315 0.3746559 -0.63428867 0.40052378 0.3766489 0.36838
-0.4293596 -0.48144865 0.44301814 0.39698794 -0.46413833 -0.48468763 -0.6009264 -0.51517975
-0.42724764 -0.32934502 0.7149052 -0.43220875 0.560661 0.5051558 -0.5337085 -0.5143119
-0.601651 0.631692 -0.5398214 0.5160251 -0.46741337 0.37205094 0.50996494 0.5392157
-0.6720762 -0.52083814 -0.5838575 0.53147036 -0.5737096 0.5269991 0.27144814 0.5846402
-0.6018751 -0.396976 0.55783415 0.49810404 -0.56372356 -0.56783545 -0.7171323 -0.48363942

l1.rho_weight f4 [16, 32]
00000000: c129 40c0 aff4 36c0 1f7f 4bc0 8115 3dc0
00000010: e55f 41c0 8628 3bc0 5f53 49c0 5738 36c0
00000020: e811 38c0 7808 3fc0 d03f 3ec0 448d 48c0
00000030: 3cb0 40c0 4d09 3fc0 d26d 3fc0 ed80 42c0
00000040: af5f 40c0 bc40 4ac0 2b80 46c0 82f6 39c0
00000050: 73bc 38c0 1fe7 42c0 defd 42c0 22d8 3cc0
00000060: 2449 3bc0 640c 41c0 cd62 38c0 f3d5 3ac0
00000070: 7430 3fc0 76f7 43c0 b68e 43c0 2b58 43c0
00000080: ff44 38c0 da20 3fc0 da10 3bc0 8633 3cc0
00000090: 5102 3ec0 2d9a 3dc0 9f7c 3cc0 8bad 3ec0
000000a0: 2b9a 3ec0 355b 3bc0 d076 3cc0 45c5 3cc0
000000b0: 8644 43c0 7173 3ec0 4e60 3ec0 207e 2ec0
000000c0: fa52 46c0 2669 3cc0 1a13 3cc0 155d 44c0
000000d0: d39a 46c0 7b94 3cc0 6f7c 3dc0 784d 48c0
000000e0: 519c 46c0 8a9d 3cc0 4fc0 3ac0 4272 36c0
000000f0: ac53 49c0 65b6 3ec0 9104 3fc0 a945 42c0
00000100: 0450 49c0 e437 35c0 6847 4bc0 038c 3fc0
00000110: 6048 41c0 ef4d 3fc0 ed75 4cc0 0cff 3ec0
00000120: 9738 40c0 3037 40c0 9c2d 34c0 713a 3ac0
00000130: 72b2 3bc0 ef01 45c0 e676 44c0 0a73 35c0
00000140: f17d 45c0 5181 3fc0 ad19 36c0 6916 38c0
00000150: 4ce6 3cc0 a8c8 3fc0 1973 39c0 a3db 40c0
00000160: 80e9 3ac0 d570 48c0 5d69 3dc0 30c6 47c0
00000170: 1559 3fc0 4318 3cc0 3415 44c0 e482 35c0
00000180: 16c3 3cc0 33d6 47c0 5353 3bc0 a248 41c0
00000190: dae7 3cc0 fe19 3bc0 d6a4 3ec0 164d 3cc0
000001a0: 3424 36c0 8eb2 36c0 3e28 41c0 34bb 49c0
000001b0: 928f 3dc0 672b 46c0 387c 40c0 5ff2 3ec0
000001c0: d5e3 38c0 0070 3cc0 b040 47c0 6f7f 30c0
000001d0: 4ef1 3dc0 7f99 40c0 9617 46c0 077a 44c0
000001e0: 4ccb 44c0 3bf6 45c0 8064 4bc0 2b9e 37c0
000001f0: ef5c 44c0 72d9 44c0 4bb3 4cc0 55c3 45c0
00000200: 0980 36c0 a8fb 46c0 b32e 40c0 cedb 3fc0
00000210: 9a27 48c0 c6e5 3cc0 0a5b 40c0 9bd0 34c0
00000220: 6f2e 3ac0 7902 34c0 27f5 3cc0 1f94 40c0
00000230: 43da 3ac0 0455 3ac0 a631 3fc0 16b7 41c0
00000240: db54 47c0 ba95 40c0 9536 39c0 ec59 41c0
00000250: 130d 40c0 5f95 3ac0 a274 45c0 2f73 39c0
00000260: ea4e 39c0 d771 31c0 41a7 46c0 e2a3 3ec0
00000270: 369e 33c0 ec82 40c0 a1e2 3ec0 79f2 2ec0
00000280: 4316 34c0 2b4f 3ec0 1111 39c0 1efc 3fc0
00000290: b0d7 40c0 0dbf 31c0 b252 3bc0 ee10 3cc0
000002a0: 5f7b 44c0 6877 42c0 6485 48c0 d0a0 42c0
000002b0: 3742 39c0 c10a 3cc0 b4d8 39c0 8e61 3ac0
000002c0: 7035 38c0 ee87 2cc0 d14e 41c0 3477 4dc0
000002d0: 7c8f 45c0 f7e6 47c0 0176 46c0 d2d7 39c0
000002e0: b121 37c0 bdde 42c0 f339 54c0 c22d 40c0
000002f0: 12dd 3ec0 ece5 43c0 ed84 3dc0 b04a 35c0
00000300: 8318 48c0 608a 44c0 a952 47c0 804e 40c0
00000310: ca86 49c0 d998 3ec0 2b84 49c0 8033 3ec0
00000320: 3e94 3ec0 243d 41c0 6e92 3ec0 ecf9 42c0
00000330: b25a 3ec0 7841 3bc0 3fa4 44c0 20b3 38c0
00000340: 291f 3fc0 0261 41c0 4ff9 36c0 ea07 3fc0
00000350: 4b1a 45c0 61e0 3dc0 06fd 40c0 148e 3ec0
00000360: 6fb0 49c0 dad7 36c0 3fc3 45c0 25c9 39c0
00000370: 1ddf 3dc0 ed25 42c0 e8f4 3bc0 8eda 46c0
00000380: 2319 47c0 b76a 43c0 ffab 39c0 0222 44c0
00000390: 4156 3ec0 1d0a 49c0 9f7e 3cc0 a7f0 3fc0
000003a0: 14ae 3ac0 83e1 35c0 4269 38c0 03de 42c0
000003b0: bc40 3dc0 b89b 40c0 9749 47c0 b9c0 47c0
000003c0: 79a8 36c0 1052 44c0 6f71 45c0 30b0 37c0
000003d0: 7e29 4ac0 28c1 40c0 fa8e 38c0 991c 44c0
000003e0: a8fe 38c0 5e29 3cc0 78b7 43c0 d338 4bc0
000003f0: e356 37c0 5833 35c0 8cf5 4ac0 dda1 40c0
-3.0025485 -2.8586843 -3.1796339 -2.9544375 -3.021478 -2.9243484 -3.1457136 -2.8471887
-2.876093 -2.984892 -2.9726448 -3.1336222 -3.0107565 -2.9849427 -2.991078 -3.039119
-3.00584 -3.160201 -3.1015728 -2.9056706 -2.886502 -3.0453565 -3.0467448 -2.9506917
-2.9263391 -3.0163813 -2.8810303 -2.9193084 -2.9873323 -3.0619788 -3.0555854 -3.0522563
-2.8792112 -2.98638 -2.9229035 -2.9406447 -2.9688914 -2.9625351 -2.9451063 -2.9793422
-2.9781597 -2.9274418 -2.9447517 -2.9495404 -3.0510573 -2.975796 -2.974628 -2.726448
-3.0988145 -2.9439178 -2.9386659 -3.0681813 -3.1031997 -2.9465625 -2.9607198 -3.1297283
-3.1032908 -2.9471154 -2.9179876 -2.8507237 -3.145732 -2.9798825 -2.9846537 -3.0355017
-3.1455088 -2.8315363 -3.1762333 -2.9929206 -3.0200424 -2.9891317 -3.1946976 -2.9843168
-3.003454 -3.0033684 -2.8152838 -2.909817 -2.9327664 -3.078243 -3.069757 -2.8351464
-3.0858119 -2.9922678 -2.8453171 -2.8763678 -2.9515562 -2.996622 -2.89765 -3.0134056
-2.9205017 -3.1318867 -2.9595559 -3.1214714 -2.9898121 -2.9389808 -3.0637941 -2.836114
-2.949407 -3.1224487 -2.9269607 -3.0200582 -2.951651 -2.9234614 -2.9788108 -2.942205
-2.8459597 -2.854648 -3.0180812 -3.152051 -2.9618878 -3.096399 -3.0075817 -2.9835432
-2.8889058 -2.944336 -3.1133232 -2.757778 -2.967853 -3.0093687 -3.0951896 -3.069948
-3.0749083 -3.0931537 -3.178009 -2.8690288 -3.0681722 -3.0757718 -3.1984432 -3.0900471
-2.8515646 -3.1091099 -3.0028503 -2.9977908 -3.127417 -2.9515243 -3.0055566 -2.8252323
-2.909084 -2.812651 -2.952463 -3.0090406 -2.9195716 -2.911439 -2.9874053 -3.0267997
-3.1145542 -3.0091386 -2.8939564 -3.0211134 -3.000798 -2.915367 -3.0852437 -2.8976552
-2.8954415 -2.7725732 -3.1039584 -2.9787526 -2.8065314 -3.0079908 -2.9825823 -2.7335494
-2.8138587 -2.973582 -2.8916667 -2.999763 -3.0131645 -2.7772858 -2.9269223 -2.9385333
-3.07003 -3.038538 -3.1331415 -3.0410652 -2.8946664 -2.9381564 -2.9038515 -2.9122043
-2.8782616 -2.6957965 -3.0204356 -3.2104006 -3.0868826 -3.123472 -3.1009524 -2.9037976
-2.8614314 -3.0448449 -3.316037 -3.0027928 -2.982243 -3.0609083 -2.9612381 -2.8326836
-3.126496 -3.0709457 -3.1144202 -3.0047913 -3.1488519 -2.978079 -3.148692 -2.9718933
-2.977798 -3.0193567 -2.9776874 -3.046504 -2.9742856 -2.925871 -3.0725248 -2.885933
-2.9862769 -3.021546 -2.8589666 -2.984858 -3.0797298 -2.96682 -3.0154433 -2.9774218
-3.1513937 -2.8569245 -3.0900419 -2.902902 -2.9667428 -3.0335648 -2.936823 -3.1070895
-3.1109092 -3.0533884 -2.9011228 -3.0645757 -2.9740145 -3.1412423 -2.9452283 -2.9990633
-2.916875 -2.8418891 -2.8814244 -3.0448005 -2.957076 -3.0095043 -3.1138666 -3.1211379
-2.8540328 -3.0675087 -3.0850484 -2.8701286 -3.1587825 -3.0117893 -2.8837266 -3.0642455
-2.890543 -2.9400249 -3.058073 -3.1753433 -2.8646781 -2.8312588 -3.171237 -3.0098794

l1.mu_bias f4 [16]
00000000: 3817 db3e 799a 083f 1264 043f 1f85 1f3f
00000010: a2d5 ee3e 22f1 ca3e f7ae 143f ab0e fc3e
00000020: 27b1 fa3e f675 963e 1955 833d dccd 27bd
00000030: a4e2 ad3e b6cc 1b3f 064b 153f 848f 82bd
0.42791152 0.53360707 0.51715195 0.623125 0.46647364 0.39637095 0.58079475 0.4922994
0.48963282 0.29386872 0.064127155 -0.040967807 0.33961976 0.6085924 0.583176 -0.0637503

l1.rho_bias f4 [16]
00000000: a232 2cc0 ffc7 38c0 c8f8 3cc0 28fd 43c0
00000010: ad42 4fc0 4c8c 44c0 717e 39c0 36b0 3dc0
00000020: 92da 41c0 1db1 27c0 c2d1 05c0 3762 f7bf
00000030: d784 34c0 c392 38c0 ee7d 3fc0 c782 15c0
-2.6905904 -2.8872068 -2.9526844 -3.0623264 -3.2384446 -3.071063 -2.8983424 -2.96388
-3.0289655 -2.6201851 -2.0909276 -1.9326848 -2.820608 -2.8839576 -2.9920611 -2.336107

l2.mu_weight f4 [1, 16]
00000000: d5ec 0f3f 9fc2 303f da02 0f3f b51f 253f
00000010: 9905 1d3f 80c0 183f 306c 353f 51fe 183f
00000020: 8e5b 163f cf2d dd3e 6f4a 62be b695 a3bd
00000030: 7a07 2d3f e7d0 133f cd5b 223f 407f 93be
0.5622075 0.6904697 0.55863726 0.64501506 0.61336666 0.5966873 0.70868206 0.59763056
0.5873345 0.43199012 -0.22098707 -0.079875395 0.67589533 0.57740635 0.63421327 -0.28808022

l2.rho_weight f4 [1, 16]
00000000: 9291 40c0 bac9 43c0 b7a2 3cc0 1230 46c0
00000010: abf0 40c0 109a 3ac0 39ba 40c0 9950 46c0
00000020: 7d90 48c0 6204 35c0 b4ae 16c0 7226 05c0
00000030: bb66 38c0 955d 3dc0 811e 3bc0 c909 1ec0
-3.008885 -3.0591874 -2.9474313 -3.096684 -3.0146892 -2.9156532 -3.0113661 -3.0986693
-3.1338189 -2.8283925 -2.354413 -2.0804715 -2.8812702 -2.9588368 -2.9237368 -2.4693472
