BNN/model_states/BNN_model_state_FD001_noisy_CF.pt (torch, 57845 bytes, 14 tensors)

lstm.ih.mu_weight f4 [128, 14]
000000 3f a0 89 3e 84 cf 2b 3e 8a c5 e1 3d ac ea 75 be
       0.2688007 0.1677838 0.11024006 -0.24015301
000010 aa e9 3d 3e ec ff ad be ad 6c 0c 3d b2 68 b1 bd
       0.18546167 -0.33984315 0.03428333 -0.08662547
000020 40 26 dc bd 3c 59 85 bc 3a d3 cd 3a a0 29 1d be
       -0.10749483 -0.016277902 0.0015703209 -0.1534791
000030 2e 3e 14 3e 88 2e fe bc 5b f7 b6 3d 74 7b 4c 3e
       0.14476845 -0.031028047 0.08933898 0.19968969
000040 ab bf c4 3e 68 85 24 be f9 6d 45 3e 1b f5 01 be
       0.3842748 -0.16066515 0.19280232 -0.12691157
000050 1a e1 cb 3c 07 f4 74 3b de 5e 9c 3e 55 51 34 bd
       0.02488761 0.0037376897 0.30541128 -0.044022877
000060 60 15 93 3e 5d c1 84 3e 9f ab c0 bc 95 5c f4 3d
       0.28727245 0.25928774 -0.023519335 0.11931721
000070 56 14 57 be 9a b9 a8 bd fd 96 e9 3d fe a5 34 3d
       -0.21003851 -0.08238526 0.11405752 0.044103615
000080 c9 3b a8 bd 27 20 17 be 0d 61 3c bc f6 15 83 3e
       -0.08214528 -0.14758359 -0.011497748 0.25602692
000090 99 11 53 3e ca 11 59 bd 4c 15 76 3e c1 5f f5 bd
       0.20612182 -0.05299548 0.24031562 -0.11981154
0000a0 94 77 1b 3d db c3 94 3e f0 f2 77 be e5 08 c3 bd
       0.037955835 0.29055676 -0.24213767 -0.09523181
0000b0 0f db c6 be 69 73 a3 3e 8d 49 ae be 14 ba 3b be
       -0.38839003 0.31923988 -0.3404049 -0.18332702
0000c0 2f 68 27 be bd 9a f3 3d 06 b9 d6 bd 7e d7 59 3c
       -0.16348337 0.11894748 -0.10484509 0.013296006
0000d0 27 66 9e 3d 23 79 84 3d 98 3c 62 3c 3a 56 a3 3d
       0.07734328 0.064684175 0.013808392 0.07975431
0000e0 37 99 21 be 21 86 94 be 26 31 42 be 0d 2a d0 3e
       -0.15781103 -0.29008582 -0.18964061 0.40657082
0000f0 89 fd f5 3d 90 de 9f 3e ce fd 59 be e5 af 52 3e
       0.120112486 0.3122449 -0.21288225 0.20574911
000100 ef 7e 20 3e 16 b6 1f 3d 55 51 04 3e 65 18 9a 3e
       0.15673421 0.03899201 0.1292165 0.30096737
000110 10 6e 31 3e b2 63 3a bb c8 b5 8c be 13 fa 37 be
       0.17327142 -0.002844077 -0.27482438 -0.1796649
000120 7c 57 39 be c5 0c 03 3e ea 7d e7 bd 13 7b 36 3e
       -0.18099779 0.1279784 -0.11303313 0.17820387
000130 fb 3e 47 be ec f3 fd bc 43 2e 0b be e2 e6 5f bd
       -0.19457619 -0.0310001 -0.13591866 -0.054663546
000140 55 54 b2 3d 6c f4 23 be a8 bf b4 3e a1 0b de bc
       0.08707491 -0.16011208 0.35302472 -0.027105154
000150 b7 00 97 3e 5f ec 8e bd ce 04 66 3d 6c 89 78 3e
       0.29492733 -0.06978678 0.056156926 0.24271172
000160 6d 19 92 3e c3 2e 61 be 26 20 5e be 02 07 81 3e
       0.28535023 -0.21990494 -0.21691951 0.2520066
000170 33 59 80 be 25 75 87 bc 02 93 63 be 37 bb 81 3e
       -0.25068054 -0.016535351 -0.22224048 0.25338146
000180 20 aa e1 be 7e 37 8b 3d f1 94 46 3d 30 f3 ae 3d
       -0.44075108 0.06797694 0.048481885 0.08542478
000190 33 42 74 3e 3f 65 85 bd e6 e0 ab 3e 35 6d db bd
       0.23853378 -0.06513452 0.3357002 -0.10714189
0001a0 45 08 b6 3d 12 a5 24 3e 16 9a a3 3e 78 12 2b be
       0.08888296 0.16078594 0.31953496 -0.16706264
0001b0 dc 71 a5 3e 8e e8 96 3d a9 ff cc 3c 9c e8 68 3e
       0.3231343 0.07368575 0.025024252 0.22744983
0001c0 29 44 4e be a5 5b 75 3c c8 87 34 bd 34 09 03 3e
       -0.20143189 0.014975463 -0.044074804 0.1279648
0001d0 4b d4 02 3d aa 35 9d be ef 1e 27 be f5 51 e8 3d
       0.03194074 -0.30705005 -0.16320394 0.11343757
0001e0 37 8a ef bc 8f ee 8e be 5f c9 61 3c 11 28 ad bb
       -0.02924071 -0.2791638 0.013780921 -0.0052843173
0001f0 29 b7 9a 3e 2b 74 4a 3e 46 1f 50 3d 76 3c 6b be
       0.30217865 0.19770877 0.050811075 -0.22972283
000200 2f 0f ed bc b7 31 8b 3d 46 1e b5 be 70 83 03 be
       -0.028937904 0.06796592 -0.3537466 -0.12843108
000210 75 b7 81 be 65 a4 48 3e ff f6 87 3d 20 2e 39 be
       -0.2533528 0.19593962 0.06638908 -0.18084002
000220 84 54 db 3c 62 b7 8c be 45 54 03 3e ae cd 08 3e
       0.026773699 -0.2748366 0.12825115 0.1335971
000230 ce 47 48 be ed fa e7 3e f2 5d de be ba 63 f9 3d
       -0.19558641 0.4530863 -0.4343105 0.121772245
000240 de e8 04 be 01 b6 0d 3e f4 db 28 3c 09 7a 87 3e
       -0.12979457 0.1383896 0.010306347 0.26460293
000250 7e ff 45 bd 6f 1c c9 bc 2d 3f 12 be d6 48 1b 3e
       -0.04833936 -0.024549691 -0.14281912 0.15164503
000260 81 50 be be 3c 09 1f 3f c3 a1 da be a5 0b 21 be
       -0.37170795 0.62123466 -0.4270154 -0.15727098
000270 43 6a 13 bf 89 c5 75 3e be 0f ca be a8 df bb 3d
       -0.5758402 0.24001135 -0.39465135 0.091735184
000280 e4 3d e9 be 2a 42 64 3e 6b 75 92 be 4a 51 42 be
       -0.4555503 0.22290865 -0.28605208 -0.18976322
000290 9b af 89 be 3b 82 d4 bd 39 c2 de 3e 06 35 26 3e
       -0.2689179 -0.10376402 0.43507555 0.16231164
0002a0 f0 58 78 be b8 13 2a 3f d8 b2 b1 be c7 0a e1 3d
       -0.24252677 0.6643634 -0.3470676 0.10988384
0002b0 55 d3 17 bf e2 a5 2a 3f 4e 15 28 be 4c 7b 07 3f
       -0.5930684 0.6665937 -0.16414377 0.5292251
0002c0 78 72 de be 34 40 62 3e 52 a7 82 be 4a af 28 bf
       -0.43446708 0.22094804 -0.2551828 -0.6589247
0002d0 56 f8 da 3e bc 76 aa 3d 4c be 37 be 8e cb 91 bd
       0.4276759 0.08323428 -0.17943686 -0.07118903
0002e0 ad 74 37 be f0 58 05 be e4 84 89 3c f8 5d af 3d
       -0.17915602 -0.13022208 0.016787 0.08562845
0002f0 fd 9f ed 3d d7 8f a9 bd c7 3d 0d 3f a6 21 29 bd
       0.11602781 -0.082793884 0.5517239 -0.041291855
000300 b6 7c c9 3e cc f3 3b be 9b 28 0f 3e ad b5 f5 3a
       0.3935296 -0.1835472 0.13980334 0.001874616
000310 14 ee 61 be bb 3f fd bd cc 56 76 3c df c5 af 3e
       -0.22063476 -0.12365671 0.015035342 0.3433065
000320 4c 5d cb 3d 40 ff 7c 3e f7 10 57 be 4f 0f 31 bd
       0.09929904 0.24706745 -0.21002565 -0.04322749
000330 f1 13 0a 3e 9b b3 1c bd bc eb 09 3e b7 9e 46 3e
       0.1348417 -0.038257223 0.13468832 0.19396482
000340 90 ea ab bd dc 45 1b be 69 a4 b4 be 7a 59 24 be
       -0.083943486 -0.15163368 -0.35281685 -0.16049758
000350 d6 85 9a be 17 55 e7 ba 1f 08 cf be ad 3b 7a be
       -0.30180234 -0.001764926 -0.40435883 -0.24436827
000360 89 06 e0 be 7a e5 d1 3d 56 8c f3 be a3 5f 06 3e
       -0.43754986 0.10248847 -0.47568005 0.1312242
000370 09 ce 8c be 59 89 b2 be e3 1f a4 3c 3e 22 e5 be
       -0.27500942 -0.34870413 0.020034736 -0.44752687
000380 57 0a 97 be 13 04 b6 3e a6 83 8a 3d 46 cc 2b be
       -0.29500076 0.35549983 0.06763391 -0.16777143
000390 21 bc be be 73 75 c8 bd c8 22 a2 be e8 80 ff 3e
       -0.37252906 -0.09788027 -0.3166716 0.49903035
0003a0 a8 ce db bc bf 1f 31 be aa be ab be 3f 04 2e be
       -0.02683194 -0.17297266 -0.33543903 -0.16993807
0003b0 63 5f 53 bd cb 45 ec bc 36 e0 0b 3e 28 77 7c 3d
       -0.05160464 -0.028841874 0.13659748 0.061637074
0003c0 80 4f 3d 3d 84 a5 97 bd 2c 00 f9 3a b9 ce d7 3d
       0.046218395 -0.074046165 0.0018997244 0.10537476
0003d0 64 0e df bc 21 c0 ad bc 13 7c 5f 3d 55 aa 26 3e
       -0.027228542 -0.021209778 0.054561686 0.16275914
0003e0 a3 af a0 3e f9 57 27 3e b5 32 47 3e 6f f4 0e 3d
       0.31384 0.16342153 0.19452937 0.03490108
0003f0 a9 28 85 be 01 64 01 be 6b bd de bd 49 bd 41 3e
       -0.26007584 -0.12635805 -0.10875972 0.18919863

lstm.ih.rho_weight f4 [128, 14]
000000 13 60 30 c0 f3 b2 21 c0 56 c9 26 c0 d5 d7 38 c0
       -2.755864 -2.5265472 -2.6060386 -2.8881733
000010 80 95 3a c0 23 68 3b c0 db 9d 30 c0 72 12 3a c0
       -2.9153748 -2.928231 -2.7596347 -2.9073758
000020 ce 9e 2e c0 11 f1 28 c0 3c 08 39 c0 12 4d 3a c0
       -2.7284427 -2.6397135 -2.8911276 -2.910954
000030 ad ad 37 c0 e4 81 2d c0 30 a2 23 c0 01 8e 2e c0
       -2.8699753 -2.711053 -2.5567741 -2.7274172
000040 12 d8 3c c0 2f d6 36 c0 11 a3 33 c0 59 d3 34 c0
       -2.950688 -2.8568227 -2.8068278 -2.8253996
000050 a5 12 29 c0 35 30 26 c0 a1 8f 37 c0 22 50 39 c0
       -2.641763 -2.5966923 -2.8681414 -2.895516
000060 4e 46 28 c0 72 d4 2f c0 91 d1 26 c0 70 e7 2e c0
       -2.629291 -2.7473416 -2.606541 -2.7328758
000070 28 5a 2b c0 ca 42 46 c0 de df 3f c0 1e 93 47 c0
       -2.6773777 -3.0978265 -2.9980388 -3.1183543
000080 b7 f7 3f c0 06 bc 36 c0 62 79 42 c0 d5 19 3e c0
       -2.9994943 -2.855226 -3.0386586 -2.9703267
000090 60 f1 3a c0 d9 a5 41 c0 f8 81 35 c0 88 5e 36 c0
       -2.9209824 -3.0257475 -2.8360577 -2.8495197
0000a0 18 f2 31 c0 35 ab 32 c0 a8 89 38 c0 05 27 3b c0
       -2.7804012 -2.7916996 -2.8834019 -2.9242566
0000b0 85 b7 3a c0 d0 de 3f c0 0b eb 46 c0 80 35 32 c0
       -2.9174511 -2.9979744 -3.108096 -2.7845154
0000c0 df cb 35 c0 3d 70 35 c0 fa b8 3b c0 dd c7 3c c0
       -2.8405683 -2.8349755 -2.933165 -2.9496987
0000d0 15 9e 39 c0 b0 cf 2b c0 04 0f 3a c0 dd a3 33 c0
       -2.9002736 -2.6845512 -2.9071665 -2.8068764
0000e0 2c 14 3e c0 45 c7 2f c0 1a fa 3f c0 f4 db 34 c0
       -2.9699812 -2.7465374 -2.99964 -2.8259249
0000f0 2f f6 45 c0 b1 bd 3f c0 b5 1e 42 c0 2f 76 47 c0
       -3.0931509 -2.9959528 -3.0331242 -3.1165884
000100 b7 32 3e c0 c5 83 35 c0 49 7d 3a c0 17 4d 48 c0
       -2.9718454 -2.8361676 -2.9138968 -3.1297052
000110 bc 93 2f c0 db 79 3a c0 68 03 3e c0 b4 12 2b c0
       -2.743392 -2.9136875 -2.968958 -2.6730165
000120 87 29 32 c0 50 fd 40 c0 58 1e 3f c0 48 67 3b c0
       -2.7837846 -3.015461 -2.986227 -2.9281788
000130 dd 3b 40 c0 cb f6 38 c0 a0 5c 44 c0 d7 e9 3e c0
       -3.0036538 -2.890063 -3.0681534 -2.9830225
000140 0a b5 2e c0 83 e3 35 c0 a9 47 3d c0 5e b6 34 c0
       -2.7297997 -2.8420112 -2.9574988 -2.8236308
000150 63 c9 38 c0 5f af 3a c0 e7 4f 41 c0 88 c1 36 c0
       -2.8872917 -2.9169538 -3.0205019 -2.8555622
000160 c9 6a 2d c0 0a 0f 2d c0 da b3 3b c0 4f 9f 35 c0
       -2.7096426 -2.704043 -2.9328523 -2.8378484
000170 c7 03 34 c0 10 49 38 c0 1c 14 38 c0 90 d9 30 c0
       -2.8127306 -2.8794594 -2.8762274 -2.763279
000180 32 45 3d c0 e0 b1 34 c0 de c8 2b c0 2d 25 2e c0
       -2.9573483 -2.8233566 -2.684135 -2.721019
000190 81 82 30 c0 5c 1f 23 c0 60 12 3b c0 4e bc 3b c0
       -2.7579653 -2.548789 -2.9229965 -2.9333682
0001a0 ee d8 41 c0 71 c5 3c c0 a1 89 40 c0 22 83 25 c0
       -3.0288653 -2.9495509 -3.0084002 -2.5861287
0001b0 cf d6 2c c0 6f 59 3f c0 7e c5 36 c0 41 df 32 c0
       -2.7006109 -2.9898336 -2.855804 -2.7948763
0001c0 b1 26 2f c0 3c d0 26 c0 66 28 43 c0 d2 94 3d c0
       -2.7367365 -2.6064596 -3.0493407 -2.9622083
0001d0 9c da 3c c0 61 6c 3f c0 46 51 2b c0 12 08 3b c0
       -2.9508429 -2.99099 -2.6768355 -2.9223676
0001e0 0e 82 3a c0 f3 a1 2d c0 c8 9d 35 c0 1b 42 3d c0
       -2.914188 -2.7130096 -2.8377552 -2.9571598
0001f0 87 38 34 c0 97 4e 3a c0 a9 bf 34 c0 b0 7d 2f c0
       -2.8159502 -2.9110467 -2.824198 -2.7420464
000200 9b 45 38 c0 62 e9 29 c0 05 3b 25 c0 98 87 36 c0
       -2.8792484 -2.6548696 -2.5817273 -2.852026
000210 19 f0 21 c0 d8 9d 30 c0 3b 45 2b c0 bb 9a 36 c0
       -2.5302794 -2.759634 -2.6761005 -2.853194
000220 86 3f 3e c0 cb 40 2f c0 5c 08 2b c0 72 3c 34 c0
       -2.9726272 -2.7383296 -2.6723852 -2.8161893
000230 df 97 2a c0 60 01 2d c0 94 97 32 c0 4f 81 2e c0
       -2.6655195 -2.703209 -2.7905016 -2.7266424
000240 6c 2a 4a c0 56 16 35 c0 86 55 2b c0 6d bb 30 c0
       -3.1588392 -2.8294883 -2.677095 -2.7614396
000250 31 3b 24 c0 b7 a7 30 c0 bd ab 2b c0 70 8f 3c c0
       -2.5661128 -2.7602365 -2.682357 -2.9462547
000260 9d 10 3c c0 14 0e 35 c0 a6 ec 32 c0 41 a6 3a c0
       -2.938514 -2.8289843 -2.7956939 -2.9163973
000270 06 03 36 c0 42 3c 2b c0 21 10 30 c0 b4 c1 3a c0
       -2.8439345 -2.6755528 -2.7509844 -2.9180727
000280 ba 4a 41 c0 a2 e0 49 c0 53 a1 38 c0 4b cd 47 c0
       -3.020186 -3.1543355 -2.8848464 -3.121905
000290 bf 3b 41 c0 75 be 2f c0 d1 f4 38 c0 75 b4 32 c0
       -3.0192716 -2.7459996 -2.8899424 -2.7922642
0002a0 22 a3 32 c0 6b 42 43 c0 d5 41 2a c0 d5 11 33 c0
       -2.7912068 -3.0509288 -2.660268 -2.7979634
0002b0 c6 40 33 c0 4f d8 2f c0 ca 6f 34 c0 87 b0 34 c0
       -2.8008285 -2.7475774 -2.819323 -2.8232744
0002c0 fe c3 2b c0 83 2d 3e c0 02 d4 39 c0 c0 5e 2b c0
       -2.6838374 -2.9715278 -2.903565 -2.677658
0002d0 f0 df 43 c0 e9 6c 3c c0 df a0 38 c0 40 3f 41 c0
       -3.060543 -2.9441473 -2.8848188 -3.0194855
0002e0 c2 74 39 c0 3d 5e 34 c0 58 0c 43 c0 b1 9a 35 c0
       -2.8977513 -2.8182518 -3.0476284 -2.8375666
0002f0 9e 85 3a c0 46 1d 39 c0 61 86 3a c0 30 be 37 c0
       -2.9144053 -2.8924117 -2.9144518 -2.8709831
000300 cd 4a 32 c0 29 53 3d c0 2e 4d 3b c0 18 df 38 c0
       -2.7858155 -2.9582007 -2.9265857 -2.8886166
000310 a6 37 3f c0 b6 62 2b c0 49 af 33 c0 b8 ee 3d c0
       -2.9877715 -2.6778998 -2.8075736 -2.9676952
000320 bd da 45 c0 74 07 2b c0 d3 b2 35 c0 84 73 35 c0
       -3.0914757 -2.67233 -2.8390396 -2.8351755
000330 03 07 3d c0 d4 45 3e c0 3b 16 32 c0 3f 4a 2f c0
       -2.953553 -2.973012 -2.7826068 -2.7389066
000340 d3 ae 40 c0 4e c3 3a c0 28 86 37 c0 22 7b 36 c0
       -3.0106704 -2.9181705 -2.8675632 -2.8512654
000350 11 34 36 c0 10 bf 36 c0 71 c6 36 c0 31 a1 24 c0
       -2.846928 -2.8554115 -2.855862 -2.5723383
000360 5b 51 32 c0 60 a7 29 c0 ff a1 3a c0 58 3d 31 c0
       -2.7862155 -2.6508408 -2.9161375 -2.7693691
000370 c3 77 33 c0 83 8c 31 c0 ae 62 2e c0 a3 ad 29 c0
       -2.8041847 -2.7742012 -2.724773 -2.651223
000380 de 2a 46 c0 5c af 3e c0 91 5a 39 c0 74 4d 41 c0
       -3.0963664 -2.979453 -2.8961527 -3.0203524
000390 38 dd 3e c0 e1 c0 3b c0 9c d9 33 c0 4d 6d 3f c0
       -2.9822521 -2.9336474 -2.8101568 -2.9910462
0003a0 d4 a4 42 c0 b3 f3 3b c0 1a 98 33 c0 56 16 34 c0
       -3.0413103 -2.9367492 -2.8061585 -2.8138633
0003b0 ca fd 3c c0 41 79 42 c0 c8 ae 3e c0 7a f3 37 c0
       -2.95299 -3.0386508 -2.9794178 -2.8742356
0003c0 05 89 3c c0 85 f4 36 c0 12 8d 2e c0 32 3f 3d c0
       -2.945863 -2.8586743 -2.7273602 -2.9569821
0003d0 f9 c7 3e c0 be 0a 33 c0 98 ab 3b c0 3e d1 2f c0
       -2.9809554 -2.7975307 -2.9323483 -2.7471461
0003e0 b2 e6 33 c0 af 28 35 c0 4f 7d 29 c0 be ca 33 c0
       -2.8109555 -2.8306081 -2.6482732 -2.8092494
0003f0 22 17 3e c0 7c 90 3c c0 bd c8 37 c0 a1 12 37 c0
       -2.970162 -2.9463186 -2.871627 -2.860512

lstm.ih.mu_bias f4 [128]
000000 2e b7 86 3d cd 41 2b bb eb c7 af bc df ec 0f bd
       0.065779075 -0.002613175 -0.021457633 -0.035138007
000010 44 0a 2c 3d 72 9e 92 3e 1d 9c cd 3d a7 66 23 3c
       0.042001978 0.2863651 0.10039542 0.009973205
000020 52 3b ac 3e bf 0d 0a 3d 1c c2 17 3e e1 82 ab 3d
       0.33639008 0.033704516 0.1482014 0.083745725
000030 c1 b8 a0 3d fc 7d 70 3b 2f 88 18 3e 96 b0 89 3c
       0.07847739 0.0036696186 0.148957 0.016807836
000040 a0 61 22 be 56 3a c2 3d df 88 05 bd 5b 75 16 be
       -0.15857553 0.09483783 -0.032601234 -0.14693205
000050 b3 ce 03 bd 73 c8 70 bd 07 c4 5e be da 1d 95 3e
       -0.032179546 -0.058784913 -0.21754466 0.29124337
000060 2b e3 f6 bc ad 2f ff 3d 62 73 80 3e c1 48 ab 3d
       -0.030137619 0.12460265 0.2508803 0.08363486
000070 f1 76 0b 3d 94 25 e2 bd 84 ba 81 3e ca 9b 1d be
       0.03404898 -0.11042324 0.25337613 -0.1539146
000080 6e 74 44 3e 09 02 e0 3c 7c e8 e9 3c 45 1a f2 3d
       0.1918504 0.02734472 0.02855324 0.11821417
000090 6a 5c bb 3d d7 fb af 3d 7f 04 8b 3d 7e 86 1d 3e
       0.09148486 0.085929565 0.06787967 0.15383336
0000a0 ae 31 23 3e 61 24 8b bc da 98 76 3e 70 86 2f 3e
       0.1593692 -0.01698512 0.24081746 0.17141128
0000b0 39 ce 47 3e 49 b4 0a bd 9e 2a ab bd b3 cb 76 3e
       0.19512261 -0.03386334 -0.08357738 0.24101143
0000c0 7d 05 12 3d 60 87 26 3e 64 30 92 3e 8a 67 e1 3d
       0.035649765 0.16262579 0.28552544 0.11006077
0000d0 31 72 2c be e3 15 11 3d d4 83 f2 bc 2e 6c 81 3e
       -0.16840436 0.035421263 -0.029603876 0.25277847
0000e0 fb 11 9a bd 5a 58 a0 3d 16 26 60 3e 84 bd 1e 3e
       -0.07522961 0.07829352 0.21889529 0.15501982
0000f0 ed d4 b9 3d d7 0c 6c bd 2d 8b 87 3e 4b 7f b4 bd
       0.090738155 -0.057629433 0.2647337 -0.08813342
000100 21 86 89 be 63 a5 c1 3c f9 c5 45 3e 66 53 46 be
       -0.26860145 0.023638433 0.19313802 -0.19367751
000110 40 b8 01 3e 6b cd 69 3d 7a 29 60 3e b9 0d 3a be
       0.12667942 0.057080667 0.21890822 -0.18169297
000120 10 20 68 be 45 30 89 3d b2 13 b7 bd 28 a5 79 3d
       -0.22668481 0.0669866 -0.089393035 0.06094852
000130 4b e8 34 be 28 83 13 3e f8 62 dd 3d 27 cd 12 3d
       -0.17666738 0.14405501 0.108098924 0.03584018
000140 b9 b5 1a 3c 4c f7 05 be 06 30 15 be f3 b9 b6 3b
       0.00944274 -0.13082618 -0.145691 0.005576366
000150 0c ed 35 be 55 c9 10 3d 2f d0 42 bc 6e 4e 9c 3d
       -0.17766207 0.035348255 -0.011890455 0.07632147
000160 e9 ad 36 3c 7f 97 6e 3d 6b 79 85 bd 80 aa 14 3d
       0.011149862 0.058249947 -0.06517299 0.036295414
000170 0a d5 72 bd b8 74 3e 3e 5a 4d 34 be ad 42 e6 3c
       -0.0592852 0.18599212 -0.17607632 0.028107965
000180 60 4e e3 3d 5e 4d 4a 3e 83 91 1f 3d 1b 2c 9d 3d
       0.11098933 0.19756076 0.03895713 0.07674428
000190 79 00 29 3e 1e 8e 69 3e df dd a8 3c 9d 64 94 3e
       0.16504087 0.2280812 0.020613609 0.28983012
0001a0 56 9d c8 3e 04 6d 32 3e c8 8c 58 3e cb fa f2 bc
       0.39182538 0.17424399 0.21147454 -0.029660603
0001b0 d8 9a a6 3e 8c fc 4e 3e fd 6c b9 3d c8 1a bc 3d
       0.3254001 0.20213526 0.09053991 0.091847956
0001c0 f2 a0 d4 3d e9 a9 95 3e ac 4f a5 3c 73 13 03 3e
       0.103822604 0.29231194 0.020179592 0.12800388
0001d0 9a d9 be bb 08 ee 41 3d fb 7b a7 bd 79 76 9d 3e
       -0.00582428 0.047346145 -0.08177944 0.3075445
0001e0 c7 2a 47 3e a6 50 82 3e ff 02 9f bc 61 d7 08 3e
       0.19449912 0.25452155 -0.019410608 0.1336341
0001f0 1c 3b 3b 3e b9 6b 72 3e 3e dc 3e 3e 7a 8d 90 3b
       0.18284267 0.23673905 0.18638703 0.0044113966

lstm.ih.rho_bias f4 [128]
000000 e0 67 25 c0 7a 7c 27 c0 d0 f0 2e c0 67 8b 31 c0
       -2.584465 -2.6169724 -2.733448 -2.7741334
000010 ce 59 37 c0 ef fb 25 c0 4d dd 23 c0 8d c2 25 c0
       -2.8648562 -2.5935018 -2.5603821 -2.5899994
000020 aa b7 29 c0 9e d2 18 c0 fe fa 29 c0 2f 82 38 c0
       -2.651835 -2.387855 -2.6559443 -2.8829458
000030 33 29 1b c0 50 12 2a c0 74 98 31 c0 56 4f 3a c0
       -2.4243896 -2.6573677 -2.77493 -2.9110923
000040 0a a9 30 c0 7d d2 2c c0 2c ee 25 c0 5c c1 2b c0
       -2.7603173 -2.7003472 -2.5926619 -2.6836767
000050 83 b4 2c c0 fb 71 22 c0 26 3c 31 c0 43 b6 1c c0
       -2.6985176 -2.5382068 -2.7692962 -2.4486244
000060 bb 8b 30 c0 6d a4 1b c0 c8 ac 28 c0 a1 f4 1e c0
       -2.7585285 -2.4319108 -2.6355457 -2.483681
000070 b7 88 31 c0 e4 f4 2a c0 67 7b 23 c0 9a af 1a c0
       -2.7739694 -2.671197 -2.554407 -2.4169679
000080 25 6c 0b c0 2e 87 1b c0 80 61 31 c0 cd 24 2d c0
       -2.1784756 -2.4301257 -2.771576 -2.7053711
000090 4f 92 3a c0 0b f2 2c c0 74 2d 2d c0 69 9a 30 c0
       -2.91518 -2.7022731 -2.7058992 -2.7594244
0000a0 4a a5 17 c0 b9 66 2b c0 bb 2f 30 c0 19 64 39 c0
       -2.3694634 -2.6781447 -2.7529132 -2.8967345
0000b0 38 74 30 c0 34 4d 2e c0 05 fd 43 c0 8b dc 34 c0
       -2.7570934 -2.723462 -3.062318 -2.8259609
0000c0 bc 47 2c c0 03 be 13 c0 be b4 28 c0 0a 60 1d c0
       -2.6918783 -2.3084724 -2.6360316 -2.4589868
0000d0 55 aa 3b c0 61 7f 35 c0 c3 48 2c c0 d9 0d 0b c0
       -2.9322712 -2.8358996 -2.691941 -2.1727202
0000e0 dd 0c 33 c0 44 2a 30 c0 93 ed 1d c0 9f 1d 27 c0
       -2.79766 -2.7525797 -2.4676254 -2.611183
0000f0 ba cc 2c c0 31 a0 37 c0 be 51 12 c0 ea 1f 2a c0
       -2.6999955 -2.8691523 -2.2862391 -2.6581979
000100 17 e0 2d c0 d8 6f 41 c0 ef 93 34 c0 89 67 35 c0
       -2.7168024 -3.0224514 -2.8215292 -2.8344443
000110 d9 f5 3d c0 f6 08 2d c0 1b 10 37 c0 f0 e0 3c c0
       -2.9681304 -2.703672 -2.860358 -2.951229
000120 6f ce 4a c0 54 8c 3b c0 d8 22 2b c0 27 85 3f c0
       -3.1688497 -2.93044 -2.6740017 -2.992502
000130 ac 3a 34 c0 63 1f 3c c0 1e 51 4a c0 44 85 3e c0
       -2.816081 -2.9394157 -3.161201 -2.976884
000140 54 8d 30 c0 70 0c 35 c0 6e 22 3c c0 d0 be 39 c0
       -2.758626 -2.8288841 -2.9396014 -2.9022713
000150 96 e6 31 c0 36 a6 39 c0 49 42 3a c0 4c 7e 31 c0
       -2.7796988 -2.9007697 -2.9102957 -2.7733335
000160 1e 22 3a c0 c9 7c 35 c0 c6 95 3d c0 d5 58 35 c0
       -2.9083323 -2.8357413 -2.9622664 -2.8335469
000170 e6 5f 47 c0 88 20 48 c0 e8 08 34 c0 77 6b 27 c0
       -3.1152282 -3.1269855 -2.8130436 -2.6159341
000180 45 2e 2c c0 bd a2 27 c0 ac 62 27 c0 67 8c 2b c0
       -2.690324 -2.6193078 -2.6153975 -2.6804445
000190 cc 4b 26 c0 b8 13 22 c0 f9 ad 0f c0 22 0a 2f c0
       -2.5983763 -2.5324535 -2.2449934 -2.7349935
0001a0 16 02 2d c0 40 af 32 c0 c7 c4 1c c0 a1 63 35 c0
       -2.7032523 -2.7919464 -2.4495103 -2.8342059
0001b0 ac 6b 26 c0 e6 2d 31 c0 4f fb 25 c0 bf e0 05 c0
       -2.6003218 -2.7684264 -2.5934637 -2.0918424
0001c0 4a 56 0e c0 9a fc 33 c0 4e ce 2e c0 f1 69 26 c0
       -2.2240167 -2.8122926 -2.7313418 -2.6002162
0001d0 f9 51 20 c0 8a f5 24 c0 cf 04 30 c0 78 e9 2e c0
       -2.5050032 -2.5774865 -2.7502935 -2.7329998
0001e0 e4 55 18 c0 d1 10 2b c0 72 0b 33 c0 a6 07 21 c0
       -2.3802423 -2.6729014 -2.7975736 -2.5160918
0001f0 f6 66 10 c0 8a ed 2f c0 23 84 30 c0 36 29 13 c0
       -2.2562842 -2.7488732 -2.758065 -2.2993903

lstm.hh.mu_weight f4 [128, 32]
000000 ec 48 2d be d4 5b ec bd 21 5d 54 3e 5f 0c c2 ba
       -0.16922349 -0.11540952 0.20738651 -0.0014804712
000010 09 f1 00 bd 9d 32 12 3e bd 9f 16 be ae 1e 53 be
       -0.03147987 0.1427712 -0.14709373 -0.20617172
000020 12 76 d1 bd ab 1d 26 3e 2d 00 8d be 7a b9 12 3d
       -0.10227598 0.16222255 -0.27539197 0.035821415
000030 3a 13 07 be f4 34 22 bd 12 8b 86 3d 51 2e 2b 3d
       -0.13190928 -0.03960128 0.06569494 0.041792218
000040 9a 1e 2c be bf dc 32 be f8 89 94 be a0 c2 3c be
       -0.16808549 -0.1746702 -0.29011512 -0.18433619
000050 78 c3 92 bd f0 c9 0c be 75 7f 6f 3d 2e 27 b7 3e
       -0.07166189 -0.13748908 0.058471162 0.3577208
000060 f8 53 e1 3d ed 8f 39 3c 1d bd 21 3e d6 49 a6 3c
       0.11002344 0.0113258185 0.15794797 0.02029888
000070 5d 22 75 3a ef bb 01 3e 3b 03 62 bd d0 28 8a 3e
       0.0009351129 0.12669347 -0.055178862 0.26984262
000080 3f 3c 15 be 3d 0c d5 3d 6f 43 b1 3d a7 15 de 3c
       -0.14573763 0.10402725 0.0865544 0.027109934
000090 71 bb 2f 3e 05 60 36 be de e2 e4 bd c7 08 c3 bd
       0.17161347 -0.17810066 -0.11176084 -0.095231585
0000a0 1f 23 77 bd 1f b4 2e bd 70 c3 bd bc df e1 61 bd
       -0.06033623 -0.042652246 -0.02316448 -0.055147048
0000b0 d4 60 7b bc 8f 75 8f 3e 75 f3 47 3e 61 92 b7 3d
       -0.01534291 0.28019378 0.19526465 0.089634664
0000c0 f9 61 47 3e ad 7b e5 bd 7d f9 33 bd 31 a8 28 be
       0.19470967 -0.1120523 -0.043939102 -0.1647041
0000d0 35 f8 18 be b7 1d f9 3c 7e 3c 9e be e2 2b 99 3e
       -0.14938433 0.030409677 -0.30905527 0.29916292
0000e0 31 67 20 3e 83 f3 ef 3d 75 a6 6d 3e 04 74 8c 3e
       0.15664364 0.11716368 0.2320803 0.27432263
0000f0 55 75 62 be 8b 1d 62 3e 4b a7 a6 bd 45 e7 5b 3d
       -0.22115071 0.22081582 -0.08137377 0.053687353
000100 5f b9 58 bd 7b 70 ab bd 64 ae fb 3d 33 93 55 bd
       -0.05291116 -0.08371063 0.12289122 -0.052142333
000110 9a 6b 56 3d 46 69 14 3e e7 1e 39 3e 05 2f 1a be
       0.05234871 0.14493284 0.18078195 -0.15056999
000120 f0 dd ff bc 43 4c 88 3e 69 11 c6 3b 6f 24 1c 3e
       -0.031233758 0.26620683 0.006044556 0.15248273
000130 65 77 7a be ef f5 1a bb d0 87 d3 3d 5f 69 cd bd
       -0.24459608 -0.0023645123 0.103286386 -0.100298636
000140 7a 01 4a be ff 23 3e bd 7c e7 ac be e6 22 19 3e
       -0.19727126 -0.046421047 -0.3377036 0.14954719
000150 1a 0c 85 3d ea 3c 55 3e 73 4e 32 3e 55 a9 bc 3c
       0.06496449 0.20824018 0.17412739 0.023029963
000160 fd 29 b4 3d 25 70 5d 3e 38 83 a5 3c b9 a3 cf bd
       0.08797071 0.21624811 0.020204172 -0.101386495
000170 d1 01 a1 3e 24 09 58 3e f1 e0 8f bd 11 da 99 3c
       0.31446698 0.21097237 -0.07025326 0.01878074
000180 93 8d 5f 3e fe 88 23 3d c5 bc 57 be d6 74 cb 3d
       0.2183135 0.039925568 -0.21068104 0.09934394
000190 ee 8d 2c be 10 d4 31 bd af f0 79 3e ce d8 bb 3c
       -0.16851017 -0.04341513 0.2440822 0.022930529
0001a0 52 da 63 3d 9f f0 01 3e 03 2b 2d bc 5f d6 ac bb
       0.05562813 0.12689446 -0.010569337 -0.0052745785
0001b0 c5 96 3d be 19 c5 e1 3d 18 04 8a be 46 9e 05 3e
       -0.18514545 0.110239215 -0.26956248 0.13048658
0001c0 cf a6 d7 bd c5 27 22 3e 14 32 9c be 1b 52 88 bc
       -0.10529863 0.15835483 -0.30506957 -0.016640713
0001d0 0a ba 7e 3d 04 5c 0e 3f c0 e5 f3 3d 9b 9b bf bd
       0.06218914 0.55609155 0.11909056 -0.09355851
0001e0 c9 92 b5 bd 6a 7d 5f 3e 49 05 b4 bd 8b c8 4c bd
       -0.08865888 0.21825185 -0.087900706 -0.04999594
0001f0 b1 f2 37 3e 42 82 10 3d 27 82 9a bc f3 54 12 bd
       0.17963673 0.035280474 -0.01886089 -0.035725545
000200 d0 04 e6 3c 45 8b 8e bc 23 71 5a 3c 6c 81 a7 3c
       0.028078467 -0.017400393 0.013332638 0.020447455
000210 36 0c 1b 3e cc 18 a9 3a a0 d6 47 3c ef 60 de bd
       0.15141377 0.0012901067 0.012197167 -0.10858332
000220 88 ab 42 bb 81 9f b9 bd 82 d3 b5 bd 89 a2 eb bd
       -0.0029704291 -0.09063626 -0.088782325 -0.115056105
000230 69 9e 94 be af 91 9f bd 5a cf 89 bc 75 7d 13 3d
       -0.29027107 -0.07791459 -0.016822506 0.036008317
000240 3b 6a 63 3d e9 a5 05 be b9 32 ca bd b1 0c 3b 3d
       0.05552123 -0.13051571 -0.09872956 0.0456664
000250 ae b1 ad bd 69 97 c0 3d e0 55 e2 3d 1c ef 09 bd
       -0.08481155 0.09403879 0.110515356 -0.033675298
000260 80 45 01 3d 8f fd 39 3e c2 47 dd bd 7e 0c 23 3d
       0.03156042 0.18163131 -0.10804702 0.039806835
000270 48 f5 66 bd 96 81 f4 bd e1 e9 4c 3d b3 92 57 3e
       -0.056386262 -0.11938779 0.05002773 0.21052055
000280 8f f9 a1 be 76 79 7c 3d fb 39 49 3c 98 da 27 bd
       -0.3163571 0.06163927 0.01228189 -0.04097995
000290 9a 0b 27 3e fe e2 3a 3d d5 5b d8 3d 7a 7e 14 be
       0.1631302 0.045626633 0.105643906 -0.14501372
0002a0 b5 cb 8d be 88 2f 3a 3e 95 96 ee 3c aa be 77 3d
       -0.2769448 0.18182194 0.029124537 0.060484566
0002b0 5b 01 7f be 3c db 49 3e eb 1c a4 bd b4 6c 04 3e
       -0.24902861 0.19712538 -0.08013328 0.12932092
0002c0 e5 de 20 3e 4a 70 7c bd 5e 73 8e be 59 64 23 be
       0.15710028 -0.061630525 -0.27822393 -0.15956248
0002d0 93 ad bb bd 4c d4 01 bc 8d 38 21 3e 5e 00 3b bd
       -0.09163966 -0.007924151 0.15744229 -0.045654647
0002e0 07 94 fd 3d 97 8c d8 3b 34 73 ac bd da cc 80 3d
       0.123817496 0.0066085565 -0.08420411 0.06289072
0002f0 ab 7e 90 3d 3c 0a a9 be 48 7f 69 bd 49 f3 a4 bd
       0.0705541 -0.3301562 -0.05700615 -0.080542155
000300 d2 cd 03 be 25 4e 4e 3d d4 d0 2f be a4 ce a7 3d
       -0.12871483 0.050367493 -0.17169505 0.081937104
000310 ff 8e 20 3d 87 c6 46 bb f9 3f 4c be 1d 61 02 3e
       0.03919887 -0.0030330734 -0.19946279 0.12732358
000320 fb 50 0f be 38 23 43 bd 7a 0a c6 3d ab 05 23 be
       -0.13995735 -0.04764101 0.09669967 -0.15920131
000330 b0 01 8a be 99 d8 27 be b9 df cd 3d 97 87 a6 bd
       -0.26954412 -0.16391219 0.10052437 -0.081313305
000340 c4 cd 44 bd 9d df 1b 3e 99 ca e5 bc b2 05 93 3d
       -0.048047796 0.1522202 -0.028050708 0.07178821
000350 02 e0 16 bc a5 ff 95 3e 1e ed a2 3e 79 82 3a be
       -0.009208681 0.29296604 0.3182153 -0.18213834
000360 b1 f4 d2 bc 27 57 97 3d 50 12 59 bd 9e 9a 86 be
       -0.025751444 0.0738967 -0.05299598 -0.2628984
000370 d0 42 6d bd 44 cc 1a be d1 bd ac bc a6 49 b2 bd
       -0.057925045 -0.15116984 -0.021086605 -0.087054536
000380 53 be 18 3d 1b 52 0a bc 81 ef 63 bd 5c 78 6f bd
       0.037290882 -0.008442427 -0.05564833 -0.058464393
000390 46 3b 1e be de d4 25 3e c1 40 36 3d 5d c4 ee bc
       -0.15452299 0.16194484 0.044495348 -0.029146368
0003a0 f4 ff 5c 3e 7c 83 a3 bc 26 80 8c be 69 c3 be 3d
       0.21582013 -0.019960158 -0.2744152 0.09314615
0003b0 da 0e 98 be 80 69 e1 b8 1c b5 04 3e 65 94 1d bd
       -0.2969883 -0.00010748487 0.12959713 -0.0384716
0003c0 49 f8 2b 3d ab 33 9e bb ac ab 07 3e 2f a3 35 3e
       0.04198483 -0.0048279366 0.13249081 0.17738031
0003d0 d9 16 00 be ca 01 ee 3d 2e 9c c9 3d 05 b2 79 bd
       -0.12508716 0.11621435 0.09844242 -0.06096079
0003e0 f6 74 32 3e 65 47 bc 3d a3 45 8e 3d ff 24 ac bd
       0.1742743 0.09193305 0.06946876 -0.08405494
0003f0 66 93 7a 3e 7f c2 90 3d 07 00 d3 3d 0d 66 99 3d
       0.2447029 0.07068347 0.103027396 0.07490168

lstm.hh.rho_weight f4 [128, 32]
000000 1f 94 3d c0 04 65 38 c0 08 fa 38 c0 1a 4e 31 c0
       -2.9621656 -2.8811655 -2.8902607 -2.770392
000010 5d 67 3d c0 13 a6 3b c0 e5 f0 39 c0 a6 fb 36 c0
       -2.9594338 -2.9320114 -2.905328 -2.8591094
000020 42 e8 38 c0 ab 90 32 c0 5a 47 47 c0 8a bb 41 c0
       -2.889176 -2.7900798 -3.11373 -3.0270715
000030 45 57 3d c0 70 25 30 c0 04 fc 3d c0 23 e5 43 c0
       -2.9584515 -2.752285 -2.9685068 -3.0608604
000040 b9 11 35 c0 d6 8c 35 c0 ab 7a 37 c0 1a 02 2d c0
       -2.8292067 -2.836721 -2.866862 -2.7032533
000050 a2 ab 40 c0 65 07 3a c0 d5 75 30 c0 64 c4 38 c0
       -3.0104756 -2.9067013 -2.757192 -2.8869867
000060 8e c3 35 c0 09 57 3b c0 2e 97 26 c0 37 45 42 c0
       -2.8400607 -2.9271872 -2.6029773 -3.0354745
000070 aa ef 31 c0 62 1e 2f c0 47 b0 3e c0 02 a5 3a c0
       -2.780253 -2.7362294 -2.979509 -2.9163213
000080 86 15 36 c0 8e 39 3c c0 52 a0 33 c0 9d 02 38 c0
       -2.8450637 -2.9410129 -2.8066602 -2.8751595
000090 9b 59 43 c0 8c 16 3e c0 72 6a 39 c0 c2 ed 2c c0
       -3.052344 -2.9701262 -2.897122 -2.7020116
0000a0 ac 82 30 c0 ec ba 34 c0 b5 cd 3d c0 13 03 32 c0
       -2.7579756 -2.8239088 -2.9656804 -2.7814376
0000b0 b8 12 36 c0 44 f9 40 c0 6c 08 3f c0 52 85 31 c0
       -2.8448925 -3.015214 -2.984889 -2.7737622
0000c0 cd 30 40 c0 a5 9a 33 c0 13 ef 3f c0 18 48 3b c0
       -3.0029786 -2.8063138 -2.998967 -2.9262753
0000d0 71 dd 2f c0 ef 4d 39 c0 8d 4f 3b c0 d4 4e 3c c0
       -2.7478907 -2.8953817 -2.9267304 -2.9423113
0000e0 64 6c 3d c0 bb c5 25 c0 3d 73 40 c0 df 02 40 c0
       -2.9597406 -2.5901935 -3.0070336 -3.0001752
0000f0 f8 99 34 c0 3f e9 33 c0 a1 af 35 c0 37 23 22 c0
       -2.8218975 -2.8111112 -2.8388445 -2.5333993
000100 c2 ef 37 c0 ee 25 34 c0 52 73 4b c0 cc 5d 33 c0
       -2.8740087 -2.814815 -3.1789136 -2.8026
000110 70 23 45 c0 2a 55 43 c0 ae f1 32 c0 d9 03 39 c0
       -3.080288 -3.052073 -2.796001 -2.8908598
000120 4e 60 37 c0 d2 69 3d c0 21 44 41 c0 86 3e 48 c0
       -2.865253 -2.9595838 -3.0197833 -3.1288161
000130 86 01 32 c0 e8 9b 3e c0 98 26 3d c0 74 cb 31 c0
       -2.781343 -2.9782658 -2.9554806 -2.7780428
000140 4a b2 3c c0 0e 1c 4b c0 f2 e1 45 c0 82 81 2e c0
       -2.948382 -3.1735873 -3.0919156 -2.7266545
000150 89 ec 34 c0 7c e3 2e c0 f1 c5 41 c0 01 ab 35 c0
       -2.826937 -2.7326345 -3.0277064 -2.8385623
000160 17 48 3a c0 21 eb 31 c0 fb 5b 3f c0 a0 de 33 c0
       -2.91065 -2.7799761 -2.989989 -2.810463
000170 35 6c 2b c0 05 3a 44 c0 06 6d 39 c0 90 b4 2c c0
       -2.6784794 -3.0660412 -2.8972793 -2.6985207
000180 8e b0 3f c0 36 9f 3d c0 9d 60 45 c0 78 ab 30 c0
       -2.995151 -2.9628425 -3.0840218 -2.7604656
000190 86 2e 3f c0 50 d9 40 c0 72 e3 3f c0 31 5f 33 c0
       -2.9872146 -3.0132637 -2.9982572 -2.802685
0001a0 5d c1 2f c0 c8 1f 3a c0 4f 29 42 c0 63 41 38 c0
       -2.746177 -2.9081898 -3.0337713 -2.878991
0001b0 4b e6 38 c0 8a 10 36 c0 19 3c 3c c0 4e 02 31 c0
       -2.889056 -2.8447595 -2.941168 -2.7657657
0001c0 16 69 3e c0 85 f9 37 c0 90 96 42 c0 6e 02 31 c0
       -2.975164 -2.8746045 -3.0404396 -2.7657733
0001d0 58 61 3d c0 c3 4d 31 c0 dd 5d 3a c0 e5 70 41 c0
       -2.9590664 -2.7703712 -2.911979 -3.0225155
0001e0 f3 fc 3e c0 ae 71 35 c0 38 11 3f c0 88 64 43 c0
       -2.9841888 -2.8350635 -2.985426 -3.053011
0001f0 8d 76 3f c0 9b d6 3b c0 4f e7 3b c0 6f 32 38 c0
       -2.9916108 -2.9349735 -2.935993 -2.8780782
000200 51 b0 37 c0 1f b7 3d c0 1b 29 3a c0 81 d4 3a c0
       -2.8701365 -2.9643018 -2.9087589 -2.9192202
000210 f6 48 2e c0 9d eb 3e c0 cc 73 35 c0 05 8f 39 c0
       -2.7232032 -2.9831307 -2.8351927 -2.8993542
000220 bc 75 30 c0 d7 c0 33 c0 a7 37 3d c0 7f 1b 39 c0
       -2.757186 -2.808645 -2.9565217 -2.8923032
000230 cc 8c 4d c0 67 a8 46 c0 34 ac 40 c0 7e 93 39 c0
       -3.2117186 -3.1040285 -3.0105104 -2.8996272
000240 55 ea 39 c0 5c 8b 45 c0 19 95 3e c0 b0 b6 45 c0
       -2.9049275 -3.0866308 -2.9778502 -3.0892754
000250 88 87 40 c0 b9 12 43 c0 e8 ba 43 c0 d3 81 3c c0
       -3.0082722 -3.0480177 -3.0582829 -2.9454238
000260 65 c7 35 c0 c7 08 32 c0 3e bf 3c c0 bf e8 3e c0
       -2.840295 -2.7817857 -2.9491725 -2.9829557
000270 04 9c 45 c0 0d 34 2f c0 44 c4 3d c0 ad d8 38 c0
       -3.0876474 -2.737552 -2.965104 -2.8882248
000280 f3 51 3d c0 05 33 3e c0 16 05 3e c0 24 ad 3d c0
       -2.9581268 -2.971864 -2.9690604 -2.9636927
000290 df 9d 45 c0 58 d7 4d c0 25 e6 37 c0 af 67 3d c0
       -3.0877607 -3.2162685 -2.873422 -2.9594533
0002a0 1b 7f 49 c0 a7 9c 32 c0 87 35 3b c0 0a b1 43 c0
       -3.148383 -2.7908113 -2.925142 -3.0576806
0002b0 0c f4 46 c0 3e 3b 3c c0 56 be 3d c0 01 34 33 c0
       -3.1086454 -2.9411159 -2.9647422 -2.800049
0002c0 fb f9 34 c0 2d 97 37 c0 28 79 36 c0 08 a5 30 c0
       -2.8277576 -2.868602 -2.8511448 -2.7600727
0002d0 ed ed 2a c0 04 3f 3c c0 71 4d 34 c0 33 8d 36 c0
       -2.6707718 -2.9413462 -2.8172266 -2.852368
0002e0 28 81 34 c0 5a 33 3a c0 a8 3f 41 c0 26 e8 43 c0
       -2.820383 -2.9093843 -3.0195103 -3.0610442
0002f0 ef c5 41 c0 b1 b9 38 c0 67 e0 4d c0 10 80 32 c0
       -3.027706 -2.8863337 -3.2168214 -2.7890663
000300 d6 90 48 c0 1d 14 44 c0 9f 4c 3a c0 ec 45 51 c0
       -3.13384 -3.0637276 -2.9109266 -3.2698927
000310 e0 a0 39 c0 c2 01 40 c0 ae d1 2e c0 35 b1 40 c0
       -2.900444 -3.0001073 -2.7315478 -3.0108159
000320 41 80 39 c0 dc 00 40 c0 c4 de 43 c0 41 58 4b c0
       -2.898453 -3.0000525 -3.0604715 -3.1772616
000330 fb d1 2d c0 e8 33 46 c0 34 32 3a c0 cc 09 3d c0
       -2.7159412 -3.096918 -2.9093142 -2.953723
000340 03 b7 40 c0 5e 93 37 c0 66 03 3b c0 d6 b5 46 c0
       -3.0111701 -2.8683696 -2.9220824 -3.1048484
000350 86 9a 35 c0 b6 93 41 c0 34 9f 35 c0 78 31 3c c0
       -2.8375564 -3.0246406 -2.837842 -2.9405193
000360 e0 57 3b c0 dc ec 44 c0 9d ff 37 c0 d3 1f 3f c0
       -2.9272385 -3.0769567 -2.8749764 -2.9863174
000370 e6 1d 50 c0 48 ec 34 c0 4a a7 40 c0 07 5b 41 c0
       -3.2518249 -2.8269215 -3.0102105 -3.0211809
000380 91 d4 35 c0 db 89 3e c0 39 03 41 c0 23 5a 46 c0
       -2.841099 -2.977164 -3.0158217 -3.0992515
000390 6f 5c 34 c0 c3 38 41 c0 20 a9 2e c0 e7 bf 3a c0
       -2.8181417 -3.0190895 -2.7290726 -2.9179628
0003a0 5b 42 3e c0 c0 06 35 c0 5a 59 33 c0 d3 bb 37 c0
       -2.9728 -2.828537 -2.8023286 -2.8708389
0003b0 db a6 35 c0 1e aa 39 c0 b8 61 3b c0 50 fa 20 c0
       -2.838309 -2.9010081 -2.9278393 -2.5152779
0003c0 e7 77 3f c0 c5 bd 36 c0 3d dc 4a c0 de 8e 37 c0
       -2.9916933 -2.8553326 -3.1696923 -2.868095
0003d0 02 e0 2c c0 4b 94 3e c0 55 ec 2c c0 c9 d6 34 c0
       -2.7011724 -2.977801 -2.7019246 -2.8256094
0003e0 f6 1d 36 c0 30 f4 2c c0 e9 10 3f c0 6e 7f 3c c0
       -2.8455787 -2.702404 -2.985407 -2.9452777
0003f0 a6 fd 33 c0 17 15 31 c0 e3 31 3e c0 fd 34 2a c0
       -2.8123565 -2.7669122 -2.9717948 -2.6594841

lstm.hh.mu_bias f4 [128]
000000 3d f6 a1 3e b5 6d df 3d 59 a8 86 3c 07 5b 5c 3d
       0.31633177 0.10909597 0.016437696 0.053797748
000010 21 ba f5 3d aa 96 ab bb cd d4 4a be 28 70 e6 3d
       0.11998392 -0.0052364664 -0.1980774 0.11251861
000020 92 30 9d 3e 44 95 11 3e ed 98 0d 3e 7b 3c c8 3d
       0.3070112 0.14217097 0.13827868 0.09777161
000030 df d0 cc 3d 40 86 80 bc 83 27 37 3e a4 98 c3 bd
       0.100007765 -0.015689015 0.17886166 -0.09550598
000040 c4 89 dd 3b 48 b6 98 3e 1e b5 be 3d 19 27 21 be
       0.0067608077 0.2982657 0.09311889 -0.15737571
000050 36 df 65 be 2a 5f d5 3d d0 13 2e 3e e8 c0 5f 3e
       -0.2244843 0.10418542 0.16999745 0.21850932
000060 13 32 7e 3d 61 44 4e 3e 3a 34 40 3d d5 84 71 bd
       0.062059473 0.20143272 0.046924807 -0.05896457
000070 5f a7 c4 bd 56 f8 8a bd b9 00 df 3e 59 aa d8 3c
       -0.09602236 -0.067856476 0.4355524 0.026448416
000080 58 8b 1d 3d fb 94 45 3d f5 06 dd bc c6 8f b2 bd
       0.038462967 0.048237782 -0.026980856 -0.08718829
000090 c6 91 93 bd ef 74 f3 3c 46 fa c9 3d d1 71 91 3e
       -0.072055385 0.029718844 0.09862189 0.28407148
0000a0 9e 6e 01 3d 59 28 09 3e 5e 04 24 3d fa ed 24 3e
       0.031599633 0.13394298 0.040043227 0.16106406
0000b0 aa 3f 64 3e 03 1c 8e 3d 9c f9 06 bc 49 ec fb 3d
       0.22289911 0.069389366 -0.008238222 0.12300927
0000c0 bb b8 5c 3d 37 9e 97 3e 74 42 96 3d 04 b1 22 3e
       0.05388711 0.29612896 0.07336894 0.15887839
0000d0 51 9f 04 3e 94 44 c2 3d 6f 05 d9 bc 2f 96 ad 3e
       0.129514 0.094857365 -0.026491849 0.33903643
0000e0 0d 80 8c 3e 97 65 33 3e 43 4f 75 3e c1 ef dc 3d
       0.27441445 0.17519222 0.23956017 0.10787917
0000f0 17 4b 8d 3d de b2 cc 3c 08 cd a7 3d c3 d7 94 3e
       0.06899088 0.024987634 0.081934035 0.29070863
000100 cd dc 43 3a ab 49 24 be 3b 58 1e 3e 26 69 40 be
       0.00074715615 -0.16043727 0.15463345 -0.18790111
000110 da 14 ab 3d 30 62 0f 3e b2 82 23 3d bb ce ff bd
       0.083535865 0.140023 0.039919563 -0.124906026
000120 5b 29 2b be 55 80 2e 3c 78 3a 01 be 68 d2 60 bd
       -0.16714995 0.010650714 -0.1261996 -0.05488816
000130 07 4f d9 3c 44 a8 80 3d 30 d6 8f 3d 09 a1 27 3e
       0.026526941 0.06282094 0.07023275 0.16370024
000140 b3 b2 74 bd f3 68 77 be c9 e4 d2 bd 4a 00 92 3d
       -0.059740733 -0.24161129 -0.102975436 0.071289614
000150 b2 65 09 3e 7d 72 4d 3d bb 44 29 be cf 99 93 3e
       0.134177 0.050158013 -0.16530125 0.28828284
000160 20 ab 67 3e 05 30 8e bd 06 d3 e0 3d 76 9c fb 3d
       0.22623873 -0.06942753 0.109777495 0.12285702
000170 23 40 03 bd f4 1c 36 bd 30 93 bf be e3 a5 99 bd
       -0.032043587 -0.044461206 -0.37416983 -0.075023435
000180 d6 1a 30 3e 77 5c b8 3c 94 57 3d 3e b3 65 ac 3e
       0.17197737 0.022505028 0.1849044 0.3367134
000190 43 36 49 3e 79 f2 08 3e d7 09 9d 3e d9 07 54 3d
       0.19649605 0.13373746 0.3067157 0.051765297
0001a0 39 0f be 3e ca 8a 2d 3e d2 b8 b6 3e b3 40 41 3d
       0.3712099 0.16947475 0.35687882 0.047180843
0001b0 27 99 89 3e ea 8e 57 3e 42 ce 6e 3e 5e 79 80 3e
       0.26874658 0.21050611 0.23320869 0.25092596
0001c0 56 2b ff 3d 60 6a dd 3d 6b b3 83 bc 1c 43 58 3d
       0.124594375 0.10811305 -0.016076764 0.052798375
0001d0 59 d4 fd 3a 76 92 8a 3e 80 5b c9 3d 3f d6 35 3e
       0.0019365653 0.27064866 0.09831905 0.1775751
0001e0 fc 39 04 3e 17 9f 0b 3e 70 7d 91 3e 6f b0 55 3e
       0.12912744 0.13634907 0.28416014 0.20868085
0001f0 0b d3 80 3e fc 74 e1 3c c3 e1 8f 3e 51 f2 cf 3d
       0.25161013 0.027521603 0.2810193 0.1015364

lstm.hh.rho_bias f4 [128]
000000 70 7c 22 c0 05 d5 2b c0 03 f3 2d c0 13 f3 31 c0
       -2.538845 -2.6848767 -2.7179573 -2.780461
000010 40 83 3b c0 28 35 26 c0 cc 64 27 c0 0b 91 28 c0
       -2.9298859 -2.5969944 -2.6155272 -2.6338527
000020 14 bb 20 c0 b1 d5 1b c0 e6 0e 1e c0 6a 00 3b c0
       -2.5114183 -2.4349177 -2.4696593 -2.9219003
000030 ea f9 1d c0 6a 2c 27 c0 ca fe 31 c0 c4 5f 27 c0
       -2.4683785 -2.6120858 -2.781176 -2.61522
000040 8c 29 2b c0 7f 36 10 c0 59 2b 2a c0 97 ab 1c c0
       -2.6744108 -2.2533262 -2.6588957 -2.447973
000050 a4 04 35 c0 45 f7 29 c0 87 5a 27 c0 fa 12 23 c0
       -2.8284082 -2.6557171 -2.6149004 -2.5480332
000060 4f d5 38 c0 30 69 2b c0 dc 2e 1f c0 e8 5b 2d c0
       -2.8880193 -2.6782951 -2.487235 -2.7087345
000070 4d e0 2b c0 7c e0 24 c0 42 78 24 c0 c2 ec 19 c0
       -2.6855652 -2.5762014 -2.56984 -2.4050756
000080 0f 6f 15 c0 84 01 11 c0 60 bb 26 c0 db b8 36 c0
       -2.3349035 -2.2657175 -2.6051865 -2.8550327
000090 da 7c 39 c0 ab e7 42 c0 24 29 21 c0 4f 57 27 c0
       -2.8982453 -3.04539 -2.518136 -2.614704
0000a0 89 5c 0c c0 48 6b 32 c0 7d 30 33 c0 55 5e 38 c0
       -2.193148 -2.787798 -2.7998345 -2.8807576
0000b0 c9 8f 3d c0 45 e7 24 c0 c4 75 37 c0 33 3b 20 c0
       -2.961901 -2.5766156 -2.8665628 -2.5036132
0000c0 bf fb 2d c0 13 c9 16 c0 0d ef 34 c0 ee a3 31 c0
       -2.7184904 -2.3560226 -2.8270905 -2.7756305
0000d0 3b ce 2f c0 1a 3a 2a c0 fa e9 3b c0 ae 88 15 c0
       -2.7469623 -2.6597962 -2.9361558 -2.3364673
0000e0 84 54 24 c0 33 2c 2f c0 fc de 24 c0 23 ea 1b c0
       -2.5676584 -2.7370727 -2.57611 -2.4361656
0000f0 fe e0 33 c0 fb 90 21 c0 ec 45 13 c0 fb 7a 1b c0
       -2.8106074 -2.524474 -2.3011427 -2.4293811
000100 07 2d 35 c0 a5 2a 2f c0 fe 0e 32 c0 38 dc 3d c0
       -2.8308733 -2.7369778 -2.782165 -2.966566
000110 f6 2c 3b c0 23 f0 43 c0 63 26 34 c0 73 d4 30 c0
       -2.9246192 -3.0615318 -2.814843 -2.7629669
000120 7a c4 3e c0 b7 fc 36 c0 5b 66 30 c0 f0 5e 4c c0
       -2.980742 -2.8591745 -2.7562473 -3.1932945
000130 49 16 49 c0 e6 eb 38 c0 4d 11 33 c0 a8 dd 33 c0
       -3.1419852 -2.889398 -2.797931 -2.8104038
000140 59 d3 45 c0 b8 1d 41 c0 71 e2 39 c0 2e 9e 3a c0
       -3.0910246 -3.017439 -2.904446 -2.9159045
000150 40 25 3f c0 3d a7 3d c0 b1 73 37 c0 be 4f 41 c0
       -2.9866486 -2.9633324 -2.8664362 -3.020492
000160 9c 51 30 c0 01 cd 35 c0 4c 32 35 c0 86 17 31 c0
       -2.754981 -2.8406374 -2.8311949 -2.7670608
000170 12 88 3a c0 24 cb 3a c0 a2 42 42 c0 ce 20 2e c0
       -2.914555 -2.9186487 -3.035317 -2.7207522
000180 fb af 22 c0 2a 17 20 c0 d3 67 26 c0 3a 0d 2a c0
       -2.541991 -2.5014138 -2.600087 -2.6570573
000190 44 28 27 c0 ae ef 0f c0 ec ac 0e c0 15 f7 24 c0
       -2.6118326 -2.249004 -2.2293043 -2.5775807
0001a0 61 f1 1b c0 5a d4 26 c0 07 fc 29 c0 04 c6 28 c0
       -2.4366076 -2.606711 -2.6560075 -2.637086
0001b0 69 0f 28 c0 6b e7 2e c0 de 3c 28 c0 7e 3f 18 c0
       -2.6259406 -2.7328746 -2.628715 -2.3788753
0001c0 27 a0 19 c0 3f e3 2e c0 d1 3c 38 c0 04 ef 20 c0
       -2.4004 -2.73262 -2.878712 -2.5145884
0001d0 91 1d 16 c0 2a e7 2c c0 11 04 2a c0 47 af 28 c0
       -2.3455546 -2.7016091 -2.6564982 -2.635698
0001e0 25 4f 11 c0 68 af 1e c0 4f d2 27 c0 fd f8 22 c0
       -2.2704556 -2.479456 -2.6222112 -2.546447
0001f0 8f 50 19 c0 f5 71 23 c0 42 72 28 c0 fa d9 0d c0
       -2.395542 -2.5538304 -2.6319737 -2.2164292

l1.mu_weight f4 [16, 32]
000000 96 b8 d1 be 80 1f 1f bf a1 2d 09 3f 48 78 01 bf
       -0.4096114 -0.6215744 0.5358525 -0.5057416
000010 1c aa f5 3e e1 64 1a 3f 4f 21 0f bf b5 84 17 bf
       0.47981346 0.6031018 -0.559102 -0.5918687
000020 9b a4 00 bf bd 4c 23 3f 81 1c fb be f4 7a e4 3e
       -0.5025117 0.6378897 -0.49045184 0.44625056
000030 63 9b 01 bf 0c 7d 0d 3f b2 97 30 3f 72 6c c3 be
       -0.50627726 0.5526893 0.6898147 -0.38168675
000040 11 63 1f bf c5 ec e1 be ce 7e f5 be d1 d5 d5 3e
       -0.6226054 -0.44125953 -0.47948307 0.4176469
000050 b8 84 ca be 1b a0 08 3f 0e 3b 12 3f 02 89 da 3e
       -0.3955438 0.533693 0.5712136 0.42682654
000060 6a 59 35 3f d3 e3 18 bf ad 0b 13 3f 7a b1 e4 3e
       0.7083956 -0.5972263 0.5743969 0.44666654
000070 0d 94 3e bf 33 40 dc be cc e4 05 bf c0 79 3b 3f
       -0.7444466 -0.4301773 -0.5230224 0.7323265
000080 cc b0 e6 be b3 f5 f1 be ed 74 05 3f e0 48 f5 be
       -0.4505676 -0.47257766 0.5213154 -0.47907162
000090 84 eb e4 3e f4 78 c7 3e 76 60 0b bf f3 9c c0 be
       0.44710934 0.38959467 -0.5444406 -0.37619743
0000a0 4e 55 b4 be bf ff d0 3e 1d 2c e8 be 15 23 0c 3f
       -0.35221332 0.4082012 -0.45346156 0.5474103
0000b0 de ae ae be 9d 37 1c 3f d6 17 ec 3e 5f 68 bb be
       -0.34117788 0.6102236 0.46111935 -0.36603066
0000c0 ea 0c e5 be f3 e7 12 bf df 81 d1 be f6 83 c2 3e
       -0.44736415 -0.57385176 -0.40919396 0.37991303
0000d0 12 df bf be ce c0 f1 3e e1 51 f8 3e 78 dc cf 3e
       -0.37474877 0.4721741 0.4849997 0.40597892
0000e0 83 dc eb 3e 82 e7 fe be 7a f9 11 3f bb 3a c4 3e
       0.46066675 -0.49786 0.57021296 0.38326058
0000f0 d7 3f e5 be 2e 22 16 bf 44 cc 0b bf d6 d0 e7 3e
       -0.44775268 -0.58645904 -0.5460856 0.45276517
000100 6a da bd be 9e c0 9f be 93 c1 10 3f bb 5e 00 bf
       -0.370807 -0.31201643 0.5654537 -0.5014455
000110 c8 78 0c 3f 1a 1d 28 3f 51 b9 10 bf 62 0a 08 bf
       0.548718 0.65669405 -0.5653277 -0.5314084
000120 5b e1 13 bf 97 3b 00 3f d4 ea 2c bf 09 4a e6 3e
       -0.5776574 0.50090927 -0.6754582 0.4497836
000130 59 7f 2a bf 53 ab 3b 3f 2b 10 22 3f 5a 76 e7 be
       -0.6660057 0.73308295 0.6330592 -0.45207483
000140 7b e9 14 bf 4e 29 07 bf 0d 11 06 bf 6a 2c a0 3e
       -0.5816876 -0.527974 -0.5236977 0.31283885
000150 fc 71 2c bf 59 14 17 3f e8 00 cf 3e 6c 13 58 3f
       -0.67361426 0.59015423 0.4043038 0.84404635
000160 de 33 bf 3e 24 95 24 bf d4 a4 23 3f 9d 69 f9 3e
       0.3734426 -0.6429007 0.6392338 0.4871339
000170 6f ef 0e bf 11 dc fb be a1 18 0d bf 31 6d d5 3e
       -0.55834097 -0.49191335 -0.55115706 0.4168487
000180 af 9b 0c bf c6 5d 1c bf 2d a8 78 3e f8 20 bb be
       -0.54925054 -0.61080587 0.24282904 -0.3654859
000190 5a 67 e7 3e 73 6c e3 3e ee 6c 29 bf 9e f4 0b bf
       0.45196038 0.44418678 -0.6618184 -0.5467013
0001a0 e4 80 ce be 70 20 8a 3e cd 23 32 bf d1 8a fd 3e
       -0.4033271 0.26977873 -0.6958588 0.4951997
0001b0 03 15 08 bf a9 88 02 3f 34 49 d3 3e 6b 68 b6 be
       -0.5315706 0.50989777 0.41266787 -0.3562654
0001c0 67 06 05 bf 62 c5 14 bf 65 25 00 bf 4e 24 aa 3e
       -0.51962894 -0.5811368 -0.5005706 0.33230823
0001d0 f2 0a e6 be 82 ba 16 3f bc f4 c0 3e 2c 61 09 3f
       -0.44930226 0.5887834 0.37686718 0.536639
0001e0 23 6d 03 3f fd d4 da be 4d 16 f4 3e 94 e8 2d 3f
       0.51338404 -0.42740622 0.47673264 0.6793301
0001f0 2b 6f c3 be 58 7c 08 bf fe 4f d4 be 06 a9 de 3e
       -0.38170752 -0.53314734 -0.4146728 0.4348833
000200 8a 02 2b bf 29 1f 26 bf df 45 03 3f 54 04 1d bf
       -0.6680075 -0.64891297 0.5127849 -0.6133473
000210 f6 38 06 3f bb 68 1f 3f 2e 10 10 bf 6b d4 10 bf
       0.52430665 0.6226918 -0.5627469 -0.56574124
000220 a5 64 36 bf 1d 1b 38 3f 34 c8 0b bf 4b 63 03 3f
       -0.7124732 0.7191637 -0.5460236 0.51323384
000230 0b 43 0b bf d8 d5 cd 3e 95 4d d3 3e 7e 92 dd be
       -0.54399174 0.40202212 0.41270128 -0.43275827
000240 b4 90 19 bf 0f 30 0e bf 79 97 99 be 27 13 f6 3e
       -0.59986424 -0.5554208 -0.29998377 0.48061487
000250 85 81 00 bf 27 58 19 3f 57 b2 0c 3f 8d 5d 2c 3f
       -0.5019763 0.59900135 0.54959625 0.6733025
000260 9e a2 08 3f 4a 4b fb be 21 17 0f 3f 9b a6 07 3f
       0.53373134 -0.49080878 0.55894667 0.52988595
000270 e9 b8 1f bf 00 96 55 be 48 69 20 bf 36 f5 1b 3f
       -0.62391526 -0.20858002 -0.62660646 0.6092104
000280 2a 7c f6 be 7b ff f9 be 18 a5 2a 3f ad a2 f4 be
       -0.48141605 -0.4882773 0.66658163 -0.47780362
000290 bc a4 09 3f bc 19 0b 3f e2 e9 03 bf 5d 8c f9 be
       0.5376699 0.5433614 -0.5152875 -0.487399
0002a0 00 28 0b bf da 32 f3 3e a4 46 1d bf bc 60 f0 3e
       -0.5435791 0.47499734 -0.61435914 0.46948802
0002b0 92 94 fc be fa 2a 2b 3f 7f f8 19 3f a9 3d d0 be
       -0.493321 0.6686245 0.601448 -0.40672043
0002c0 ff cd be be 49 76 0e bf 57 8b 1e bf 35 46 86 3e
       -0.37266538 -0.5564924 -0.61931366 0.2622544
0002d0 9d f5 98 be 92 ad 3c 3f 5a 98 12 3f 58 18 bf 3e
       -0.29874888 0.7370235 0.5726372 0.3732326
0002e0 47 90 ce 3e bb cd 0e bf 4b f1 df 3e bb b4 0a 3f
       0.4034445 -0.5578267 0.4373878 0.5418202
0002f0 07 29 24 bf 70 50 d5 be 66 bd 2c bf 32 72 0f 3f
       -0.641251 -0.4166293 -0.674765 0.56033623
000300 30 5a f1 be f6 c6 fc be 0b 23 e6 3e 93 c9 05 bf
       -0.4713912 -0.49370545 0.4494861 -0.522607
000310 07 d1 e5 3e 2e 2a 30 3f ce c3 b9 be 11 c5 fa be
       0.44886038 0.6881436 -0.362822 -0.48978475
000320 f8 54 15 bf 06 64 0a 3f 49 cc d0 be 6d c0 1e 3f
       -0.5833278 0.54058874 -0.40780857 0.6201237
000330 35 0c 10 bf 19 b9 fb 3e c0 5c 13 3f 07 ed d1 be
       -0.56268626 0.49164656 0.575634 -0.4100115
000340 50 7e 16 bf a8 87 ca be 65 44 f9 be 6a 2e 3a 3e
       -0.5878649 -0.39556623 -0.48684993 0.18181768
000350 8c 5d 22 bf 42 26 d7 3e e7 88 d9 3e 44 63 c4 3e
       -0.6342399 0.42021376 0.4248726 0.38356984
000360 52 ce 06 3f 7b 62 01 bf b5 dc e8 3e 26 29 c6 3e
       0.5265857 -0.50540894 0.45480886 0.3870327
000370 62 f5 ea be 5a cd cb be c7 55 1d bf 81 96 ee 3e
       -0.45890337 -0.39805108 -0.6145901 0.465992
000380 99 86 e3 be e7 75 aa be 53 c5 36 3f 70 c7 d7 be
       -0.44438627 -0.33293077 0.7139484 -0.42144346
000390 a9 9c 0c 3f 36 36 1c 3f 3e 2d 09 bf 5f 05 04 bf
       0.54926544 0.6102022 -0.5358466 -0.51570696
0003a0 fd 7d 1e bf ca 93 1f 3f 62 3b 05 bf c5 03 0e 3f
       -0.6191099 0.62334883 -0.52043736 0.554745
0003b0 8b b1 fe be 4a 2a c4 3e 4b 7d ff 3e f4 2d ca be
       -0.4974483 0.38313514 0.49900278 -0.39488184
0003c0 49 65 2e bf 8f 05 07 bf e8 62 0c bf 96 1a a6 3e
       -0.681233 -0.52742857 -0.5483842 0.32442158
0003d0 80 53 11 bf 7c 0d 0b 3f 56 98 a4 3e 94 fd 19 3f
       -0.56768036 0.5431745 0.32147473 0.60152555
0003e0 2f e5 d9 3e f5 3a d6 be d4 59 10 3f 99 b9 f6 3e
       0.42557666 -0.41841856 0.56387067 0.48188475
0003f0 99 64 0d bf 47 4a f0 be b5 6a 39 bf 1f 13 11 3f
       -0.55231625 -0.4693167 -0.72428447 0.566698
