BNN/model_states/BNN_model_state_FD001.pt (torch, 57845 bytes, 14 tensors)

lstm.ih.mu_weight f4 [128, 14]
-0.032587126 0.14497769 0.05902092 -0.22872476 0.09899186 -0.5228702 0.076216616 0.050405383
-0.04822113 -0.08511292 -0.07898591 -0.40462786 0.06911581 0.011551026 0.08505372 0.25464657
0.3133175 -0.27352363 0.27844688 -0.046961553 0.15988438 0.06651618 0.4621395 -0.13110368
0.31519774 0.08092398 0.08451675 0.11628222 0.019997116 0.10024336 0.14172503 0.0035834457
0.005916056 -0.20449476 0.06797482 0.11650145 0.12628621 -0.21457528 0.13691571 0.020714276
-0.33567315 0.05616644 -0.17336819 -0.1167532 -0.34205452 0.44227284 -0.24138631 0.030716728
-0.39670527 -0.070246555 -0.26994655 0.33593923 -0.072513744 0.017206898 0.1978877 0.16727677
-0.23949923 -0.09616537 -0.06743235 0.39556733 -0.06874467 0.19212098 -0.16272222 0.18958504
0.1524061 0.23761727 0.039237972 -0.054734655 0.01665231 -0.08998399 -0.20426302 -0.042825732
-0.3080296 0.13219091 -0.120892555 -0.17726083 -0.13534828 -0.025645979 -0.29120615 -0.37148935
-0.2566026 -0.18575734 -0.0021169733 0.09453864 0.25654042 0.099898644 0.055617873 0.109442815
-0.006647149 -0.22780591 -0.29663953 -0.18141156 -0.33159062 -0.3357544 -0.10899166 0.014461138
0.26791647 0.4170313 0.15333986 0.016605293 0.3239765 0.0059528747 0.31314778 -0.18405154
0.18395801 -0.03463506 0.16336027 -0.02626435 0.16268447 0.14965834 -0.08697345 -0.16411209
-0.06207378 0.010850102 0.09623037 0.13224325 0.17376603 0.15436117 0.10047964 -0.017228305
0.054721378 0.18610801 0.029735351 0.017701818 -0.036409743 -0.16540158 0.14020242 0.11928422
0.41791746 0.07520676 0.021908829 -0.012939176 0.12688263 0.058508143 0.16627055 -0.08410515
0.25704905 0.030762218 -0.33893278 -0.09553309 -0.29137242 -0.06711946 -0.3389972 0.3103488
-0.07351232 -0.11676326 0.031005634 0.32508704 0.13359147 -0.104782805 -0.32121328 -0.27649748
0.06770831 0.07825244 0.22228175 0.22315986 -0.08571395 0.024367645 -0.069335245 0.32422012
-0.025358446 -0.15091918 0.02932378 0.2591937 0.040458184 0.010295971 -0.18764316 -0.44043085
-0.17243725 0.09696669 0.02347364 0.056515057 -0.32983735 -0.3653386 -0.17533052 0.35868603
-0.06289855 -0.34652966 -0.12288573 -0.11099368 0.09644784 -0.14798969 -0.094514996 -0.086559385
-0.22885263 -0.06892188 -0.30740732 0.13097306 0.073463246 -0.03779757 -0.025532516 0.3655438
-0.010153424 -0.10971459 0.11661081 0.022888612 -0.18467644 0.10752887 -0.29776078 0.3392755
-0.17392477 0.36798844 -0.31977287 0.15306629 -0.119238004 0.055730682 0.01463821 0.03168881
-0.07957088 0.02981314 -0.24888489 -0.20820181 -0.15876794 0.3326619 -0.06779807 -0.5979736
-0.26012322 0.26949802 -0.14000605 0.062372837 -0.2336111 -0.19086105 0.19005539 0.31086487
-0.22876847 -0.250869 0.10539334 -0.1478331 -0.2322142 0.013891945 -0.07262134 0.2834912
-0.20783143 -0.0024102372 -0.2594572 0.14496303 0.21294977 -0.026128419 0.10410829 0.015910769
0.08515499 0.037252963 0.031473372 -0.07452223 0.060804386 -0.11893249 0.0668652 0.36051974
0.2167029 -0.011350077 0.073225 -0.057275224 0.25213167 0.39185125 -0.15297139 0.1693176
00000000: 147a 05bd 0875 143e ecbf 713d d336 6abe
00000010: 3fbc ca3d d2da 05bf 7517 9c3d e075 4e3d
00000020: 8583 45bd af4f aebd 5dc3 a1bd 622b cfbe
00000030: 978c 8d3d 8440 3d3c a530 ae3d 0961 823e
00000040: 276b a03e 4a0b 8cbe 9790 8e3e c25a 40bd
00000050: bbb8 233e a339 883d 8c9d ec3e 0b40 06be
00000060: 9961 a13e 79bb a53d 1e17 ad3d 5f25 ee3d
00000070: fed0 a33c 644c cd3d 5e20 113e 3ed8 6a3b
00000080: 7adb c13b 1367 51be 6236 8b3d 5098 ee3d
00000090: 2c51 013e 9fb9 5bbe a233 0c3e fcb0 a93c
000000a0: 5add abbe c80e 663d 6e87 31be 4d1c efbd
000000b0: c521 afbe 9671 e23e f92d 77be a6a1 fb3c
000000c0: f41c cbbe 6ddd 8fbd 6f36 8abe 3a00 ac3e
000000d0: 1682 94bd 7bf5 8c3c 13a3 4a3e 9a4a 2b3e
000000e0: 493f 75be 59f2 c4bd f919 8abd cd87 ca3e
000000f0: 01ca 8cbd 5dbb 443e a7a0 26be 9522 423e
00000100: 5810 1c3e f151 733e ffb7 203d 7231 60bd
00000110: 6d6a 883c 8749 b8bd 532a 51be 096a 2fbd
00000120: 0eb6 9dbe 0e5d 073e 8496 f7bd dd83 35be
00000130: bd98 0abe 8417 d2bc f918 95be da33 bebe
00000140: 6a61 83be 2c37 3ebe ebbc 0abb 799d c13d
00000150: 4459 833e a997 cc3d 91cf 633d 8e23 e03d
00000160: 54d0 d9bb f445 69be 23e1 97be f4c3 39be
00000170: 3fc6 a9be 00e8 abbe 0537 dfbd 69ee 6c3c
00000180: 592c 893e 2085 d53e 2005 1d3e d307 883c
00000190: 3fe0 a53e 5510 c33b e854 a03e 0278 3cbe
000001a0: 7d5f 3c3e 7edd 0dbd ea47 273e 5628 d7bc
000001b0: c296 263e 0940 193e 231f b2bd 000d 28be
000001c0: 1341 7ebd a0c4 313c 6e14 c53d c66a 073e
000001d0: b9ef 313e db10 1e3e 45c8 cd3d 6022 8dbc
000001e0: 8623 603d 1993 3e3e 8d97 f33c 6703 913c
000001f0: 6222 15bd 085f 29be 3991 0f3e 494b f43d
00000200: 47f9 d53e 0006 9a3d 257a b33c d6fe 53bc
00000210: 85ed 013e 3ca6 6f3d d442 2a3e 523f acbd
00000220: ef9b 833e 0c01 fc3c 9988 adbe daa6 c3bd
00000230: c42e 95be ed75 89bd 0a91 adbe 0ae6 9e3e
00000240: a18d 96bd 9321 efbd 87ff fd3c cf71 a63e
00000250: 34cc 083e 5e98 d6bd 1176 a4be 1491 8dbe
00000260: a8aa 8a3d d142 a03d d49d 633e 0584 643e
00000270: cc8a afbd a89e c73c a3ff 8dbd 2e00 a63e
00000280: 84bc cfbc 8f8a 1abe 6d38 f03c 09b5 843e
00000290: 7bb7 253d 6fb0 283c 8725 40be 2780 e1be
000002a0: 6493 30be 7996 c63d cb4b c03c 557c 673d
000002b0: 71e0 a8be a90d bbbe d889 33be b2a5 b73e
000002c0: f4d0 80bd 566c b1be 83ab fbbd a850 e3bd
000002d0: 7286 c53d 9c8a 17be 1491 c1bd 0c46 b1bd
000002e0: 5858 6abe ea26 8dbd 7e64 9dbe cd1d 063e
000002f0: e673 963d a0d1 1abd 9129 d1bc 8f28 bb3e
00000300: 8c5a 26bc 0bb2 e0bd a6d1 ee3d e680 bb3c
00000310: d21b 3dbe 1938 dc3d 1a74 98be 85b5 ad3e
00000320: 5619 32be fb68 bc3e 45b9 a3be 69bd 1c3e
00000330: 0e33 f4bd db45 643d 1ad5 6f3c 20cc 013d
00000340: 0ff6 a2bd b03a f43c aedb 7ebe db32 55be
00000350: 1094 22be a952 aa3e b7d9 8abd cc14 19bf
00000360: df2e 85be a5fb 893e bf5d 0fbe a97a 7f3d
00000370: c037 6fbe 1471 43be e19d 423e ae29 9f3e
00000380: 4842 6abe e771 80be 77d8 d73d 8f61 17be
00000390: 8fc9 6dbe 0a9b 633c 7fba 94bd c225 913e
000003a0: c3d1 54be 12f5 1dbb 93d7 84be 3071 143e
000003b0: 810f 5a3e 440b d6bc ba36 d53d 4d57 823c
000003c0: bd65 ae3d 9096 183d 39ea 003d 1c9f 98bd
000003d0: 050e 793d e192 f3bd 9ff0 883d 0b96 b83e
000003e0: 5de7 5d3e acf5 39bc fdf6 953d 6d99 6abd
000003f0: 6717 813e baa0 c83e 88a4 1cbe 9861 2d3e

lstm.ih.rho_weight f4 [128, 14]
-2.9035158 -2.7834868 -2.7426176 -2.964434 -2.9311652 -2.8181524 -2.9094331 -2.9623768
-2.9070132 -2.6909328 -2.9219863 -2.791739 -2.789824 -2.8549087 -2.6867082 -2.9763424
-3.090371 -2.9196897 -2.8290927 -2.8600938 -2.8646302 -2.853488 -2.978685 -2.9660652
-2.7804084 -2.9316046 -2.7521114 -2.8994596 -2.8753376 -3.0676136 -3.0160313 -3.055385
-2.9748294 -2.948882 -2.8354335 -2.990079 -3.0821037 -2.8727043 -2.9012651 -3.0585408
-2.845885 -2.8545847 -2.9999697 -2.9139707 -2.820115 -3.1593585 -2.979998 -2.8024364
-2.9368756 -2.7426803 -2.8531213 -2.8611865 -2.8959503 -2.7215455 -2.9906154 -2.7275999
-3.0701175 -2.814977 -3.106226 -2.91207 -2.8827496 -3.0023992 -3.1031108 -3.0716245
-2.8958292 -2.8267455 -2.9587536 -3.1100152 -2.8639507 -2.901717 -3.0511591 -2.7367563
-3.0239213 -2.9418411 -2.9326997 -2.895095 -3.0496588 -3.0468953 -3.1729198 -3.1186984
-2.9050598 -2.8049235 -2.925047 -3.1041272 -2.952155 -2.9355857 -3.0623057 -2.944754
-2.7874022 -2.9166632 -2.7929733 -2.949825 -3.0606916 -2.7589746 -2.7558491 -2.7562027
-2.940506 -2.9559557 -2.7900243 -2.914447 -2.8866827 -2.9044952 -2.9076025 -2.980764
-3.0713954 -2.9683013 -2.9268389 -2.6398046 -3.0626757 -2.7242327 -2.7415884 -2.8359725
-2.7594504 -2.7293582 -2.960343 -2.9382367 -2.9419029 -2.901377 -2.933154 -2.8065367
-3.2017014 -2.7582507 -2.8247173 -2.9400191 -3.039755 -2.806492 -2.8904395 -2.7603953
-2.770237 -2.9354024 -2.7657416 -2.7924302 -2.7304094 -2.9389846 -2.77417 -2.7466512
-2.847548 -2.8762207 -2.9210603 -2.7032237 -2.7275205 -2.9769928 -2.6834998 -2.9729857
-3.2309592 -2.9310694 -2.7323701 -2.7283936 -2.844509 -2.8004396 -2.7391627 -2.965259
-2.9976358 -2.940663 -2.9227777 -2.627645 -2.9248219 -2.6171613 -2.687709 -2.7944376
-3.020823 -2.9741113 -2.8542151 -2.9118943 -3.0008597 -2.8647175 -2.7657762 -2.6429
-2.8551583 -2.8539953 -2.7785802 -2.83795 -2.7317004 -2.7912989 -2.7504797 -2.867558
-2.7825797 -2.9085143 -3.022544 -2.7104695 -2.9001846 -2.975146 -2.8785822 -2.928118
-2.853934 -2.7982247 -2.9904854 -2.8238673 -2.843223 -2.8639054 -2.847108 -2.9491336
-2.720994 -2.8226113 -2.8587189 -2.7554636 -3.0213652 -3.019856 -3.0187109 -2.896067
-3.0491304 -2.86521 -3.0383139 -2.9876988 -2.7684944 -3.1632624 -2.8155277 -2.877037
-3.1022043 -3.1013517 -3.0078464 -2.9647777 -2.8569524 -2.9370084 -3.0103335 -2.770215
-2.9193568 -2.933355 -3.075219 -2.888957 -2.775177 -2.9511032 -2.883262 -3.0081217
-3.1919148 -3.0611134 -2.806585 -3.0102773 -2.9758213 -2.9164317 -2.781847 -2.8837874
-3.0306752 -2.9193084 -2.898956 -2.7755377 -3.0239882 -3.1243453 -3.0247626 -3.0191455
-3.0319874 -2.754383 -2.7641828 -2.8240407 -2.8646655 -2.931248 -3.0163705 -2.4841044
-2.8500977 -2.839635 -2.9223695 -2.8587987 -2.9579735 -2.805202 -2.9450088 -2.8414638
00000000: 34d3 39c0 a624 32c0 0c87 2fc0 49b9 3dc0
00000010: 3698 3bc0 9c5c 34c0 2734 3ac0 9597 3dc0
00000020: 810c 3ac0 3e38 2cc0 d301 3bc0 daab 32c0
00000030: 7a8c 32c0 d3b6 36c0 07f3 2bc0 657c 3ec0
00000040: a3c8 45c0 32dc 3ac0 db0f 35c0 c70b 37c0
00000050: 1a56 37c0 8c9f 36c0 c6a2 3ec0 03d4 3dc0
00000060: 36f2 31c0 699f 3bc0 9822 30c0 bf90 39c0
00000070: 8805 38c0 c853 44c0 a806 41c0 6e8b 43c0
00000080: 9b63 3ec0 7cba 3cc0 be77 35c0 745d 3fc0
00000090: 3041 45c0 63da 37c0 54ae 39c0 22bf 43c0
000000a0: fb22 36c0 84b1 36c0 81ff 3fc0 7f7e 3ac0
000000b0: c47c 34c0 ee32 4ac0 4ab8 3ec0 1e5b 33c0
000000c0: c5f5 3bc0 1388 2fc0 8a99 36c0 ae1d 37c0
000000d0: 4057 39c0 cd2d 2ec0 3e66 3fc0 ff90 2ec0
000000e0: ce7c 44c0 9528 34c0 68cc 46c0 5b5f 3ac0
000000f0: f87e 38c0 4f27 40c0 5e99 46c0 7f95 44c0
00000100: 4455 39c0 66e9 34c0 385c 3dc0 7d0a 47c0
00000110: f84a 37c0 bbb5 39c0 3146 43c0 0427 2fc0
00000120: ed87 41c0 2047 3cc0 5ab1 3bc0 3d49 39c0
00000130: 9c2d 43c0 5500 43c0 1e11 4bc0 c198 47c0
00000140: 80ec 39c0 de83 33c0 f833 3bc0 05aa 46c0
00000150: 1cf0 3cc0 a3e0 3bc0 d1fc 43c0 d976 3cc0
00000160: cc64 32c0 9caa 3ac0 13c0 32c0 efc9 3cc0
00000170: 5fe2 43c0 0a93 30c0 d55f 30c0 a065 30c0
00000180: 4031 3cc0 612e 3dc0 c28f 32c0 4d86 3ac0
00000190: 69bf 38c0 40e3 39c0 2916 3ac0 d6c4 3ec0
000001a0: be91 44c0 a6f8 3dc0 5451 3bc0 8ff2 28c0
000001b0: e102 44c0 d459 2ec0 2f76 2fc0 9380 35c0
000001c0: d69a 30c0 cead 2ec0 4276 3dc0 120c 3cc0
000001d0: 2348 3cc0 29b0 39c0 ccb8 3bc0 4c9e 33c0
000001e0: ade8 4cc0 2e87 30c0 2bc8 34c0 4629 3cc0
000001f0: 598b 42c0 919d 33c0 f6fc 38c0 51aa 30c0
00000200: 904b 31c0 a2dd 3bc0 e901 31c0 2db7 32c0
00000210: 07bf 2ec0 5318 3cc0 008c 31c0 22c9 2fc0
00000220: 3a3e 36c0 0014 38c0 a7f2 3ac0 9e01 2dc0
00000230: b28f 2ec0 0d87 3ec0 76be 2bc0 6645 3ec0
00000240: 09c8 4ec0 a496 3bc0 27df 2ec0 009e 2ec0
00000250: 6f0c 36c0 673a 33c0 714e 2fc0 cec6 3dc0
00000260: 44d9 3fc0 d333 3cc0 ca0e 3bc0 562b 28c0
00000270: 4830 3bc0 927f 27c0 6d03 2cc0 11d8 32c0
00000280: 2a55 41c0 d757 3ec0 76ab 36c0 7a5c 3ac0
00000290: 160e 40c0 8857 37c0 7a02 31c0 4625 29c0
000002a0: eaba 36c0 dca7 36c0 42d4 31c0 f9a0 35c0
000002b0: 2ed4 2ec0 a4a4 32c0 dc07 30c0 1286 37c0
000002c0: c915 32c0 1925 3ac0 5c71 41c0 5578 2dc0
000002d0: a09c 39c0 cb68 3ec0 b13a 38c0 4966 3bc0
000002e0: dba6 36c0 1d16 33c0 1d64 3fc0 3eba 34c0
000002f0: 5ef7 35c0 3a4a 37c0 0437 36c0 9bbe 3cc0
00000300: c424 2ec0 aaa5 34c0 40f5 36c0 8459 30c0
00000310: 0c5e 41c0 5245 41c0 8f32 41c0 2959 39c0
00000320: f424 43c0 9a5f 37c0 bc73 42c0 7536 3fc0
00000330: 032f 31c0 e472 4ac0 9b31 34c0 6021 38c0
00000340: 848a 46c0 8c7c 46c0 8e80 40c0 ebbe 3dc0
00000350: 4fd8 36c0 f2f7 3bc0 4ea9 40c0 344b 31c0
00000360: bed6 3ac0 17bc 3bc0 63d0 44c0 ace4 38c0
00000370: 809c 31c0 e0de 3cc0 5d87 38c0 1185 40c0
00000380: 5548 4cc0 48e9 43c0 179f 33c0 62a8 40c0
00000390: db73 3ec0 d1a6 3ac0 c809 32c0 f98f 38c0
000003a0: 95f6 41c0 f3d5 3ac0 7f88 39c0 69a2 31c0
000003b0: 0689 41c0 46f5 47c0 b695 41c0 ae39 41c0
000003c0: 150c 42c0 d047 30c0 5fe8 30c0 15bd 34c0
000003d0: ae56 37c0 9199 3bc0 370c 41c0 91fb 1ec0
000003e0: 0068 36c0 94bc 35c0 1a08 3bc0 8ff6 36c0
000003f0: 704f 3dc0 6e88 33c0 067b 3cc0 8bda 35c0

lstm.ih.mu_bias f4 [128]
0.012591501 0.009319958 0.054049633 -0.16063993 0.146185 0.10546258 0.19842403 0.12747066
0.24669406 0.018972503 -0.032308497 0.17252396 0.0021926071 0.23557474 0.09247347 0.03729845
-0.26325446 0.13552527 0.034451 -0.0971525 0.035074208 -0.034385126 -0.11524991 -0.1314837
0.033268865 0.01453984 0.1321673 0.42004627 0.12726395 -0.0916187 0.20054162 -0.32929203
0.15370181 -0.0075040576 0.10211052 0.18186235 0.07906021 0.024563175 0.22492753 0.2634372
0.105363466 0.007583351 0.06514083 0.23121387 0.01205846 0.071471006 -0.13871537 0.0802428
0.020833297 0.10873098 0.2878112 -0.08990346 -0.0031572878 -0.0034865653 0.07521014 0.22291186
-0.08714945 -0.11102955 0.061717704 0.23891285 0.22072302 -0.17804521 0.33961603 -0.20395069
-0.12173954 0.06713665 0.29817846 -0.090379186 0.16933493 -0.016819337 0.24980819 -0.24643792
0.16851908 0.21187928 0.0069318637 0.17258912 -0.118775964 0.23460926 0.19394056 0.07561078
-0.005718395 -0.066528566 -0.2164374 -0.011143569 -0.27702227 0.072322585 0.05601587 -0.035036486
-0.022281185 0.002957739 -0.05460138 0.18633991 -0.12397382 0.16724756 -0.10392535 0.0056151226
-0.090898946 0.24537121 0.10552753 0.07270422 0.27509022 0.18130004 0.1336304 0.39235058
0.30188745 0.19663095 -0.045628116 0.028307796 0.017503735 0.14048669 0.1801389 0.07765862
0.34143645 0.23165584 0.17694442 0.12028281 0.08733751 0.04353078 0.14749116 0.41021365
0.18596192 0.14902799 0.039791364 0.2578492 0.0825825 0.33304104 0.17392042 -0.15872598
00000000: 954c 4e3c bdb2 183c 2663 5d3d cb7e 24be
00000010: 85b1 153e c4fc d73d ab2f 4b3e ab87 023e
00000020: 5e9d 7c3e 396c 9b3c ea55 04bd 1faa 303e
00000030: d8b1 0f3b 813a 713e bb62 bd3d 42c6 183d
00000040: 4ac9 86be 23c7 0a3e 7e1c 0d3d e4f7 c6bd
00000050: f9a9 0f3d 6bd7 0cbd 2508 ecbd aaa3 06be
00000060: ef44 083d 8238 6e3c dd56 073e 4e10 d73e
00000070: 7b51 023e 96a2 bbbd c85a 4d3e f798 a8be
00000080: 0264 1d3e 99e4 f5bb 521f d13d 203a 3a3e
00000090: 52ea a13d b638 c93c 6753 663e 3ee1 863e
000000a0: cdc8 d73d c27d f83b 8e68 853d 54c3 6c3e
000000b0: d990 453c 645f 923d 670b 0ebe 5656 a43d
000000c0: 97aa aa3c 59ae de3d fd5b 933e 4e1f b8bd
000000d0: 80ea 4ebb dc7e 64bb c607 9a3d 0243 643e
000000e0: 697b b2bd 7663 e3bd b4cb 7c3d 92a5 743e
000000f0: 3705 623e 7c51 36be 27e2 ad3e 73d8 50be
00000100: 9452 f9bd f17e 893d d9aa 983e b918 b9bd
00000110: 2366 2d3e b5c8 89bc b8cd 7f3e 395a 7cbe
00000120: 4490 2c3e e2f6 583e b024 e33b 34bb 303e
00000130: d040 f3bd 693d 703e 5b98 463e d3d9 9a3d
00000140: 6061 bbbb 2140 88bd c4a1 5dbe 8493 36bc
00000150: ddd5 8dbe dd1d 943d e670 653d 6b82 0fbd
00000160: 0887 b6bc a0d6 413b b2a5 5fbd e4cf 3e3e
00000170: fce5 fdbd f242 2b3e d0d6 d4bd 10ff b73b
00000180: 3a29 babd 9742 7b3e d11e d83d f3e5 943d
00000190: a0d8 8c3e b8a6 393e 68d6 083e 2de2 c83e
000001a0: fe90 9a3e a059 493e 8ce4 3abd c0e5 e73c
000001b0: fe63 8f3c bedb 0f3e 5576 383e 7c0b 9f3d
000001c0: c2d0 ae3e 3037 6d3e eb30 353e d556 f63d
000001d0: 02de b23d 554d 323d ec07 173e 8607 d23e
000001e0: cd6c 3e3e cb9a 183e 45fc 223d cf04 843e
000001f0: 0421 a93d 5b84 aa3e 3218 323e 1089 22be

lstm.ih.rho_bias f4 [128]
-2.3632135 -2.387513 -2.2880547 -2.5209951 -2.8102314 -2.5196557 -2.6533751 -2.5650165
-2.6605492 -2.2865782 -2.6572044 -2.510277 -2.445413 -2.5692875 -2.7790577 -3.0296676
-2.8322363 -2.703624 -2.5606902 -2.8877044 -2.6277542 -2.4819334 -2.6544535 -2.7868211
-2.8019853 -2.5636544 -2.8144226 -2.2250338 -2.6312973 -2.4738257 -2.5897138 -2.5634701
-2.6472604 -2.69566 -2.5843387 -2.857458 -2.930476 -2.6399667 -2.7866845 -2.4098313
-2.4029903 -1.9738817 -2.6700711 -2.450866 -2.707851 -2.4504192 -2.8875854 -2.8490417
-2.7442048 -2.638602 -2.634195 -2.6085637 -2.2542417 -2.7741468 -2.6864042 -2.7319133
-2.9016914 -2.6361198 -2.5395532 -2.6938703 -2.7391517 -2.8594875 -2.6187336 -3.0059285
-2.7529864 -2.8564177 -2.8391976 -3.0455444 -2.8598287 -2.667598 -2.8844278 -2.867285
-3.1536233 -2.7078202 -2.7996967 -2.8826878 -2.9409494 -2.7271204 -3.005682 -2.8653307
-2.773539 -2.9001496 -2.7763388 -2.8957243 -2.769327 -3.018435 -2.902686 -2.8273196
-2.9997277 -2.7600102 -2.8794434 -2.8354008 -3.1659157 -2.8563812 -3.1237981 -2.8330553
-2.6087215 -2.740187 -2.6227548 -2.7656968 -2.723523 -2.3942099 -2.5175602 -2.726545
-2.7214048 -2.438438 -2.1904714 -2.7669249 -2.528816 -2.5952213 -2.406439 -2.4899907
-2.192832 -3.0198932 -2.7736433 -2.353477 -2.8325477 -2.476984 -2.3302143 -2.4696653
-2.4346607 -2.655165 -2.1118462 -2.593441 -2.4936614 -2.6120532 -2.7098935 -2.515073
00000000: e43e 17c0 03cd 18c0 7d6f 12c0 fc57 21c0
00000010: d5da 33c0 0a42 21c0 e6d0 29c0 3b29 24c0
00000020: 7046 2ac0 4c57 12c0 a30f 2ac0 61a8 20c0
00000030: a681 1cc0 356f 24c0 15dc 31c0 13e6 41c0
00000040: 5c43 35c0 2d08 2dc0 59e2 23c0 26d0 38c0
00000050: 202d 28c0 ffd7 1ec0 91e2 29c0 475b 32c0
00000060: ba53 33c0 ea12 24c0 801f 34c0 f466 0ec0
00000070: 2d67 28c0 2953 1ec0 dfbd 25c0 e50f 24c0
00000080: b76c 29c0 b285 2cc0 ce65 25c0 98e0 36c0
00000090: eb8c 3bc0 37f5 28c0 0a59 32c0 ad3a 1ac0
000000a0: 98ca 19c0 28a8 fcbf 72e2 2ac0 fdda 1cc0
000000b0: 6e4d 2dc0 abd3 1cc0 33ce 38c0 b356 36c0
000000c0: 0da1 2fc0 dbde 28c0 a796 28c0 b5f2 26c0
000000d0: 7f45 10c0 9f8b 31c0 0cee 2bc0 abd7 2ec0
000000e0: 50b5 39c0 30b6 28c0 0a88 22c0 5f68 2cc0
000000f0: 434e 2fc0 d801 37c0 5599 27c0 2261 40c0
00000100: ee30 30c0 8ccf 36c0 6ab5 35c0 33ea 42c0
00000110: 6f07 37c0 edb9 2ac0 779a 38c0 9981 37c0
00000120: f7d4 49c0 ed4c 2dc0 3b2e 33c0 f57d 38c0
00000130: 8438 3cc0 2489 2ec0 185d 40c0 9461 37c0
00000140: aa81 31c0 0d9c 39c0 89af 31c0 8c53 39c0
00000150: a73c 31c0 0a2e 41c0 9cc5 39c0 cef2 34c0
00000160: 8afb 3fc0 02a4 30c0 cd48 38c0 3577 35c0
00000170: 5d9e 4ac0 f3ce 36c0 4fec 47c0 c750 35c0
00000180: 4bf5 26c0 395f 2fc0 37db 27c0 2d01 31c0
00000190: 334e 2ec0 bc3a 19c0 b51f 21c0 b77f 2ec0
000001a0: 7f2b 2ec0 5e0f 1cc0 af30 0cc0 4c15 31c0
000001b0: 1fd8 21c0 1b18 26c0 1903 1ac0 025c 1fc0
000001c0: 5c57 0cc0 ee45 41c0 5f83 31c0 5e9f 16c0
000001d0: 7648 35c0 e886 1ec0 3b22 15c0 ff0e 1ec0
000001e0: 7bd1 1bc0 39ee 29c0 7d28 07c0 f0fa 25c0
000001f0: 2698 1fc0 e12b 27c0 e56e 2dc0 f5f6 20c0

lstm.hh.mu_weight f4 [128, 32]
-0.015265593 -0.225099 0.18496954 0.20712781 -0.1827958 -0.12475214 0.35846388 -0.2375404
0.17489658 0.29370344 -0.03744877 0.15421331 -0.119162686 0.037493147 0.12762934 0.12599121
-0.29705706 -0.21756773 -0.15823166 -0.09934828 -0.10908468 -0.023712918 0.35293654 -0.15136409
-0.17311415 -0.20513023 0.18506128 0.11586196 -0.064584434 0.005295807 -0.023154851 0.032093752
0.07515497 0.16444726 -0.0046480536 -0.12711653 0.2751529 -0.26251188 0.13377988 -0.101892106
0.065212905 0.13601957 0.14523391 0.054121956 -0.25104836 0.2474103 0.22989956 0.05799891
0.10610335 -0.09724976 0.017501272 0.066909656 -0.15773429 0.2781869 -0.092856504 0.15495776
-0.02485116 -0.07943915 0.22167939 0.15215105 -0.47946724 -0.15529576 0.11124023 -0.10218314
-0.09647638 0.06347502 0.16596636 -0.08614058 0.16922984 0.14405003 0.20860161 -0.19164103
0.13501288 0.053952634 -0.12370338 0.11555344 -0.08218578 0.12456671 0.25951767 -0.11762269
-0.25715265 -0.094702065 -0.35786963 0.17827237 -0.00942901 0.05125078 -0.17545445 0.22571994
0.07218523 0.032897048 0.027763175 0.013453321 0.25839406 -0.19735064 -0.10143212 -0.03458749
0.78631973 -0.50290346 -0.1469936 0.06678813 0.14154653 -0.27484992 0.14115462 -0.02843301
-0.07733032 0.028056893 0.24270202 0.016857402 -0.018197129 0.24516155 -0.15765087 0.18589534
0.16992211 0.0706947 -0.36531183 -0.022921242 -0.108500116 0.44497782 0.33760038 -0.26524034
-0.19589378 -0.30556968 0.22742501 0.08292861 -0.316638 -0.400782 -0.23682651 -0.06787099
0.13636884 -0.1558261 0.13066791 -0.124290444 0.18319418 -0.0021496837 -0.053162217 -0.21713048
0.07127183 -0.03550522 -0.053219076 -0.04927723 -0.14784634 0.018449033 0.10862184 -0.009945863
0.029332634 -0.24545366 -0.20978071 -0.015523779 -0.18322761 0.053402413 -0.007668651 -0.087801054
-0.09956822 -0.029603109 0.04132434 0.13491563 -0.18366861 -0.08099675 -0.05572177 -0.065026574
-0.16549315 0.08595473 -0.018796219 0.11804829 -0.010412208 -0.13347812 0.29658154 -0.13317914
-0.16852276 0.1155601 0.10388757 -0.03126303 0.004346417 0.26559478 -0.1674532 -0.062575586
0.065550245 -0.05670469 -0.20488946 -0.07073297 -0.118502505 -0.075810716 0.1510215 -0.33586845
0.049352247 -0.15497226 -0.07961957 0.07371064 0.11143725 -0.24928202 0.048004676 -0.014549647
-0.1618046 -0.187756 -0.029659793 -0.21066079 0.22445123 0.068617016 -0.3309124 0.0830825
-0.182788 -0.08373225 0.1313536 -0.109819435 -0.16194028 -0.098027416 0.3096395 -0.060328986
-0.18319005 0.090575516 -0.20376115 0.18318456 -0.035575334 0.29702392 0.05852447 -0.43897855
-0.11086219 0.010562708 0.20226718 -0.14994575 -0.31848454 -0.49381825 -0.20189781 -0.22071077
0.1196833 0.008802938 0.07995462 -0.023979671 -0.0108943265 0.016191924 0.14173457 -0.1396008
0.3085255 0.060808253 -0.21497989 0.21993618 -0.13097914 0.24347977 0.22543861 -0.122834735
0.02234492 -0.121498264 -0.047504935 0.09317393 -0.17973141 -0.014925539 -0.04170885 0.014379696
0.17686571 -0.2377966 0.09473637 0.1513135 0.020269852 0.010851702 -0.012453181 0.099074334
00000000: 8a1c 7abc 5a80 66be a868 3d3e 5019 543e
00000010: d22e 3bbe 0d7e ffbd 9488 b73e ca3d 73be
00000020: 1718 333e 4c60 963e e263 19bd 18ea 1d3e
00000030: 910b f4bd 6a92 193d 44b1 023e d703 013e
00000040: dd17 98be 13ca 5ebe 7b07 22be 1c77 cbbd
00000050: ca67 dfbd 9841 c2bc 19b4 b43e 30ff 1abe
00000060: d644 31be a90d 52be b480 3d3e 0949 ed3d
00000070: d844 84bd 7388 ad3b 3eaf bdbc bd74 033d
00000080: d9ea 993d dd64 283e b34e 98bb d62a 02be
00000090: d7e0 8c3e f567 86be 98fd 083e cfac d0bd
000000a0: 588e 853d b748 0b3e 33b8 143e fcae 5d3d
000000b0: 6989 80be 2059 7d3e ca6a 6b3e 4490 6d3d
000000c0: b74c d93d e22a c7bd d45e 8f3c ee07 893d
000000d0: 1985 21be 836e 8e3e 8d2b bebd 3fad 1e3e
000000e0: a994 cbbc feb0 a2bd ecff 623e 7ccd 1b3e
000000f0: bb7c f5be da05 1fbe ebd1 e33d 6545 d1bd
00000100: 6995 c5bd 31ff 813d 16f3 293e 796a b0bd
00000110: 964a 2d3e da81 133e a99b 553e 8c3d 44be
00000120: d140 0a3e 70fd 5c3d 3358 fdbd 48a7 ec3d
00000130: 0551 a8bd d51c ff3d 80df 843e 2ae4 f0bd
00000140: 83a9 83be 28f3 c1bd b03a b7be 088d 363e
00000150: 227c 1abc 56ec 513d 55aa 33be 2123 673e
00000160: dad5 933d 0ebf 063d 996f e33c 516b 5c3c
00000170: 3a4c 843e 4916 4abe a5bb cfbd 9dab 0dbd
00000180: 404c 493f 48be 00bf 7e85 16be 37c8 883d
00000190: 93f1 103e 21b9 8cbe d68a 103e 58ec e8bc
000001a0: 5c5f 9ebd 92d7 e53c e186 783e 8918 8a3c
000001b0: 2512 95bc a10b 7b3e 3b6f 21be 595b 3e3e
000001c0: 1000 2e3e 62c8 903d 270a bbbe 54c5 bbbc
000001d0: 4f35 debd 22d4 e33e f5d9 ac3e 95cd 87be
000001e0: 6198 48be a173 9cbe 1ae2 683e 7ad6 a93d
000001f0: 601e a2be 4c33 cdbe a682 72be f2ff 8abd
00000200: 46a4 0b3e e190 1fbe cfcd 053e fd8b febd
00000210: 4197 3b3e b5e1 0cbb a0c0 59bd 7457 5ebe
00000220: f7f6 913d ec6d 11bd 3ffc 59bd ecd6 49bd
00000230: 0865 17be 6d22 973c 2175 de3d f9f3 22bc
00000240: fe4a f03c 3458 7bbe c1d0 56be 7357 7ebc
00000250: 05a0 3bbe 7dbc 5a3d 4f49 fbbb 0ad1 b3bd
00000260: 6cea cbbd 3882 f2bc b643 293d 5327 0a3e
00000270: a013 3cbe a0e1 a5bd 833c 64bd a72c 85bd
00000280: 0977 29be 0909 b03d 87fa 99bc 4dc3 f13d
00000290: f797 2abc 7dae 08be 89d9 973e 1d60 08be
000002a0: 3b91 2cbe c6aa ec3d 02c3 d43d aa0d 00bd
000002b0: 636c 8e3b 0afc 873e da78 2bbe a127 80bd
000002c0: 353f 863d 2d43 68bd 8bce 51be 73dc 90bd
000002d0: 71b1 f2bd a642 9bbd 61a5 1a3e f3f6 abbe
000002e0: 9525 4a3d 0cb1 1ebe 960f a3bd 9bf5 963d
000002f0: 3739 e43d c943 7fbe 8da0 443d a561 6ebc
00000300: 1bb0 25be 1c43 40be 18f9 f2bc 76b7 57be
00000310: 8bd6 653e 1487 8c3d 5a6d a9be 2827 aa3d
00000320: c72c 3bbe d07b abbd 8f81 063e 03e9 e0bd
00000330: acd3 25be 99c2 c8bd 1289 9e3e 871b 77bd
00000340: 2c96 3bbe a87f b93d c3a6 50be bc94 3b3e
00000350: 71b7 11bd 8513 983e 5bb7 6f3d ccc1 e0be
00000360: b70b e3bd 350f 2d3c 211f 4f3e 618b 19be
00000370: 6810 a3be bfd5 fcbe 4dbe 4ebe 0102 62be
00000380: 851c f53d 333a 103c 3fbf a33d 0471 c4bc
00000390: 1e7e 32bc eda4 843c de22 113e 83f3 0ebe
000003a0: 0ef7 9d3e 1312 793d b023 5cbe f336 613e
000003b0: 651f 06be c352 793e 61d9 663e c790 fbbd
000003c0: b20c b73c 15d4 f8bd 8994 42bd f9d1 be3d
000003d0: 830b 38be 3f8a 74bc e6d6 2abd d198 6b3c
000003e0: 491c 353e f480 73be 2405 c23d edf1 1a3e
000003f0: f60c a63c 56cb 313c 6d08 4cbc 7ce7 ca3d

lstm.hh.rho_weight f4 [128, 32]
-3.1054745 -2.838171 -3.1650631 -2.8074644 -2.9919486 -3.028703 -2.9566998 -2.9937344
-2.8676286 -2.7959726 -3.010521 -3.0971296 -3.067967 -2.802069 -2.9386244 -3.045867
-2.6529808 -2.964503 -2.861299 -2.8742278 -3.1004112 -2.9511714 -2.8354237 -2.859248
-2.7935348 -2.9147942 -2.7191863 -3.1584985 -2.764097 -2.7483501 -2.8509452 -2.9210699
-2.7319703 -2.939691 -2.8286085 -2.8639207 -2.968396 -3.0222216 -2.7521124 -2.6975887
-2.981685 -2.7816577 -2.8137233 -3.05997 -2.8772027 -2.993271 -2.9376936 -2.8012922
-2.8711293 -2.8036537 -2.884169 -3.1187074 -3.042017 -2.9559639 -2.7666605 -2.9710493
-2.922945 -2.795824 -2.8794446 -3.0012677 -2.9447148 -2.8834047 -2.8620813 -2.8831873
-2.7924972 -2.8095365 -2.9534512 -2.7817483 -3.0852394 -2.9107938 -2.900105 -2.7894948
-2.874983 -2.9734898 -2.9775677 -2.96905 -2.740558 -2.9069614 -3.001771 -2.8946102
-2.968793 -2.960077 -3.1660266 -2.7285385 -2.8104646 -2.9785576 -3.002445 -3.024733
-2.8508952 -2.7854712 -2.7296305 -2.8137882 -2.549746 -3.0849295 -2.8804703 -2.7204676
-2.9001534 -2.9714282 -2.9910138 -2.8562782 -2.782301 -3.0125031 -3.08083 -2.8617904
-2.8063724 -2.974873 -2.8953505 -2.966037 -2.8898828 -2.911192 -2.8819938 -2.751606
-2.7649434 -2.879761 -3.0199995 -2.8248456 -2.8976092 -2.6843045 -2.8625662 -2.9338934
-3.0091345 -2.7789257 -2.8008294 -2.9721565 -3.103071 -2.9326248 -2.8946428 -2.8428397
-2.910401 -2.9825163 -3.0640328 -2.9635074 -2.899291 -2.8167741 -2.9191132 -2.943076
-2.726923 -2.853131 -2.9214306 -2.9802477 -3.3068984 -3.065395 -2.9425268 -2.9266522
-3.0644248 -3.025703 -2.971477 -2.933301 -3.043439 -2.9644012 -3.1306252 -2.9670095
-2.7953439 -2.7617881 -2.9563947 -3.0270467 -3.0510623 -2.7741053 -2.9618573 -2.7808554
-2.9098823 -2.850471 -3.0002973 -3.0490346 -3.0342057 -3.1437721 -2.9121425 -2.8930917
-3.1149511 -2.898491 -2.9446967 -2.9279141 -2.8885045 -2.79846 -2.838672 -2.9570675
-2.9056 -2.778274 -2.87951 -2.8462682 -2.7929318 -2.9809022 -2.925781 -2.8904102
-2.9730916 -3.0016284 -3.1695766 -2.9656608 -3.0740793 -2.9442873 -3.1674993 -2.6888523
-2.9963317 -2.9528363 -2.894464 -3.064573 -2.9783912 -2.8156505 -3.0318365 -3.0000901
-2.8773403 -3.2184265 -3.0317256 -3.02576 -2.9503255 -3.1261778 -2.8194733 -3.0236592
-2.971882 -3.0394683 -3.0198193 -2.9250329 -2.7932127 -2.9816658 -2.897656 -2.9076262
-2.9569411 -3.1260629 -3.0870466 -2.9415026 -3.1338005 -2.994935 -2.9898863 -3.0676699
-2.807237 -2.874468 -2.9210339 -3.033904 -3.0032835 -2.8209743 -2.6714604 -2.8506396
-3.0615978 -2.8574803 -2.7770016 -2.858072 -3.0105476 -2.8190992 -2.7174501 -2.633939
-3.0832686 -2.730625 -2.834579 -2.8664782 -2.7066348 -3.0302255 -2.9606524 -2.7288888
-2.8280737 -2.7172472 -2.9227517 -2.9769404 -2.8490345 -2.7845414 -2.938779 -2.7702487
00000000: 18c0 46c0 98a4 35c0 6590 4ac0 7fad 33c0
00000010: 167c 3fc0 45d6 41c0 923a 3dc0 5899 3fc0
00000020: 3a87 37c0 37f1 32c0 60ac 40c0 5f37 46c0
00000030: 9259 44c0 1955 33c0 6c12 3cc0 7cef 42c0
00000040: 70ca 29c0 6bba 3dc0 861f 37c0 59f3 37c0
00000050: 236d 46c0 fedf 3cc0 9577 35c0 ebfd 36c0
00000060: 46c9 32c0 fd8b 3ac0 2607 2ec0 d724 4ac0
00000070: f7e6 30c0 f8e4 2fc0 e375 36c0 cff2 3ac0
00000080: 9ad8 2ec0 e623 3cc0 ec07 35c0 7a4a 37c0
00000090: 33fa 3dc0 146c 41c0 9c22 30c0 4ba5 2cc0
000000a0: edd3 3ec0 ae06 32c0 0b14 34c0 8cd6 43c0
000000b0: 1724 38c0 c191 3fc0 2c03 3cc0 5f48 33c0
000000c0: 95c0 37c0 106f 33c0 3a96 38c0 e798 47c0
000000d0: 68b0 42c0 832e 3dc0 f710 31c0 ac25 3ec0
000000e0: 8811 3bc0 c8ee 32c0 d248 38c0 c514 40c0
000000f0: 3576 3cc0 b489 38c0 572c 37c0 2486 38c0
00000100: 46b8 32c0 72cf 33c0 5805 3dc0 2a08 32c0
00000110: 9074 45c0 724a 3ac0 529b 39c0 1587 32c0
00000120: b9ff 37c0 a84d 3ec0 7890 3ec0 ea04 3ec0
00000130: 4d65 2fc0 a80b 3ac0 041d 40c0 4b41 39c0
00000140: b400 3ec0 e771 3dc0 2ea0 4ac0 60a0 2ec0
00000150: a7de 33c0 b0a0 3ec0 0f28 40c0 3a95 41c0
00000160: 1175 36c0 2945 32c0 44b2 2ec0 1b15 34c0
00000170: 0a2f 23c0 7c6f 45c0 a059 38c0 241c 2ec0
00000180: 1d9c 39c0 e12b 3ec0 c56c 3fc0 43cd 36c0
00000190: 3811 32c0 dacc 40c0 522c 45c0 9327 37c0
000001a0: 9b9b 33c0 5264 3ec0 6c4d 39c0 8dd3 3dc0
000001b0: d7f3 38c0 f850 3ac0 9672 38c0 501a 30c0
000001c0: d5f4 30c0 014e 38c0 ac47 41c0 45ca 34c0
000001d0: 6e72 39c0 a5cb 2bc0 4934 37c0 e9c4 3bc0
000001e0: a995 40c0 ebd9 31c0 ca40 33c0 d037 3ec0
000001f0: b798 46c0 20b0 3bc0 d441 39c0 16f1 35c0
00000200: 0344 3ac0 8ce1 3ec0 1d19 44c0 1baa 3dc0
00000210: fc8d 39c0 0746 34c0 c0d2 3ac0 5b5b 3cc0
00000220: e885 2ec0 b399 36c0 b8f8 3ac0 61bc 3ec0
00000230: 39a4 53c0 6f2f 44c0 5c52 3cc0 454e 3bc0
00000240: 891f 44c0 1ea5 41c0 ae2c 3ec0 34bb 3bc0
00000250: b4c7 42c0 c0b8 3dc0 2a5c 48c0 7ce3 3dc0
00000260: eae6 32c0 23c1 30c0 9235 3dc0 22bb 41c0
00000270: 9b44 43c0 f18a 31c0 128f 3dc0 89f9 31c0
00000280: 833b 3ac0 1e6e 36c0 df04 40c0 6223 43c0
00000290: 6d30 42c0 9033 49c0 8b60 3ac0 6a28 39c0
000002a0: 5c5b 47c0 e080 39c0 e975 3cc0 f262 3bc0
000002b0: 42dd 38c0 f819 33c0 cdac 35c0 9840 3dc0
000002c0: 5af5 39c0 3ecf 31c0 e449 38c0 4229 36c0
000002d0: 65bf 32c0 1ac7 3ec0 ff3f 3bc0 7bfc 38c0
000002e0: 2247 3ec0 ae1a 40c0 58da 4ac0 63cd 3dc0
000002f0: b7bd 44c0 346f 3cc0 4fb8 4ac0 2816 2cc0
00000300: e6c3 3fc0 45fb 3cc0 e63e 39c0 f721 44c0
00000310: f69d 3ec0 9e33 34c0 9c09 42c0 7a01 40c0
00000320: 5826 38c0 b3fa 4dc0 cb07 42c0 0da6 41c0
00000330: 22d2 3cc0 4c13 48c0 4072 34c0 a283 41c0
00000340: 5133 3ec0 a686 42c0 b844 41c0 bd33 3bc0
00000350: ffc3 32c0 9dd3 3ec0 3273 39c0 8c16 3ac0
00000360: 863e 3dc0 6a11 48c0 2c92 45c0 9441 3cc0
00000370: 3090 48c0 04ad 3fc0 4c5a 3fc0 b454 44c0
00000380: c5a9 33c0 49f7 37c0 38f2 3ac0 7c2b 42c0
00000390: cc35 40c0 d88a 34c0 35f9 2ac0 e170 36c0
000003a0: 38f1 43c0 f5e0 36c0 65ba 31c0 a7ea 36c0
000003b0: d0ac 40c0 1f6c 34c0 b4ea 2dc0 7592 28c0
000003c0: 4654 45c0 8fc2 2ec0 be69 35c0 6174 37c0
000003d0: 8139 2dc0 37ef 41c0 547b 3dc0 1da6 2ec0
000003e0: 29ff 34c0 61e7 2dc0 5d0e 3bc0 3186 3ec0
000003f0: 9556 36c0 ed35 32c0 f514 3cc0 c14b 31c0

lstm.hh.mu_bias f4 [128]
0.25903124 0.12169272 0.091828756 -0.07283748 0.22368884 -0.18334265 -0.09831547 0.2312701
0.21686949 0.1273089 -0.042462405 0.18601377 0.023682162 0.21705203 0.122234285 -0.07833769
-0.098469235 0.3390121 0.15973583 -0.10804303 -0.15392543 0.12699306 0.27243224 -0.20452812
0.1266859 0.0915119 -0.075043395 0.28363037 -0.002616703 -0.048867278 0.38222197 -0.14030911
-0.0041902238 0.014255059 0.046774738 -0.024569552 -0.0840999 -0.03119581 0.25566325 0.39214823
-0.028359858 0.15071641 -0.13913387 0.22122099 0.0399338 0.17132086 -0.06397531 -0.040633198
0.03901799 0.24485643 0.07649944 -0.04000297 0.28499115 0.056044 0.07833138 0.3128025
0.26808286 -0.014262176 0.0828191 0.19206914 0.19901447 -0.09506606 0.153899 0.21475573
0.14734116 -0.11702265 0.25997132 -0.084588796 0.12619112 0.06557417 0.071543604 -0.18987572
0.2278652 0.15609765 -0.029912971 0.057217155 0.0844348 0.15340425 0.15620026 0.2037992
-0.074894376 -0.17717214 -0.17383069 0.054409776 0.03363207 0.08712838 -0.09669332 0.17746063
0.19328998 -0.12461594 0.12004795 0.27263555 -0.096739866 -0.06309219 -0.3022124 -0.09827654
-0.030995011 0.06849605 0.25204593 0.33326533 0.30669054 0.087974496 0.4254353 0.1542544
0.2810778 0.19188121 0.09995013 0.10515848 -0.039251808 0.14862308 0.32035905 0.24135272
0.36180693 0.046145454 0.14090416 0.045039564 0.09527263 0.26683807 0.32172605 0.28334337
0.12038445 0.030900681 0.3319438 0.33286232 0.15319824 0.12550312 0.2684274 -0.053070847
00000000: be9f 843e 083a f93d b710 bc3d d12b 95bd
00000010: b00e 653e 2dbe 3bbe 9f59 c9bd 12d2 6c3e
00000020: 0913 5e3e 445d 023e 0fed 2dbd 657a 3e3e
00000030: 1801 c23c e342 5e3e f855 fa3d 836f a0bd
00000040: 3daa c9bd fe92 ad3e ca91 233e aa45 ddbd
00000050: a19e 1dbe 780a 023e 3d7c 8b3e d26f 51be
00000060: f3b9 013e 976a bb3d 5ab0 99bd 0038 913e
00000070: fe7c 2bbb 0e29 48bd 99b2 c33e 31ad 0fbe
00000080: 254e 89bb 0d8e 693c de96 3f3d 1646 c9bc
00000090: 923c acbd 5b8e ffbc 4be6 823e a7c7 c83e
000000a0: ef52 e8bc 6755 1a3e 1c79 0ebe c187 623e
000000b0: a091 233d bc6e 2f3e 7d05 83bd ff6e 26bd
000000c0: 54d1 1f3d a5bb 7a3e bdab 9c3d 27da 23bd
000000d0: 5cea 913e 658e 653d 346c a03d a627 a03e
000000e0: 2842 893e e7ab 69bc 0f9d a93d c6ad 443e
000000f0: 73ca 4b3e ffb1 c2bd b397 1d3e ede8 5b3e
00000100: 9ae0 163e 92a9 efbd f61a 853e e43c adbd
00000110: 3f38 013e c04b 863d 7485 923d c86e 42be
00000120: 7f55 693e 10d8 1f3e 0c0c f5bc 895c 6a3d
00000130: 27ec ac3d 0116 1d3e f6f2 1f3e bdb0 503e
00000140: 3962 99bd 9d6c 35be ac00 32be c9dc 5e3d
00000150: c8c1 093d 5d70 b23d 2607 c6bd 3db8 353e
00000160: cfed 453e a436 ffbd b3db f53d e396 8b3e
00000170: 8d1f c6bd 7a36 81bd 95bb 9abe 3645 c9bd
00000180: 40e9 fdbc a847 8c3d 2a0c 813e c1a1 aa3e
00000190: 8b06 9d3e f92b b43d a8d2 d93e def4 1d3e
000001a0: 6ee9 8f3e 827c 443e a7b2 cc3d 545d d73d
000001b0: 81c6 20bd a630 183e 1a06 a43e 2b25 773e
000001c0: c23e b93e 0403 3d3d 2e49 103e 687b 383d
000001d0: 4c1e c33d 009f 883e 47b9 a43e 6212 913e
000001e0: 1f8c f63d 6d23 fd3c 8af4 a93e ee6c aa3e
000001f0: 00e0 1c3e e483 003e 516f 893e d160 59bd

lstm.hh.rho_bias f4 [128]
-2.3537276 -2.4206464 -2.5863042 -2.6573873 -2.9100862 -2.5597625 -2.5316105 -2.6204607
-2.5112934 -2.4143054 -2.578263 -2.374503 -2.395938 -2.469989 -2.835583 -2.8563652
-2.7289834 -2.3305345 -2.7123573 -2.5521479 -2.4973147 -2.6097646 -2.6251733 -2.6459239
-2.953509 -2.5282657 -2.4770617 -2.0993693 -2.632871 -2.5767019 -2.4868078 -2.5439613
-2.6053586 -2.7701724 -2.4524572 -2.835097 -2.7347076 -2.8806183 -2.5281203 -2.33728
-2.393129 -2.040447 -2.7829273 -2.4463258 -3.1495237 -2.39328 -2.7951024 -2.679929
-2.7459214 -2.520831 -2.705006 -2.9910536 -2.1397455 -2.6403759 -2.8261259 -2.892332
-2.7391207 -2.7907267 -2.7875025 -2.416487 -2.9435518 -2.5362737 -2.3677883 -2.720539
-2.842359 -2.8499842 -2.6361296 -3.0042326 -3.030143 -2.936424 -2.4690895 -2.822001
-2.9953098 -2.6663218 -2.8910482 -3.1157658 -3.1598747 -2.8328223 -2.8102143 -2.937291
-2.978036 -3.0769904 -3.0194647 -2.926765 -2.902796 -3.0112078 -2.5937288 -3.061333
-2.9103594 -2.696875 -2.7632413 -2.8274646 -2.856683 -2.9625232 -3.1317239 -2.9801595
-2.3546917 -2.4753149 -2.7244508 -2.7214916 -2.6339204 -2.3411348 -2.319831 -2.6891387
-2.5218198 -2.429987 -2.46101 -2.6722558 -2.6056895 -2.6659226 -2.3592074 -2.6262515
-2.2428977 -2.9562342 -2.844683 -2.2091727 -2.6686633 -2.547508 -2.343259 -2.3436744
-2.2291484 -2.5884912 -2.2003787 -2.6504014 -2.7543743 -2.4609792 -2.700611 -2.5555594
00000000: 79a3 16c0 dfeb 1ac0 0286 25c0 a212 2ac0
00000010: da3e 3ac0 26d3 23c0 e805 22c0 a1b5 27c0
00000020: 08b9 20c0 fb83 1ac0 4302 25c0 dbf7 17c0
00000030: 0c57 19c0 4d14 1ec0 317a 35c0 b0ce 36c0
00000040: aaa7 2ec0 7a27 15c0 4397 2dc0 6456 23c0
00000050: 01d4 1fc0 6206 27c0 d702 28c0 d156 29c0
00000060: 4b06 3dc0 1bcf 21c0 2e88 1ec0 115c 06c0
00000070: f580 28c0 afe8 24c0 dc27 1fc0 43d0 22c0
00000080: 32be 26c0 814a 31c0 0ff5 1cc0 3b72 35c0
00000090: 7305 2fc0 0d5c 38c0 b9cc 21c0 ff95 15c0
000000a0: 0729 19c0 af96 02c0 7b1b 32c0 9a90 1cc0
000000b0: cc91 49c0 802b 19c0 f5e2 32c0 f583 2bc0
000000c0: 2dbd 2fc0 4c55 21c0 d11e 2dc0 6c6d 3fc0
000000d0: 97f1 08c0 ebfb 28c0 3fdf 34c0 f81b 39c0
000000e0: c14d 2fc0 449b 32c0 7166 32c0 b9a7 1ac0
000000f0: 2763 3cc0 4f52 22c0 d889 17c0 501d 2ec0
00000100: 36e9 35c0 2466 36c0 59b6 28c0 5945 40c0
00000110: dded 41c0 5fee 3bc0 9005 1ec0 aa9b 34c0
00000120: 28b3 3fc0 04a5 2ac0 ef06 39c0 b568 47c0
00000130: 633b 4ac0 f64c 35c0 8dda 33c0 93fc 3bc0
00000140: 2498 3ec0 69ed 44c0 e93e 41c0 1e50 3bc0
00000150: 69c7 39c0 a1b7 40c0 a7ff 25c0 e1ec 43c0
00000160: 5443 3ac0 9a99 2cc0 f2d8 30c0 2ef5 34c0
00000170: e5d3 36c0 fb99 3dc0 2a6e 48c0 efba 3ec0
00000180: 45b3 16c0 8f6b 1ec0 675d 2ec0 eb2c 2ec0
00000190: 2792 28c0 27d5 15c0 1c78 14c0 d91a 2cc0
000001a0: 7f65 21c0 e884 1bc0 3081 1dc0 3d06 2bc0
000001b0: 9ec3 26c0 7a9e 2ac0 41fd 16c0 8114 28c0
000001c0: a38b 0fc0 f132 3dc0 490f 36c0 1663 0dc0
000001d0: 61cb 2ac0 5f0a 23c0 f5f7 15c0 c3fe 15c0
000001e0: 5eaa 0ec0 d7a9 25c0 01d3 0cc0 2da0 29c0
000001f0: ab47 30c0 af80 1dc0 d0d6 2cc0 498e 23c0

l1.mu_weight f4 [16, 32]
-0.16094778 0.39061946 -0.47521326 0.5306975 -0.565587 0.45048195 -0.4839428 0.41014612
-0.4825367 -0.35575822 -0.45425132 -0.5750257 0.5293522 -0.44298604 -0.3377507 -0.42759034
0.16960067 0.5712833 0.5315731 -0.37755674 0.61108696 -0.5500569 -0.3467404 0.19738515
0.7407049 0.37651145 -0.44912374 -0.5470394 0.25041172 0.5515123 0.53581524 0.6871391
0.30298445 -0.43236992 0.47073478 -0.4728307 0.43791598 -0.5536905 0.3417448 -0.32570603
0.598238 0.3595841 0.48704678 0.4759992 -0.31036085 0.5342792 0.4328921 0.47693223
-0.14330652 -0.5187314 -0.4137575 0.4809556 -0.34103608 0.43097103 0.45996878 -0.38617432
-0.5349188 -0.45089892 0.5288502 0.3526347 -0.39822134 -0.65656745 -0.5188201 -0.50108135
0.41117752 -0.24688157 0.50300545 -0.48922628 0.5268866 -0.34529388 0.34388402 -0.46839765
0.40953234 0.43696547 0.30808267 0.37032792 -0.6182571 0.65277636 0.5898832 0.42028928
-0.25275102 -0.4616407 -0.5098628 0.42742193 -0.6225299 0.5312095 0.37960723 0.013570998
-0.66669184 -0.5972904 0.5817788 0.44485757 -0.4965212 -0.56371635 -0.51376975 -0.57642525
0.21680552 -0.5712271 0.19597946 -0.3660512 0.44873035 -0.5113973 0.23252553 -0.50140566
0.5645228 0.22676213 0.26056495 0.42719403 -0.50555015 0.4380843 0.39032203 0.5001327
-0.21579427 -0.5323303 -0.5096793 0.45961657 -0.41955525 0.548461 0.3565451 -0.2653258
-0.5002748 -0.38487437 0.44049788 0.6543734 -0.33531958 -0.62059975 -0.39375356 -0.5397953
0.08892294 -0.60355705 0.46224526 -0.6138523 0.5177798 -0.32687002 0.324687 -0.51680696
0.24764176 0.67216194 0.40690237 0.4436714 -0.51386124 0.32251334 0.38683787 0.41374165
-0.2921065 -0.5031946 -0.30697802 0.6070212 -0.46890268 0.55744463 0.5277946 -0.120973065
-0.47340336 -0.4466887 0.5198391 0.5013573 -0.5761258 -0.28937876 -0.6022883 -0.3567212
0.28493506 -0.43498623 0.6122281 -0.4757812 0.5266313 -0.43100908 0.39509857 -0.43638715
0.44486082 0.42740786 0.3503572 0.39709875 -0.4571818 0.59133834 0.573686 0.46828586
-0.059818283 -0.5014688 -0.62218267 0.37735376 -0.26384544 0.6883583 0.5341994 -0.43861833
-0.62055624 -0.4994785 0.39369887 0.50951517 -0.58833444 -0.4879192 -0.64781636 -0.41582626
0.25602227 -0.44699317 0.39329723 -0.5162161 0.43776265 -0.22092475 0.4890913 -0.43434834
0.33527482 0.48588377 0.4983868 0.5439261 -0.52548087 0.41041327 0.54413277 0.39905503
-0.28621 -0.33803686 -0.48794013 0.2978539 -0.5960113 0.3710619 0.39493507 -0.37744242
-0.435115 -0.45738736 0.41346353 0.35417995 -0.4042323 -0.471226 -0.5848008 -0.46034157
0.33865264 -0.2820006 0.659923 -0.41855007 0.53845555 -0.37081587 0.37552434 -0.46254557
0.36664832 0.5748671 0.4506492 0.48307374 -0.462748 0.3012377 0.46792865 0.47754565
-0.3637344 -0.47100514 -0.5508299 0.449841 -0.5306067 0.49672753 0.29386252 -0.21535882
-0.60683966 -0.36851546 0.51914495 0.44880378 -0.50173694 -0.55096155 -0.69629467 -0.42710292
00000000: 7fcf 24be 46ff c73e 274f f3be cbdb 073f
00000010: 4fca 10bf 92a5 e63e 5ac7 f7be acfe d13e
00000020: 0d0f f7be f125 b6be a193 e8be e234 13bf
00000030: a083 073f 11cf e2be a9ed acbe 1fed dabe
00000040: ccab 2d3e 9f3f 123f 2d15 083f 1e4f c1be
00000050: 3270 1c3f 87d0 0cbf f587 b1be 551f 4a3e
00000060: d69e 3d3f 1cc6 c03e 8cf3 e5be c60a 0cbf
00000070: f735 803e e92f 0d3f 302b 093f 59e8 2f3f
00000080: c720 9b3e 975f ddbe 2604 f13e de16 f2be
00000090: 8636 e03e a9be 0dbf 2df9 ae3e f1c2 a6be
000000a0: 2026 193f 681b b83e 325e f93e 2bb6 f33e
000000b0: 9ee7 9ebe 86c6 083f 09a4 dd3e 7630 f43e
000000c0: f2be 12be 95cb 04bf 06d8 d3be d03f f63e
000000d0: 489c aebe 3ca8 dc3e 0781 eb3e a4b8 c5be
000000e0: 70f0 08bf 39dc e6be ba62 073f 898c b43e
000000f0: abe3 cbbe ce14 28bf 65d1 04bf de46 00bf
00000100: dc85 d23e 86ce 7cbe f7c4 003f de7b fabe
00000110: 0ae2 063f 5cca b0be 9111 b03e d1d1 efbe
00000120: 39ae d13e f0b9 df3e 03bd 9d3e 9f9b bd3e
00000130: 1946 1ebf 5a1c 273f 9602 173f 2830 d73e
00000140: 9568 81be 2b5c ecbe 5e86 02bf 0cd7 da3e
00000150: 1f5e 1fbf 59fd 073f e15b c23e e458 5e3c
00000160: 51ac 2abf 06e8 18bf 75ef 143f 5fc4 e33e
00000170: 0738 febe b74f 10bf 6a86 03bf 9b90 13bf
00000180: 4402 5e3e f03b 12bf d7ae 483e 106b bbbe
00000190: fcbf e53e efea 02bf 2c1b 6e3e 1f5c 00bf
000001a0: 9184 103f 5534 683e c568 853e 2db9 da3e
000001b0: bc6b 01bf 964c e03e 4ad8 c73e b208 003f
000001c0: 2cf9 5cbe cc46 08bf 587a 02bf dd52 eb3e
000001d0: f2cf d6be f167 0c3f 148d b63e c9d8 87be
000001e0: 0212 00bf 410e c5be f088 e13e 0485 273f
000001f0: 02af abbe a0df 1ebf 119a c9be 0630 0abf
00000200: 3b1d b63d b782 1abf 69ab ec3e 6d25 1dbf
00000210: 388d 043f 825b a7be 603d a63e 764d 04bf
00000220: cd95 7d3e ce12 2c3f 8255 d03e e628 e33e
00000230: 698c 03bf 7820 a53e 9d0f c63e f2d5 d33e
00000240: fc8e 95be 5cd1 00bf 392c 9dbe be65 1b3f
00000250: 0314 f0be b1b4 0e3f 8c1d 073f bac0 f7bd
00000260: ed61 f2be 62b4 e4be 2d14 053f f458 003f
00000270: fb7c 13bf 7429 94be 912f 1abf 29a4 b6be
00000280: 02e3 913e 84b6 debe fbba 1c3f 9899 f3be
00000290: 4fd1 063f 39ad dcbe 5c4a ca3e 236e dfbe
000002a0: ccc4 e33e 34d5 da3e 0562 b33e 8750 cb3e
000002b0: bc13 eabe f361 173f 16dd 123f 2ac3 ef3e
000002c0: 0404 75bd 4260 00bf 5d47 1fbf 8334 c13e
000002d0: c016 87be 4038 303f 4bc1 083f 9592 e0be
000002e0: c6dc 1ebf a5bb ffbe e692 c93e 966f 023f
000002f0: 169d 16bf 8cd0 f9be 4bd7 25bf 2ee7 d4be
00000300: 5a15 833e 4adc e4be 415e c93e bd26 04bf
00000310: 6d22 e03e 193a 62be 2d6a fa3e e862 debe
00000320: 24a9 ab3e c2c5 f83e 8e2c ff3e be3e 0b3f
00000330: ea85 06bf b021 d23e 494c 0b3f f150 cc3e
00000340: 1e8a 92be 2b13 adbe 4ad3 f9be 4e80 983e
00000350: 3294 18bf d3fb bd3e ee34 ca3e 2240 c1be
00000360: 65c7 debe ad2e eabe 7eb1 d33e 1357 b53e
00000370: 89f7 cebe 8944 f1be 81b5 15bf e4b1 ebbe
00000380: e163 ad3e 6262 90be b7f0 283f 324c d6be
00000390: 39d8 093f 94db bdbe ba44 c03e c6d2 ecbe
000003a0: 54b9 bb3e 7e2a 133f 7ebb e63e 7155 f73e
000003b0: 4eed ecbe d43b 9a3e 5894 ef3e dd80 f43e
000003c0: 653b babe 9627 f1be 3003 0dbf 8f51 e63e
000003d0: d7d5 07bf 1253 fe3e 2675 963e 0687 5cbe
000003e0: d859 1bbf 0fae bcbe afe6 043f 9cc9 e53e
000003f0: d571 00bf d10b 0dbf 5e40 32bf 3cad dabe

l1.rho_weight f4 [16, 32]
-2.95668 -2.9141145 -3.226938 -2.9558177 -2.8940544 -2.9719567 -3.1482465 -2.831226
-2.9162886 -2.9903061 -2.9167728 -3.11913 -2.9892838 -2.9552248 -3.111955 -3.0887938
-3.03054 -3.1031873 -3.1860218 -2.9417639 -2.9683588 -3.0084705 -2.92694 -2.9416394
-2.8997018 -2.9718301 -2.8583164 -2.853056 -2.9950647 -2.9836366 -3.0725021 -3.0563352
-2.841907 -2.9389722 -2.8157933 -2.9212444 -2.9393356 -2.9325411 -2.9234238 -2.842508
-2.950743 -2.8084304 -2.9366171 -2.912375 -3.0605354 -2.967491 -2.8810897 -2.6690238
-3.1198146 -2.9294176 -2.99863 -3.0424767 -3.0989845 -2.9682796 -2.8411875 -3.1116917
-3.1590772 -3.0183077 -2.9138982 -2.7316823 -3.055307 -2.9961932 -3.0045373 -3.000258
-3.1423645 -2.9527571 -3.2191052 -2.9795625 -3.0421271 -2.908282 -3.1957245 -2.9726117
-3.00556 -3.0495265 -2.8516111 -2.8882868 -2.8951666 -3.050546 -3.152617 -2.8783243
-3.0012918 -2.9171717 -2.8173487 -2.9159377 -2.9700837 -2.9820178 -2.9178195 -3.1180048
-2.794621 -3.1671104 -2.9839418 -3.0573125 -2.9575045 -2.9421031 -3.0211205 -2.8750885
-2.940797 -3.1762478 -3.004631 -2.9686463 -2.9160895 -3.0863733 -2.8639 -3.0519786
-2.9665365 -2.9756844 -2.9701607 -3.103524 -2.9871254 -3.090607 -2.988308 -2.9460683
-2.882269 -2.8328161 -3.1739829 -2.7705255 -2.9096322 -3.0270963 -3.0894384 -3.0997908
-3.035211 -3.0605214 -3.1165624 -2.8487573 -3.0440848 -3.0269327 -3.0677543 -3.0130706
-2.8536475 -3.064421 -2.963174 -2.8939621 -3.1338413 -2.9965844 -3.0103252 -2.751118
-2.9266632 -2.820772 -2.899611 -2.979712 -2.9252253 -2.9030612 -2.9379733 -3.1006978
-3.128467 -2.9539926 -2.9530237 -2.968094 -2.9015164 -2.9178703 -3.2162669 -2.8651092
-2.9038622 -2.8319502 -2.9595113 -2.9567616 -2.8794942 -3.1187963 -3.0184112 -2.7313268
-2.9765565 -3.112968 -2.8797553 -2.978447 -3.0978131 -2.80236 -2.9378374 -2.9331071
-3.0915616 -3.0659227 -3.049243 -3.0305507 -2.8967211 -2.902204 -2.8905253 -2.9645388
-2.8925736 -2.7699614 -3.0011978 -3.1957345 -3.0842998 -3.2331977 -3.169079 -2.840007
-2.945001 -3.030835 -3.245642 -2.9870746 -2.8513386 -2.9735425 -2.8966634 -2.784896
-3.1717424 -3.0621526 -3.0862615 -2.9871788 -3.2131398 -3.016316 -3.0494826 -2.972995
-3.032299 -3.015377 -2.959771 -3.0189435 -2.9448774 -3.028608 -3.1550682 -2.8918793
-2.967026 -3.0243163 -2.8229387 -3.0713472 -3.0951276 -2.8926485 -3.0882487 -2.9237494
-3.1735897 -2.840446 -3.1070683 -2.871928 -2.949557 -3.0168674 -3.0048623 -3.0321746
-3.0909626 -3.152453 -2.9616067 -2.9824138 -2.946178 -3.1981688 -2.8377774 -2.9875603
-2.9160903 -2.7716978 -2.8164055 -3.127145 -3.0028844 -2.912649 -3.0233388 -3.1038148
-2.8916678 -3.0750978 -2.9897878 -2.8843074 -3.012818 -3.0499806 -2.8864236 -2.9964464
-2.9024193 -2.9653804 -3.059362 -3.0229902 -2.7952104 -2.8264341 -3.2082236 -2.9936614
00000000: 3f3a 3dc0 da80 3ac0 2786 4ec0 1e2c 3dc0
00000010: 3038 39c0 8a34 3ec0 df7c 49c0 cf32 35c0
00000020: 79a4 3ac0 2d61 3fc0 68ac 3ac0 d39f 47c0
00000030: 6d50 3fc0 6722 3dc0 452a 47c0 ccae 45c0
00000040: 5ef4 41c0 9f9a 46c0 c8e7 4bc0 dc45 3cc0
00000050: 97f9 3dc0 c88a 40c0 fc52 3bc0 d243 3cc0
00000060: b794 39c0 7732 3ec0 a8ee 36c0 7898 36c0
00000070: 24af 3fc0 e7f3 3ec0 e0a3 44c0 ff9a 43c0
00000080: cee1 35c0 1f18 3cc0 f535 34c0 abf5 3ac0
00000090: 131e 3cc0 c1ae 3bc0 6019 3bc0 a7eb 35c0
000000a0: f9d8 3cc0 53bd 33c0 89f1 3bc0 5a64 3ac0
000000b0: d0df 43c0 5feb 3dc0 c663 38c0 49d1 2ac0
000000c0: 0bab 47c0 947b 3bc0 8ee9 3fc0 f0b7 42c0
000000d0: c355 46c0 4bf8 3dc0 04d6 35c0 f525 47c0
000000e0: 522e 4ac0 f42b 41c0 4f7d 3ac0 e2d3 2ec0
000000f0: 268a 43c0 a1c1 3fc0 574a 40c0 3a04 40c0
00000100: 801c 49c0 f9f9 3cc0 d205 4ec0 27b1 3ec0
00000110: 36b2 42c0 4b21 3ac0 c086 4cc0 453f 3ec0
00000120: 185b 40c0 712b 43c0 cc80 36c0 b1d9 38c0
00000130: 694a 39c0 253c 43c0 7ac4 49c0 7736 38c0
00000140: 2a15 40c0 f1b2 3ac0 714f 34c0 b99e 3ac0
00000150: da15 3ec0 61d9 3ec0 8ebd 3ac0 648d 47c0
00000160: 12db 32c0 f0b1 4ac0 e7f8 3ec0 02ab 43c0
00000170: c147 3dc0 6b4b 3cc0 0a5a 41c0 7301 38c0
00000180: 0536 3cc0 a547 4bc0 e04b 40c0 4dfe 3dc0
00000190: 36a1 3ac0 2487 45c0 234a 37c0 9e53 43c0
000001a0: bcdb 3dc0 9d71 3ec0 1d17 3ec0 23a0 46c0
000001b0: 102d 3fc0 81cc 45c0 7040 3fc0 628c 3cc0
000001c0: 1877 38c0 dc4c 35c0 8922 4bc0 4a50 31c0
000001d0: 6a37 3ac0 f2bb 41c0 5cb9 45c0 f962 46c0
000001e0: e640 42c0 95df 43c0 c275 47c0 0a52 36c0
000001f0: 49d2 42c0 44b9 41c0 1656 44c0 26d6 40c0
00000200: 29a2 36c0 791f 44c0 a5a4 3dc0 ad36 39c0
00000210: db90 48c0 0ac8 3fc0 2ba9 40c0 5112 30c0
00000220: 734e 3bc0 8787 34c0 3a93 39c0 9ab3 3ec0
00000230: e436 3bc0 c1cb 39c0 c107 3cc0 d571 46c0
00000240: ce38 48c0 370e 3dc0 57fe 3cc0 41f5 3dc0
00000250: 72b2 39c0 63be 3ac0 51d7 4dc0 f35d 37c0
00000260: e1d8 39c0 ac3e 35c0 a268 3dc0 953b 3dc0
00000270: a249 38c0 5c9a 47c0 a62d 41c0 0fce 2ec0
00000280: e77f 3ec0 de3a 47c0 e94d 38c0 e09e 3ec0
00000290: 9242 46c0 de59 33c0 8705 3cc0 07b8 3bc0
000002a0: 25dc 45c0 1438 44c0 cc26 43c0 8bf4 41c0
000002b0: e163 39c0 b6bd 39c0 5efe 38c0 01bb 3dc0
000002c0: ed1f 39c0 0c47 31c0 a013 40c0 ea86 4cc0
000002d0: 2b65 45c0 b6ec 4ec0 31d2 4ac0 adc2 35c0
000002e0: e57a 3cc0 33f9 41c0 99b8 4fc0 3b2c 3fc0
000002f0: 557c 36c0 854e 3ec0 ef62 39c0 bc3b 32c0
00000300: d4fd 4ac0 4ffa 43c0 4f85 45c0 f02d 3fc0
00000310: 15a4 4dc0 520b 41c0 b92a 43c0 8d45 3ec0
00000320: 3011 42c0 f0fb 40c0 e36c 3dc0 5f36 41c0
00000330: df78 3cc0 b7d4 41c0 a3ec 49c0 8d14 39c0
00000340: c1e3 3dc0 668e 41c0 07ab 34c0 f490 44c0
00000350: 9216 46c0 2721 39c0 dea5 45c0 b61e 3bc0
00000360: 181c 4bc0 dec9 35c0 35da 46c0 abcd 37c0
00000370: 8bc5 3cc0 5b14 41c0 aa4f 40c0 260f 42c0
00000380: 55d2 45c0 cac1 49c0 f78a 3dc0 dedf 3ec0
00000390: 2e8e 3cc0 ccae 4cc0 259e 35c0 3034 3fc0
000003a0: 39a1 3ac0 7f63 31c0 fd3f 34c0 2523 48c0
000003b0: 422f 40c0 d768 3ac0 627e 41c0 e7a4 46c0
000003c0: 1611 39c0 67ce 44c0 af58 3fc0 7e98 38c0
000003d0: 03d2 40c0 e232 43c0 2abb 38c0 c7c5 3fc0
000003e0: 3dc1 39c0 cbc8 3dc0 96cc 43c0 ac78 41c0
000003f0: bae4 32c0 4ce4 34c0 8953 4dc0 2698 3fc0

l1.mu_bias f4 [16]
-0.53286475 0.47564685 0.45287085 0.57398444 0.41444993 0.33354008 0.5301516 0.4327227
0.43183973 -0.46375737 -0.3916279 -0.46174532 0.26903835 0.55027115 0.5249699 -0.4795798
00000000: d369 08bf fc87 f33e b0de e73e a5f0 123f
00000010: c832 d43e c4c5 aa3e 04b8 073f d48d dd3e
00000020: 191a dd3e 9b71 edbe 7483 c8be e269 ecbe
00000030: 65bf 893e 92de 0c3f 6d64 063f 7c8b f5be

l1.rho_bias f4 [16]
-2.555338 -2.6758587 -2.8275373 -2.8670242 -2.9614906 -2.8803267 -2.730388 -2.7268844
-2.6701503 -2.729327 -2.6434531 -2.786631 -2.755416 -2.6753688 -2.8391674 -2.6962159
00000000: a88a 23c0 4541 2bc0 5ff6 34c0 537d 37c0
00000010: 1089 3dc0 4657 38c0 adbe 2ec0 4685 2ec0
00000020: bee3 2ac0 4bad 2ec0 562e 29c0 2a58 32c0
00000030: bc58 30c0 3e39 2bc0 ebb4 35c0 cd8e 2cc0

l2.mu_weight f4 [1, 16]
-0.5232372 0.62254494 0.52868444 0.60555965 0.58553296 0.5418015 0.6595646 0.5498848
0.5382 -0.5476813 -0.5386007 -0.5947302 0.58273005 0.532428 0.5620531 -0.59721214
00000000: e0f2 05bf 1b5f 1f3f dd57 073f f505 1b3f
00000010: 7de5 153f 81b3 0a3f 3ad9 283f 40c5 0c3f
00000020: 7ac7 093f d734 0cbf bce1 09bf 3d40 18bf
00000030: cc2d 153f 344d 083f b6e2 0f3f e5e2 18bf

l2.rho_weight f4 [1, 16]
-3.132211 -3.1430202 -2.9305909 -3.1795995 -3.1419272 -2.9267747 -3.003745 -3.2014418
-3.2573636 -3.0538666 -2.9593139 -3.1978471 -3.1871524 -3.0596042 -3.0259612 -3.114163
00000000: 2576 48c0 3e27 49c0 cd8e 3bc0 8f7e 4bc0
00000010: 5615 49c0 4750 3bc0 5c3d 40c0 6ce4 4cc0
00000020: a578 50c0 8d72 43c0 6665 3dc0 87a9 4cc0
00000030: 4efa 4bc0 8ed0 43c0 59a9 41c0 724e 47c0
