BNN/model_states/BNN_model_state_FD001_denoised_CF.pt (torch, 57845 bytes, 14 tensors)

lstm.ih.mu_weight f4 [128, 14]
0	0x3e99fd7e	0.30076212
1	0x3e839d6c	0.2570604
2	0x3e501588	0.20320714
3	0xbea6b76e	-0.3256182
4	0x3e2c88be	0.16849038
5	0xbea491ce	-0.3214249
6	0x3df574db	0.11985179
7	0xbe4dc3b8	-0.20094192
8	0xbd5d34b4	-0.05400534
9	0x3e0feac0	0.14054394
10	0x3c997df8	0.018736824
11	0xbdd95dbb	-0.10613581
12	0xbdfe6b36	-0.124227926
13	0xbdbb3846	-0.09141593
14	0xbd0bdd03	-0.03414632
15	0x3dca2881	0.09871007
16	0x3e60783f	0.2192087
17	0xbd066df1	-0.032819692
18	0xbd3744e9	-0.044743452
19	0xbe4a5c05	-0.19761665
20	0xbd2dea15	-0.042459566
21	0x3d8e2a9b	0.0694172
22	0x3d310583	0.043218147
23	0x3cd8898f	0.02643278
24	0x3e251dac	0.161246
25	0x3e0a0f15	0.13482316
26	0x3d8695e6	0.065715596
27	0x3ddd16b4	0.10795346
28	0x3ceb7091	0.0287402
29	0x3d324066	0.043518446
30	0x3ca5ccda	0.020239282
31	0x3d9d2171	0.07672394
32	0xbe181896	-0.14853129
33	0xbd2abf19	-0.04168615
34	0x3c8ff38b	0.017572185
35	0x3e166a44	0.14688975
36	0x3d590eba	0.05299256
37	0xbd6835a7	-0.05669179
38	0x3d5aa60f	0.053381022
39	0xbd46f4e1	-0.04857338
40	0xbe2efc17	-0.17088352
41	0x3d8860c6	0.06659083
42	0xbe0c3552	-0.13692215
43	0xbe0748d6	-0.13211378
44	0xbdfd06fe	-0.12354849
45	0x3e762e0b	0.24041001
46	0xbe001843	-0.12509255
47	0xbdba775c	-0.09104797
48	0xbe2c3b4c	-0.16819495
49	0xbd4c1d13	-0.049832415
50	0xbd912f96	-0.070891544
51	0x3e3fc548	0.187276
52	0xbd0b15b5	-0.03395625
53	0x3e2b74e4	0.16743809
54	0xbd49cc22	-0.04926694
55	0xbd731d6f	-0.059354242
56	0xbd1b4dbf	-0.03791594
57	0x3dbebcce	0.093133554
58	0x3d419490	0.04726082
59	0x3d2a19d2	0.04152853
60	0xbc3e9c0c	-0.011633884
61	0x3e0a9d67	0.13536607
62	0xbd913b3d	-0.07091377
63	0x3e0621c1	0.13098814
64	0x3e8802a9	0.2656453
65	0x3ca6b6f7	0.020350916
66	0x3e5dae1a	0.21648446
67	0x3d938e6a	0.07204898
68	0x3b953a25	0.0045540505
69	0xbd7e47de	-0.062080257
70	0xbe8fa297	-0.28053734
71	0xbd52d36f	-0.05147117
72	0xbe820db5	-0.25401083
73	0x3e9bfc66	0.30466002
74	0xbe768eac	-0.24077863
75	0x3e736ca8	0.23771918
76	0xbddc60e8	-0.10760671
77	0xbcad90da	-0.021187235
78	0xbf008df0	-0.5021658
79	0x3d741fba	0.05960057
80	0xbe40e60d	-0.18837757
81	0xbde4a2cb	-0.11163863
82	0x3cd0a2e6	0.025468301
83	0x3e0ed4a5	0.13948305
84	0x3e01d0be	0.12677285
85	0x3e050f47	0.12994109
86	0x3e4c7b16	0.19968829
87	0xbdd0684e	-0.101761445
88	0x3ddedec7	0.10882335
89	0xbe9ce329	-0.3064206
90	0xbd88f406	-0.06687169
91	0x3d895cb3	0.06707134
92	0xbe31c179	-0.1735896
93	0xbe5b1c50	-0.21397519
94	0x3e50f93f	0.2040758
95	0xbb8007ab	-0.003907164
96	0xbe6a9f2d	-0.22912283
97	0x3cc17fdd	0.02362054
98	0x3daf62b5	0.08563749
99	0x3d311a20	0.043237805
100	0x3ddae634	0.10688439
101	0x3b45bfc2	0.003017411
102	0x3e003e98	0.12523878
103	0xbe4f4440	-0.20240879
104	0xb853fc30	-5.0541188e-05
105	0x3e23ce39	0.15996636
106	0x3d8a9965	0.06767539
107	0xbd4b403d	-0.04962181
108	0x3cd258b3	0.02567706
109	0x3d94bdfc	0.07262799
110	0xbc0bf49f	-0.008542209
111	0xbd0ac70e	-0.03388124
112	0xbe566019	-0.20935096
113	0xbd83f662	-0.06443478
114	0xbdbe2517	-0.09284418
115	0x3e022c2c	0.12712163
116	0xb768f638	-1.3885605e-05
117	0x398664a4	0.00025633455
118	0xbdc9769e	-0.098370776
119	0x3dfbe762	0.12299992
120	0xbcd757ec	-0.026287042
121	0x3d9399df	0.07207083
122	0xbd8c2c50	-0.068443894
123	0xbc3661ab	-0.011131684
124	0x3e456738	0.19277656
125	0x3deb8afd	0.11501119
126	0x3d9ddae1	0.077077635
127	0x3d942606	0.07233815
128	0x3e2ee935	0.17081149
129	0x3e3da681	0.18520547
130	0xbe5c54e0	-0.21516752
131	0xbd6e3f85	-0.058166046
132	0xbc7962a0	-0.015221268
133	0x3e42c487	0.19020282
134	0x3ca99df5	0.020705203
135	0x3e1c740a	0.1527864
136	0x3d83346d	0.06406484
137	0x3bee49b1	0.0072719683
138	0xbe35a731	-0.1773956
139	0x3e0741ff	0.1320877
140	0xbe22feb8	-0.1591748
141	0xbdb1ab59	-0.0867526
142	0xbe7b43e5	-0.24537618
143	0x3e558aad	0.20853682
144	0xbea3a8cb	-0.31964716
145	0x3dedb52e	0.11606823
146	0xbc9697b7	-0.01838289
147	0x3e86d1d5	0.26331964
148	0xbe3f1ee1	-0.18664123
149	0xbda7e528	-0.08198005
150	0xbe349e2d	-0.17638464
151	0xbda42cca	-0.08016355
152	0x3e41f814	0.1894229
153	0x3e84c448	0.25931
154	0xbeaaeda8	-0.33384442
155	0xbde5ee09	-0.11227042
156	0xbee748da	-0.4517277
157	0x3e536ec7	0.20647727
158	0xbe812534	-0.25223696
159	0x3dec76e4	0.11546114
160	0xbedb764c	-0.4286369
161	0x3e678e04	0.22612768
162	0xbe143278	-0.14472377
163	0xbd370126	-0.04467883
164	0xbe42d82b	-0.19027774
165	0xbe7b188e	-0.24521086
166	0x3e8030a1	0.250371
167	0x3dd144c5	0.10218195
168	0xbeb8560d	-0.36003152
169	0xbdcaee99	-0.0990879
170	0xbdac601a	-0.084167674
171	0x3e3e0a82	0.18558696
172	0xbeb56a18	-0.35432506
173	0x3e03a019	0.12854041
174	0xbe3b876b	-0.18313377
175	0x3ec503dc	0.38479507
176	0xbde6ab8a	-0.11263187
177	0xbd0c9434	-0.034321025
178	0xbe91bd45	-0.28464714
179	0xbe25baba	-0.16184512
180	0x3e20eeaa	0.15716043
181	0x3d01722d	0.031603027
182	0xbeb49d46	-0.3527624
183	0xbe8d1e3e	-0.27562135
184	0xbe4608c2	-0.19339278
185	0x3cd7b88e	0.02633312
186	0xbe7b5ac8	-0.24546349
187	0x3d2a663e	0.041601412
188	0xbd813f63	-0.06310918
189	0x3d603bc0	0.054744482
190	0x3d3a2b3d	0.04545139
191	0x3dbd7b1f	0.09251999
192	0x3c64b9ff	0.013960361
193	0xbe437a8f	-0.19089721
194	0x3e86245d	0.26199618
195	0x3de4919e	0.11160587
196	0xbe704327	-0.23463117
197	0xbd4e15ac	-0.050313637
198	0xbd41ec48	-0.047344476
199	0x3e631c4f	0.22178768
200	0x3dc1d01b	0.09463521
201	0x3e161b91	0.14658953
202	0xbe0b4adf	-0.1360278
203	0x3bf25484	0.007395329
204	0x3db3ef80	0.087859154
205	0x3dc58bc4	0.09645799
206	0x3a80bbc0	0.0009821579
207	0x3b87afbf	0.0041408236
208	0xbc8d409e	-0.017242726
209	0x3c192568	0.009347297
210	0x3c811ddc	0.015761308
211	0xbda38cd7	-0.079858474
212	0x3cb31ee5	0.021865318
213	0x3dd40863	0.10353162
214	0xbcc6c71e	-0.024264868
215	0xbe880e91	-0.26573613
216	0xbe264829	-0.16238464
217	0x3e052832	0.13003615
218	0xbdea9e67	-0.11455994
219	0x3cfbb386	0.030725252
220	0xbc82efbb	-0.015983453
221	0x3e009b26	0.12559184
222	0x3e470848	0.19436753
223	0x3e42cbaf	0.19023012
224	0x3b9721c0	0.0046121776
225	0x3ddff17c	0.10934731
226	0xbda1eeb9	-0.07906861
227	0xbce87ee6	-0.028380822
228	0xbdea450e	-0.114389524
229	0x3c56eea6	0.013118422
230	0xbd483f3a	-0.048888423
231	0x3ea46b13	0.3211294
232	0xbdd3842e	-0.10327946
233	0xbe22dffe	-0.15905759
234	0xbe89bdb0	-0.26902533
235	0xbe665882	-0.224947
236	0x3daabeaf	0.08337151
237	0x3db115d9	0.08646745
238	0x3e79b42f	0.24385141
239	0x3e6b85d8	0.23000276
240	0x3dc5ede5	0.096645154
241	0xbdd074c0	-0.10178518
242	0x3d7522f6	0.059847794
243	0xbdc57d69	-0.09643061
244	0x3d90dab5	0.07072965
245	0xbe2d3d8d	-0.16918011
246	0x3d7e7baa	0.062129654
247	0xbada8108	-0.0016670534
248	0x3e8da9a9	0.27668503
249	0x3d8070c2	0.06271507
250	0xbcdf2c22	-0.027242724
251	0xbdd39f26	-0.103330895
252	0x3b6886a6	0.0035480647
253	0x3a484683	0.00076399016
254	0x3d95ad17	0.07308405
255	0x3d05d937	0.032677855

lstm.ih.rho_weight f4 [128, 14]
0	0xc034e05c	-2.8261938
1	0xc02eeb85	-2.733125
2	0xc03763ab	-2.8654583
3	0xc036fe0a	-2.8592553
4	0xc03bdaa9	-2.935221
5	0xc037c234	-2.8712282
6	0xc03548c0	-2.8325653
7	0xc0365ba0	-2.8493423
8	0xc033c24a	-2.8087335
9	0xc01f0102	-2.4844365
10	0xc04158d9	-3.0210478
11	0xc02bd716	-2.6850028
12	0xc02d13b2	-2.704327
13	0xc0376854	-2.8657427
14	0xc021cfe8	-2.5283146
15	0xc040f207	-3.0147722
16	0xc03e6211	-2.9747355
17	0xc0323f62	-2.7851186
18	0xc02ff147	-2.7491014
19	0xc0299a12	-2.6500287
20	0xc03811b0	-2.8760796
21	0xc03389c8	-2.8052845
22	0xc033af20	-2.8075638
23	0xc03a915d	-2.9151223
24	0xc034e365	-2.826379
25	0xc033d2f3	-2.8097503
26	0xc02e3deb	-2.7225292
27	0xc03909d8	-2.8912258
28	0xc0350e79	-2.8290083
29	0xc03f73bb	-2.9914386
30	0xc044ad93	-3.0730941
31	0xc03f6163	-2.990319
32	0xc0428426	-3.0393157
33	0xc0368d1e	-2.852363
34	0xc0333366	-2.800012
35	0xc037964e	-2.8685489
36	0xc0363333	-2.846875
37	0xc032e029	-2.7949317
38	0xc0312b52	-2.768269
39	0xc0392dc7	-2.893419
40	0xc0341f08	-2.814394
41	0xc02fd6dc	-2.747489
42	0xc0443deb	-3.0662792
43	0xc039b6ac	-2.9017744
44	0xc0365fce	-2.8495975
45	0xc040c947	-3.012285
46	0xc046ce4d	-3.1063416
47	0xc032a318	-2.7912045
48	0xc030bdf0	-2.7615929
49	0xc035f907	-2.8433244
50	0xc03ac666	-2.9183593
51	0xc0363365	-2.8468869
52	0xc035cb61	-2.8405383
53	0xc03c7f87	-2.9452837
54	0xc039a9e9	-2.9009955
55	0xc032371e	-2.784614
56	0xc03bf067	-2.936548
57	0xc0302dfe	-2.7528071
58	0xc040984f	-3.0092962
59	0xc0362d33	-2.8465087
60	0xc0395775	-2.895963
61	0xc03625e0	-2.8460617
62	0xc04446b1	-3.0668147
63	0xc0434030	-3.0507927
64	0xc03862f7	-2.8810403
65	0xc02d21fb	-2.705199
66	0xc0382e7d	-2.8778374
67	0xc03fd0f0	-2.9971275
68	0xc032d220	-2.794075
69	0xc0319b88	-2.7751179
70	0xc041ce0c	-3.028201
71	0xc027ef0d	-2.6239655
72	0xc037d811	-2.8725626
73	0xc03a7f6d	-2.9140275
74	0xc0382ef6	-2.8778663
75	0xc0391c20	-2.8923416
76	0xc03c5b15	-2.9430592
77	0xc03d1752	-2.9545484
78	0xc0433891	-3.0503275
79	0xc03d3ff1	-2.9570277
80	0xc03622e8	-2.8458805
81	0xc03e686e	-2.975124
82	0xc03d4010	-2.957035
83	0xc0394540	-2.8948517
84	0xc0383692	-2.8783307
85	0xc03e77e7	-2.9760683
86	0xc04697a6	-3.103006
87	0xc03e61a6	-2.97471
88	0xc033afa1	-2.8075945
89	0xc02d4baa	-2.7077432
90	0xc03afa05	-2.92151
91	0xc0465df6	-3.099485
92	0xc03666ca	-2.8500237
93	0xc031255a	-2.7679048
94	0xc0343502	-2.8157353
95	0xc03b0118	-2.9219418
96	0xc038f6b9	-2.8900588
97	0xc03c07a0	-2.9379654
98	0xc03616e2	-2.8451467
99	0xc03adab5	-2.9195988
100	0xc03a432d	-2.91035
101	0xc0365616	-2.8490043
102	0xc0392137	-2.8926523
103	0xc03da20d	-2.9630158
104	0xc042772b	-3.0385234
105	0xc032465a	-2.785544
106	0xc0405899	-3.0054076
107	0xc02a01b5	-2.6563542
108	0xc03fe5f6	-2.9984107
109	0xc0355f71	-2.8339503
110	0xc0362222	-2.8458333
111	0xc0447aeb	-3.0700023
112	0xc02e3084	-2.7217112
113	0xc0317623	-2.7728355
114	0xc03736c2	-2.8627172
115	0xc03c892b	-2.945872
116	0xc038d788	-2.888155
117	0xc034a31a	-2.822455
118	0xc039fcc8	-2.9060535
119	0xc0362624	-2.846078
120	0xc042b5e2	-3.0423512
121	0xc02ff2d7	-2.7491968
122	0xc034472b	-2.8168437
123	0xc03ec288	-2.9806232
124	0xc02d6aa5	-2.709634
125	0xc0397d25	-2.8982632
126	0xc04054fa	-3.0051866
127	0xc037455f	-2.863609
128	0xc033e6cb	-2.8109615
129	0xc036da06	-2.857057
130	0xc03320b1	-2.7988703
131	0xc03ebf7a	-2.9804368
132	0xc0367606	-2.8509536
133	0xc039aa32	-2.901013
134	0xc03af0c8	-2.9209461
135	0xc03a2d88	-2.909029
136	0xc03cccd3	-2.9500015
137	0xc03e3a0a	-2.9722924
138	0xc03e112e	-2.9697986
139	0xc023c0d0	-2.5586433
140	0xc02c5815	-2.692876
141	0xc03c3376	-2.940641
142	0xc02c92b8	-2.696455
143	0xc028da54	-2.6383257
144	0xc04c5f79	-3.1933272
145	0xc02d8fb6	-2.7118964
146	0xc0285f73	-2.6308258
147	0xc034113e	-2.8135524
148	0xc0216e24	-2.5223475
149	0xc02fd913	-2.7476242
150	0xc0304209	-2.7540305
151	0xc03f6aab	-2.9908855
152	0xc042b86a	-3.0425057
153	0xc030f5f1	-2.765011
154	0xc031a983	-2.7759712
155	0xc038f005	-2.8896496
156	0xc03ed71c	-2.9818792
157	0xc0387831	-2.882336
158	0xc03922eb	-2.8927562
159	0xc0316fee	-2.7724566
160	0xc04086ea	-3.0082345
161	0xc03e9e40	-2.9784088
162	0xc03c9e06	-2.947145
163	0xc0401b5b	-3.0016696
164	0xc03d9e64	-2.9627924
165	0xc03a983c	-2.9155416
166	0xc0362d1a	-2.8465028
167	0xc0307bb4	-2.7575502
168	0xc03b655c	-2.9280615
169	0xc03ea5c1	-2.9788668
170	0xc03edb4d	-2.982135
171	0xc03f3797	-2.987768
172	0xc03f121f	-2.985481
173	0xc0306e58	-2.7567348
174	0xc03390ea	-2.8057199
175	0xc038b0dd	-2.8857949
176	0xc034e41b	-2.8264225
177	0xc03f6409	-2.9904807
178	0xc044098a	-3.0630822
179	0xc0355be2	-2.833733
180	0xc038465a	-2.879294
181	0xc03b0359	-2.9220793
182	0xc041a5cf	-3.0257452
183	0xc0462a58	-3.0963345
184	0xc03d6e73	-2.9598663
185	0xc036b09a	-2.854529
186	0xc04443c6	-3.0666366
187	0xc040d337	-3.0128915
188	0xc04038be	-3.0034633
189	0xc03d82bd	-2.9611046
190	0xc044b2b8	-3.0734081
191	0xc03febf6	-2.998777
192	0xc03771f0	-2.8663292
193	0xc03e7e8c	-2.9764738
194	0xc0352673	-2.8304718
195	0xc03457cf	-2.8178594
196	0xc03e7729	-2.976023
197	0xc036de31	-2.8573115
198	0xc037312b	-2.862376
199	0xc0439c6b	-3.056422
200	0xc0470249	-3.1095145
201	0xc03603d6	-2.8439841
202	0xc0394ba7	-2.8952425
203	0xc0391a53	-2.8922317
204	0xc038ff11	-2.890568
205	0xc040afab	-3.010722
206	0xc032b5b2	-2.7923398
207	0xc0348800	-2.8208008
208	0xc0440240	-3.0626373
209	0xc04270ef	-3.038143
210	0xc03f806b	-2.992213
211	0xc03fbf27	-2.996042
212	0xc0391efe	-2.8925166
213	0xc03a917f	-2.9151304
214	0xc041af65	-3.0263302
215	0xc02a2603	-2.65857
216	0xc03ea1bd	-2.9786217
217	0xc0332bea	-2.7995553
218	0xc044809e	-3.0703502
219	0xc030a32d	-2.7599595
220	0xc0316fde	-2.7724528
221	0xc03b6975	-2.9283116
222	0xc02e5a99	-2.7242796
223	0xc0374055	-2.8633015
224	0xc03dce3b	-2.9657123
225	0xc043477a	-3.0512376
226	0xc0397b66	-2.8981566
227	0xc03e2d1d	-2.9715035
228	0xc03c7941	-2.9449008
229	0xc0360012	-2.8437543
230	0xc033d0d9	-2.809622
231	0xc03eef51	-2.9833567
232	0xc04b19d1	-3.1734507
233	0xc0391175	-2.8916905
234	0xc03dea59	-2.9674284
235	0xc036eb07	-2.858095
236	0xc043ccc4	-3.059373
237	0xc03e9fad	-2.9784958
238	0xc03bac9e	-2.9324107
239	0xc03d0af8	-2.9537945
240	0xc03941cd	-2.8946412
241	0xc03801e4	-2.8751154
242	0xc031a9db	-2.7759922
243	0xc0364c02	-2.8483891
244	0xc038ecd6	-2.8894553
245	0xc036e87b	-2.8579395
246	0xc040c833	-3.0122192
247	0xc0282fdf	-2.6279218
248	0xc03a57c4	-2.9116068
249	0xc03138dc	-2.7690954
250	0xc038aae4	-2.8854303
251	0xc02b4a34	-2.676404
252	0xc038418d	-2.879001
253	0xc03d5960	-2.95858
254	0xc045cae6	-3.090509
255	0xc03d1260	-2.9542465

lstm.ih.mu_bias f4 [128]
0	0x3cc230df	0.023704944
1	0x3e00dca1	0.12584163
2	0x3db4f17a	0.088351205
3	0x3dbb9ec5	0.09161142
4	0x3d9844da	0.074350074
5	0x3e56067a	0.20900908
6	0x3e63137b	0.221754
7	0x3da16241	0.078800686
8	0x3e6a4d6f	0.22881101
9	0xbe26556c	-0.16243523
10	0x3e0e735e	0.13911197
11	0x3dc6f44e	0.09714566
12	0x3ddb1350	0.10697043
13	0xbc1e784b	-0.009672235
14	0x3db4ed4e	0.08834325
15	0x3a937710	0.0011250693
16	0xbe610334	-0.21973878
17	0x3d32ab23	0.04362024
18	0x3e092581	0.13393213
19	0x3e98bbb0	0.29830694
20	0x3ccc5dea	0.024947125
21	0x3df652ef	0.12027537
22	0xbe5ae846	-0.21377668
23	0x3d9c2e56	0.076260254
24	0xbcd8622a	-0.026413996
25	0x3dcbbfae	0.099486694
26	0x3e36a55c	0.17836517
27	0x3e955bdc	0.29171646
28	0x3e40a9a4	0.18814713
29	0xbdace533	-0.08442154
30	0x3e61606a	0.22009435
31	0xbe11d8af	-0.14242814
32	0x3e8df220	0.2772379
33	0x3dd88ee0	0.10574126
34	0x3e153ac3	0.14573197
35	0x3e439b59	0.19102229
36	0x3e38a540	0.18031788
37	0xbb495d96	-0.0030725948
38	0x3db6a57a	0.08918281
39	0x3e1d97c4	0.15389925
40	0xbd00f5b0	-0.031484306
41	0x3c29c313	0.010361451
42	0x3dec5cd4	0.11541143
43	0x3e0056e5	0.12533148
44	0xbc3bb126	-0.01145581
45	0xbdfc5cc1	-0.12322379
46	0xbe0e94b0	-0.13923907
47	0x3daa38f2	0.08311643
48	0x3c6c9653	0.014440137
49	0x3e18cd82	0.14922145
50	0x3e9377f9	0.2880247
51	0x3d61106e	0.05494731
52	0xbc1b0ca9	-0.009463468
53	0x3da41b23	0.080129884
54	0x3dcd85fa	0.100353196
55	0x3db89367	0.0901249
56	0xbdf8e0b3	-0.12152233
57	0x3c8a7614	0.016902007
58	0x3dc6f3e3	0.097144864
59	0x3e939d22	0.2883082
60	0x3deb2529	0.11481697
61	0xbdc83505	-0.09775738
62	0x3e82a1e2	0.25514132
63	0xbe35bbce	-0.17747423
64	0xbe1f0f4e	-0.15533182
65	0xbc93695c	-0.017994575
66	0x3e8b9be3	0.2726737
67	0xbde18d8b	-0.11013325
68	0x3e440235	0.19141467
69	0x3d355a7e	0.044275753
70	0x3da06469	0.07831652
71	0xbe9773b4	-0.29580462
72	0xbe41b6d5	-0.18917401
73	0x3dc2bf1c	0.095091075
74	0xbd9e99e9	-0.077442
75	0x3d39dcf6	0.04537674
76	0xbdea1e7f	-0.11431598
77	0x3dbcc2fe	0.09216879
78	0x3e671234	0.22565538
79	0x3d686821	0.05673993
80	0xbd7b8275	-0.06140371
81	0xbde6a903	-0.11262705
82	0xbe88e9d8	-0.2674091
83	0x3e4e460c	0.20143908
84	0xbe4c9bdf	-0.19981335
85	0x3e713ea7	0.23559056
86	0xbb82abca	-0.003987764
87	0xbd836ca1	-0.06417204
88	0xbd205f81	-0.03915358
89	0xbd188936	-0.03724023
90	0x3ddbbe5f	0.1072967
91	0x3e9235b2	0.2855659
92	0xbe3ebbeb	-0.18626373
93	0x3e1649aa	0.14676538
94	0xbe461dfa	-0.19347373
95	0x3d21a0c2	0.03945995
96	0xbc033f7e	-0.008010743
97	0x3e99152d	0.29898968
98	0x3dae2c61	0.08504558
99	0x3e6c727c	0.23090547
100	0x3e953a83	0.29146203
101	0x3e848607	0.25883505
102	0x3ca40c2c	0.020025335
103	0x3ea2f527	0.3182766
104	0x3e85cc0c	0.26132238
105	0x3eea74e1	0.45792297
106	0x3e3531a5	0.17694719
107	0xbd3be870	-0.045875967
108	0x3d66173e	0.05617451
109	0x3e541eaf	0.2071483
110	0x3e387baa	0.18015924
111	0x3d7936ac	0.060843155
112	0x3e4d85b0	0.20070529
113	0x3e7ba179	0.24573316
114	0x3e3ad253	0.18244295
115	0x3e966fb4	0.29382098
116	0x3dba9458	0.091103256
117	0x3e139a6b	0.14414375
118	0x3e9f7a9c	0.3114823
119	0x3e843ec4	0.25829136
120	0x3e1daeec	0.15398759
121	0x3e750db8	0.23931015
122	0x3dc6ae7e	0.097012505
123	0x3e904b20	0.28182316
124	0x3e3774e7	0.17915688
125	0x3ed50fcf	0.41613623
126	0x3d5fa5fe	0.05460166
127	0x3e051bee	0.12998936

lstm.ih.rho_bias f4 [128]
0	0xc02a6065	-2.6621335
1	0xc0206ed2	-2.506764
2	0xc01a3779	-2.4096358
3	0xc0219c22	-2.5251546
4	0xc02f3e9c	-2.7381964
5	0xc02b65a4	-2.6780787
6	0xc02d6ce9	-2.7097723
7	0xc0254b6b	-2.5827281
8	0xc0256e98	-2.584875
9	0xc01d9a32	-2.4625363
10	0xc020f696	-2.5150504
11	0xc033437d	-2.8009942
12	0xc029b512	-2.6516767
13	0xc02f0f62	-2.735314
14	0xc032a8a2	-2.7915425
15	0xc03379ae	-2.8043017
16	0xc02e11c4	-2.7198343
17	0xc02f6aa9	-2.740885
18	0xc01d0c5e	-2.4538798
19	0xc01e7c2a	-2.4763284
20	0xc02af991	-2.6714823
21	0xc01d11e9	-2.4542181
22	0xc02fcdd8	-2.7469387
23	0xc0251f15	-2.580022
24	0xc02d7dea	-2.7108102
25	0xc020e471	-2.513943
26	0xc02c0b38	-2.6881847
27	0xc02a3fdb	-2.6601474
28	0xc029f03c	-2.6552877
29	0xc02ab52c	-2.6673079
30	0xc017523b	-2.364394
31	0xc02c431b	-2.6915958
32	0xc01e51d0	-2.4737434
33	0xc00f5155	-2.239339
34	0xc00d2c96	-2.2058463
35	0xc03c0968	-2.938074
36	0xc0161553	-2.3450515
37	0xc02974e9	-2.6477606
38	0xc033fb82	-2.8122258
39	0xc02f23dc	-2.7365637
40	0xc02165b7	-2.5218332
41	0xc02c842b	-2.695567
42	0xc02c12aa	-2.6886392
43	0xc0350177	-2.8282144
44	0xc0357310	-2.8351479
45	0xc0270b1a	-2.6100526
46	0xc03ce2ef	-2.951351
47	0xc037c34f	-2.8712957
48	0xc0319701	-2.7748415
49	0xc00ee962	-2.2329946
50	0xc02e448c	-2.7229338
51	0xc016f3c5	-2.3586285
52	0xc02fb192	-2.745213
53	0xc021d5be	-2.5286708
54	0xc0255e13	-2.5838668
55	0xc02e0eec	-2.7196608
56	0xc03341e7	-2.8008974
57	0xc032eca7	-2.795694
58	0xc029fa5f	-2.6559064
59	0xc013cc6d	-2.3093522
60	0xc0260749	-2.5941947
61	0xc03223ca	-2.7834344
62	0xc00d0ce9	-2.203913
63	0xc0321820	-2.7827225
64	0xc02ec66e	-2.7308612
65	0xc03aff0c	-2.9218168
66	0xc02da28f	-2.7130468
67	0xc03aa837	-2.916517
68	0xc02c6d34	-2.6941652
69	0xc03041a1	-2.7540057
70	0xc03a5d69	-2.9119513
71	0xc0392f26	-2.8935027
72	0xc03e0cde	-2.9695354
73	0xc03805f6	-2.8753638
74	0xc02cc9e5	-2.6998227
75	0xc04010c2	-3.0010228
76	0xc03993a9	-2.8996375
77	0xc03b2d05	-2.9246228
78	0xc03fe5b2	-2.9983945
79	0xc043d683	-3.0599678
80	0xc0311796	-2.7670646
81	0xc037d34a	-2.872271
82	0xc0394efb	-2.8954456
83	0xc033f870	-2.8120384
84	0xc0343e5b	-2.8163059
85	0xc02b5255	-2.6769001
86	0xc0308adc	-2.7584753
87	0xc03551ef	-2.8331258
88	0xc044c64f	-3.0746038
89	0xc031d751	-2.7787669
90	0xc03225cf	-2.7835577
91	0xc02e4d00	-2.7234497
92	0xc045e9da	-3.0923982
93	0xc03e4e1c	-2.9735174
94	0xc02fe9e3	-2.7486503
95	0xc0348bf9	-2.8210433
96	0xc031a4f9	-2.7756941
97	0xc02d1f52	-2.7050366
98	0xc0296797	-2.6469476
99	0xc02b0920	-2.672432
100	0xc022716e	-2.5381732
101	0xc01f229a	-2.486487
102	0xc03403ee	-2.8127398
103	0xc033deab	-2.8104656
104	0xc0298ce4	-2.6492243
105	0xc026cfb5	-2.6064274
106	0xc020ca4f	-2.512348
107	0xc02a5efc	-2.6620474
108	0xc02f06ab	-2.734782
109	0xc020a680	-2.5101624
110	0xc0132f0d	-2.2997468
111	0xc02ec83b	-2.730971
112	0xc023377a	-2.550261
113	0xc038a537	-2.885084
114	0xc035074f	-2.828571
115	0xc0277557	-2.6165369
116	0xc03043af	-2.754131
117	0xc02eea95	-2.7330678
118	0xc0286b26	-2.6315398
119	0xc03aa265	-2.9161618
120	0xc02f9356	-2.7433677
121	0xc03bc0fa	-2.9336534
122	0xc00ac8cd	-2.168506
123	0xc0296158	-2.6465664
124	0xc029e673	-2.6546905
125	0xc0357777	-2.8354166
126	0xc045b8aa	-3.089396
127	0xc02df5a7	-2.7181184

lstm.hh.mu_weight f4 [128, 32]
0	0x3d79326b	0.060839098
1	0xbae718ae	-0.0017631256
2	0x3df7ee0d	0.121059515
3	0x3e050626	0.12990627
4	0xbdc6313b	-0.09677359
5	0xba4e7d11	-0.0007876913
6	0xbd60acb2	-0.054852195
7	0xbdf2427e	-0.11829089
8	0x3bbc55a6	0.005747515
9	0x3dfe06a7	0.124036126
10	0xbe2f5786	-0.17123231
11	0xbccb7910	-0.024838
12	0xbcbf6176	-0.023361903
13	0xbe12e59c	-0.14345402
14	0x3cc6136d	0.024179185
15	0xbe164d41	-0.14677908
16	0xbdebe15b	-0.115175925
17	0xbdc12b7b	-0.09432121
18	0xbe5398f8	-0.20663822
19	0xbdd35f52	-0.10320915
20	0x3d0ef832	0.034904666
21	0xbe0c996f	-0.13730405
22	0x3e08d7e6	0.13363609
23	0x3e561515	0.2090648
24	0xbca7cad3	-0.020482456
25	0xbd3ca720	-0.04605782
26	0x3ce16f1f	0.027518807
27	0xbc9ca815	-0.019123117
28	0x3cdefdb8	0.027220592
29	0x3d8b0280	0.06787586
30	0x3d15c133	0.036561202
31	0x3e877320	0.2645502
32	0x3e8679ec	0.26264894
33	0x3d6a5c7c	0.057217106
34	0x3e220d8b	0.15825479
35	0x3d0a0119	0.033692453
36	0x3e8f515d	0.27991763
37	0xbde31a98	-0.11089057
38	0xbda8cdd0	-0.082423806
39	0xbe30ce0d	-0.17266102
40	0xbe05de00	-0.13072968
41	0x3dd56440	0.10419512
42	0xbe0215ab	-0.12703578
43	0x3d0d8458	0.03455004
44	0xbd9e0543	-0.07715847
45	0x3e663f2e	0.22485039
46	0x3e9073ad	0.28213254
47	0x3d10bb9a	0.03533516
48	0x3db013ca	0.085975245
49	0xbe3e3fe6	-0.18579063
50	0xbe160c45	-0.14653118
51	0x3dc2c47e	0.09510134
52	0xbe4104d6	-0.18849501
53	0x3e8de723	0.27715406
54	0xbdac1e74	-0.08404246
55	0x3dd67c58	0.104729354
56	0xbb804caa	-0.003915389
57	0xbd96a5e7	-0.07355862
58	0x3e54479e	0.20730445
59	0x3e57e020	0.2108159
60	0xbee4e6c8	-0.44707322
61	0xbb86877a	-0.0041055055
62	0xbe1f94a7	-0.1558405
63	0x3d3e3321	0.04643548
64	0x3e5f6ce5	0.21818884
65	0xbe7f098d	-0.24905987
66	0x3e6b5935	0.22983249
67	0x3caaf051	0.020866545
68	0x3e7a3622	0.24434713
69	0x3e42c0d6	0.19018874
70	0x3daef33b	0.08542486
71	0xbe6060a1	-0.21911861
72	0xbe0dc6ac	-0.13845319
73	0x3c9f1809	0.01942064
74	0xbdef00ce	-0.11670075
75	0x3e02630a	0.12733093
76	0xbd8fc2fd	-0.07019613
77	0x3d99916b	0.074984394
78	0x3e86b5e2	0.2631064
79	0xbda60dee	-0.081081256
80	0xbe027d11	-0.12743022
81	0xbe4c382e	-0.19943306
82	0xbecb1ac2	-0.39668852
83	0x3e966eee	0.29381508
84	0xbd9e9672	-0.07743539
85	0x3e394db2	0.18096045
86	0x3b109698	0.0022062417
87	0x3db858c0	0.09001303
88	0x3d3b059e	0.045659654
89	0x3ca54cbc	0.020178191
90	0x3e1d8c2c	0.15385503
91	0x3dd9dd80	0.10637951
92	0x3e21e044	0.15808207
93	0xbdbea290	-0.0930835
94	0xbe7868f7	-0.24258791
95	0xbd4c5d8b	-0.049893897
96	0x3e4ed633	0.20198898
97	0xbdfddf2c	-0.12396082
98	0xbbd3f00d	-0.0064678253
99	0xbb395191	-0.0028277377
100	0x3cdf3348	0.027246132
101	0xbe23a611	-0.15981318
102	0x3dd92584	0.10602859
103	0xbe1ce652	-0.15322235
104	0xbe0091bd	-0.12555595
105	0x3da0cd3b	0.078516446
106	0xbedc65d9	-0.43046454
107	0x3ebb34f9	0.36563852
108	0x3d8da6a1	0.069165476
109	0x3efa7ba1	0.48922446
110	0xbd191374	-0.037372068
111	0x3d04cb45	0.032420415
112	0xbeab2b38	-0.3343141
113	0x3cc128e4	0.023579068
114	0xbeca4ce4	-0.39511788
115	0xbd1f0d59	-0.03883109
116	0xbd9542a0	-0.07288098
117	0x3e263770	0.16232085
118	0xbd0f6fa7	-0.03501859
119	0xbcc10ab8	-0.023564681
120	0xbe5991ea	-0.21247068
121	0x3dac75f6	0.08420937
122	0x3e2d330f	0.16914009
123	0x3e2d00fd	0.16894908
124	0x3d27ed9d	0.04099809
125	0xbea7493a	-0.32673055
126	0xbe3e7506	-0.18599328
127	0xbcec2bdd	-0.02882951
128	0x3e97cabf	0.2964687
129	0xbe428042	-0.18994239
130	0x3e199f5f	0.15002201
131	0x3c821813	0.01588062
132	0x3e3aab97	0.18229519
133	0xbd5868ef	-0.052834447
134	0xbcf1db7e	-0.029523607
135	0xbe510750	-0.20412946
136	0xbdce6ccd	-0.10079346
137	0xbe21774b	-0.15768163
138	0xbe4b68e4	-0.19864231
139	0xbe1315ec	-0.14363831
140	0x3ccc7533	0.024958229
141	0xbd614131	-0.054993812
142	0x3d1c3fb6	0.038146697
143	0xbdda8f7d	-0.106718995
144	0xbc407fe3	-0.011749241
145	0xbe849b90	-0.25899935
146	0xbe662482	-0.22474864
147	0x3d570703	0.05249692
148	0xbe756b6c	-0.2396676
149	0x3d67d802	0.056602485
150	0xbd445f1c	-0.047942266
151	0x3d280249	0.041017804
152	0xbbee92b5	-0.0072806724
153	0xba3d9bd3	-0.00072329975
154	0xbcb116f9	-0.0216174
155	0x3e0cf227	0.13764249
156	0xbe9c6137	-0.3054292
157	0x3d504d5e	0.050855033
158	0xbd8e12a2	-0.06937148
159	0x3e7f255d	0.24916597
160	0xbdf1e222	-0.118107095
161	0xbbd294ef	-0.0064264457
162	0x3d80258f	0.06257164
163	0x3cd56023	0.026046818
164	0x3dfb7d6d	0.122797824
165	0xbd3bd33f	-0.045855757
166	0x3b81383c	0.0039434712
167	0xbe545144	-0.20734125
168	0xbeb16135	-0.34644476
169	0x3e461773	0.19344883
170	0xbe0dd414	-0.13850433
171	0x3e162d60	0.14665747
172	0x3ba82d72	0.0051323706
173	0x3e8a52bf	0.27016255
174	0x3c938d7d	0.018011803
175	0x3cfa4e12	0.030554805
176	0xbd630a7f	-0.05542993
177	0xbdca88d6	-0.09889381
178	0xbe6e18f9	-0.23251714
179	0x3d236c3b	0.03989814
180	0xbe3d6789	-0.18496527
181	0x3d4bed0d	0.049786616
182	0x3d9cd34f	0.076574914
183	0xbe178ae3	-0.14799075
184	0xbe1aa33d	-0.15101333
185	0xbe283844	-0.16427714
186	0x3c093a75	0.008375754
187	0x3daa5b32	0.083181754
188	0xba05bd98	-0.0005101799
189	0xbed4d2ee	-0.41567177
190	0xbdc4ff8a	-0.09619053
191	0xbe012b65	-0.1261421
192	0xbe0797a3	-0.13241439
193	0xbbab937a	-0.0052360864
194	0xbd20a127	-0.039216187
195	0x3d70ec8a	0.05881933
196	0x3db07a1f	0.08617043
197	0x3d14a37e	0.03628873
198	0xbe1ff7d5	-0.15621884
199	0x3d53ddbd	0.051725138
200	0xbe56744b	-0.209428
201	0x3dce5b32	0.10075988
202	0xbd4ab9b7	-0.049493518
203	0xbdb37859	-0.08763189
204	0xbe48807c	-0.19580263
205	0xbd94d177	-0.07266515
206	0x3e78ad17	0.24284779
207	0xbd13cbba	-0.03608296
208	0xbe2aca16	-0.16678652
209	0x3da5d150	0.08096564
210	0xbe39087d	-0.18069644
211	0xbda75517	-0.081705265
212	0xbce6c182	-0.028168444
213	0x3e24c8b6	0.1609219
214	0x3e2b695f	0.16739415
215	0xbe99590d	-0.29950753
216	0xbdbaf621	-0.091289766
217	0x3d98adbb	0.074550115
218	0x3de3f521	0.11130739
219	0xbde513b8	-0.11185402
220	0xbd7687d6	-0.060188137
221	0xbe1b5ba6	-0.1517168
222	0xbe2fc7ec	-0.17166108
223	0xbe491137	-0.19635473
224	0x3d8a662e	0.067577705
225	0xbd07a96d	-0.03312056
226	0x3c44f525	0.012021338
227	0xbd800047	-0.06250053
228	0xbd3f28e5	-0.04666986
229	0x3e85a899	0.26105192
230	0x3ce10a07	0.027470602
231	0xbd27986b	-0.04091684
232	0x3e410c96	0.18852457
233	0x3ea2c766	0.31792754
234	0xbe9afa0f	-0.30268905
235	0x3dffb8f4	0.12486449
236	0xbeb08f35	-0.34484258
237	0x3c216a4a	0.009852001
238	0x3d87d365	0.06632117
239	0xbe11f922	-0.14255193
240	0xbc2ce844	-0.010553423
241	0xbd3c2dc6	-0.04594209
242	0x3dbcfe10	0.09228146
243	0x3dd81666	0.10551147
244	0xbe0c1a14	-0.13681823
245	0x3be6e5d8	0.0070464425
246	0x3e42e720	0.1903348
247	0xbe0580de	-0.1303744
248	0x3d9f4f3a	0.07778783
249	0x3c2d157f	0.010564207
250	0xbbb07b2e	-0.005385778
251	0xbd4b7be7	-0.04967871
252	0x3e6a9c35	0.22911151
253	0xbe33a981	-0.1754513
254	0x3d6e496b	0.058175486
255	0xbdf9d70d	-0.12199221

lstm.hh.rho_weight f4 [128, 32]
0	0xc047339b	-3.1125247
1	0xc03a933a	-2.915236
2	0xc04219a8	-3.032816
3	0xc0371f0b	-2.8612697
4	0xc03b6e48	-2.928606
5	0xc04019ff	-3.0015867
6	0xc039b8ed	-2.901912
7	0xc033bc55	-2.8083699
8	0xc029a368	-2.6505985
9	0xc03bbcc1	-2.9333956
10	0xc03f798c	-2.9917936
11	0xc0402990	-3.0025368
12	0xc0379af5	-2.8688328
13	0xc036d1b8	-2.8565502
14	0xc03f8348	-2.9923878
15	0xc03ffc14	-2.9997606
16	0xc02b983f	-2.6811674
17	0xc03507a6	-2.8285918
18	0xc03489a7	-2.8209016
19	0xc03d6c0d	-2.95972
20	0xc045ecde	-3.0925822
21	0xc03f37e3	-2.987786
22	0xc03616f1	-2.8451502
23	0xc0354721	-2.8324664
24	0xc033afa5	-2.8075955
25	0xc046dc7c	-3.1072073
26	0xc03480cc	-2.8203611
27	0xc04c1e3c	-3.1893454
28	0xc0339d7d	-2.8064873
29	0xc02a2a23	-2.6588218
30	0xc03c0840	-2.9380035
31	0xc0375aff	-2.864929
32	0xc02b0550	-2.6721992
33	0xc04421fc	-3.0645742
34	0xc038124f	-2.8761175
35	0xc03adac4	-2.9196024
36	0xc03aafe4	-2.9169855
37	0xc045248d	-3.080356
38	0xc02690a0	-2.6025772
39	0xc02dc82c	-2.7153425
40	0xc027ddcb	-2.6229122
41	0xc0336aba	-2.803389
42	0xc0393ac3	-2.8942115
43	0xc03c800e	-2.9453158
44	0xc02c1844	-2.688981
45	0xc0406e8c	-3.0067472
46	0xc0306247	-2.7559984
47	0xc031fee9	-2.7811835
48	0xc03a1b52	-2.9079175
49	0xc031f2e6	-2.7804503
50	0xc030f17e	-2.7647395
51	0xc0414a71	-3.0201685
52	0xc037d909	-2.8726218
53	0xc03666e6	-2.8500304
54	0xc034aae6	-2.8229308
55	0xc02e6cb7	-2.7253854
56	0xc0423d31	-3.0349848
57	0xc0364a78	-2.8482952
58	0xc0382bc4	-2.8776712
59	0xc03b0c81	-2.9226382
60	0xc03ac1ef	-2.9180868
61	0xc0370813	-2.8598678
62	0xc0383f66	-2.8788695
63	0xc02f3527	-2.7376192
64	0xc024e451	-2.5764353
65	0xc02b633b	-2.6779315
66	0xc03a05dc	-2.9066076
67	0xc039b123	-2.9014366
68	0xc03a1387	-2.9074419
69	0xc038c1f0	-2.886837
70	0xc032120e	-2.782352
71	0xc0379e9a	-2.8690553
72	0xc02d001c	-2.7031317
73	0xc037a36e	-2.86935
74	0xc034dba3	-2.8259056
75	0xc041c60e	-3.0277133
76	0xc0306567	-2.756189
77	0xc0312f86	-2.7685256
78	0xc0367993	-2.8511703
79	0xc0346978	-2.8189373
80	0xc038f551	-2.889973
81	0xc03d51ca	-2.958117
82	0xc03ef1f6	-2.9835181
83	0xc02a2789	-2.658663
84	0xc02ac69a	-2.6683717
85	0xc02fe0e9	-2.7481024
86	0xc03dc0f5	-2.9649022
87	0xc02f6957	-2.7408044
88	0xc034502d	-2.8173935
89	0xc03794b1	-2.8684504
90	0xc0350e9a	-2.8290162
91	0xc0382700	-2.8773804
92	0xc020733d	-2.5070336
93	0xc037df26	-2.872995
94	0xc03a4ba7	-2.9108675
95	0xc0307092	-2.7568707
96	0xc03bd265	-2.9347165
97	0xc0366f71	-2.8505518
98	0xc03fe801	-2.9985354
99	0xc031494c	-2.7700987
100	0xc0394dba	-2.895369
101	0xc03a3403	-2.9094245
102	0xc03e845d	-2.9768288
103	0xc0346e6e	-2.81924
104	0xc02b89d3	-2.6802871
105	0xc03b6891	-2.9282572
106	0xc043f5bf	-3.0618742
107	0xc0392b3d	-2.893264
108	0xc0387de7	-2.8826845
109	0xc035e433	-2.8420532
110	0xc036683c	-2.850112
111	0xc0327aa1	-2.7887347
112	0xc032bc8f	-2.7927587
113	0xc03e2b3e	-2.9713893
114	0xc03d3ffc	-2.9570303
115	0xc03b2a44	-2.9244547
116	0xc03006f7	-2.750425
117	0xc0369aad	-2.8531907
118	0xc0393531	-2.8938715
119	0xc0393371	-2.8937647
120	0xc0397e14	-2.8983202
121	0xc03ceedb	-2.9520786
122	0xc0331486	-2.7981277
123	0xc0399dd3	-2.9002578
124	0xc03ff2c5	-2.9991925
125	0xc04241d7	-3.0352685
126	0xc03f1b97	-2.986059
127	0xc02f399c	-2.7378912
128	0xc0268e3b	-2.602431
129	0xc035da70	-2.8414574
130	0xc03bb60c	-2.9329863
131	0xc03565b4	-2.8343325
132	0xc03203b9	-2.7814772
133	0xc038b6cd	-2.8861573
134	0xc0377f27	-2.8671358
135	0xc0365d8c	-2.8494596
136	0xc024e07e	-2.576202
137	0xc0323166	-2.784265
138	0xc03aa117	-2.9160821
139	0xc0341a59	-2.8141081
140	0xc049192a	-3.142161
141	0xc036003b	-2.843764
142	0xc03b989f	-2.9311903
143	0xc03b9408	-2.93091
144	0xc03a0b2a	-2.9069314
145	0xc0423022	-3.0341878
146	0xc03c4c08	-2.9421406
147	0xc0407020	-3.0068436
148	0xc03f5446	-2.9895186
149	0xc0366021	-2.8496172
150	0xc03f7c36	-2.9919562
151	0xc0377ac4	-2.866868
152	0xc02d14f5	-2.704404
153	0xc02f7b6f	-2.7419088
154	0xc035d6a0	-2.8412247
155	0xc038ab6c	-2.8854628
156	0xc03c0f95	-2.938451
157	0xc02e5f0f	-2.724552
158	0xc038422c	-2.8790388
159	0xc02b7828	-2.6792088
160	0xc0397ec1	-2.8983614
161	0xc0368e67	-2.8524415
162	0xc03dfc6f	-2.9685323
163	0xc03834c3	-2.8782203
164	0xc03c6f5e	-2.9442973
165	0xc043beca	-3.0585198
166	0xc0346c8f	-2.819126
167	0xc0377b92	-2.8669171
168	0xc0474cec	-3.11407
169	0xc03fb83e	-2.9956203
170	0xc038d6fb	-2.8881214
171	0xc033fe84	-2.8124094
172	0xc03c906d	-2.946315
173	0xc0378d59	-2.8680022
174	0xc0369a78	-2.853178
175	0xc040e1b8	-3.0137768
176	0xc03f5ee8	-2.9901676
177	0xc032ebc5	-2.7956402
178	0xc039f94e	-2.9058414
179	0xc0381b29	-2.8766577
180	0xc02e46d2	-2.7230725
181	0xc0378516	-2.867498
182	0xc03da7d1	-2.9633677
183	0xc035e3b3	-2.8420227
184	0xc0346077	-2.8183877
185	0xc0404624	-3.004281
186	0xc04336e2	-3.0502248
187	0xc042dde0	-3.0447922
188	0xc039b9bc	-2.9019613
189	0xc0370ce6	-2.8601623
190	0xc0506538	-3.256178
191	0xc02a53da	-2.661368
192	0xc04a264a	-3.158587
193	0xc03cffd2	-2.953114
194	0xc0351968	-2.8296757
195	0xc0443296	-3.0655875
196	0xc039dfff	-2.9042966
197	0xc033fee0	-2.8124313
198	0xc036d855	-2.8569539
199	0xc03cc111	-2.9492838
200	0xc03e83fe	-2.9768062
201	0xc04bc1ff	-3.1837156
202	0xc04197a7	-3.0248811
203	0xc0404d3c	-3.004714
204	0xc036d781	-2.8569033
205	0xc03f03ed	-2.9846146
206	0xc03c1244	-2.9386148
207	0xc0444369	-3.0666144
208	0xc03c0459	-2.9377654
209	0xc041e698	-3.0296993
210	0xc03c0528	-2.9378147
211	0xc0335f99	-2.8027098
212	0xc03c38ab	-2.9409587
213	0xc036eb2e	-2.8581042
214	0xc03c685d	-2.9438698
215	0xc03f7ab2	-2.9918637
216	0xc044756c	-3.0696669
217	0xc0473120	-3.1123734
218	0xc042cac5	-3.043626
219	0xc03e3525	-2.9719937
220	0xc0492fac	-3.1435347
221	0xc03c9302	-2.9464726
222	0xc03fa498	-2.994421
223	0xc04205c2	-3.0316014
224	0xc02bf1e3	-2.6866386
225	0xc03f188b	-2.985873
226	0xc039d2e6	-2.9034972
227	0xc043fbb4	-3.0622377
228	0xc03f955d	-2.9934914
229	0xc033630f	-2.802921
230	0xc02ab6d2	-2.6674085
231	0xc03f0cd7	-2.9851587
232	0xc02b7f98	-2.6796627
233	0xc0357148	-2.8350391
234	0xc0367e8c	-2.8514738
235	0xc03e7c52	-2.976338
236	0xc0347812	-2.8198285
237	0xc035f0e6	-2.8428283
238	0xc035a2a3	-2.8380516
239	0xc027d9f6	-2.6226783
240	0xc03416d6	-2.8138938
241	0xc034d7af	-2.8256643
242	0xc03ba246	-2.9317794
243	0xc03772d7	-2.8663843
244	0xc02cd5a7	-2.7005403
245	0xc03f137d	-2.9855645
246	0xc03068ff	-2.7564085
247	0xc022edc2	-2.5457616
248	0xc03e18a0	-2.970253
249	0xc03ab27e	-2.9171443
250	0xc04cfa13	-3.2027633
251	0xc035f5ac	-2.8431196
252	0xc03ca065	-2.9472897
253	0xc03bcc09	-2.9343283
254	0xc034565d	-2.8177712
255	0xc02af40f	-2.6711462

lstm.hh.mu_bias f4 [128]
0	0x3e876f86	0.26452273
1	0x3e715c5b	0.23570387
2	0x3e005fd5	0.12536557
3	0x3e379814	0.17929107
4	0x3e1ad565	0.15120466
5	0xbda76d6c	-0.081751674
6	0xbd9ab697	-0.075543575
7	0x3e3b32ba	0.1828107
8	0x3e4c4cf9	0.19951238
9	0xbd54234a	-0.051791467
10	0x3e0467e6	0.12930259
11	0x3de38c41	0.11110736
12	0x3e03df59	0.12878169
13	0xbcee25ae	-0.029070701
14	0x3df22b3b	0.11824652
15	0xbde7aea5	-0.11312608
16	0xbd5f112e	-0.054459743
17	0x3e7b6f3b	0.2455415
18	0x3e840db0	0.25791693
19	0x3e9350d1	0.28772596
20	0xbe2a3b29	-0.1662413
21	0x3e8fcd34	0.28086245
22	0x3e311274	0.17292196
23	0x3ba35885	0.0049849176
24	0x3d85d60b	0.06534966
25	0x3e34f5b7	0.17671858
26	0xbce400ec	-0.02783247
27	0x3e19636f	0.14979337
28	0x3d6f528f	0.058428343
29	0xbd29a887	-0.041420486
30	0x3ecd43d2	0.40090805
31	0x3d37cb27	0.044871476
32	0x3e00d542	0.12581351
33	0x3e0165d5	0.12636502
34	0x3dbe0637	0.09278529
35	0xbc7564f2	-0.0149776805
36	0x3caa356b	0.020777425
37	0xbd724487	-0.059147384
38	0x3df5798e	0.11986075
39	0x3e918f13	0.2842947
40	0xbe24a398	-0.16078031
41	0x3e24565b	0.16048567
42	0xbdaf540a	-0.08560951
43	0x3deb8d84	0.11501601
44	0x3c866a7b	0.016408196
45	0xbca4a45d	-0.020097906
46	0xbd83ae95	-0.06429783
47	0xbd19b0a9	-0.037521992
48	0x3d05aa02	0.032632835
49	0x3e90365d	0.28166476
50	0x3da0cfae	0.07852112
51	0x3dd42d2b	0.103601776
52	0x3e924123	0.2856532
53	0x3e0e71ea	0.13910642
54	0x3dd3e0cc	0.10345611
55	0x3e34a83c	0.17642301
56	0x3e6b8de7	0.2300335
57	0x3de98bcd	0.11403618
58	0x3df1cb12	0.11806311
59	0x3e780dce	0.24224016
60	0x3dbec2d1	0.09314502
61	0xbc6f0132	-0.014587687
62	0x3d9687a5	0.07350091
63	0x3e686520	0.22694826
64	0x3de881fb	0.11352917
65	0xbe4e9583	-0.20174222
66	0x3e701583	0.23445706
67	0xbdd5b16a	-0.1043423
68	0x3e17fba4	0.14842087
69	0x3e02365b	0.12716047
70	0xbdcd7e61	-0.100338705
71	0xbe74ef92	-0.23919514
72	0xbe04e014	-0.12976104
73	0x3d1ee9e5	0.038797278
74	0xbde9fa94	-0.11424747
75	0xbd901800	-0.07035828
76	0x3db60c75	0.08889095
77	0x3c2ede39	0.010673099
78	0x3e4073d1	0.1879418
79	0x3e3d7d3c	0.18504804
80	0xbe05af16	-0.13055071
81	0xbe6468e8	-0.22305644
82	0xbe6641e5	-0.22486074
83	0x3e889855	0.2667872
84	0x3de4fdd7	0.111812286
85	0x3e8029a0	0.25031757
86	0xbe2105ca	-0.15724865
87	0x3e179f6c	0.14806908
88	0x3e353cf3	0.17699032
89	0xbe28ace9	-0.1647221
90	0x3e8fed61	0.28110793
91	0x3ebe4670	0.37163115
92	0xbe22e9fc	-0.1590957
93	0xbdab6ac5	-0.08369974
94	0xbec7f441	-0.39053538
95	0xbd83bc87	-0.06432443
96	0x3d569c2b	0.052395027
97	0x3df5af55	0.119963326
98	0x3e6c6392	0.23084858
99	0x3efb148d	0.49039117
100	0x3ea56960	0.32306957
101	0x3e28d249	0.16486467
102	0x3ea2acae	0.3177237
103	0x3da351d5	0.079745926
104	0x3e76a138	0.24084938
105	0x3ee8053b	0.4531649
106	0x3ea58e1b	0.3233498
107	0x3cfc5f11	0.03080705
108	0xba9418c5	-0.0011298886
109	0x3e5c81c1	0.21533872
110	0x3ea3941e	0.31948942
111	0x3e690821	0.22757007
112	0x3e635515	0.22200425
113	0x3d783d64	0.06060542
114	0x3e15ef1e	0.14641997
115	0x3e5d8e8f	0.21636413
116	0x3dcafc87	0.09911447
117	0x3ebd94ef	0.3702769
118	0x3efa8a79	0.4893377
119	0x3e055bc4	0.13023287
120	0x3db5b14f	0.088717096
121	0x3df3c313	0.11902442
122	0x3ec77a78	0.38960624
123	0x3eb6f678	0.35734916
124	0x3e803f34	0.2504822
125	0x3e4fe8c3	0.20303635
126	0x3e19f49e	0.1503472
127	0x3e70c4a2	0.2351251

lstm.hh.rho_bias f4 [128]
0	0xc0225399	-2.5363524
1	0xc0211fc8	-2.5175648
2	0xc01f6130	-2.4903069
3	0xc023e0fc	-2.560607
4	0xc02edaf8	-2.7321148
5	0xc02867d0	-2.6313362
6	0xc027889f	-2.6177137
7	0xc02ac619	-2.668341
8	0xc01dfc8d	-2.4685395
9	0xc01eb739	-2.479933
10	0xc01d4edf	-2.457939
11	0xc031bf20	-2.7772903
12	0xc02a23b5	-2.6584294
13	0xc02ba3ed	-2.6818802
14	0xc034d461	-2.8254626
15	0xc028d3e4	-2.6379328
16	0xc02e700f	-2.7255895
17	0xc013448b	-2.3010585
18	0xc025672d	-2.5844223
19	0xc014e115	-2.326238
20	0xc0316565	-2.7718136
21	0xc0257f41	-2.585892
22	0xc027a224	-2.6192713
23	0xc029880a	-2.6489282
24	0xc02ce5cf	-2.7015264
25	0xc02c992e	-2.6968493
26	0xc022421c	-2.535285
27	0xc0280c63	-2.625756
28	0xc0321a04	-2.7828379
29	0xc032ae9c	-2.7919073
30	0xc01a7b4d	-2.4137757
31	0xc02d44f4	-2.7073336
32	0xc0286786	-2.6313186
33	0xc00265ca	-2.0374627
34	0xc008c458	-2.1369839
35	0xc03c96db	-2.9467075
36	0xc01c1fa3	-2.439431
37	0xc035db22	-2.8414998
38	0xc027ea56	-2.6236777
39	0xc0217523	-2.5227745
40	0xc0204e88	-2.5047932
41	0xc02479a4	-2.5699244
42	0xc02dfd7d	-2.7185967
43	0xc03f1684	-2.9857492
44	0xc037f0a6	-2.874063
45	0xc028ee95	-2.639562
46	0xc03d0236	-2.95326
47	0xc024f8c6	-2.577684
48	0xc031cbaf	-2.7780569
49	0xc015a607	-2.3382585
50	0xc033c287	-2.808748
51	0xc01c1505	-2.438783
52	0xc0256e00	-2.5848389
53	0xc019c1cd	-2.4024537
54	0xc03137ac	-2.769023
55	0xc03753ab	-2.8644817
56	0xc03268a0	-2.7876358
57	0xc039c36b	-2.9025524
58	0xc02c8bf3	-2.6960418
59	0xc0068f86	-2.10251
60	0xc02ec531	-2.7307856
61	0xc0284885	-2.6294262
62	0xc00ac5d7	-2.1683252
63	0xc02fc525	-2.7464077
64	0xc02b9eb5	-2.6815617
65	0xc02dc689	-2.7152426
66	0xc03631da	-2.8467927
67	0xc04132be	-3.018722
68	0xc03664cc	-2.8499022
69	0xc03fde22	-2.997933
70	0xc02e95a9	-2.7278845
71	0xc02c2e80	-2.6903381
72	0xc0381202	-2.876099
73	0xc0357fa2	-2.835915
74	0xc02ce554	-2.701497
75	0xc0443ad1	-3.0660899
76	0xc03ea600	-2.9788818
77	0xc043fcef	-3.0623128
78	0xc02c5888	-2.6929035
79	0xc03a31a1	-2.909279
80	0xc043ea2d	-3.061168
81	0xc03607b9	-2.8442214
82	0xc03789b5	-2.86778
83	0xc03218f9	-2.7827742
84	0xc03d31d6	-2.9561667
85	0xc039c41e	-2.902595
86	0xc0379eda	-2.8690705
87	0xc03c9fc2	-2.9472508
88	0xc040e07f	-3.0137022
89	0xc037cc1e	-2.8718333
90	0xc0323317	-2.7843683
91	0xc03180bf	-2.773483
92	0xc03a9826	-2.9155364
93	0xc0441bab	-3.0641887
94	0xc036ad18	-2.8543148
95	0xc040b748	-3.0111866
96	0xc02de6b2	-2.7172055
97	0xc0248ea2	-2.5712056
98	0xc022bf61	-2.5429308
99	0xc023b086	-2.5576491
100	0xc02ec260	-2.7306137
101	0xc01e4e0b	-2.4735134
102	0xc02a2b2a	-2.6588845
103	0xc0312db3	-2.7684143
104	0xc01952b8	-2.3956738
105	0xc0203dfb	-2.503783
106	0xc02fa10a	-2.744204
107	0xc024ec23	-2.5769126
108	0xc038d5f8	-2.8880596
109	0xc02190ae	-2.5244555
110	0xc00e34f8	-2.221983
111	0xc02c4d16	-2.692205
112	0xc027c67b	-2.6214893
113	0xc034c0c4	-2.8242655
114	0xc039c701	-2.9027712
115	0xc024f549	-2.577471
116	0xc031926c	-2.774562
117	0xc032f5dc	-2.796256
118	0xc0213b34	-2.5192385
119	0xc030c6bb	-2.7621295
120	0xc028eeb5	-2.6395695
121	0xc03dd074	-2.965848
122	0xc00ebb4f	-2.2301824
123	0xc02d0f8a	-2.7040734
124	0xc037bb0c	-2.8707914
125	0xc02a9b11	-2.6657145
126	0xc02ceb45	-2.7018597
127	0xc0247702	-2.5697637

l1.mu_weight f4 [16, 32]
0	0x3f31ca98	0.6944976
1	0xbf273b59	-0.6532493
2	0x3f117da0	0.56832314
3	0xbf0de745	-0.55431014
4	0x3f043151	0.5163775
5	0x3f1b44f3	0.60652083
6	0xbf170cca	-0.5900389
7	0xbf203598	-0.6258178
8	0xbf079165	-0.5295623
9	0x3f28bd2f	0.6591367
10	0xbf1562ca	-0.58353865
11	0x3f019ed5	0.50632983
12	0xbf106b66	-0.56413877
13	0x3f1b95af	0.60775274
14	0x3f400990	0.7501459
15	0x3f2a9cf7	0.6664576
16	0xbf1bfe4d	-0.6093491
17	0xbef19519	-0.47184065
18	0xbf0ccc51	-0.5499926
19	0x3f22a9e4	0.6354048
20	0xbef45f3d	-0.4772891
21	0x3f084e3f	0.53244394
22	0x3f1b64af	0.60700506
23	0xbf008002	-0.50195324
24	0xbed3cc87	-0.4136698
25	0xbf221288	-0.63309526
26	0x3f20923c	0.62723136
27	0x3f0048da	0.5011116
28	0xbf4a9ef4	-0.79148793
29	0xbf041d34	-0.5160706
30	0xbf0c2d9f	-0.5475711
31	0xbec17029	-0.37780884
32	0x3f149f95	0.58056
33	0xbf0060db	-0.5014779
34	0x3f0c7d26	0.5487846
35	0xbf01f746	-0.50767934
36	0x3eef33fe	0.46719354
37	0x3ec26a8f	0.37971923
38	0xbf0f93cb	-0.5608489
39	0xbec952de	-0.39321035
40	0xbebc52c0	-0.36781883
41	0x3ed1d893	0.40985546
42	0xbf059562	-0.52181065
43	0x3f157611	0.5838328
44	0xbec29ddb	-0.3801106
45	0x3f266738	0.6500125
46	0x3f01d046	0.50708425
47	0x3f14aa0b	0.58071965
48	0xbedd36d5	-0.43205896
49	0xbf168fbf	-0.5881309
50	0xbeefcc2a	-0.46835452
51	0x3f14a4d1	0.5806399
52	0xbedf20e1	-0.43579772
53	0x3eef726e	0.4676699
54	0x3f0784e3	0.52937144
55	0xbeea201c	-0.45727623
56	0xbf16f043	-0.5896036
57	0xbf06ba52	-0.5262805
58	0x3f1a8776	0.60362947
59	0x3ed8ed93	0.42368755
60	0xbef83366	-0.48476714
61	0xbf274671	-0.6534186
62	0xbf0dcf01	-0.5539399
63	0xbf14d986	-0.58144414
64	0x3f368669	0.71298844
65	0xbeb067e5	-0.34454265
66	0x3f18928e	0.59598625
67	0xbf0a8572	-0.5410987
68	0x3f134160	0.5752163
69	0x3f27867e	0.65439594
70	0xbf14f531	-0.5818663
71	0xbf0eced2	-0.5578433
72	0xbf17afea	-0.592528
73	0x3f02f524	0.51155305
74	0xbf42091f	-0.7579517
75	0x3efe59a2	0.4967776
76	0xbf363ed3	-0.7118961
77	0x3f48c581	0.7842637
78	0x3f306235	0.6889985
79	0x3f0cb1a6	0.5495857
80	0xbf12e72d	-0.57383996
81	0xbf0c76ee	-0.5486897
82	0xbf152c71	-0.5827094
83	0x3f0bb34f	0.5457048
84	0xbf3e2fea	-0.7429186
85	0x3f15b2d8	0.5847602
86	0x3eeb7f5c	0.45995605
87	0xbd83b5e5	-0.06431178
88	0xbf3d970a	-0.7405859
89	0xbf2e4567	-0.6807465
90	0x3f2e1c44	0.6801188
91	0x3f08706d	0.5329655
92	0xbf1903ac	-0.5977123
93	0xbf1478ea	-0.57997
94	0xbf1119af	-0.56679815
95	0xbf2e1193	-0.67995566
96	0x3efe125f	0.4962339
97	0xbf23e73b	-0.64024705
98	0x3e8c1ff4	0.27368128
99	0xbeccc1de	-0.3999166
100	0x3ef3ec10	0.4764104
101	0x3ee04b8e	0.43807644
102	0xbf2df761	-0.67955595
103	0xbf1178ba	-0.5682484
104	0xbed672c1	-0.41884425
105	0x3e8e5b0a	0.27803832
106	0xbf452b6c	-0.7701938
107	0x3f095c0d	0.53656083
108	0xbf1301a8	-0.574244
109	0x3f0d926d	0.55301553
110	0x3eedb553	0.46427402
111	0x3f1ad6d3	0.60484046
112	0xbf0270a2	-0.50953114
113	0xbf196875	-0.59925014
114	0xbf108be8	-0.5646348
115	0x3f0ee215	0.55813724
116	0xbf0352e9	-0.51298386
117	0x3f1540ca	0.58301985
118	0x3ed944bf	0.42435262
119	0xbeabec14	-0.3357855
120	0xbf0de615	-0.554292
121	0xbeebd27d	-0.46059027
122	0x3f0384b5	0.5137437
123	0x3f392e9d	0.7233675
124	0xbed74380	-0.42043686
125	0xbf1e0256	-0.61722314
126	0xbedad186	-0.4273798
127	0xbf1eb707	-0.6199803
128	0x3ec0529c	0.37563026
129	0xbf2dde85	-0.6791766
130	0x3f0b87b1	0.54503924
131	0xbf26c0ec	-0.65138125
132	0x3f0d03a8	0.55083704
133	0x3f1eae2d	0.6198452
134	0xbf1546d2	-0.5831119
135	0xbf16f813	-0.5897228
136	0xbf3acfa4	-0.72973084
137	0x3f3acd62	0.7296964
138	0xbf1fde19	-0.6244827
139	0x3f0ea2e6	0.55717313
140	0xbf167a12	-0.58780015
141	0x3ee49bf8	0.44650245
142	0x3eef0e4c	0.46690595
143	0x3f060df2	0.5236503
144	0xbf179012	-0.5920421
145	0xbf13665c	-0.57578063
146	0xbeb9bd95	-0.36277452
147	0x3f35d6ba	0.7103077
148	0xbf11c596	-0.5694212
149	0x3f18a09b	0.59620064
150	0x3f1a2eb8	0.6022754
151	0xbe4ced00	-0.20012283
152	0xbf0859f1	-0.5326224
153	0xbf074417	-0.5283827
154	0x3f192d27	0.5983452
155	0x3f135cc8	0.5756345
156	0xbf2a1147	-0.66432613
157	0xbe94ab2a	-0.29036838
158	0xbf243cde	-0.64155376
159	0xbee22a9a	-0.44173127
160	0x3f1446b6	0.57920396
161	0xbf03bdfa	-0.51461756
162	0x3f3283df	0.6973247
163	0xbf0388fb	-0.5138089
164	0x3f108ca6	0.5646461
165	0x3f0a3e0e	0.5400094
166	0xbf087b6d	-0.5331333
167	0xbf0327c3	-0.51232547
168	0xbf0e1171	-0.55495363
169	0x3ef922a8	0.48659253
170	0xbf313afb	-0.6923062
171	0x3f04a3c8	0.5181241
172	0xbf097747	-0.5369763
173	0x3f37d8bd	0.7181509
174	0x3f281b53	0.65666693
175	0x3f15a0d0	0.58448505
176	0xbebb6d1e	-0.36606687
177	0xbf14069d	-0.5782259
178	0xbf2e07cd	-0.67980653
179	0x3ef68ada	0.4815281
180	0xbebb557f	-0.36588666
181	0x3f3b3ac4	0.73136544
182	0x3f1dffab	0.61718243
183	0xbf062d93	-0.5241329
184	0xbf2f9787	-0.6859059
185	0xbf17052e	-0.5899228
186	0x3ef4950e	0.4776997
187	0x3f1671bf	0.5876731
188	0xbf2e7b69	-0.6815706
189	0xbefb365d	-0.49064913
190	0xbf3083fa	-0.6895138
191	0xbf01fdac	-0.507777
192	0x3f08d293	0.5344631
193	0xbf050e5e	-0.5197505
194	0x3ef52516	0.47879857
195	0xbf0da539	-0.55330235
196	0x3ef0b2e5	0.47011486
197	0x3f2db6bb	0.6785695
198	0xbec2b8a6	-0.380315
199	0xbf01ceee	-0.50706375
200	0xbf192b76	-0.5983194
201	0x3f0aee88	0.5427022
202	0xbef3c1e4	-0.47608864
203	0x3f27d42c	0.65558124
204	0xbf194770	-0.5987463
205	0x3f079d57	0.52974457
206	0x3f1fac0f	0.62371916
207	0x3f0193a1	0.5061589
208	0xbf136666	-0.5757812
209	0xbed22040	-0.4104023
210	0xbf0c2e33	-0.54757994
211	0x3ecc69dc	0.39924514
212	0xbf3236ea	-0.6961504
213	0x3ed31914	0.4123007
214	0x3ef09150	0.46985865
215	0xbee8962b	-0.4542707
216	0xbefc4a17	-0.49275276
217	0xbf09589e	-0.53650844
218	0x3ef9a36f	0.48757502
219	0x3edb1eef	0.42797038
220	0xbefdb3a5	-0.4955112
221	0xbef2de5d	-0.47435275
222	0xbf1fcc47	-0.6242108
223	0xbf0c35cd	-0.54769593
224	0x3f20ae3c	0.6276586
225	0xbeb879d0	-0.36030436
226	0x3f3e7342	0.7439462
227	0xbeea273c	-0.45733058
228	0x3f1343fe	0.5752562
229	0x3f1ad05f	0.604742
230	0xbf0d9a81	-0.5531388
231	0xbf09ec90	-0.5387659
232	0xbf21b087	-0.63159984
233	0x3f21e87b	0.6324536
234	0xbf195a30	-0.5990324
235	0x3f195430	0.59894085
236	0xbf0a981f	-0.5413837
237	0x3edc36ab	0.43010458
238	0x3f0d546b	0.55206937
239	0x3f174ac8	0.5909848
240	0xbf2beb48	-0.67155886
241	0xbf0bf953	-0.54677314
242	0xbf1c639b	-0.61089486
243	0x3f0e3829	0.55554444
244	0xbf225d78	-0.6342387
245	0x3f09bcc9	0.5380369
246	0x3ec0a2ad	0.37624112
247	0xbe950b02	-0.2910996
248	0xbf2bdfe4	-0.67138505
249	0xbee812e8	-0.45326924
250	0x3f1a569e	0.6028842
251	0x3f06dc17	0.5267958
252	0xbf17ad0f	-0.5924844
253	0xbf0dfe08	-0.55465746
254	0xbf3d0e38	-0.7384982
255	0xbf04ad46	-0.51826894
