BNN/model_states/BNN_model_state_FD001_noisy_orig_70-30.pt (torch, 57845 bytes, 14 tensors)

lstm.ih.mu_weight f4 [128, 14]
0	0x3e81faa0	0.25386524
1	0x3e1e35e6	0.15450248
2	0x3c73b944	0.014875714
3	0xbdfd0630	-0.12354696
4	0x3dc0b3d5	0.094093
5	0xbd6a84eb	-0.057255667
6	0x3d36294e	0.044472985
7	0xbde79768	-0.11308175
8	0xbe616e5c	-0.22014755
9	0x3e877e13	0.26463374
10	0xbd4b6a39	-0.04966185
11	0xbd5dfc97	-0.054195967
12	0x3dc2d4bf	0.09513234
13	0xbe375e5b	-0.17907088
14	0x3d9d8d91	0.07693017
15	0x3e50fbad	0.20408507
16	0x3db0af80	0.08627224
17	0x3dcde005	0.10052494
18	0x3e1e69a5	0.15469988
19	0x3e15f746	0.14645109
20	0x3e0aec0b	0.13566606
21	0x3e3e3e39	0.18578424
22	0x3ead16de	0.3380651
23	0x3e87ec25	0.2654735
24	0x3e212e22	0.15740255
25	0x3e982fed	0.29724064
26	0x3e161b61	0.14658882
27	0x3c832873	0.016010499
28	0x3cf2ee8f	0.02965477
29	0xbc08470e	-0.008317722
30	0x3d0e6d2b	0.03477208
31	0x3e0bab25	0.13639505
32	0xbdad7b5e	-0.08470796
33	0xbdbac14e	-0.09118901
34	0x3d946e1b	0.072475635
35	0x3e2accae	0.16679642
36	0x3dd48734	0.103773504
37	0x3d155ed0	0.036467373
38	0x3e0a3139	0.1349534
39	0xbd26b491	-0.040699545
40	0xbe4a578a	-0.19759956
41	0x3deb5a29	0.11491806
42	0xbe4b8fe7	-0.19879113
43	0xbd4d74f0	-0.05016035
44	0xbe78c361	-0.24293281
45	0x3efdce13	0.49571285
46	0xbe570bac	-0.21000546
47	0x3d9c58dd	0.07634137
48	0xbe8f9303	-0.2804185
49	0x3e124aca	0.14286342
50	0xbd9f2a63	-0.077717565
51	0x3e2c6cb2	0.16838339
52	0xbe1a6319	-0.15076865
53	0x3d006e6d	0.03135531
54	0x3ba6fae2	0.0050958255
55	0x3e0e9b8e	0.13926527
56	0xbe931414	-0.28726256
57	0xbddacc7b	-0.10683533
58	0xbe5b051e	-0.21388671
59	0x3e199af6	0.15000519
60	0xbe45087a	-0.19241515
61	0x3e083140	0.13300037
62	0xbe4807b7	-0.19534193
63	0x3e9c9409	0.30581692
64	0x3ce6c6f6	0.028171044
65	0x3e260755	0.16213734
66	0x3db617d1	0.08891261
67	0x3db520bd	0.08844135
68	0x3dfa9ec3	0.12237313
69	0xbd00dfb4	-0.03146334
70	0xbda1f1bf	-0.079074375
71	0x3d2c61e3	0.04208554
72	0xbbfdb31b	-0.0077422983
73	0x3b8b1e5f	0.004245564
74	0xbd55bbb0	-0.052180946
75	0xbec2d3aa	-0.38052112
76	0x3e192307	0.14954768
77	0xba3a47c6	-0.0007106032
78	0xbe8690a6	-0.26282233
79	0xbeb1ce8b	-0.34727892
80	0x3dc17aa0	0.09447217
81	0x3df8819e	0.121340975
82	0xbe06954e	-0.13142893
83	0x3d21aec6	0.039473318
84	0xbdea9be9	-0.11455519
85	0xbd23acbd	-0.039959658
86	0x3d5ee6bf	0.054419275
87	0x3cfcd592	0.030863557
88	0x3de43a92	0.11143984
89	0xbdd392a9	-0.103307076
90	0xbe7a671f	-0.244534
91	0x3e22eda9	0.15910973
92	0xbe0bd4c9	-0.1365539
93	0xbe7a8fc6	-0.24468908
94	0x3c175b33	0.009238052
95	0xbd9d1e19	-0.07671756
96	0xbe809330	-0.25112295
97	0x3e1ab079	0.15106381
98	0x3dad480d	0.08461008
99	0xbc01f352	-0.007931547
100	0x3dc7b50e	0.0975133
101	0x3e0d0a99	0.13773574
102	0x3e25fcf5	0.16209777
103	0xbde3979f	-0.11112904
104	0xbe026eca	-0.12737575
105	0x3d9cb79a	0.07652207
106	0x3ddef56a	0.10886653
107	0xbd4b8889	-0.049690757
108	0x3df15576	0.117838785
109	0x3d8e76d5	0.06956259
110	0x3dc1d30c	0.09464082
111	0x3e070fdf	0.13189648
112	0xbe5ba038	-0.21447837
113	0xbddc95dd	-0.10770772
114	0xbd6b95fb	-0.05751608
115	0x3e1e71e9	0.15473141
116	0x3dafe2fd	0.085882165
117	0xbec74b10	-0.38924456
118	0x3d5c3f8d	0.053771544
119	0x3db1acb1	0.086755164
120	0x3d3214a5	0.04347672
121	0xbe49cf3e	-0.19707963
122	0xbd8fcfc0	-0.07022047
123	0x3dc0e538	0.0941872
124	0x3e5068b8	0.20352447
125	0x3e210d36	0.15727696
126	0x3e3e6ef7	0.18597017
127	0xbc178069	-0.009246924
128	0x3de6fca5	0.11278657
129	0x3de1ca8f	0.11024963
130	0xbe5097b8	-0.20370376
131	0xbe815b01	-0.25264743
132	0x39ef78f5	0.00045675752
133	0x3e6d49ab	0.23172633
134	0x3e181c45	0.14854534
135	0xbe4c1016	-0.19928011
136	0x3dfcb9ba	0.12340112
137	0x3cfd8a58	0.030949757
138	0x3d6b25c0	0.057409048
139	0x3e647650	0.22310758
140	0xbe73f0e6	-0.23822364
141	0x3e0ccd94	0.13750297
142	0xbe3f09c0	-0.18656063
143	0xbcd7f0c1	-0.026359918
144	0xbe7f73c4	-0.24946505
145	0xbb582211	-0.003297929
146	0x39657c7a	0.00021885513
147	0x3e14a891	0.14517428
148	0xbdfcc5fc	-0.1234245
149	0xbeb9e3f8	-0.3630674
150	0xbe8b2abd	-0.27181044
151	0xbe12fe62	-0.14354852
152	0xbbbdbec1	-0.005790562
153	0x3c2471dd	0.010036913
154	0xbe7f31a6	-0.24921283
155	0x3af19d5e	0.001843374
156	0xbefd9b6e	-0.49532646
157	0x3ded1eac	0.11578116
158	0xbea8a012	-0.32934624
159	0x3d388b2b	0.045054596
160	0xbe8341a2	-0.2563601
161	0x3e8ac97c	0.27106845
162	0xbe09a650	-0.1344235
163	0x3de2f966	0.11082725
164	0xbe13a96b	-0.14420097
165	0x3cd22f73	0.025657391
166	0x3e543ae6	0.20725593
167	0xbd5b4631	-0.053533737
168	0x3d553bdd	0.052059043
169	0x3d914d28	0.070947945
170	0xbe076806	-0.13223276
171	0x3e2f86ae	0.1714122
172	0xbefb5416	-0.4908759
173	0x3e099052	0.1343396
174	0xb9bd75a8	-0.0003613655
175	0x3e488251	0.19580962
176	0xbe529654	-0.20565158
177	0x3d19568d	0.037436057
178	0xbe7c97ec	-0.24667329
179	0x3d825543	0.06363919
180	0x3e919bc1	0.28439143
181	0xbea2141f	-0.31655976
182	0xbec66c97	-0.38754722
183	0xbe0f37aa	-0.13986078
184	0xbe8170a7	-0.2528126
185	0xbe4ec155	-0.20190938
186	0xbf11a881	-0.5689774
187	0xbd469132	-0.048478313
188	0x3d2751d2	0.040849514
189	0x3db16f79	0.0866384
190	0xbe0ee6d6	-0.13955244
191	0x3e3303f0	0.17481971
192	0x3d9f964c	0.07792339
193	0xbe263212	-0.16230038
194	0xbb5de9eb	-0.003386135
195	0xbda4b387	-0.080420546
196	0xbe69af9e	-0.22820899
197	0x3d66b63b	0.056326132
198	0x3da9773d	0.08274696
199	0x3e0c7648	0.13716996
200	0xbe2fdee4	-0.1717487
201	0x3e71cad7	0.23612534
202	0xbde822f1	-0.113347895
203	0xbd8fec15	-0.07027451
204	0xbcaff9c5	-0.021481404
205	0x3e93ba04	0.28852856
206	0x3e437a63	0.19089656
207	0x3dd157c5	0.10221819
208	0xbe192563	-0.14955668
209	0xbd43128d	-0.047625113
210	0xbe26e091	-0.16296603
211	0xbe71cef7	-0.23614107
212	0xbe0e8512	-0.1391795
213	0x3e0834e6	0.13301429
214	0xbe4faf6c	-0.20281762
215	0xbeb3db49	-0.3512824
216	0xbe08761a	-0.13326302
217	0x3e922c68	0.28549504
218	0xbea2ed9c	-0.31821907
219	0x3e516930	0.20450282
220	0xbd408df8	-0.047010392
221	0x3d460164	0.04834117
222	0x3e6a1880	0.22860909
223	0x3e8b4f23	0.27208814
224	0x3cba8c07	0.022771848
225	0x3dec6758	0.11543149
226	0xbd5c3b99	-0.053767774
227	0x3de47dd6	0.11156814
228	0xbf0579ff	-0.52139276
229	0xbd8dfbce	-0.069327936
230	0x3bb422ee	0.005497328
231	0x3ef73e4d	0.4828972
232	0xbeaee08e	-0.34155697
233	0xbe1c0934	-0.15237886
234	0xbe827fca	-0.2548812
235	0x3e3b78a8	0.18307745
236	0x3c959c0c	0.018262886
237	0x3e54109a	0.20709458
238	0x3e66173d	0.22469802
239	0x3e312f75	0.1730326
240	0x3c1126e1	0.008859367
241	0xbc77ad6b	-0.01511703
242	0x3e46b7ca	0.19406047
243	0x3d8c3068	0.0684517
244	0x3e02570f	0.12728523
245	0xbd76275f	-0.06009614
246	0x3e146003	0.1448975
247	0x3e65de98	0.22448194
248	0x3eace722	0.3377009
249	0x3da0caa1	0.078511484
250	0x3d19e2f5	0.03756996
251	0xbd3550f5	-0.04426666
252	0xbc06e0bf	-0.008232295
253	0xbde67a31	-0.11253775
254	0xbc5e891d	-0.013582495
255	0x3e00ef8d	0.12591381

lstm.ih.rho_weight f4 [128, 14]
0	0xc0370f81	-2.8603213
1	0xc02d5c4b	-2.708758
2	0xc0330d65	-2.7976925
3	0xc0393506	-2.8938613
4	0xc03c1a2e	-2.939098
5	0xc0389d9a	-2.8846192
6	0xc036af90	-2.8544655
7	0xc03db228	-2.9639988
8	0xc0394830	-2.895031
9	0xc02e1281	-2.7198794
10	0xc03bb64c	-2.9330015
11	0xc030e64e	-2.7640567
12	0xc0338238	-2.804823
13	0xc030c080	-2.7617493
14	0xc02d8347	-2.7111375
15	0xc03d3fd9	-2.957022
16	0xc03a653e	-2.9124293
17	0xc0373a62	-2.8629384
18	0xc02de8a2	-2.7173238
19	0xc02d85db	-2.711295
20	0xc0339b6f	-2.806362
21	0xc03a3c1f	-2.9099195
22	0xc03b69d6	-2.9283347
23	0xc03b7beb	-2.9294384
24	0xc02c9124	-2.6963587
25	0xc0314883	-2.7700508
26	0xc036b2cc	-2.854663
27	0xc02c8ab1	-2.695965
28	0xc0374278	-2.863432
29	0xc04338de	-3.050346
30	0xc03e7e6f	-2.976467
31	0xc046f59f	-3.1087415
32	0xc03e2ad9	-2.9713652
33	0xc02ff5fd	-2.749389
34	0xc039b0cf	-2.9014165
35	0xc03b3719	-2.925238
36	0xc03bb096	-2.932653
37	0xc03e1c30	-2.9704704
38	0xc034b17e	-2.8233333
39	0xc030d991	-2.7632792
40	0xc030932f	-2.7589834
41	0xc0343ed0	-2.8163338
42	0xc04097d3	-3.0092666
43	0xc039dc83	-2.904084
44	0xc03e6c9d	-2.9753792
45	0xc04494f4	-3.0715914
46	0xc04068e5	-3.0064023
47	0xc038422a	-2.8790383
48	0xc03905ab	-2.890971
49	0xc0311616	-2.766973
50	0xc0418384	-3.023652
51	0xc03af683	-2.921296
52	0xc038adff	-2.8856199
53	0xc031b876	-2.7768836
54	0xc040bcb9	-3.0115187
55	0xc02e1e9d	-2.7206185
56	0xc03e8723	-2.976998
57	0xc02e6d59	-2.725424
58	0xc04350f7	-3.0518167
59	0xc0375c71	-2.8650172
60	0xc03b1b40	-2.9235382
61	0xc04341db	-3.0508945
62	0xc045ed51	-3.0926096
63	0xc040db4e	-3.0133853
64	0xc037c112	-2.871159
65	0xc0383a3a	-2.8785539
66	0xc03d7ab6	-2.9606147
67	0xc04467fa	-3.0688462
68	0xc0321547	-2.7825487
69	0xc034dba4	-2.8259058
70	0xc0346e14	-2.8192186
71	0xc02a4aec	-2.6608229
72	0xc0370dda	-2.8602204
73	0xc0394584	-2.894868
74	0xc03aaee9	-2.9169257
75	0xc03c6467	-2.943628
76	0xc03a3a2c	-2.9098005
77	0xc03b014b	-2.921954
78	0xc043419c	-3.0508795
79	0xc03e894b	-2.9771297
80	0xc032c867	-2.7934816
81	0xc0369d22	-2.8533406
82	0xc03a1df2	-2.9080777
83	0xc03bb347	-2.9328172
84	0xc030739e	-2.7570567
85	0xc034357e	-2.815765
86	0xc0401ccf	-3.0017583
87	0xc039531f	-2.8956983
88	0xc03458dc	-2.8179235
89	0xc02ccd5c	-2.7000341
90	0xc03b0f62	-2.922814
91	0xc0421def	-3.033077
92	0xc03a8c19	-2.914801
93	0xc02dc78b	-2.7153041
94	0xc0302725	-2.7523892
95	0xc034eede	-2.8270793
96	0xc03e3d80	-2.9725037
97	0xc0368ec9	-2.852465
98	0xc0320aff	-2.7819211
99	0xc03145eb	-2.7698925
100	0xc03b5a05	-2.9273694
101	0xc0366a9d	-2.8502572
102	0xc03490c5	-2.821336
103	0xc034d723	-2.825631
104	0xc03fe0ef	-2.9981039
105	0xc03387a6	-2.8051543
106	0xc03946d1	-2.8949473
107	0xc02e76e8	-2.7260075
108	0xc037dfac	-2.8730268
109	0xc037207f	-2.8613584
110	0xc02ab0b4	-2.667035
111	0xc0380796	-2.875463
112	0xc0319dfc	-2.7752676
113	0xc027090f	-2.609928
114	0xc0312b79	-2.7682784
115	0xc0393060	-2.8935776
116	0xc033a680	-2.8070374
117	0xc0375712	-2.8646894
118	0xc031de47	-2.7791917
119	0xc0327f66	-2.7890258
120	0xc03bfa9f	-2.9371717
121	0xc0300a39	-2.750624
122	0xc03326ee	-2.799251
123	0xc0326f0b	-2.7880275
124	0xc03732c0	-2.8624725
125	0xc02d5e7d	-2.708892
126	0xc033a9ae	-2.8072314
127	0xc0312121	-2.767647
128	0xc02c5f36	-2.6933112
129	0xc03571ee	-2.8350787
130	0xc030424a	-2.754046
131	0xc03c06c2	-2.9379125
132	0xc02a954d	-2.6653626
133	0xc03988e2	-2.8989797
134	0xc0303386	-2.7531447
135	0xc034b349	-2.8234427
136	0xc03ac49c	-2.91825
137	0xc0366d61	-2.850426
138	0xc039ca41	-2.9029696
139	0xc02f0126	-2.734445
140	0xc031b426	-2.7766204
141	0xc03ffb31	-2.9997065
142	0xc033b7dc	-2.808097
143	0xc032927d	-2.790191
144	0xc04e2595	-3.2210438
145	0xc0374d3a	-2.8640885
146	0xc02c9b0c	-2.6969633
147	0xc033efcf	-2.8115118
148	0xc0308554	-2.7581377
149	0xc0331285	-2.7980053
150	0xc030132a	-2.7511697
151	0xc035a1d8	-2.8380032
152	0xc03689f7	-2.8521707
153	0xc037f6bf	-2.8744352
154	0xc03a9a50	-2.9156685
155	0xc035bc52	-2.8396192
156	0xc035b22a	-2.8389993
157	0xc034c544	-2.8245401
158	0xc030a9f1	-2.7603724
159	0xc03962dc	-2.896659
160	0xc0409e79	-3.0096724
161	0xc0454dad	-3.082866
162	0xc035c035	-2.8398564
163	0xc0424b6a	-3.035853
164	0xc03b6e06	-2.9285903
165	0xc03af04b	-2.9209163
166	0xc03a4e7f	-2.911041
167	0xc0332089	-2.7988608
168	0xc036eb9c	-2.8581305
169	0xc041b925	-3.0269253
170	0xc038b93a	-2.8863053
171	0xc03a34bd	-2.909469
172	0xc039cc95	-2.9031117
173	0xc035a9db	-2.8384922
174	0xc034e277	-2.8263223
175	0xc038914f	-2.883869
176	0xc0326839	-2.7876112
177	0xc03cc20f	-2.9493444
178	0xc03844d9	-2.8792021
179	0xc036e3c0	-2.8576508
180	0xc03dd842	-2.9663243
181	0xc0357b5f	-2.835655
182	0xc03ab477	-2.9172647
183	0xc03b4057	-2.925802
184	0xc03af16c	-2.9209852
185	0xc0362b0d	-2.8463776
186	0xc0402b21	-3.0026324
187	0xc03de530	-2.9671135
188	0xc03e65ab	-2.9749553
189	0xc03d678e	-2.9594455
190	0xc0402556	-3.0022788
191	0xc0408354	-3.0080156
192	0xc0331d22	-2.7986531
193	0xc03ac0b9	-2.9180129
194	0xc03ae344	-2.9201212
195	0xc039266d	-2.8929703
196	0xc03b5517	-2.9270685
197	0xc0326797	-2.7875726
198	0xc0383fd4	-2.8788958
199	0xc03f46cf	-2.9886968
200	0xc03f880f	-2.9926794
201	0xc02d51ad	-2.70811
202	0xc03955c6	-2.8958602
203	0xc035738d	-2.8351777
204	0xc0317826	-2.7729583
205	0xc03d59c4	-2.9586039
206	0xc03581b7	-2.8360422
207	0xc034d74d	-2.825641
208	0xc03d5a69	-2.9586432
209	0xc03afdb2	-2.9217343
210	0xc03ca45f	-2.9475324
211	0xc03eaaeb	-2.979182
212	0xc0390afd	-2.8912957
213	0xc034db8e	-2.8259006
214	0xc03844b0	-2.8791924
215	0xc0351e61	-2.8299792
216	0xc03bcd0f	-2.9343908
217	0xc03d1204	-2.9542246
218	0xc03b0f9e	-2.9228282
219	0xc02ba03a	-2.6816545
220	0xc02fc9ea	-2.7466989
221	0xc030c8c9	-2.762255
222	0xc0330c23	-2.7976158
223	0xc03433cb	-2.8156612
224	0xc03c7738	-2.9447765
225	0xc040344f	-3.0031927
226	0xc0340fe7	-2.8134706
227	0xc03b8a4f	-2.9303167
228	0xc03eda82	-2.9820867
229	0xc0436702	-3.053162
230	0xc03a10ec	-2.9072828
231	0xc03a15a6	-2.9075713
232	0xc045ab49	-3.0885794
233	0xc0340974	-2.813077
234	0xc03b56d6	-2.927175
235	0xc03744c3	-2.863572
236	0xc041fa87	-3.030916
237	0xc0442975	-3.0650303
238	0xc0426b12	-3.037785
239	0xc038c79d	-2.8871834
240	0xc03865de	-2.8812175
241	0xc0387f45	-2.882768
242	0xc037d345	-2.8722699
243	0xc03d9f5a	-2.962851
244	0xc03831e5	-2.8780453
245	0xc0381851	-2.8764842
246	0xc041f12f	-3.0303457
247	0xc0308ca2	-2.7585835
248	0xc03485f5	-2.820676
249	0xc02b1ef9	-2.6737654
250	0xc034d21b	-2.8253238
251	0xc0335965	-2.8023312
252	0xc04258b1	-3.0366633
253	0xc0359887	-2.8374345
254	0xc03be336	-2.9357429
255	0xc03dbfff	-2.9648435

lstm.ih.mu_bias f4 [128]
0	0x3e1c9a7e	0.15293309
1	0xbbc59911	-0.00603021
2	0x3b576f7c	0.0032872846
3	0xbd17bd79	-0.03704593
4	0x3ccce509	0.025011556
5	0x3e60c523	0.21950202
6	0x3e151110	0.1455729
7	0x3d40e4e4	0.047093287
8	0x3e052b86	0.13004884
9	0xbdd57600	-0.10422897
10	0x3d6a41fd	0.057191838
11	0x3d7a086d	0.06104319
12	0x3e72c1e7	0.2370678
13	0xbc5d0a32	-0.0134912
14	0x3e41bfad	0.18920775
15	0x3c20553d	0.009785947
16	0xbd839682	-0.064251915
17	0x3d5dd946	0.054162286
18	0x3d97a431	0.07404364
19	0x3d629400	0.055316925
20	0x3cddf3c1	0.02709377
21	0x3ad63373	0.0016342237
22	0xbe8ec369	-0.2788346
23	0x3e7477c4	0.23873812
24	0x3be34f42	0.0069369385
25	0x3cd5b25c	0.026086025
26	0x3e81bb59	0.25338247
27	0x3e175b0a	0.14780822
28	0x3e15396a	0.14572683
29	0x3cd56f9c	0.026054196
30	0x3deb0fd8	0.11477631
31	0xbd6d0d98	-0.057874292
32	0x3e43f4e5	0.19136389
33	0xbd0de8ad	-0.034645725
34	0x3be24772	0.0069054896
35	0x3e223f81	0.15844537
36	0x3d841aa6	0.06450395
37	0x3d68805a	0.05676303
38	0x3d3dc8f0	0.046334207
39	0x3e7fbd9a	0.24974671
40	0x3acbe778	0.0015556654
41	0xbd3b0550	-0.045659363
42	0x3e5a66b3	0.21328239
43	0x3e1ea8cb	0.15494077
44	0x3dce5a39	0.10075802
45	0xbdcff086	-0.10153298
46	0xbd93fab6	-0.07225554
47	0x3db71355	0.08939234
48	0x3ce6bb91	0.02816561
49	0x3d777e71	0.06042332
50	0x3e89bc63	0.2690154
51	0xbd27a9d6	-0.040933453
52	0xbe06859e	-0.13136908
53	0x3db67985	0.08909897
54	0xbd78fb00	-0.060786247
55	0x3d5a3d96	0.05328139
56	0xbd508636	-0.050909244
57	0xbaf53da3	-0.0018710386
58	0x3e62003f	0.22070406
59	0x3e335a39	0.17514886
60	0x3df982d8	0.121831596
61	0xbdfe21f9	-0.124088235
62	0x3e587130	0.21136928
63	0xbd5d4490	-0.054020464
64	0xbea84c55	-0.32870737
65	0x3d491fe3	0.049102675
66	0x3e50d361	0.20393135
67	0xbe20e292	-0.1571143
68	0x3df4c546	0.119516894
69	0x3df3e09a	0.11908074
70	0x3e343061	0.1759658
71	0xbe126008	-0.14294446
72	0xbd5edfde	-0.054412715
73	0x3dbbe545	0.09174589
74	0xbd808901	-0.062761314
75	0x3d925954	0.07145944
76	0xbe2312ca	-0.15925136
77	0x3d86d62d	0.065838195
78	0x3dc629d7	0.09675949
79	0x3db42de5	0.08797816
80	0xbcd6db56	-0.026227634
81	0xbd6b6e3a	-0.057478167
82	0xbe03ed97	-0.12883602
83	0xbd001d07	-0.031277683
84	0xbe2cbf6d	-0.16869898
85	0x3d84cac0	0.06483984
86	0x3a7dac7e	0.00096768874
87	0x3d8962d4	0.06708303
88	0xbcb5efdd	-0.022209102
89	0x3dea52b5	0.11441556
90	0x3d330c99	0.043713186
91	0x3dc132a2	0.094334856
92	0xbdbcdd1b	-0.0922186
93	0x3e8bbd2e	0.2729277
94	0xbd8ec703	-0.06971552
95	0x3dd724cc	0.10505065
96	0x3dec807b	0.11547943
97	0x3e828a42	0.25496107
98	0xbbc4d4bd	-0.0060068057
99	0x3d43d889	0.047813926
100	0x3e6ea34f	0.23304485
101	0x3e988696	0.2979018
102	0xbb357dbe	-0.0027693356
103	0x3eea02b5	0.4570519
104	0x3e8ac2a1	0.27101615
105	0x3e3f4e8c	0.18682307
106	0x3e2a5dd1	0.1663735
107	0xbbfaa58c	-0.0076491293
108	0x3e73cf8c	0.23809642
109	0x3e3249af	0.1741092
110	0x3dd7add0	0.10531199
111	0x3e09a37a	0.13441268
112	0x3e0fb0e5	0.14032324
113	0x3e53fdc2	0.2070227
114	0x3e34b537	0.17647253
115	0x3e1c4fb4	0.1526478
116	0x3e210224	0.15723473
117	0x3e1a685d	0.15078874
118	0xbd4065b8	-0.046972007
119	0x3e94c50d	0.29056588
120	0x3e3c345e	0.18379351
121	0x3e67ea8b	0.22648065
122	0x3dbb7c2c	0.09154543
123	0x3e44b838	0.19210899
124	0x3e685ef1	0.22692467
125	0x3efc33f0	0.49258375
126	0x3de5e37a	0.11225028
127	0x3e243bce	0.16038439

lstm.ih.rho_bias f4 [128]
0	0xc01c9650	-2.4466743
1	0xc0256973	-2.584561
2	0xc01f7d95	-2.49204
3	0xc02ca2e0	-2.697441
4	0xc035e917	-2.8423517
5	0xc0268d62	-2.6023793
6	0xc033339e	-2.8000255
7	0xc028e5a8	-2.639017
8	0xc024253a	-2.5647721
9	0xc01e8ddb	-2.4774082
10	0xc02e0bf1	-2.7194788
11	0xc035d6ce	-2.8412356
12	0xc02d1474	-2.7043734
13	0xc02ef639	-2.7337782
14	0xc02d260e	-2.7054477
15	0xc03d35fe	-2.9564204
16	0xc030cdcd	-2.762561
17	0xc02a5f39	-2.662062
18	0xc0208943	-2.5083778
19	0xc02e8605	-2.72693
20	0xc02e940e	-2.7277865
21	0xc02ab5e9	-2.667353
22	0xc02b96f5	-2.6810887
23	0xc01ccbd2	-2.4499402
24	0xc0318f91	-2.7743876
25	0xc02b0804	-2.6723642
26	0xc02247a0	-2.5356216
27	0xc01ed1ca	-2.4815545
28	0xc023eac7	-2.5612047
29	0xc024d901	-2.5757449
30	0xc0306ee4	-2.7567682
31	0xc0202a4b	-2.5025814
32	0xc01d9634	-2.4622927
33	0xc02f1047	-2.7353685
34	0xc02f8d9c	-2.7430182
35	0xc03902b0	-2.890789
36	0xc02c3461	-2.690697
37	0xc0325689	-2.7865317
38	0xc0311715	-2.7670338
39	0xc031d2e6	-2.7784972
40	0xc02336b7	-2.5502145
41	0xc02d577c	-2.7084646
42	0xc031ac85	-2.7761548
43	0xc03ee0bd	-2.982467
44	0xc032e8df	-2.7954633
45	0xc02e6fb6	-2.7255683
46	0xc04026b3	-3.002362
47	0xc039f865	-2.9057858
48	0xc0364b09	-2.8483298
49	0xc0240deb	-2.5633495
50	0xc0278ebb	-2.6180866
51	0xc02fa781	-2.7445986
52	0xc0396a91	-2.8971293
53	0xc035b061	-2.8388903
54	0xc02e4889	-2.7231772
55	0xc02b0bd4	-2.672597
56	0xc030f3a0	-2.7648697
57	0xc0317562	-2.7727895
58	0xc012c475	-2.2932408
59	0xc02340cd	-2.5508301
60	0xc02bc214	-2.6837206
61	0xc02efc62	-2.7341542
62	0xc0294b3c	-2.645217
63	0xc0274810	-2.6137733
64	0xc0333789	-2.8002646
65	0xc039a1dc	-2.900504
66	0xc0350aa5	-2.8287747
67	0xc03ef843	-2.9839027
68	0xc0376a57	-2.8658655
69	0xc031d1cd	-2.7784302
70	0xc03da6ef	-2.9633138
71	0xc03dde0f	-2.9666784
72	0xc042be96	-3.0428824
73	0xc03b4bdf	-2.9265058
74	0xc031685f	-2.7719953
75	0xc041bd00	-3.0271606
76	0xc03d3288	-2.9562092
77	0xc0350f02	-2.829041
78	0xc04798d1	-3.1187022
79	0xc03f937d	-2.993377
80	0xc0362843	-2.8462074
81	0xc0362e20	-2.8465652
82	0xc03ec06e	-2.980495
83	0xc03f9649	-2.9935477
84	0xc0336831	-2.8032343
85	0xc0399cea	-2.9002023
86	0xc03198dd	-2.774955
87	0xc03131ce	-2.7686648
88	0xc040c7f4	-3.0122042
89	0xc035e64c	-2.8421812
90	0xc0339c6d	-2.8064225
91	0xc02d9c70	-2.7126732
92	0xc050f224	-3.264779
93	0xc0313bb5	-2.7692692
94	0xc034ec1b	-2.8269107
95	0xc023aa0b	-2.5572536
96	0xc033a72e	-2.8070788
97	0xc035865f	-2.8363264
98	0xc02c55d1	-2.6927378
99	0xc027ec89	-2.623812
100	0xc01c450b	-2.441714
101	0xc02b3915	-2.675359
102	0xc02a0a4d	-2.6568787
103	0xc02e851f	-2.726875
104	0xc03b3e26	-2.9256682
105	0xc023a6e1	-2.5570605
106	0xc0224d8e	-2.5359836
107	0xc0332cdf	-2.7996137
108	0xc0244c85	-2.5671704
109	0xc0273f10	-2.613224
110	0xc02dc28d	-2.7149994
111	0xc01eeda6	-2.483255
112	0xc0303d6c	-2.753749
113	0xc04322d5	-3.049001
114	0xc0305e6b	-2.7557628
115	0xc03547dd	-2.8325112
116	0xc0143b6e	-2.3161273
117	0xc02f670f	-2.7406652
118	0xc0357af4	-2.8356295
119	0xc03b06b5	-2.9222844
120	0xc01fbbe0	-2.495842
121	0xc03076bf	-2.7572477
122	0xc0350481	-2.8284
123	0xc02625d2	-2.5960584
124	0xc0261583	-2.595063
125	0xc01e0cb8	-2.4695263
126	0xc0397fc0	-2.8984222
127	0xc0223cd5	-2.534963

lstm.hh.mu_weight f4 [128, 32]
0	0xbe811252	-0.2520929
1	0xbdefad3f	-0.11702966
2	0x3e943b6c	0.28951585
3	0xbcdb5f43	-0.026778823
4	0x3d48d9fa	0.049036004
5	0x3e622269	0.22083439
6	0x3e07315f	0.13202427
7	0xbe8f8d12	-0.28037316
8	0xbe458aa6	-0.19291171
9	0x3e463de6	0.1935955
10	0xbe70d87b	-0.23520081
11	0x3e0f005a	0.13964978
12	0xbe02ee63	-0.1278625
13	0xbbb857fe	-0.005625724
14	0x3e2ee39c	0.17079014
15	0x3db7d646	0.08976416
16	0xbe742e24	-0.23845726
17	0xbe810926	-0.25202292
18	0xbebe7e0f	-0.3720555
19	0xbe04de2f	-0.12975381
20	0xbda68a2a	-0.081318215
21	0xbe03c16f	-0.12866758
22	0x3dc4c1a0	0.096072435
23	0x3ec5eb32	0.38656002
24	0x3e309cbd	0.17247291
25	0xbbea7bc4	-0.0071558673
26	0x3e6d2514	0.23158675
27	0x3df8b074	0.12143031
28	0x3cacc627	0.02109058
29	0x3e74040a	0.23829666
30	0xbde77c22	-0.11302973
31	0x3ee4b9a7	0.44672891
32	0x3a910f10	0.0011067111
33	0x3e158d27	0.14604627
34	0xbca10289	-0.01965453
35	0x3dbbdc39	0.091728635
36	0x3de630c5	0.11239771
37	0xbe4052b9	-0.18781556
38	0x3d88e200	0.06683731
39	0xbd194ba1	-0.03742564
40	0xbccd9f4e	-0.025100376
41	0xbd9065b1	-0.07050646
42	0xbc4d437b	-0.012528296
43	0x3bda829b	0.0066684014
44	0xbd17a6d2	-0.037024327
45	0x3e41b5ee	0.18917057
46	0x3e311153	0.17291765
47	0xbd92cb97	-0.07167738
48	0xbd315257	-0.043291416
49	0xbd898f06	-0.06716733
50	0x3cfde23c	0.030991666
51	0xbcf0123a	-0.029305566
52	0xbdd33376	-0.1031255
53	0x3ea66fd2	0.32507187
54	0xbe90ca04	-0.28279126
55	0x3e02db4d	0.12778969
56	0x3ddc450e	0.10755359
57	0x3dfbbc57	0.12291782
58	0x3df192be	0.11795567
59	0x3dbf4ba4	0.09340599
60	0xbdf46989	-0.11934192
61	0x3be8e019	0.0071067926
62	0xbce9fdc4	-0.028563388
63	0x3ce5fa81	0.028073551
64	0xbe19bb93	-0.1501296
65	0xbdfb2938	-0.12263721
66	0x3e0afeeb	0.13573806
67	0xbd4180dd	-0.047242034
68	0x3dfb6e76	0.12276928
69	0x3e33cddf	0.17559002
70	0x3dbd630f	0.092474096
71	0xbe228eea	-0.1587483
72	0xbd87daff	-0.06633567
73	0xbd5dd29e	-0.05415594
74	0xbd6c0149	-0.057618413
75	0x3decaefc	0.11556813
76	0xbe01f59f	-0.12691353
77	0x3daeb4ed	0.085306026
78	0x3e6e737b	0.2328624
79	0xbda97f4b	-0.08276232
80	0xbe71f220	-0.2362752
81	0xbe01e749	-0.12685885
82	0xbeab6623	-0.33476362
83	0x3e03f5e9	0.12886776
84	0xbb828f83	-0.003984393
85	0x3d8b5cb7	0.06804793
86	0xbd6eaf64	-0.058272734
87	0x3e0264bf	0.12733744
88	0x3e40f645	0.18843944
89	0x3e16230f	0.14661811
90	0x3e25427a	0.1613864
91	0x3d5eaa5a	0.05436168
92	0x3e893ff5	0.26806608
93	0xbd92960d	-0.07157526
94	0xbe323d00	-0.17406082
95	0xbd3a32bd	-0.045458544
96	0x3e248cf2	0.16069391
97	0xbc090964	-0.008364055
98	0xbe1055a2	-0.14095166
99	0x3d4a5519	0.04939756
100	0xbd3a6a8e	-0.045511775
101	0xbe4a123d	-0.1973352
102	0x3d321f99	0.043487165
103	0xbcc370da	-0.023857523
104	0x3cda6f58	0.026664421
105	0x3d5d3732	0.054007716
106	0xbe718000	-0.23583984
107	0x3bbd44b8	0.005776014
108	0xbe17a202	-0.14807895
109	0x3e47c4b7	0.19508635
110	0xbe67c995	-0.22635491
111	0x3ced67bb	0.028980127
112	0xbdbc5309	-0.09195525
113	0x3dc62758	0.09675473
114	0xbe9384c4	-0.2881223
115	0x3dbd156a	0.092326
116	0xbd2af5ec	-0.041738436
117	0x3ea1ff5e	0.31640142
118	0x3d75886b	0.05994455
119	0xbd1b8940	-0.03797269
120	0xbd6021ad	-0.054719616
121	0x3e955a08	0.2917025
122	0x3c7e15d9	0.015508139
123	0x3d7b0002	0.061279304
124	0xbb796c9d	-0.0038059123
125	0xbde82ad9	-0.113362975
126	0xbd920b0c	-0.07131013
127	0xbde3542a	-0.111000374
128	0x3d434e13	0.04768188
129	0x3c883d9f	0.016630946
130	0xbc8f5d54	-0.017500557
131	0x3d885edc	0.06658718
132	0x3dbc7854	0.09202638
133	0xbdc13cff	-0.09435462
134	0xbb55c4aa	-0.0032618442
135	0xbd9fcc02	-0.07802583
136	0xb95341d2	-0.00020147048
137	0xbd9c184c	-0.07621822
138	0xbe380138	-0.17969215
139	0xbe2020bd	-0.15637489
140	0xbda00fca	-0.078155115
141	0xbdcd7973	-0.1003293
142	0xbd592f90	-0.053023875
143	0xbe1f3d13	-0.15550642
144	0xbb33d09b	-0.002743757
145	0xbdd63441	-0.104591854
146	0xbd895910	-0.067064404
147	0x3e14adca	0.1451942
148	0xbd2ea9fe	-0.042642586
149	0x3e3b0255	0.18262608
150	0x3e2d9208	0.16950238
151	0xbd8ba969	-0.06819422
152	0xbc962209	-0.018326776
153	0x3e14503f	0.14483736
154	0xbe0b5962	-0.13608316
155	0x3c6638d1	0.014051632
156	0xbdbcda26	-0.09221296
157	0xbd1e151c	-0.03859435
158	0x3da2a385	0.07941345
159	0x3e1b8618	0.15187871
160	0xbea2a701	-0.3176804
161	0x3d95bca9	0.07311375
162	0x3b9de4e6	0.0048185466
163	0x3c4cceaf	0.012500449
164	0x3d3a993f	0.045556303
165	0x3d302ab5	0.04300948
166	0x3ddf611e	0.109071955
167	0xbe01e508	-0.12685025
168	0xbe875d9a	-0.264386
169	0x3e06b61d	0.13155408
170	0x3d174d06	0.03693869
171	0xbd9aad46	-0.075525805
172	0x3d3d41dd	0.04620539
173	0x3e2ebd67	0.17064439
174	0xbdbc38a4	-0.09190491
175	0xbd4a1f7a	-0.049346425
176	0x3d80fed7	0.06298607
177	0xbd47073d	-0.048590887
178	0xbe3f562a	-0.18685213
179	0xbda266e8	-0.07929784
180	0xbd96193a	-0.0732903
181	0x3c2da246	0.010597771
182	0x3dcc5019	0.09976215
183	0xbd8b6734	-0.06806794
184	0x3de79ca2	0.11309172
185	0xbd97e995	-0.07417599
186	0xbda40a13	-0.08009734
187	0x3d27b813	0.04094703
188	0x3dbcd61e	0.09220527
189	0xbe52ff10	-0.20605111
190	0xbceb5a0e	-0.028729465
191	0xbca751e0	-0.020424783
192	0xbe4f846d	-0.2026536
193	0xbc9d9553	-0.019236242
194	0xbd6f1a67	-0.05837479
195	0x3dcf2344	0.10114148
196	0x3d646f43	0.05577017
197	0x3c2fa7c7	0.010721154
198	0xbe224cf9	-0.15849675
199	0x3dce7e66	0.10082702
200	0xbe452708	-0.1925317
201	0xbc790b78	-0.015200488
202	0x3dc093fe	0.09403227
203	0xbdf14dd2	-0.11782421
204	0xbe36b3fa	-0.17842093
205	0xbdbabdf1	-0.0911826
206	0x3e343d74	0.17601568
207	0xbd3815f3	-0.044942807
208	0xbdc90b32	-0.098165885
209	0x3dbbd4ef	0.09171473
210	0xbe0ea8fb	-0.13931648
211	0xbc5265b0	-0.012841627
212	0xbbcd3a19	-0.0062630293
213	0x3e095ce4	0.13414341
214	0x3e2cf17c	0.16888994
215	0xbe1b1a27	-0.15146695
216	0xbd8bbad2	-0.068227425
217	0x3d9ea7ab	0.07746824
218	0x3d4a11a1	0.04933322
219	0xbe03b3f8	-0.12861621
220	0xbdb3508b	-0.08755597
221	0xbdb7325f	-0.089451544
222	0xbd952403	-0.07282259
223	0xbd9a123b	-0.075230084
224	0x3d987cd3	0.07445683
225	0x3d094698	0.03351459
226	0xbd5f202a	-0.054474033
227	0xbe3d8362	-0.1850715
228	0xbaf56d37	-0.0018724565
229	0x3db95937	0.090502195
230	0xbe92afa3	-0.28649625
231	0xbbef3cf5	-0.007300968
232	0x3e828f2e	0.25499862
233	0x3db4e59f	0.08832859
234	0xbefcae9f	-0.49351975
235	0x3e037f3b	0.12841503
236	0xbeb682ae	-0.35646576
237	0xbc224e4a	-0.009906361
238	0x3dd248f2	0.102678195
239	0xbe06c3a9	-0.13160576
240	0x3d5a95d3	0.05336554
241	0xbb8d8e39	-0.004319933
242	0x3e1953ec	0.1497342
243	0x3eb224eb	0.3479379
244	0xbe802bef	-0.2503352
245	0x3e5d5fc3	0.21618561
246	0x3e177175	0.14789374
247	0xbdf69448	-0.12040001
248	0x3e8be4ff	0.27323148
249	0x3d63d38f	0.05562168
250	0x3caea0a6	0.021316838
251	0xbdcc1133	-0.09964218
252	0xbd89ff37	-0.067381315
253	0xbd46c800	-0.04853058
254	0x3dd22ea8	0.10262805
255	0xbcebe8fe	-0.028797623

lstm.hh.rho_weight f4 [128, 32]
0	0xc03f4d8f	-2.9891088
1	0xc030ea57	-2.764303
2	0xc03c1cf7	-2.9392679
3	0xc02ed0e0	-2.7314987
4	0xc03ece93	-2.9813583
5	0xc0400604	-3.0003672
6	0xc0340fb2	-2.813458
7	0xc0394b3a	-2.8952165
8	0xc02f4a7d	-2.7389214
9	0xc036a1e9	-2.8536322
10	0xc03e12cc	-2.9698973
11	0xc03a687d	-2.9126275
12	0xc039ecb1	-2.9050715
13	0xc03116dd	-2.7670205
14	0xc03881fc	-2.8829336
15	0xc03e5c75	-2.9743931
16	0xc02b6cfc	-2.6785269
17	0xc035a116	-2.837957
18	0xc035e490	-2.8420753
19	0xc03725de	-2.8616862
20	0xc0410c82	-3.0163884
21	0xc038d5dd	-2.8880532
22	0xc0345737	-2.8178232
23	0xc03643fc	-2.8478994
24	0xc02df598	-2.7181149
25	0xc03260a9	-2.7871497
26	0xc034b982	-2.8238225
27	0xc0449031	-3.0713007
28	0xc02edcb3	-2.7322204
29	0xc0245f58	-2.5683193
30	0xc038772a	-2.8822732
31	0xc0300d7f	-2.7508237
32	0xc03b54ef	-2.927059
33	0xc03be779	-2.936003
34	0xc0300244	-2.7501383
35	0xc03b0f11	-2.9227946
36	0xc03dc948	-2.9654102
37	0xc0421f43	-3.033158
38	0xc0344ff9	-2.8173811
39	0xc028c51d	-2.6370308
40	0xc03485cc	-2.8206663
41	0xc03927f2	-2.893063
42	0xc03a621f	-2.9122388
43	0xc0422a48	-3.0338306
44	0xc036a270	-2.8536644
45	0xc03c27d2	-2.9399304
46	0xc03d65a1	-2.959328
47	0xc0374923	-2.863839
48	0xc03d48a8	-2.9575596
49	0xc02f8aa4	-2.742837
50	0xc0365e90	-2.8495216
51	0xc047f276	-3.1241736
52	0xc039cb64	-2.903039
53	0xc03f5990	-2.9898415
54	0xc034f866	-2.827661
55	0xc0390098	-2.8906612
56	0xc046454a	-3.097979
57	0xc032605d	-2.7871315
58	0xc03bb814	-2.9331102
59	0xc046f5c1	-3.1087496
60	0xc03afa0e	-2.9215121
61	0xc033f04f	-2.8115423
62	0xc03b5cde	-2.9275432
63	0xc02ec561	-2.730797
64	0xc03bf65e	-2.936912
65	0xc035495a	-2.832602
66	0xc03dd0dd	-2.965873
67	0xc04389f1	-3.0552943
68	0xc03f19f5	-2.9859593
69	0xc03f8d91	-2.9930155
70	0xc040ffd7	-3.0156152
71	0xc03bdca6	-2.9353423
72	0xc033e563	-2.8108757
73	0xc03cf6ee	-2.9525714
74	0xc03e869b	-2.9769657
75	0xc044f19e	-3.0772471
76	0xc034e31c	-2.8263617
77	0xc0382962	-2.8775258
78	0xc03da3f9	-2.963133
79	0xc0340fba	-2.8134599
80	0xc03aafa0	-2.9169693
81	0xc04d1426	-3.2043548
82	0xc045bfbd	-3.0898278
83	0xc0313f3e	-2.769485
84	0xc036ef6e	-2.8583636
85	0xc030bc62	-2.761498
86	0xc03c6256	-2.943502
87	0xc03e6360	-2.9748154
88	0xc03e4b7c	-2.9733572
89	0xc03c0668	-2.937891
90	0xc03f3778	-2.9877605
91	0xc031eb09	-2.7799704
92	0xc02dfe67	-2.7186525
93	0xc03ec449	-2.9807303
94	0xc03e5fb2	-2.9745908
95	0xc031009c	-2.7656622
96	0xc043d1b6	-3.0596747
97	0xc0354550	-2.8323555
98	0xc0401bd9	-3.0016997
99	0xc0310d44	-2.7664347
100	0xc03baf9e	-2.9325938
101	0xc0408d6f	-3.0086324
102	0xc0450a2f	-3.0787466
103	0xc037f040	-2.8740387
104	0xc02bec1e	-2.6862864
105	0xc03d862d	-2.9613144
106	0xc0405b82	-3.0055852
107	0xc03fe246	-2.9981856
108	0xc03ea135	-2.9785893
109	0xc03a56d7	-2.9115503
110	0xc035fb9f	-2.8434827
111	0xc02ee50c	-2.73273
112	0xc03a4edc	-2.9110632
113	0xc03e6f1a	-2.975531
114	0xc03806c8	-2.875414
115	0xc03b8d5c	-2.930503
116	0xc03a120b	-2.9073513
117	0xc0365b34	-2.8493166
118	0xc037f199	-2.874121
119	0xc03f8bfd	-2.9929192
120	0xc0409b1c	-3.0094671
121	0xc03a147e	-2.9075007
122	0xc03a4676	-2.9105506
123	0xc03f863b	-2.9925678
124	0xc03f0248	-2.9845142
125	0xc0397dfd	-2.8983147
126	0xc03ea82d	-2.9790146
127	0xc0378e4d	-2.8680604
128	0xc03614aa	-2.8450112
129	0xc03cb957	-2.9488122
130	0xc03ed15c	-2.9815283
131	0xc036a454	-2.8537798
132	0xc031e97a	-2.7798753
133	0xc0358b0e	-2.8366122
134	0xc03cc4cc	-2.9495115
135	0xc042e093	-3.044957
136	0xc031edb3	-2.780133
137	0xc03063c5	-2.7560894
138	0xc0379846	-2.868669
139	0xc039f2c5	-2.9054425
140	0xc05151cc	-3.2706175
141	0xc03f1eb1	-2.9862483
142	0xc03ce724	-2.9516077
143	0xc0459d39	-3.087721
144	0xc03f8ad7	-2.992849
145	0xc03f3edf	-2.9882123
146	0xc0401e65	-3.0018551
147	0xc03d2637	-2.9554574
148	0xc0458041	-3.085953
149	0xc04245cb	-3.0355098
150	0xc042f60e	-3.046268
151	0xc03bf11a	-2.9365907
152	0xc0346c6f	-2.8191183
153	0xc03252b9	-2.786299
154	0xc040ab43	-3.010453
155	0xc0377ecf	-2.8671148
156	0xc03ad85b	-2.9194553
157	0xc033e7d0	-2.8110237
158	0xc03ed963	-2.9820182
159	0xc03a0c3c	-2.9069967
160	0xc03fd82d	-2.9975693
161	0xc0429a7f	-3.0406797
162	0xc045160f	-3.0794713
163	0xc041e3ca	-3.0295281
164	0xc03f7c5c	-2.9919653
165	0xc048f9ae	-3.1402392
166	0xc040496c	-3.0044813
167	0xc037ab7f	-2.8698423
168	0xc0484914	-3.1294603
169	0xc03c72da	-2.94451
170	0xc036e8a3	-2.857949
171	0xc0418ebf	-3.0243375
172	0xc03b2f01	-2.924744
173	0xc03a2908	-2.9087543
174	0xc035ca95	-2.8404896
175	0xc034956f	-2.8216207
176	0xc0420886	-3.0317702
177	0xc0327e60	-2.7889633
178	0xc0392342	-2.892777
179	0xc0340c5d	-2.8132546
180	0xc0384a02	-2.879517
181	0xc045049f	-3.078407
182	0xc032c735	-2.7934086
183	0xc03b84ed	-2.9299881
184	0xc0310c9d	-2.7663949
185	0xc03ccca9	-2.9499915
186	0xc040ede4	-3.0145197
187	0xc041dc00	-3.0290527
188	0xc040299c	-3.0025396
189	0xc03c3a61	-2.9410632
190	0xc04bb940	-3.1831818
191	0xc0304807	-2.7543962
192	0xc0492ba0	-3.1432877
193	0xc045aa62	-3.0885243
194	0xc03dc8b0	-2.965374
195	0xc04159d0	-3.0211067
196	0xc03a35f5	-2.9095433
197	0xc0391fbb	-2.8925617
198	0xc03ca465	-2.9475338
199	0xc0428ea1	-3.0399554
200	0xc03ee5aa	-2.9827676
201	0xc04e50f4	-3.223691
202	0xc0452c87	-3.0808427
203	0xc03feb78	-2.9987469
204	0xc0391ed1	-2.892506
205	0xc048e173	-3.1387603
206	0xc0339b7c	-2.806365
207	0xc049e44d	-3.1545594
208	0xc0383f13	-2.8788497
209	0xc03712bd	-2.8605187
210	0xc03a0ada	-2.9069123
211	0xc03e3f77	-2.9726236
212	0xc03f223d	-2.9864647
213	0xc03a9915	-2.9155934
214	0xc035062e	-2.8285022
215	0xc039d5cd	-2.9036744
216	0xc03b17f3	-2.9233367
217	0xc042d896	-3.0444694
218	0xc043ba54	-3.0582476
219	0xc041fe9e	-3.0311656
220	0xc04666a0	-3.1000137
221	0xc03eb482	-2.9797673
222	0xc0443728	-3.0658665
223	0xc03f2b85	-2.9870312
224	0xc03a5199	-2.9112303
225	0xc03be223	-2.9356773
226	0xc044aa95	-3.0729115
227	0xc04cba5b	-3.1988742
228	0xc03c2963	-2.940026
229	0xc0418922	-3.023995
230	0xc032c065	-2.7929928
231	0xc03d84b8	-2.9612255
232	0xc031edc9	-2.7801383
233	0xc031390d	-2.769107
234	0xc030d49a	-2.7629762
235	0xc03ccaf7	-2.949888
236	0xc039e169	-2.904383
237	0xc03965e3	-2.8968437
238	0xc03568b0	-2.8345146
239	0xc0292631	-2.642956
240	0xc0472f19	-3.1122496
241	0xc0340987	-2.8130815
242	0xc0349ad0	-2.821949
243	0xc0347b57	-2.820028
244	0xc02d44a1	-2.7073138
245	0xc03c930b	-2.9464748
246	0xc0356b2a	-2.8346658
247	0xc0301f02	-2.7518926
248	0xc0346b9b	-2.8190677
249	0xc02987ee	-2.6489215
250	0xc047d373	-3.1222808
251	0xc0395168	-2.8955936
252	0xc038b83d	-2.886245
253	0xc032b225	-2.792123
254	0xc035b6c8	-2.839281
255	0xc02f2630	-2.7367058

lstm.hh.mu_bias f4 [128]
0	0x3ecd7baa	0.4013341
1	0x3ddb2d86	0.10702042
2	0x3d28acbc	0.041180357
3	0x3d547228	0.05186668
4	0x3dd1a945	0.10237364
5	0xbd93c0e3	-0.072145246
6	0xbe1ac33b	-0.15113537
7	0x3e1b6500	0.15175247
8	0x3dcde175	0.10052768
9	0x3bb2508a	0.00544173
10	0x3d41dd92	0.047330447
11	0x3d99a453	0.075020455
12	0x3e848a94	0.25886977
13	0xbd06a5a3	-0.032872807
14	0x3e6035fe	0.21895596
15	0xbdd6757a	-0.104716256
16	0x3dcf6258	0.101261795
17	0x3e838afc	0.25691974
18	0x3e4c258f	0.19936202
19	0x3d3751e1	0.04475582
20	0xbe28d6cb	-0.16488187
21	0x3e28b2bd	0.16474433
22	0x3ddb4a0f	0.10707485
23	0x3e2a031a	0.16602746
24	0x3dc612f4	0.09671584
25	0x3dd3d1e7	0.1034277
26	0x3d5a98f3	0.05336852
27	0x3bfee130	0.0077783093
28	0x3c851796	0.016246598
29	0x3d8c02da	0.068364814
30	0x3e995b3f	0.29952428
31	0x3df6c7af	0.120498054
32	0x3d0ff6b1	0.035147373
33	0xbc53b733	-0.012922096
34	0xbd47443a	-0.04864905
35	0xbd41ccbc	-0.04731439
36	0xbdc7fedb	-0.09765407
37	0x3a3b033e	0.0007133967
38	0x3d9da004	0.07696536
39	0x3ec2f158	0.38074756
40	0xbe04d8e9	-0.1297337
41	0x3dd7d153	0.10537972
42	0x3c358898	0.01107993
43	0x3e1412ae	0.1446025
44	0x3e03ae9c	0.12859577
45	0x3acf5853	0.0015819169
46	0x3b3f9a4f	0.0029236262
47	0xbcf9625a	-0.030442405
48	0x3d3e5eb9	0.046477053
49	0x3e4a3e57	0.19750343
50	0x3d692814	0.056922987
51	0x3c03a482	0.008034827
52	0x3e2a9ddf	0.16661786
53	0x3e180242	0.14844611
54	0xbd6c4127	-0.05767932
55	0x3e11857c	0.14211076
56	0x3e955b5b	0.2917126
57	0x3dc2cd4f	0.09511816
58	0x3e76d0d2	0.24103096
59	0x3e03958d	0.12850018
60	0x3dccea39	0.10005612
61	0xbd305579	-0.043050263
62	0x3cc136c9	0.023585694
63	0x3ea70800	0.3262329
64	0xbd767382	-0.06016875
65	0xbe0a348f	-0.13496612
66	0x3e297053	0.16546755
67	0xbe1af5a2	-0.15132764
68	0x3d9c91c5	0.07644991
69	0x3e4eacef	0.20183156
70	0xbb40b5e7	-0.0029405297
71	0xbdb09266	-0.08621673
72	0x3ba70ccc	0.005097961
73	0x3d1105b7	0.03540584
74	0xbdcbefc6	-0.099578425
75	0xbd3515cd	-0.044210244
76	0x3d342b23	0.04398645
77	0xbc7d3e09	-0.015456685
78	0x3d71626d	0.058931757
79	0x3e5cfea3	0.21581511
80	0xbdc39868	-0.095505536
81	0xbe2c441b	-0.16822855
82	0xbdb08919	-0.08619899
83	0x3d0d1b62	0.034449942
84	0x3e129773	0.14315586
85	0x3da3243f	0.07965898
86	0xbe1c1494	-0.15242225
87	0x3e8eb5c6	0.27873057
88	0x3e456c04	0.19279486
89	0xbc5c073e	-0.013429461
90	0x3e5f2017	0.21789585
91	0x3e38c5a4	0.18044144
92	0xbd84ff26	-0.06493978
93	0x3d340ae3	0.043955695
94	0xbe896afc	-0.26839435
95	0x3b02c094	0.0019951211
96	0x3e34f729	0.17672409
97	0x3d9e3283	0.07724478
98	0x3e102ce7	0.14079629
99	0x3e9ce7c8	0.30645585
100	0x3e873240	0.26405525
101	0x3e4fbfd5	0.20288022
102	0x3e95cd13	0.29258022
103	0x3e5f8e56	0.2183164
104	0x3e8028dd	0.25031176
105	0x3e3a6ad8	0.1820482
106	0x3ea040fd	0.31299582
107	0x3d8d929c	0.06912729
108	0x3e3965d1	0.18105246
109	0x3e3aad25	0.18230112
110	0x3e7ee38a	0.24891487
111	0x3e984cae	0.29746002
112	0x3e25a366	0.16175613
113	0x3caf60cb	0.02140846
114	0x3e0f7456	0.14009222
115	0x3d9bbdd0	0.07604563
116	0x3e28f882	0.16501048
117	0x3ec01089	0.37512615
118	0x3e08d54d	0.13362618
119	0x3e2469ee	0.16056034
120	0x3df48b14	0.119405895
121	0x3dde2db0	0.10848558
122	0x3ecb70b8	0.39734435
123	0x3e890b50	0.26766443
124	0x3e987f9e	0.29784864
125	0x3e9446fd	0.2896041
126	0x3e54af43	0.20769982
127	0x3e856cfc	0.2605971

lstm.hh.rho_bias f4 [128]
0	0xc01e4b20	-2.4733353
1	0xc02c9c21	-2.6970294
2	0xc0276afa	-2.6159043
3	0xc02ec165	-2.7305539
4	0xc03f779e	-2.9916759
5	0xc02cac53	-2.6980178
6	0xc02aa7e6	-2.6664977
7	0xc02f5bcd	-2.739978
8	0xc020f851	-2.515156
9	0xc025fd8e	-2.5936007
10	0xc02c6a8d	-2.6940033
11	0xc03acf82	-2.9189153
12	0xc0280aab	-2.6256511
13	0xc02c05b1	-2.6878474
14	0xc02f4abe	-2.738937
15	0xc030e73e	-2.764114
16	0xc02dc7fd	-2.7153313
17	0xc0147310	-2.3195229
18	0xc02c55b5	-2.6927311
19	0xc022c7b1	-2.5434382
20	0xc036fade	-2.8590617
21	0xc02b247f	-2.6741025
22	0xc020c85e	-2.5122294
23	0xc0262cb5	-2.5964787
24	0xc03b856f	-2.9300191
25	0xc02f2406	-2.7365737
26	0xc01391fd	-2.3057854
27	0xc01dd629	-2.4661963
28	0xc024c334	-2.5744143
29	0xc02c4e7a	-2.6922898
30	0xc02f8de2	-2.7430348
31	0xc01eda50	-2.4820747
32	0xc020da5d	-2.5133278
33	0xc02d289e	-2.705604
34	0xc03101e1	-2.7657397
35	0xc034cf5a	-2.8251557
36	0xc03558a4	-2.8335352
37	0xc03a2dfe	-2.9090571
38	0xc0232fc4	-2.5497904
39	0xc0244ab7	-2.5670602
40	0xc02221fc	-2.5333242
41	0xc02f1cb3	-2.7361267
42	0xc02fbf8c	-2.746066
43	0xc0423062	-3.034203
44	0xc0369095	-2.8525746
45	0xc02d3706	-2.7064834
46	0xc0336cc7	-2.8035142
47	0xc0206a65	-2.5064938
48	0xc03543df	-2.8322675
49	0xc02c104a	-2.6884942
50	0xc02e75f7	-2.72595
51	0xc03a456b	-2.910487
52	0xc02e384d	-2.7221863
53	0xc01ef7dc	-2.4838781
54	0xc034affe	-2.8232417
55	0xc02cb1fa	-2.6983628
56	0xc02ac9a6	-2.6685576
57	0xc035fd4a	-2.8435845
58	0xc018980d	-2.3842804
59	0xc011e63d	-2.2796776
60	0xc03332f4	-2.799985
61	0xc0205e54	-2.5057573
62	0xc02573a3	-2.585183
63	0xc01f1a45	-2.4859784
64	0xc037bfed	-2.8710892
65	0xc033883a	-2.8051896
66	0xc0372210	-2.861454
67	0xc03c84f8	-2.9456158
68	0xc0362a57	-2.8463342
69	0xc03ef4c5	-2.9836895
70	0xc02f8121	-2.7422564
71	0xc030e718	-2.7641048
72	0xc03d9440	-2.9621735
73	0xc03590fc	-2.8369741
74	0xc0382419	-2.8772032
75	0xc045236f	-3.0802877
76	0xc03da28d	-2.9630463
77	0xc0395320	-2.8956985
78	0xc0374a2d	-2.8639023
79	0xc02e4091	-2.7226908
80	0xc03ce462	-2.9514394
81	0xc03e6ead	-2.975505
82	0xc039f46d	-2.9055436
83	0xc03f6862	-2.990746
84	0xc037ab70	-2.8698387
85	0xc03e5fa9	-2.9745886
86	0xc036f221	-2.8585284
87	0xc0440663	-3.0628898
88	0xc037bc2e	-2.8708606
89	0xc03b69bd	-2.9283288
90	0xc032031e	-2.7814403
91	0xc02c7217	-2.6944635
92	0xc03a5e53	-2.912007
93	0xc039f80f	-2.9057653
94	0xc04543e0	-3.0822678
95	0xc039bdfb	-2.9022205
96	0xc02f6a34	-2.7408571
97	0xc02a026d	-2.656398
98	0xc031550b	-2.7708156
99	0xc020cbf9	-2.5124495
100	0xc0238eaf	-2.5555837
101	0xc024283f	-2.5649564
102	0xc0241293	-2.5636337
103	0xc02e1be7	-2.720453
104	0xc01f4770	-2.4887352
105	0xc021f162	-2.5303578
106	0xc02fc9b0	-2.746685
107	0xc027e724	-2.6234827
108	0xc02bc511	-2.683903
109	0xc0289e02	-2.634644
110	0xc024d973	-2.575772
111	0xc01a5c67	-2.4118898
112	0xc032a789	-2.7914755
113	0xc03356a3	-2.802163
114	0xc03b4376	-2.9259925
115	0xc034bb3e	-2.8239284
116	0xc01a12b4	-2.4073915
117	0xc0311069	-2.7666266
118	0xc02ed48c	-2.7317228
119	0xc030380b	-2.7534206
120	0xc015f6cf	-2.343189
121	0xc02a4ba9	-2.660868
122	0xc036fdee	-2.8592486
123	0xc02ededd	-2.7323525
124	0xc02e1702	-2.7201543
125	0xc01844ba	-2.3791947
126	0xc029e680	-2.6546936
127	0xc0259750	-2.5873604

l1.mu_weight f4 [16, 32]
0	0xbec6df70	-0.38842344
1	0xbf19c54e	-0.6006669
2	0x3f00c970	0.5030737
3	0xbef96de2	-0.48716646
4	0x3ee4d687	0.4469492
5	0x3f028e7e	0.50998676
6	0xbf10770a	-0.5643164
7	0xbf114ee4	-0.56761
8	0xbf00e9ad	-0.5035656
9	0x3f1b0bb1	0.60564715
10	0xbeeca248	-0.4621756
11	0x3ece992f	0.40351245
12	0xbec06cfb	-0.37583145
13	0x3f06381a	0.52429354
14	0x3f298012	0.66211045
15	0x3f1043b9	0.56353337
16	0xbf114036	-0.56738603
17	0xbece1e71	-0.402576
18	0xbef775d1	-0.48332074
19	0x3f11fa99	0.57023007
20	0xbec1e7ef	-0.37872264
21	0x3eec625b	0.4616879
22	0x3f193d54	0.59859204
23	0x3eca021b	0.3945473
24	0x3f33829f	0.70121187
25	0xbf169828	-0.5882592
26	0x3f0a51dd	0.54031163
27	0x3edd22a9	0.43190506
28	0xbf3a0236	-0.72659624
29	0x3f06a48a	0.52594817
30	0xbef861df	-0.4851217
31	0x3f34b37b	0.70586365
32	0xbedb31f4	-0.4281155
33	0xbee94c03	-0.45565805
34	0x3f0088e6	0.5020889
35	0xbef18870	-0.47174406
36	0x3ede3680	0.43400955
37	0x3ea11374	0.31460154
38	0xbf07be66	-0.530249
39	0xbeb8e81f	-0.36114594
40	0xbea3c956	-0.31989545
41	0x3ec6886e	0.38775963
42	0xbeded446	-0.43521327
43	0x3f037a7f	0.5135879
44	0xbe7365c0	-0.23769283
45	0x3f16bfd1	0.5888644
46	0x3ee53ae9	0.44771507
47	0x3f01fb7c	0.5077436
48	0xbed0ca94	-0.40779555
49	0xbf0d47e8	-0.55187845
50	0xbed8458c	-0.4224056
51	0x3f0a0130	0.5390806
52	0xbebb4a06	-0.36579913
53	0x3eda2722	0.4260798
54	0x3f029501	0.5100861
55	0x3ec51c99	0.3849838
56	0x3eef2dce	0.46714634
57	0xbef54fb3	-0.47912368
58	0x3f0cacc4	0.5495112
59	0x3ec47f6f	0.38378474
60	0xbee2ea7c	-0.44319522
61	0x3e894554	0.26810706
62	0xbf054478	-0.520576
63	0x3ee4a4a6	0.44656867
64	0xbeb2113b	-0.3477877
65	0xbe927bf2	-0.28610188
66	0x3f0bc26d	0.54593545
67	0xbefb722d	-0.49110547
68	0x3f08332b	0.53203076
69	0x3f141b7e	0.5785445
70	0xbf0f81ec	-0.5605762
71	0xbf03b232	-0.5144378
72	0xbf0dee5a	-0.5544182
73	0x3ef4a95b	0.47785458
74	0xbf281025	-0.65649635
75	0x3ed4b12e	0.41541427
76	0xbf0c487a	-0.5479809
77	0x3f3556d4	0.70835614
78	0x3f1dc5e0	0.6163006
79	0x3eefb868	0.46820378
80	0xbf0a8cc8	-0.54121065
81	0xbf00edb0	-0.5036268
82	0xbf099d7d	-0.53755933
83	0x3ef981e6	0.48731917
84	0xbf2896d8	-0.6585517
85	0x3f08f6d2	0.5350162
86	0x3ee0adbf	0.43882558
87	0x3f526e6a	0.8219973
88	0x3ec2431b	0.37941822
89	0xbf20eb58	-0.62859106
90	0x3f1dd31f	0.6165027
91	0x3ef8c668	0.48588872
92	0xbf0dc42f	-0.5537748
93	0x3ed77cdd	0.4208745
94	0xbf064299	-0.5244537
95	0x3ecdfc31	0.4023147
96	0xbf075dbb	-0.52877396
97	0xbf17501c	-0.5910661
98	0x3e683bb3	0.22679023
99	0xbeb86f4a	-0.36022407
100	0x3ee28199	0.442395
101	0x3ebe08eb	0.3711618
102	0xbf26d328	-0.6516595
103	0xbf08bf5a	-0.5341698
104	0xbebfccd1	-0.3746095
105	0x3e80b885	0.25140777
106	0xbf2dc08d	-0.67871934
107	0x3eed1950	0.46308374
108	0xbed9e014	-0.4255377
109	0x3efb8f4b	0.4913276
110	0x3ecdd3bf	0.40200612
111	0x3f07b551	0.5301104
112	0xbef71a4e	-0.48262256
113	0xbf0fde1f	-0.56198305
114	0xbf04ad0f	-0.51826566
115	0x3f013af5	0.50480586
116	0xbee2b2ac	-0.4427694
117	0x3f0a5a8f	0.5404443
118	0x3ed02239	0.4065111
119	0x3f048b6f	0.5177526
120	0x3f05ece7	0.5231461
121	0xbed14c5d	-0.40878573
122	0x3eea71da	0.45789987
123	0x3f2eb99b	0.6825196
124	0xbec1c443	-0.37845048
125	0x3eb0a809	0.345032
126	0xbec8a8c8	-0.3919127
127	0x3edd0f78	0.43175864
128	0xbf24789b	-0.6424653
129	0xbf2126eb	-0.6295001
130	0x3efd1fe5	0.49438396
131	0xbf1b1ac5	-0.6058772
132	0x3f033037	0.51245445
133	0x3f0c4e26	0.54806745
134	0xbf0cff76	-0.550773
135	0xbf0d1db2	-0.55123436
136	0xbf2ec90f	-0.6827554
137	0x3f333b53	0.70012397
138	0xbf07537e	-0.52861774
139	0x3ef5f4d8	0.48038363
140	0xbedf25c2	-0.43583494
141	0x3ec1a8d2	0.37824112
142	0x3eccc8ba	0.39996892
143	0x3ee3e90b	0.44513735
144	0xbf0fc51f	-0.5616016
145	0xbf08bdf7	-0.53414863
146	0xbea1916b	-0.31556258
147	0x3f26d74d	0.6517227
148	0xbefcc6d6	-0.4937045
149	0x3f0cd643	0.5501444
150	0x3f146f02	0.57981884
151	0x3f273e24	0.65329194
152	0x3f0abcd3	0.5419437
153	0xbef21af5	-0.47286192
154	0x3f09c190	0.5381098
155	0x3f07ca37	0.5304293
156	0xbf1ec053	-0.62012213
157	0x3f2a7657	0.6658682
158	0xbf1a2aa5	-0.6022132
159	0x3f1b7f97	0.6074156
160	0xbeeb0827	-0.45904657
161	0xbeec2ac6	-0.46126384
162	0x3f270787	0.6524586
163	0xbef1869a	-0.47173005
164	0x3f06b049	0.5261274
165	0x3ef0c29b	0.47023472
166	0xbf008815	-0.50207645
167	0xbef2c37e	-0.47414774
168	0xbf02cfdc	-0.5109842
169	0x3ee9f391	0.4569364
170	0xbf19802e	-0.5996121
171	0x3ee174ef	0.44034526
172	0xbec1cfcc	-0.3785385
173	0x3f26616d	0.6499241
174	0x3f179005	0.5920413
175	0x3f02f313	0.5115215
176	0xbeac7e9a	-0.3369034
177	0xbf094753	-0.5362446
178	0xbf234458	-0.6377616
179	0x3ede6297	0.43434593
180	0xbe96b067	-0.2943146
181	0x3f2f743e	0.68536747
182	0x3f1887a5	0.5958198
183	0x3eb5b951	0.35492948
184	0x3ed30a9b	0.4121903
185	0xbf09e21f	-0.5386066
186	0x3ed66fcb	0.41882166
187	0x3f0b65fd	0.54452497
188	0xbf241b34	-0.6410401
189	0x3ef40440	0.47659492
190	0xbf271870	-0.65271664
191	0x3f0f090a	0.5587317
192	0xbee42417	-0.44558784
193	0xbef3b0a5	-0.47595707
194	0x3edd82be	0.4326381
195	0xbf03f585	-0.5154651
196	0x3ee03afa	0.43794996
197	0x3f1d9696	0.615579
198	0xbeb432f6	-0.3519513
199	0xbef329a0	-0.47492695
200	0xbf0e1f9a	-0.5551697
201	0x3f05519c	0.5207765
202	0xbec6f725	-0.3886043
203	0x3f16714b	0.5876662
204	0xbeebddb4	-0.46067584
205	0x3ef13d53	0.471171
206	0x3f103b23	0.56340235
207	0x3edf1f2d	0.43578473
208	0xbf0cd050	-0.5500536
209	0xbebfd13d	-0.37464324
210	0xbf005f8d	-0.501458
211	0x3eb2291a	0.34796983
212	0xbf20214c	-0.62550807
213	0x3ebf0ea6	0.37315863
214	0x3ee7dea6	0.45287055
215	0x3ebb0ddf	0.3653402
216	0x3f091434	0.5354645
217	0xbefa1fed	-0.48852482
218	0x3ede85ea	0.43461543
219	0x3ec6a0c6	0.38794535
220	0xbee92226	-0.45533866
221	0x3ee484d4	0.4463259
222	0xbf171e13	-0.59030265
223	0x3eed46b8	0.46343017
224	0xbed72609	-0.42021206
225	0xbe9ff202	-0.31239325
226	0x3f32a883	0.6978838
227	0xbed4be70	-0.41551542
228	0x3f0a0017	0.5390639
229	0x3f092897	0.5357756
230	0xbf069a3b	-0.52579087
231	0xbf0099a3	-0.5023443
232	0xbf17203b	-0.59033555
233	0x3f1b81a4	0.6074469
234	0xbf012648	-0.5044904
235	0x3f064d57	0.5246176
236	0xbec5ef92	-0.3865934
237	0x3eba2021	0.36352637
238	0x3ef99116	0.48743504
239	0x3f03c207	0.5146794
240	0xbf24dcaa	-0.64399207
241	0xbf01ee30	-0.5075407
242	0xbf10f873	-0.56629103
243	0x3f000581	0.500084
244	0xbf0fc1fe	-0.56155384
245	0x3efd47e3	0.49468908
246	0x3eb3b241	0.35096934
247	0x3f152fbb	0.58275956
248	0x3edf0f0e	0.43566173
249	0xbecd2b02	-0.40071875
250	0x3f0b688f	0.5445642
251	0x3ef7c93e	0.48395723
252	0xbf0d1bb0	-0.5512037
253	0x3edc4058	0.4301784
254	0xbf337f26	-0.7011589
255	0x3f0f1b9e	0.55901515
