BNN/model_states/DNN_model_state_FD001_test.pt (torch, 29135 bytes, 7 tensors)

lstm.weight_ih_l0 f4 [128, 14]
0.042549543 0.02095233 -0.13750756 0.29798454 -0.106555805 -0.035974763 -0.22038688 0.18807308
0.092219464 -0.09060602 0.09460513 -0.035134017 0.22622608 0.13247102 0.028023947 -0.08335417
0.06293739 0.14389318 -0.16973038 -0.08440728 -0.07418479 0.022281412 -0.16497436 0.033231467
-0.2305628 -0.22316007 0.02163395 -0.0049102027 -0.067770936 -0.16924232 0.14044175 -0.046717796
0.017716961 0.077976815 -0.02162901 0.05931507 -0.19686832 0.30382377 -0.040602386 -0.11493578
0.08347255 -0.035979 0.0785879 0.1842734 0.09293201 -0.04175568 0.06634069 -0.1941196
0.1739633 -0.09525326 -0.23983549 -0.13877326 -0.14022748 0.09203174 0.058126453 0.12789464
0.065033376 -0.028707774 0.16067238 -0.18799832 -0.05653526 -0.22238532 0.09381686 -0.06910738
-0.026852876 -0.14502156 0.1145218 -0.19009121 -0.11388786 -0.08491328 0.14824408 0.05073129
0.16988447 -0.11581803 -0.2567768 -0.15435302 -0.0679382 0.045022607 -0.02135302 0.1671664
-0.14297499 -0.20092544 0.10380288 -0.0074080457 0.031959955 -0.070406124 0.049477965 -0.051462207
-0.15168567 -0.08924805 0.030963589 0.03261577 0.012749166 0.016782507 -0.17254639 -0.20430379
0.2201058 0.0127726095 -0.035423864 -0.16956702 -0.18909228 0.0024838296 -0.06537025 -0.24094644
0.02201585 0.01568837 -0.12480033 -0.074930966 -0.18208237 -0.18060543 0.20534648 0.20855503
-0.020356094 -0.2460563 -0.1802447 -0.012163342 0.014897137 -0.025260568 -0.2022616 -0.027448524
0.020814927 -0.031853966 -0.04500453 -0.105927624 -0.06727821 -0.11118097 -0.08133771 -0.14770202
0.11582013 -0.026117396 0.21464178 0.10074421 -0.21993005 0.17391914 0.026496315 -0.1126632
-0.122405104 -0.114140555 0.058931604 -0.06894466 0.019303441 -0.18877645 0.10255003 -0.08204823
-0.1423659 -0.078660704 0.12118623 0.17686634 0.059971303 -0.17005716 -0.025597464 -0.1909016
0.017802795 -0.04226734 0.085832015 -0.24509025 -0.00063889736 0.1638064 0.048614673 0.12226344
0.021978328 0.12806173 0.024059556 -0.011040212 -0.06395347 0.01509416 -0.018514557 0.24332519
-0.0014789219 -0.12436046 -0.13359432 0.048014183 0.14559646 -0.05330852 -0.19137701 0.014265342
-0.08355832 -0.0843036 0.13394827 -0.13384967 0.07243722 0.062485557 0.013796966 -0.087927565
0.040574215 0.114560224 -0.04708698 -0.053003386 -0.04893426 0.0532999 -0.19052997 0.08630153
0.04988856 0.05131311 0.049051724 0.11540948 -0.025463697 -0.055848174 0.020021582 0.057833984
-0.14860511 0.09010071 0.06272356 0.09453065 0.020602796 -0.056320276 -0.10375077 -0.119055875
-0.034735728 0.015113177 0.08014855 0.013256617 -0.16963764 -0.034809627 -0.15733507 -0.018611252
0.05287848 -0.04349732 -0.09046983 -0.039983664 -0.18666984 0.05602571 -0.018653905 0.053377375
-0.3448256 0.05599177 0.043385334 0.16548547 -0.10413678 -0.17973885 -0.19606638 0.18181664
-0.0072799562 0.060440015 0.007995278 0.01796531 0.16560037 -0.11239888 -0.2326867 -0.22711398
-0.01295902 -0.0076204287 -0.0042759716 -0.06904789 -0.13711683 -0.027417205 -0.07127301 0.0020075752
-0.07618756 0.118804276 0.011065494 -0.14346778 -0.11232166 -0.23789401 -0.21871081 -0.020647092
00000000: 6e48 2e3d 39a4 ab3c c8ce 0cbe 6e91 983e
00000010: ee39 dabd 465a 13bd 19ad 61be 3b96 403e
00000020: 8fdd bc3d a68f b9bd 56c0 c13d b0e8 0fbd
00000030: cfa7 673e 7ca6 073e 7a92 e53c 97b5 aabd
00000040: 51e5 803d bc58 133e cdcd 2dbe b9dd acbd
00000050: 32ee 97bd 8287 b63c 0aef 28be b81d 083d
00000060: a818 6cbe 1384 64be ae39 b13c c4e5 a0bb
00000070: 7dcb 8abd dc4d 2dbe f6cf 0f3e 295b 3fbd
00000080: 2923 913c 4fb2 9f3d 522f b1bc 5cf4 723d
00000090: d997 49be ca8e 9b3e b04e 26bd 7363 ebbd
000000a0: a8f3 aa3d b75e 13bd b1f2 a03d 2bb2 3c3e
000000b0: 2353 be3d 0108 2bbd a1dd 873d 4ac7 46be
000000c0: 6f23 323e 2414 c3bd 6f97 75be 941a 0ebe
000000d0: cb97 0fbe 237b bc3d 0116 6e3d d0f6 023e
000000e0: 3830 853d 912c ebbc 4d87 243e a282 40be
000000f0: 8491 67bd fab8 63be 0e23 c03d 2c88 8dbd
00000100: 90fa dbbc 8880 14be 688a ea3d 45a7 42be
00000110: 0a3e e9bd 04e7 adbd 4ccd 173e 9dcb 4f3d
00000120: 32f6 2d3e 0132 edbd 4078 83be b80e 1ebe
00000130: 2f23 8bbd a069 383d 87ec aebc ab2d 2b3e
00000140: 0968 12be 66bf 4dbe 9b96 d43d 31bf f2bb
00000150: 71e8 023d 1631 90bd 68a9 4a3d 09ca 52bd
00000160: 7d53 1bbe aec7 b6bd 5aa7 fd3c 1d98 053d
00000170: e1e1 503c 787b 893c 00b0 30be 0335 51be
00000180: 6a63 613e 3544 513c 9d18 11bd faa2 2dbe
00000190: 68a1 41be bfc7 223b d6e0 85bd aaba 76be
000001a0: 955a b43c e684 803c 5197 ffbd 6875 99bd
000001b0: cd73 3abe a1f0 38be 5946 523e 738f 553e
000001c0: d3c1 a6bc 2ff6 7bbe 1192 38be c148 47bc
000001d0: 1f13 743c 40ef cebc aa1d 4fbe badb e0bc
000001e0: 1184 aa3c 4e79 02bd ac56 38bd 95f0 d8bd
000001f0: 28c9 89bd d9b2 e3bd 6394 a6bd 333f 17be
00000200: 1b33 ed3d 26f4 d5bc 0ecb 5b3e fb52 ce3d
00000210: 5835 61be dc17 323e cd0e d93c f7bb e6bd
00000220: 87af fabd 86c2 e9bd 4462 713d dc32 8dbd
00000230: 4022 9e3c 9d4e 41be c005 d23d e708 a8bd
00000240: 5ec8 11be dd18 a1bd 7c30 f83d 731c 353e
00000250: 78a4 753d 7723 2ebe c6b1 d1bc b67b 43be
00000260: 2bd7 913c 8520 2dbd b2c8 af3d f0f8 7abe
00000270: ad7b 27ba ddbc 273e 2e20 473d 4165 fa3d
00000280: e50b b43c 9d22 033e 8c18 c53c 01e2 34bc
00000290: 09fa 82bd 7f4d 773c d7ab 97bc 3d2a 793e
000002a0: 62d8 c1ba b2b0 febd f3cc 08be 85aa 443d
000002b0: 3d17 153e 095a 5abd 56f8 43be 2eb9 693c
000002c0: a020 abbd 5ea7 acbd bc29 093e e30f 09be
000002d0: f759 943d dbf0 7f3d ab0c 623c 5e13 b4bd
000002e0: 2631 263d 8d9e ea3d 47de 40bd 141a 59bd
000002f0: 4a6f 48bd ff50 5a3d 4a1a 43be dbbe b03d
00000300: f257 4c3d b22d 523d 76ea 483d ce5b ec3d
00000310: 3e99 d0bc 0ec1 64bd 4d04 a43c 54e3 6c3d
00000320: f02b 18be b986 b83d 3675 803d 4999 c13d
00000330: 32c7 a83c 17b0 66bd 497b d4bd 91d3 f3bd
00000340: 0d47 0ebd 429d 773c ec24 a43d 4832 593c
00000350: 7db5 2dbe 8a94 0ebd 721c 21be a076 98bc
00000360: 1b97 583d 3f2a 32bd 3f48 b9bd e9c5 23bd
00000370: 6126 3fbe 377b 653d 13d0 98bc 3ca2 5a3d
00000380: fb8c b0be a057 653d d2b4 313d 0675 293e
00000390: aa45 d5bd 760d 38be a0c5 48be 242e 3a3e
000003a0: b38c eebb f38f 773d a0fe 023c fc2b 933c
000003b0: 2593 293e 6231 e6bd 6c45 6ebe 9190 68be
000003c0: 1252 54bc cab4 f9bb 731d 8cbb fb68 8dbd
000003d0: 5b68 0cbe 0c9a e0bc 95f7 91bd 8691 033b
000003e0: 3908 9cbd a84f f33d 0c4c 353c 38e9 12be
000003f0: e608 e6bd 7d9a 73be baf5 5fbe 1724 a9bc

lstm.weight_hh_l0 f4 [128, 32]
-0.14764246 0.09342011 0.04349242 -0.12952767 -0.012996782 -0.19780374 0.19769989 -0.022765875
-0.2647852 -0.18239184 0.15000519 0.25369194 0.0274057 0.049199462 -0.14964117 0.057688083
0.13479632 -0.017550493 -0.041453134 0.12385704 -0.0267705 0.25729007 0.011569475 0.21910304
0.046676043 -0.21867363 -0.205024 0.10855994 -0.0807148 0.024841994 0.116402954 0.09523248
-0.0021927136 -0.056117814 0.2947149 -0.07795208 -0.093469955 0.20746651 -0.028166784 0.07751249
0.054150015 -0.074604034 0.04068228 0.01677727 -0.06521185 -0.16374949 0.16429187 0.12229391
-0.005463146 0.123209074 0.100472644 -0.031851627 -0.23520778 -0.006703592 0.032474488 -0.015572282
0.21399347 -0.17059971 0.01141176 -0.061794452 0.029858623 0.13565843 0.17098875 0.25575474
-0.06027438 -0.18361236 -0.557981 0.054010708 0.10679925 -0.15450285 0.116165 0.10541272
-0.39959127 0.07851994 0.067620285 0.13950534 0.21466978 0.24087551 0.051596776 0.041579768
0.059175193 0.049669173 -0.21567455 0.15010005 -0.06261548 0.09149904 0.039596435 0.049255677
-0.08604355 -0.19030416 0.067636855 0.04331817 0.15474755 -0.07361668 -0.018383248 -0.060213793
0.032188527 0.027882133 0.1858901 0.23099953 -0.24902458 0.084549785 -0.13113981 -0.013966177
0.099343 0.08416553 0.06097502 -0.08733272 -0.09492595 -0.1396035 0.021292215 0.04579568
0.20803776 0.034239776 -0.066008106 0.03057789 -0.19600603 -0.059541974 -0.23026475 -0.13838086
0.1703942 -0.11348905 -0.19865929 0.09731533 -0.07870297 0.1053256 0.23080511 -0.04139791
-0.13498987 -0.11456171 -0.013008388 -0.005743974 0.0803794 0.008482154 0.021578314 -0.030615136
0.15642013 0.18465152 -0.17684056 -0.15435906 -0.21731363 0.13338058 -0.12313545 -0.10038211
0.14068678 -0.17152846 0.054164313 -0.028812379 0.12370623 -0.089319214 0.11431792 0.0039732824
-0.003802571 0.2402092 -0.15764451 -0.15256123 0.14511655 -0.08216995 -0.14031944 -0.00090875884
-0.11103886 0.041533776 -0.024026353 0.13425271 -0.19980268 0.095192075 0.010741244 0.103242144
0.042417094 0.090535514 -0.099717356 -0.06426179 -0.17094505 -0.21072103 0.0044756886 0.25031248
-0.011057971 0.013936327 0.15382266 -0.007323158 -0.14671658 -0.1851035 -0.120855354 0.007922552
-0.08334514 -0.01603039 0.022777637 0.17216878 -0.022897659 0.10672195 0.20341922 0.16909681
0.001439623 0.060895916 -0.06988274 0.07313436 -0.15232742 0.13743867 -0.15954983 0.15017359
0.10680339 0.056966692 -0.28279144 -0.1280562 -0.25393808 0.043839432 0.032096732 0.02975738
0.05147895 -0.22683291 0.15989797 -0.052616727 -0.1202687 -0.2225165 -0.116845846 -0.09032623
0.05639286 -0.048376843 0.0051203216 0.04275169 -0.22767933 0.0067727477 0.05756922 -0.09044488
0.15688276 -0.20564292 0.1504649 -0.06967667 0.1233912 -0.11924488 0.21742609 -0.14804895
-0.042374726 -0.082143605 -0.057822183 0.049813714 0.13826868 0.17348078 0.027343372 0.11057847
0.038350713 0.057863742 -0.07334205 0.080985494 0.030194258 0.0024257204 0.1173728 0.2108435
0.10040243 -0.15100937 -0.3205313 -0.1583784 0.13549764 -0.106991634 0.13269487 0.28264144
00000000: 962f 17be 0b53 bf3d 1c25 323d e7a2 04be
00000010: 74f0 54bc 108d 4abe d771 4a3e 807f babc
00000020: ed91 87be edc4 3abe f69a 193e e9e3 813e
00000030: eb81 e03c 6085 493d 893b 19be 574a 6c3d
00000040: 0c08 0a3e 0dc6 8fbc c3ca 29bd c3a8 fd3d
00000050: cf4d dbbc 86bb 833e e58d 3d3c 8c5c 603e
00000060: 612f 3f3d fbeb 5fbe d0f1 51be ac54 de3d
00000070: cd4d a5bd 7081 cb3c ac64 ee3d 3f09 c33d
00000080: a1b3 0fbb cbdb 65bd dfe4 963e 57a5 9fbd
00000090: 2d6d bfbd 1a72 543e 07be e6bc debe 9e3d
000000a0: 68cc 5d3d 00ca 98bd 76a2 263d 7c70 893c
000000b0: ca8d 85bd f2ad 27be 213c 283e 3b75 fa3d
000000c0: 3104 b3bb 0a55 fc3d 9ac4 cd3d da76 02bd
000000d0: 4fda 70be cea9 dbbb f803 053d e222 7fbc
000000e0: 1b21 5b3e b1b1 2ebe 64f8 3a3c 2e1c 7dbd
000000f0: 129a f43c 0bea 0a3e ad17 2f3e 49f2 823e
00000100: 45e2 76bd e104 3cbe d8d7 0ebf 553a 5d3d
00000110: 91b9 da3d ff35 1ebe eae7 ed3d a0e2 d73d
00000120: 3a97 ccbe 10cf a03d 817c 8a3d 7dda 0e3e
00000130: 65d2 5b3e 12a8 763e 2457 533d 8c4f 2a3d
00000140: b061 723d e771 4b3d cad9 5cbe d4b3 193e
00000150: 8b3c 80bd d963 bb3d df2f 223d 52c0 493d
00000160: 9a37 b0bd 18df 42be 3185 8a3d 656e 313d
00000170: 2476 1e3e 58c4 96bd 7798 96bc bda2 76bd
00000180: 1ed8 033d 1269 e43c f959 3e3e 248b 6c3e
00000190: 4d00 7fbe 7028 ad3d 8449 06be 64d2 64bc
000001a0: 5874 cb3d fa5e ac3d f1c0 793d 7fdb b2bd
000001b0: 8968 c2bd 38f4 0ebe 036d ae3c 4094 3b3d
000001c0: da07 553e 023f 0c3d 422f 87bd 7c7e fa3c
000001d0: ceb5 48be 49e2 73bd 86ca 6bbe b6b3 0dbe
000001e0: d17b 2e3e f26c e8bd 576d 4bbe 424d c73d
000001f0: 062f a1bd f3b4 d73d 2d58 6c3e db90 29bd
00000200: c93a 0abe 549f eabd 2221 55bc f237 bcbb
00000210: f49d a43d bcf8 0a3c 01c5 b03c 98cc fabc
00000220: 992c 203e 4a15 3d3e b115 35be 4d10 1ebe
00000230: 7787 5ebe eb94 083e 702e fcbd 2395 cdbd
00000240: 3210 103e 28a5 2fbe 66db 5d3d f007 ecbc
00000250: b159 fd3d feec b6bd 831f ea3d 4f32 823b
00000260: 8e34 79bb 67f9 753e 906d 21be 0339 1cbe
00000270: 6f99 143e b848 a8bd e6af 0fbe c639 6eba
00000280: 5868 e3bd 521f 2a3d ead2 c4bc 8b79 093e
00000290: 1399 4cbe 10f4 c23d 0bfc 2f3c 9e70 d33d
000002a0: 8cbd 2d3d af6a b93d 9d38 ccbd af9b 83bd
000002b0: 380c 2fbe 41c7 57be cca8 923b f528 803e
000002c0: 7e2c 35bc 3155 643c b083 1d3e 1af7 efbb
000002d0: df3c 16be c68b 3dbe 0383 f7bd 97cd 013c
000002e0: dbb0 aabd 2a52 83bc 2b98 ba3c 034d 303e
000002f0: df93 bbbc 0a91 da3d 214d 503e b727 2d3e
00000300: bbb1 bc3a ff6d 793d af1e 8fbd 78c7 953d
00000310: b8fb 1bbe b9bc 0c3e 0861 23be 1bc7 193e
00000320: bcbb da3d e855 693d 0aca 90be 2a21 03be
00000330: 2c04 82be fa90 333d dd77 033d c0c5 f33c
00000340: 97db 523d e346 68be 4bbc 233e a384 57bd
00000350: 704f f6bd 5edb 63be e04c efbd f5fc b8bd
00000360: 33fc 663d cc26 46bd 5fc8 a73b 651c 2f3d
00000370: c524 69be eded dd3b b4cd 6b3d 2a3b b9bd
00000380: e0a5 203e 0f94 52be 7913 1a3e a4b2 8ebd
00000390: 87b4 fc3d a936 f4bd f2a4 5e3e 259a 17be
000003a0: 1f91 2dbd e83a a8bd f4d6 6cbd 7709 4c3d
000003b0: 4e96 0d3e f2a4 313e 35ff df3c f776 e23d
000003c0: a315 1d3d 8802 6d3d 5b34 96bd b9db a53d
000003d0: f359 f73c d6f8 1e3b 2761 f03d 5ce7 573e
000003e0: ca9f cd3d 33a2 1abe ae1c a4be f32d 22be
000003f0: e5bf 0a3e 6e1e dbbd 2ae1 073e 61b6 903e

lstm.bias_ih_l0 f4 [128]
-0.11928115 0.08901961 -0.12364871 0.23023276 0.053966753 0.05429948 0.093455635 -0.24263622
0.11424155 0.2564733 0.24352975 0.1647024 0.29746574 0.062235788 0.16829021 -0.076556906
0.2135675 0.07995007 0.09530933 0.062001623 0.23818229 0.13996038 0.11840766 0.06664112
0.10334653 -0.07338804 -0.014204839 -0.016537413 0.13307181 0.24728951 0.18726762 -0.05075019
0.19618028 0.14914224 0.0155714145 0.19470021 0.22184272 0.006496857 0.18141209 0.032012507
0.0052896827 0.14260627 0.08119465 0.07152755 0.13549666 0.15897006 0.3067017 0.17302959
0.058217514 0.1957121 -0.026921839 0.22004944 0.08412786 0.08511122 0.08628973 0.31975406
-0.050840925 -0.07597222 -0.100288816 -0.09326032 0.20567377 -0.0028254173 0.016718043 -0.060408846
0.07838436 0.28754726 0.14148666 0.008649551 -0.21001725 0.17050628 -0.21559325 0.17151263
-0.1720407 0.2765501 -0.26093203 -0.18492322 -0.18538295 -0.09585254 0.046803888 0.116238005
0.231629 -0.108545564 0.053909183 -0.015721027 -0.27036 -0.14261065 -0.38827562 -0.3720547
0.1341821 -0.023216022 0.117046945 0.05298715 -0.10849866 -0.0016037752 0.1263667 0.15418406
0.18428329 0.5903356 0.2580943 -0.04355332 0.2509725 0.008494028 0.14980888 0.066372134
-0.008495389 0.1480512 0.10724347 -0.047459792 0.17852727 0.057094842 0.1274941 0.28286138
0.3315109 0.25568524 0.3612223 0.052440986 -0.0030316913 0.16999628 0.5502844 0.14111823
0.14018908 0.26974106 0.021477016 0.06857628 0.26466206 0.3519362 0.054034468 0.120192975
00000000: ad49 f4bd ea4f b63d 893b fdbd 23c2 6b3e
00000010: 3e0c 5d3d 2269 5e3d ab65 bf3d a175 78be
00000020: 79f7 e93d 7850 833e dd5f 793e bfa7 283e
00000030: 6e4d 983e f4ea 7e3d 4554 2c3e dec9 9cbd
00000040: 70b1 5a3e ddbc a33d 8a31 c33d 6af5 7d3d
00000050: 0fe6 733e c651 0f3e b77f f23d 247b 883d
00000060: 58a7 d33d 784c 96bd 6abb 68bc 7879 87bc
00000070: fa43 083e 7639 7d3e 15c3 3f3e 6edf 4fbd
00000080: 7ce3 483e beb8 183e 3f1f 7f3c 7e5f 473e
00000090: bd2a 633e 96e3 d43b 17c4 393e 8c1f 033d
000000a0: 1355 ad3b 6107 123e 6149 a63d 097d 923d
000000b0: a3bf 0a3e 0cc9 223e 0108 9d3e ab2e 313e
000000c0: 7d75 6e3d c168 483e 308b dcbc a454 613e
000000d0: 3a4b ac3d cb4e ae3d acb8 b03d ceb6 a33e
000000e0: 933e 50bd 5397 9bbd 3964 cdbd 44ff bebd
000000f0: 259c 523e a32a 39bb 47f4 883c 446f 77bd
00000100: fb87 a03d 6539 933e e1e1 103e d9b6 0d3c
00000110: c30e 57be 3399 2e3e 7ac4 5cbe 02a1 2f3e
00000120: 702b 30be fa97 8d3e e298 85be 835c 3dbe
00000130: 07d5 3dbe 564e c4bd 6fb5 3f3d 310e ee3d
00000140: 2730 6d3e 234d debd e0cf 5c3d 62c9 80bc
00000150: a06c 8abe 8708 12be 10cc c6be f47d bebe
00000160: 0867 093e 872f bebc 4fb6 ef3d 0e09 593d
00000170: 8c34 debd c435 d2ba 4666 013e 6de2 1d3e
00000180: c2b4 3c3e 3c20 173f f024 843e f764 32bd
00000190: 787f 803e 892a 0b3c 8067 193e 1dee 873d
000001a0: 3e30 0bbc bc9a 173e 77a2 db3d 3365 42bd
000001b0: dacf 363e 48dc 693d d08d 023e 35d3 903e
000001c0: ccbb a93e 2de9 823e 21f2 b83e 5ccc 563d
000001d0: 57af 46bb 8113 2e3e 70df 0c3f 4c81 103e
000001e0: ba8d 0f3e 801b 8a3e 91f0 af3c b871 8c3d
000001f0: c981 873e fb30 b43e 3f53 5d3d bc27 f63d

lstm.bias_hh_l0 f4 [128]
-0.03310338 0.19408825 -0.11449873 0.22413087 0.040205654 -0.05377287 0.22002633 -0.25685662
0.113864794 -0.07375756 0.07686893 -0.016492832 0.01789268 -0.062153388 0.17931692 -0.04538077
0.10868121 0.29769483 0.22247426 -0.18244952 0.14053915 0.14910728 0.056921177 0.090241484
-0.06106219 -0.15729752 0.054896723 0.035709515 0.243135 0.088495634 0.010004256 0.011208086
0.020935139 0.21530177 0.12738194 0.20184498 0.1732506 0.051488414 0.10415539 0.26150358
0.22630753 0.2630841 0.21015222 0.063320234 0.42380425 0.21016344 0.024860386 0.026593685
-0.0176632 0.2872785 0.29453593 0.10150572 -0.0156523 -0.0050831344 0.086517744 0.41081205
0.06519396 -0.062387932 0.23797426 0.2095805 0.16528434 0.038891435 0.13619778 -0.094759695
0.12577553 0.13094577 -0.01047349 0.030131167 -0.2600279 0.14917774 -0.23820728 -0.06620405
0.13104452 0.14539862 -0.18571635 -0.20618416 -0.26615182 -0.07524406 0.23255502 -0.14580275
0.19719571 -0.046168678 0.087034665 -0.16579954 -0.15084551 -0.3824399 -0.23607476 -0.2236686
0.07069414 -0.023341795 0.030152962 0.18209109 -0.37715882 0.1525349 0.17751384 0.14003278
0.19775833 0.4420162 0.32491606 -0.037152182 0.12028403 0.2992499 0.1670027 0.22310023
-0.06347228 0.08615016 0.20038967 -0.006206243 0.21521086 0.13380645 0.3297597 0.48623282
0.26266244 0.35364443 0.18603028 0.091164306 0.26162186 0.19752471 0.22366078 0.18299845
0.09127457 0.10102739 -0.028673083 0.07136175 0.24308006 0.097391866 0.07162901 0.13009408
00000000: 6997 07bd 12bf 463e 4f7e eabd 9082 653e
00000010: afae 243d f140 5cbd 954e 613e b682 83be
00000020: f231 e93d 340e 97bd 756d 9d3d fa1b 87bc
00000030: ab93 923c 8d94 7ebd db9e 373e 30e1 39bd
00000040: 4194 de3d 756b 983e 4bd0 633e 0cd4 3abe
00000050: 7fe9 0f3e 94af 183e 2e26 693d 87d0 b83d
00000060: 591c 7abd 9a12 21be 63db 603d 2444 123d
00000070: 62f8 783e 333d b53d e4e8 233c 1fa2 373c
00000080: 2b80 ab3c 1178 5c3e 6970 023e 73b0 4e3e
00000090: 9b68 313e 84e5 523d 6c4f d53d cce3 853e
000000a0: 29bd 673e f6b2 863e 2532 573e 0aae 813d
000000b0: dffc d83e 1635 573e 02a8 cb3c 00db d93c
000000c0: 6ab2 90bc 2b16 933e 6acd 963e 3be2 cf3d
000000d0: 4139 80bc 6c90 a6bb 3730 b13d f555 d23e
000000e0: 6984 853d 7d8a 7fbd 86af 733e 459c 563e
000000f0: 4c40 293e a04c 1f3d 6e77 0b3e 5f11 c2bd
00000100: 4dcb 003e a616 063e 0099 2bbc a3d5 f63c
00000110: 6022 85be 0dc2 183e 9cec 73be fd95 87bd
00000120: 8930 063e 60e3 143e 6d2c 3ebe f121 53be
00000130: 0d45 88be 8f19 9abd e722 6e3e 514d 15be
00000140: aced 493e 5e1b 3dbd 3b3f b23d 5bc7 29be
00000150: 3f77 1abe 2acf c3be 95bd 71be 6209 65be
00000160: 17c8 903d 4b37 bfbc 5803 f73c 1676 3a3e
00000170: f61a c1be 1c32 1c3e 30c6 353e c164 0f3e
00000180: 2981 4a3e f34f e23e 665b a63e e32c 18bd
00000190: 7957 f63d 4837 993e c102 2b3e 6374 643e
000001a0: c1fd 81bd 7f6f b03d f332 4d3e bd5d cbbb
000001b0: 3c60 5c3e 8f04 093e 43d6 a83e 82f3 f83e
000001c0: b17b 863e e210 b53e b97e 3e3e 5ab4 ba3d
000001d0: 4df3 853e eb43 4a3e 5507 653e f263 3b3e
000001e0: 29ee ba3d 73e7 ce3d d0e3 eabc 1c26 923d
000001f0: fbe9 783e 6375 c73d 3bb2 923d 6237 053e

dense_layers.0.weight f4 [16, 32]
-0.75783694 0.60708433 0.5182528 0.7500187 -0.79143244 0.6109001 -0.5303074 0.6249162
-0.7831541 0.7869064 -0.75135946 0.808793 -0.5779019 -0.4570145 0.7392299 0.6025703
0.6600786 -0.62635213 0.45567703 0.82029444 -0.49335966 -0.5085381 -0.66437346 -0.77312434
0.5271577 -0.6601116 -0.75610006 0.7642207 -0.62374073 0.64768535 0.8681385 0.75689477
-0.055962585 0.07834539 0.14014925 0.042358205 -0.029807173 -0.023335163 -0.082028456 -0.047599196
0.110785924 0.03994374 0.22206347 -0.53029096 -0.014617211 -0.23634598 -0.18128124 0.1711155
-0.14148884 -0.049746726 -0.15434612 -0.4462682 -0.040196177 -0.063236125 0.28254998 0.1273079
-0.21104175 0.518849 0.039598662 -0.020584263 -0.07336533 0.0022313246 -0.3589841 -0.15135841
-0.068229005 -0.059785888 -0.032709 -0.13408099 -0.03722673 -0.1464197 -0.008921438 -0.1694754
0.41538996 -0.018363893 -0.11795136 -0.5860361 0.00452337 -0.15228435 0.08289339 0.025580438
0.103660114 -0.019605767 -0.06735799 -0.43511105 -0.050333235 0.10119433 0.15870993 0.16547847
-0.38109276 0.41370845 0.024700282 -0.03884895 0.11497478 -0.20592839 -0.028369142 -0.25866723
-0.59673744 0.58348703 0.43409893 0.45362318 -0.7081148 0.6485115 -0.5342194 0.6101086
-0.6159684 0.4106107 -0.5961533 0.6955212 -0.6392161 -0.55350685 0.6333263 0.43221158
0.5856816 -0.6008013 0.58843696 0.67316955 -0.68523943 -0.64145213 -0.48776966 -0.59113514
0.5623257 -0.6024588 -0.59416217 0.5033426 -0.619321 0.60819596 0.75915027 0.5874071
-0.6636782 0.6350353 0.63319033 0.67232513 -0.55041516 0.58310246 -0.5341076 0.47063994
-0.83514184 0.53338724 -0.4706726 0.68438286 -0.52247405 -0.40245327 0.6599999 0.48736015
0.6865328 -0.53048605 0.48515856 0.6022823 -0.6617011 -0.655386 -0.5263262 -0.3832411
0.50010014 -0.6024091 -0.61449075 0.47756946 -0.607893 0.5951041 0.665187 0.5423356
-0.5071077 0.47063622 0.4716357 0.6700857 -0.6132322 0.69767326 -0.632794 0.69437176
-0.5861971 0.6190328 -0.5799946 0.52859885 -0.68789953 -0.6475788 0.66598004 0.6861068
0.6140063 -0.59019583 0.57879907 0.6570066 -0.7040801 -0.65549785 -0.49789357 -0.59073466
0.42828205 -0.72703326 -0.4623517 0.4509817 -0.6014478 0.6216227 0.79659003 0.75831044
-0.5261356 0.59936243 0.66138315 0.74493986 -0.51041794 0.6540948 -0.5540411 0.5939743
-0.5956062 0.6442102 -0.7375004 0.60484743 -0.76134086 -0.6593707 0.6072089 0.48255163
0.45395094 -0.7493955 0.6665967 0.7090159 -0.62841374 -0.60309166 -0.64676493 -0.6843982
0.42490333 -0.82326925 -0.7709903 0.43236372 -0.66024834 0.68359023 0.8592564 0.661028
0.26029548 -0.05563737 -0.25391176 -0.2355446 0.09042973 -0.2853493 0.16595525 -0.09484168
0.07744809 -0.18882114 -0.017629972 -0.031551443 0.28084376 0.014550852 0.003211053 -0.23048957
0.014197078 0.08240083 -0.07961376 -0.07877915 0.25811008 0.21074373 0.13539544 0.13704461
0.010426584 0.111479595 0.08131412 -0.12473606 0.07891835 -0.21147124 -0.13885567 -0.014208819
00000000: 9a01 42bf e169 1b3f 37ac 043f 3a01 403f
00000010: 519b 4abf f363 1c3f 3ac2 07bf 82fa 1f3f
00000020: c97c 48bf b372 493f 1859 40bf 0f0d 4f3f
00000030: 61f1 13bf cefd e9be 2c3e 3d3f 0c42 1a3f
00000040: e9fa 283f 9d58 20bf 804e e93e d1fe 513f
00000050: a399 fcbe 8e2f 02bf 6114 2abf 7aeb 45bf
00000060: cff3 063f 13fd 28bf c68f 41bf f8a3 433f
00000070: 79ad 1fbf b5ce 253f 533e 5e3f dbc3 413f
00000080: 0639 65bd 8c73 a03d 4983 0f3e cc7f 2d3d
00000090: 2c2e f4bc 6229 bfbc 89fe a7bd 60f7 42bd
000000a0: bbe3 e23d 0c9c 233d 9b64 633e 26c1 07bf
000000b0: 077d 6fbc ae04 72be caa1 39be e738 2f3e
000000c0: 73e2 10be 39c3 4bbd e90c 1ebe 447d e4be
000000d0: bfa4 24bd f181 81bd 64aa 903e 015d 023e
000000e0: 541b 58be 4ad3 043f 3532 223d 54a0 a8bc
000000f0: 9040 96bd 6a3b 123b c4cc b7be b3fd 1abe
00000100: a6bb 8bbd 0ce2 74bd dff9 05bd 874c 09be
00000110: 0e7b 18bd 0cef 15be 392b 12bc f68a 2dbe
00000120: fead d43e e06f 96bc 7c90 f1bd 7606 16bf
00000130: c738 943b 6ef0 1bbe 02c4 a93d 118e d13c
00000140: c14b d43d 469c a0bc fcf2 89bd e0c6 debe
00000150: 392a 4ebd f93e cf3d db84 223e 3073 293e
00000160: 971e c3be 98d1 d33e 3f58 ca3c 1420 1fbd
00000170: e677 eb3d e4de 52be 6766 e8bc 0870 84be
00000180: c9c3 18bf 685f 153f 3742 de3e 4c41 e83e
00000190: 0347 35bf da04 263f 9ac2 08bf 1430 1c3f
000001a0: 1bb0 1dbf 913b d23e 819d 18bf ad0d 323f
000001b0: aba3 23bf a0b2 0dbf ac21 223f d64a dd3e
000001c0: 3bef 153f 1dce 19bf cea3 163f d754 2c3f
000001d0: da6b 2fbf 3536 24bf f2bc f9be a254 17bf
000001e0: 94f4 0f3f bd3a 1abf 031b 18bf 10db 003f
000001f0: d28b 1ebf bbb2 1b3f ac57 423f 5060 163f
00000200: d1e6 29bf ac91 223f c318 223f 801d 2c3f
00000210: 02e8 0cbf 3446 153f 47bb 08bf b8f7 f03e
00000220: dbcb 55bf 118c 083f 00fc f0be b733 2f3f
00000230: dcc0 05bf 5b0e cebe c1f5 283f 4587 f93e
00000240: 9dc0 2f3f efcd 07bf b466 f83e 2c2f 1a3f
00000250: 3e65 29bf 60c7 27bf 50bd 06bf 2d38 c4be
00000260: 9006 003f 7c37 1abf 444f 1dbf fc83 f43e
00000270: e09e 1bbf be58 183f b249 2a3f 82d6 0a3f
00000280: cfd1 01bf 3bf7 f03e 3c7a f13e bd8a 2b3f
00000290: c9fc 1cbf b79a 323f cafe 21bf 59c2 313f
000002a0: 0311 16bf ef78 1e3f 877a 14bf 4152 073f
000002b0: 2f1a 30bf b9c7 25bf ab7d 2a3f b2a4 2f3f
000002c0: 842f 1d3f 1317 17bf 2d2c 143f 9631 283f
000002d0: 983e 34bf b5ce 27bf e8eb febe 633a 17bf
000002e0: c947 db3e da1e 3abf 5db9 ecbe 13e7 e63e
000002f0: 7cf8 19bf aa22 1f3f 53ed 4b3f a220 423f
00000300: d3b0 06bf d16f 193f 6850 293f 61b4 3e3f
00000310: c0aa 02bf c272 273f a3d5 0dbf b30e 183f
00000320: a679 18bf f6ea 243f d4cc 3cbf 48d7 1a3f
00000330: 3ce7 42bf 85cc 28bf 0b72 1b3f 0211 f73e
00000340: 426c e83e 62d8 3fbf 15a6 2a3f 1182 353f
00000350: b9df 20bf 3764 1abf 6392 25bf b834 2fbf
00000360: ee8c d93e c6c1 52bf 9f5f 45bf c75e dd3e
00000370: 0906 29bf c5ff 2e3f 3af8 5b3f 2239 293f
00000380: 7345 853e 03e4 63bd b900 82be 9b32 71be
00000390: 3933 b93d 4e19 92be 2cf0 293e 5b3c c2bd
000003a0: 1b9d 9e3d 545a 41be bb6c 90bc 163c 01bd
000003b0: c1ca 8f3e b266 6e3c 8870 523b 7505 6cbe
000003c0: dc9a 683c c4c1 a83d 8a0c a3bd f756 a1bd
000003d0: 0127 843e 34cd 573e 1aa5 0a3e 6c55 0c3e
000003e0: 43d4 2a3c 6a4f e43d 0488 a63d 9f75 ffbd
000003f0: f29f a13d eb8b 58be 2e30 0ebe 1bcc 68bc

dense_layers.0.bias f4 [16]
0.74198353 0.12784815 0.15551805 0.34820214 0.63793737 0.5407543 0.39525288 0.116178125
0.5675674 0.09034206 0.18868987 0.66376567 0.67502 -0.072749324 0.28161424 0.6220718
00000000: a2f2 3d3f a0ea 023e 2040 1f3e 8d47 b23e
00000010: dd4f 233f e06e 0a3f 965e ca3e ccee ed3d
00000020: 194c 113f 4205 b93d eb37 413e 8cec 293f
00000030: 1cce 2c3f 99fd 94bd be2f 903e 1940 1f3f

dense_layers.2.weight f4 [1, 16]
0.6062926 -0.25531197 -0.18106492 0.84154564 0.79098654 0.7847774 0.6178286 -0.102904774
0.6886151 -0.18151626 -0.21191634 0.6881504 0.8086237 -0.283476 -0.33666128 0.65593106
00000000: fe35 1b3f 40b8 82be 1569 39be 896f 573f
00000010: 187e 4a3f 2ce7 483f 042a 1e3f bdbf d2bd
00000020: 1449 303f 66df 39be 9900 59be a02a 303f
00000030: f601 4f3f c423 91be de5e acbe 19eb 273f
