BNN/model_states/DNN_model_state_FD001_denoised.pt (torch, 29071 bytes, 7 tensors)

lstm.weight_ih_l0 f4 [128, 14]
00000000: 1b90 bd3d 6c9a 543d 2e0f 3fbe 5ca5 953e
00000010: 14a9 e5bd 781c 5a3d 68b9 67be feb5 103e
00000020: 5c72 de3c 6c35 b1bd 3d4b 873d 46b3 40bc
00000030: 5c8c 903e 22a3 e03d 9403 c5bd 5d0e 4fbd
00000040: 1582 b03d 723d d83c 769d debd f972 3f3d
00000050: 5102 e5bd 8e57 133e 765a 43bd 7ee8 9f3c
00000060: c5a7 5dbe 805f 4fbe 8773 54bd e4d2 54bc
00000070: 7a8c 53bd a060 4fbe fb3d 903d 61cf e0bc
00000080: 9ca9 993d ac9f 2a3c f887 28be ae63 f63d
00000090: d4fe fbbd edc9 913e 9be9 60bd 8077 b9bd
000000a0: d1f8 473e 45f1 743c 1646 42bd 8141 893d
000000b0: 10a3 2abd 7d0b 193d 91e1 43bd 90a2 19be
000000c0: e1ea 09bd 49c8 e53c 94a0 a5be 6d51 68be
000000d0: 983b 87be ae00 66bc c679 333e f538 7a3e
000000e0: 8a4f 163c d66c 30bd 5143 ee3d 5b3c afbd
000000f0: 3845 8dbd 8d8a e3bd 8f3d 853d 318f 2fbc
00000100: f4a4 04bd e4e6 92bd b12a 043e 6ba0 20be
00000110: 6abb 90bd fcff c8bc 6556 f13d 74df 8c3c
00000120: 13e1 1f3e 25ad b3bd ff32 8bbe 020e 53be
00000130: 73fd ddbd dc48 e03d ea89 61bc 71b0 ba3d
00000140: ad14 f9bd 1f79 32be 556a 143e 7aef 493c
00000150: 84c5 243c ba32 ecbd 6231 0e3a c91b 53bd
00000160: 97a2 3dbe d05b 91bd b621 8dbd ed8e 333d
00000170: dfc8 013d 7858 dcba c19b 73be e001 4bbe
00000180: 04e7 7b3e 5faa 243d fe2f 32be d2ee 7abe
00000190: bb88 70be f705 463e 1409 d7bd 4075 33be
000001a0: 97e6 0ebe 3853 12bd c12b 78be a924 a4bd
000001b0: ab42 a4be ed83 43be 80c5 a33e 9bbd 143e
000001c0: 36f3 a3bc 67b2 88be 24cd 68be be0b 5f3c
000001d0: a040 a9bc ed4a 1abe 97b2 53be 7881 a9bc
000001e0: 623f 5dbd 77ff 88bd e310 dcbd e8e7 29be
000001f0: 9c63 3dbd 21a4 9bbd ee43 223b 5d73 b6bd
00000200: 1e2b ef3d 23fc b1bd e5f4 773e a05c 973d
00000210: c236 2fbe cf96 ad3d 59f0 3e3d 55b5 b6bd
00000220: ddba 11be 24b5 dfbd 6c49 483d 014a ebbd
00000230: 0968 11bd baba 58be 9622 7e3d ee75 78bd
00000240: 97cb 1ebe 1beb a7bd 07e4 d23c 53e4 6f3e
00000250: 63e1 623d ef6e 5fbe 6d8a 53bd 2708 58be
00000260: 2b88 803d 6841 23bc 99fb 483e 3071 51be
00000270: f5fd a03d 0238 ef3d c52c 863d b1c7 52bd
00000280: 2c37 ae3d b8af 283d b8b4 9dbc 13fa ddbd
00000290: fda0 cc3d e4e1 91bd bc7a bbbd b092 143e
000002a0: 4123 db3d 0a53 4fbd c480 0abe 771f 66bd
000002b0: d604 303e 5576 3cbd 5f44 07be 1c42 b8bd
000002c0: 17e6 3dbd db21 9d3c fe55 0e3e 2fda 07be
000002d0: 19bc 593d c67f f33c 750f 03be cbaa 72be
000002e0: adbe 83bd 5e81 763e 4dd2 d7bd 1172 06be
000002f0: 8b7b 34be 78e4 153e a831 07be be0b 6cbb
00000300: 7715 e0bd 8ca6 343e 0413 3f3e 4c6f 953d
00000310: b9d3 473d e7a3 843c 7f86 203d 276b 983b
00000320: d0b1 d8bd 86e0 043d 980b 0a3e 6f8a ae3c
00000330: 3912 bc3d a998 d6bd 7da9 e2bd d6da b7bd
00000340: 0ff2 9cbd ff6b ddbb 693b d3bc 7cbb 8fbd
00000350: 7542 b4be b356 b33d ef30 27be 89bf 093e
00000360: e549 36be 12d6 923d 17c9 cabd 9225 223d
00000370: fdcf 96be 71c4 e13c 2145 053e f73d be3d
00000380: 6cbc 75be 4bcd b33d 1d08 1b3d 8c81 bb3d
00000390: 8846 f3bd 9d5c 56be cbbe 72be 3c82 4a3e
000003a0: dc64 0c3e 3d8c ad3d 7ba8 59bc 8bf0 513c
000003b0: 57ac 8a3d 3de5 fbbd d11c 5ebe 26b1 52be
000003c0: 2635 8fbc 9402 3bbd 0ded aebd a227 2fbe
000003d0: e29a ebbd 505e 8bbd f384 f4bd f189 eebc
000003e0: d6db 12be 83f6 983d 27a7 5d3c da11 9bbd
000003f0: fda7 f4bd c750 20be 3aa5 07be e8dd cebd
0.092560016 0.05190508 -0.18658134 0.29227722 -0.1121389 0.053249806 -0.2262932 0.14131925
0.02715414 -0.086527675 0.066061474 -0.011761492 0.28232086 0.10968615 -0.09619823 -0.050550807
0.08618561 0.026396487 -0.10869877 0.046740506 -0.111820824 0.14388868 -0.047693692 0.01952004
-0.2164603 -0.20251274 -0.051867988 -0.012989733 -0.05164764 -0.20251703 0.07043072 -0.027442636
0.075030535 0.010414045 -0.16458118 0.12030731 -0.12304464 0.2847437 -0.054910284 -0.09055996
0.1952851 0.014950101 -0.04743012 0.06701947 -0.041659415 0.03736447 -0.04782254 -0.15003419
-0.033671264 0.028049605 -0.32349074 -0.22687311 -0.26412654 -0.014038248 0.17526922 0.2443579
0.009174237 -0.043072544 0.11633933 -0.08556434 -0.06897968 -0.11110411 0.06505882 -0.010715292
-0.032383874 -0.07172945 0.1290691 -0.15686195 -0.070669964 -0.024536125 0.117840566 0.017196395
0.15613203 -0.08773259 -0.27187344 -0.20610812 -0.10839357 0.10951397 -0.013765791 0.09115685
-0.12162147 -0.17429017 0.14493687 0.012325162 0.010056857 -0.11533113 0.0005424229 -0.05154017
-0.18519054 -0.0709759 -0.068911955 0.043837477 0.031685706 -0.0016811034 -0.23789884 -0.19824934
0.24599844 0.04020154 -0.1740112 -0.24505165 -0.23489659 0.19338213 -0.104997784 -0.17525196
-0.1395515 -0.035723895 -0.24235441 -0.08014805 -0.32082114 -0.19093294 0.31986618 0.14525454
-0.020013433 -0.2669861 -0.22734505 0.013613639 -0.020660698 -0.15067644 -0.20673595 -0.020691618
-0.054015525 -0.06689351 -0.107454084 -0.16592371 -0.046237573 -0.075996645 0.0024759728 -0.089087225
0.11678146 -0.086906694 0.24214514 0.07390714 -0.17110732 0.0847603 0.046615932 -0.08921305
-0.14231439 -0.10923222 0.048898146 -0.114887245 -0.035499606 -0.2116498 0.062044702 -0.06065934
-0.15507351 -0.0819914 0.025743498 0.23426943 0.055390727 -0.21819662 -0.051645685 -0.2109686
0.06275972 -0.0099643245 0.19627227 -0.20453334 0.078609385 0.116806045 0.06551508 -0.05145997
0.08506617 0.041183203 -0.019251212 -0.108387135 0.099916436 -0.07123163 -0.09154269 0.14509082
0.107000835 -0.0506163 -0.13525683 -0.05618235 0.17189345 -0.046011288 -0.13209675 -0.08996984
-0.04636201 0.019181183 0.13899991 -0.13266824 0.0531579 0.029724013 -0.12798865 -0.23697965
-0.06432853 0.24072787 -0.105381586 -0.1312945 -0.17625253 0.14637935 -0.13202536 -0.003601774
-0.10941594 0.17641658 0.18659598 0.07296619 0.0487859 0.016191436 0.039190765 0.0046514454
-0.1058079 0.032440685 0.13480985 0.021306245 0.09183163 -0.10478336 -0.110674836 -0.089772865
-0.076633565 -0.006757259 -0.025785165 -0.07018182 -0.35206953 0.08756771 -0.1632726 0.13451971
-0.17801626 0.07169737 -0.09901636 0.03958661 -0.29455557 0.02755949 0.13014652 0.092891626
-0.23997658 0.08779391 0.037849534 0.091555685 -0.11878687 -0.20933767 -0.23705594 0.19776243
0.1371035 0.08474014 -0.013284798 0.012813698 0.067711525 -0.12299583 -0.2169068 -0.2057539
-0.017481398 -0.045656756 -0.085413076 -0.17104962 -0.11504151 -0.06805098 -0.119394206 -0.02911851
-0.14341673 0.074688934 0.013528622 -0.07571764 -0.11946104 -0.15655814 -0.13246623 -0.10100919

lstm.weight_hh_l0 f4 [128, 32]
00000000: ccfb 0abe 1212 783e bc2b 5cbd 0689 15be
00000010: 8871 673c 6e03 60be 87d3 633e 10ec 87bd
00000020: 352b 8bbe c859 58be d77c 2f3e 0905 7f3e
00000030: 1180 5d3d 5956 28bc 9119 2abe 8c39 d93c
00000040: 8ca0 743d 830a 39bc 7705 72bd 6374 abbd
00000050: 9852 403c fa86 723e f07b 7b3d 3043 763e
00000060: 3b1c 37bd 82af 6cbe de65 cebd 3726 b73d
00000070: cf54 6ebd 3a78 cb3b e84a 6d3c 1459 9bbd
00000080: 3551 a53d ff13 59bd 4531 cb3d 7401 3fbe
00000090: 6161 32bd f2e4 e43d 54da 783d 1811 58bc
000000a0: 7a8a 86be 6d73 05be 86b0 083e 008d 603e
000000b0: ba0a fd3c 9fff 95bd 44b0 cb3d 7682 acbd
000000c0: 5c29 b4bd 380f fd3d b195 a03d 042d debd
000000d0: 2135 e4be d00d df3c 3c71 a13d f459 883d
000000e0: d20c 883e ce5c edbe b1dd e13d f21f dbbd
000000f0: 4a6e f83d df4d ba3d 7e8a ec3d 5202 183e
00000100: a7ec 8dbd a0e5 ddbd 7bbb 58be 7765 783c
00000110: 0c1f 093e c2d6 43be 0b27 1c3e 30cf f43d
00000120: 9c22 d4be 221d 563d 720b d03d b74c 843e
00000130: e87a 7f3e 11f3 c93d 9ec0 70bb 5340 063e
00000140: 0c45 d9bb 2607 b43d 7cc5 77be 548c dc3c
00000150: ffd5 1abe 7f40 bd3d ad76 bb3d daf4 a43d
00000160: 38fb cc3c 543f 9dbe 0f82 2e3e dcb2 933c
00000170: a5cf 363e fc5b ffbd e2d7 37bd 6cdc bfbd
00000180: 16d4 c4bc b76e 98be a074 9e3e 3844 923e
00000190: 526c b0be e46c 503e 8634 7bbe 803d 133d
000001a0: 6a1e 5c3d 7ac2 813e 45c3 66bc f9f7 51be
000001b0: e0fc 93be a798 47be 2940 253e 602d 2d3e
000001c0: 94e7 a13e b968 51bd dadf fa3c 0637 f53d
000001d0: a2d8 44be 6805 9fbd 5fbe 9cbe 24a3 5fbe
000001e0: 349f 5c3e 00cd 25be c8ac 9abe abe6 513e
000001f0: 8ffa 2abe 3219 b03e 08fd 8e3e 76fc a43d
00000200: bfde 54be 20fd 8ebe 016b cf3d 5f6f 803d
00000210: 102b 3f3c 1def af3d 3e74 2dbd 4386 a93c
00000220: 16bb 893d 8cdb 883e e007 81be fca6 27be
00000230: 87e7 a1be 1561 463d 29e7 20bc 0d10 203c
00000240: 7a94 813e 04a7 86be beb7 3e3e c549 af3d
00000250: ec59 913d cfa3 1ebe 6910 123c 352e 9cbd
00000260: bb2c ac3d 47be 823d 401b 81be e4e8 51bd
00000270: 4cef 8c3d b004 863d 121c 19bd 94fc 973d
00000280: ade5 18be 73b5 30be ba6f eb3c 58be 2b3e
00000290: 2b4c 7dbe 7b11 093e 4080 55bc 6af7 fd3d
000002a0: 0d19 36bd cb30 063e 0135 14be 946f 14be
000002b0: 0ca7 6fbe 95f8 52be 055f 403d f982 8e3e
000002c0: 02e0 003d f973 1d3b 1674 453e c213 833d
000002d0: 5e38 31be 8514 40be 368f 2bbe 360b fdbc
000002e0: 01fb 7ebd ebf3 05be 9c12 dabc 4735 693e
000002f0: a79d 23bd 7dbe 453e 6f33 5a3e c240 313e
00000300: fb11 60bd f8ba 52be 3f12 90bb cdcd f83d
00000310: 54a4 3bbe 0b0b 393e 79d4 3bbe bbf5 4a3e
00000320: f9c4 313d 31b5 023e bbff 9ebe 2f56 6ebe
00000330: 6172 babe 3119 1d3d cb82 af3d 372a ea3d
00000340: e8e2 c73d 5117 82be 8e6f 513e 54d3 1f3c
00000350: 2a3f cebd 48c9 58be 2a77 2abe acaa fbbd
00000360: f340 d53d f777 42be 90b1 60bd f5aa 9b3d
00000370: fe13 77be d511 283e 8750 983d 07a0 25bd
00000380: 559f 4e3e d3d7 3bbb 72c8 b8bd 73bf a2bd
00000390: 18c4 e73d c737 ddbd 34df 533e baf1 2cbe
000003a0: aa87 1ebe 75af 8abd f91a 96bd 1a2b 403d
000003b0: a42a 003e 9af7 853d 23bc 013d 3983 a33d
000003c0: 7513 2dbe 9120 523d 0270 dfbd bd70 ddbd
000003d0: e7be 323d f97a 3cbd b8b1 0e3e 8a2a 4a3e
000003e0: 0cd8 813d 83b1 7ebe bcdb c0bd 88d9 1cbe
000003f0: ffe8 0a3e 913c dfbd 8aa0 33bc faaa d23d
-0.13572615 0.24225643 -0.053752646 -0.14603052 0.014126189 -0.21876308 0.2224866 -0.06636822
-0.27181402 -0.21127999 0.17137466 0.24904265 0.05407721 -0.010274493 -0.16611315 0.026516698
0.059723422 -0.01129401 -0.059087243 -0.083718084 0.011738442 0.23684302 0.061397493 0.24049067
-0.044704657 -0.23113826 -0.100780234 0.08942836 -0.05818635 0.0062094005 0.014483191 -0.0758535
0.0807213 -0.052997585 0.09921507 -0.18652898 -0.0435499 0.1117648 0.06075509 -0.013187669
-0.26277524 -0.13032313 0.13348588 0.21928787 0.030888904 -0.073241465 0.099457294 -0.08423321
-0.08796951 0.12356418 0.07841051 -0.1084843 -0.44571784 0.027228266 0.07882926 0.06657782
0.2657228 -0.46359867 0.110286124 -0.106994525 0.12130411 0.09096884 0.11549853 0.14844635
-0.069299035 -0.10834813 -0.21165268 0.01516091 0.1339075 -0.19124892 0.15249269 0.119535804
-0.41432655 0.052273877 0.10158433 0.2583978 0.24949229 0.09860814 -0.0036735903 0.13110475
-0.0066305455 0.08790426 -0.24196428 0.026922382 -0.15120696 0.09240817 0.09153495 0.08054514
0.025022134 -0.30712378 0.17041801 0.018029623 0.17852648 -0.124687165 -0.044883616 -0.09368214
-0.024026912 -0.2977197 0.30948353 0.28567672 -0.34457642 0.20354038 -0.24531755 0.035947323
0.053739943 0.25343686 -0.014084642 -0.2050475 -0.28903866 -0.19491826 0.16137756 0.1691184
0.31621993 -0.051125262 0.030624319 0.119733855 -0.19223264 -0.07764703 -0.30613992 -0.21839577
0.21545106 -0.16191483 -0.30209947 0.20498149 -0.16697143 0.34394222 0.27927423 0.080559656
-0.20788096 -0.27927494 0.10127831 0.06271242 0.011667982 0.08590529 -0.042347185 0.020693904
0.06725137 0.2673 -0.2520132 -0.16372293 -0.31621954 0.04843243 -0.009820738 0.009769452
0.2530859 -0.26299298 0.1862478 0.08558992 0.07097229 -0.15492176 0.008915045 -0.07626001
0.08406969 0.06383949 -0.25216103 -0.051247492 0.0688158 0.06543863 -0.037380286 0.07421222
-0.14931364 -0.17256717 0.028739799 0.16771829 -0.24736087 0.13385575 -0.013031065 0.12400706
-0.044457484 0.1310455 -0.14473344 -0.14495689 -0.23403567 -0.20602639 0.046965618 0.278343
0.03146363 0.0024025424 0.19282565 0.06400253 -0.17306659 -0.18757828 -0.1675385 -0.030889135
-0.062251095 -0.13081329 -0.026620202 0.2277423 -0.03994527 0.19310947 0.21308683 0.1730986
-0.054704648 -0.20579135 -0.0043967064 0.121486284 -0.18324405 0.18070619 -0.1834277 0.19820301
0.04340074 0.12764432 -0.31054482 -0.23275064 -0.3641539 0.038354103 0.08569869 0.11433833
0.09760076 -0.25408414 0.20452711 0.009754974 -0.10070641 -0.21170533 -0.1664702 -0.122884125
0.10412779 -0.18991075 -0.054856837 0.07600967 -0.2412872 0.16413052 0.07437234 -0.040435817
0.20177968 -0.0028662577 -0.09022607 -0.07946672 0.11316699 -0.10801654 0.20690614 -0.16889086
-0.15481439 -0.06771747 -0.073293634 0.046916105 0.12516266 0.06541367 0.03167356 0.07984013
-0.16901954 0.05130059 -0.10910036 -0.10812519 0.04363909 -0.046015713 0.13934982 0.1974279
0.06340036 -0.24872403 -0.09416911 -0.15317357 0.13565443 -0.10900224 -0.010963568 0.102865174

lstm.bias_ih_l0 f4 [128]
00000000: b8f0 07be 4bac c7bc 3c3a d5bd 9f85 8f3e
00000010: 77c2 d13d 8174 953d b198 e33d 0c82 2ebe
00000020: c78a c53b d8ec 5e3e 739c 933e 5ff1 433e
00000030: 7491 713e 319e ab3d 8e69 903d ebe8 46be
00000040: 9375 863e 1d6a 093d ae66 bd3c b173 9a3d
00000050: 8971 1e3e 274d cbbd 9e4e 173e 42ed 42bc
00000060: 2c45 c23d 8bff e9bb 0eb0 05bc f35f 8bbd
00000070: 62f4 9dbc 7bd5 813e a55f d53d 7bd1 a53a
00000080: e938 3c3e d5b2 a4bc 2880 f5b7 2518 6a3e
00000090: a319 873e ea01 133d 73cd 263e 5391 4cbd
000000a0: 0e70 b0bb 9240 a63d d535 133e b362 ba3d
000000b0: a2a9 823c f969 b83d 0f55 6e3e bca5 a53c
000000c0: b027 e83d a359 543e 0ac4 70bd a8ff 943e
000000d0: 2f35 cfba 2c46 bfba c718 003e d11f 6d3e
000000e0: fa51 a0bd 3ac0 a2bd 2d06 50bd eb08 08be
000000f0: 20e1 e43c bc14 e43c 4c7d 323b 31e3 64bd
00000100: e237 ac3d 4e69 a93d 707b 073e 1c82 cb3c
00000110: e906 49be 7d19 243e 68d2 54be 68ac 493e
00000120: 71e9 46be c744 6b3e 7eb7 86be c58a 0abe
00000130: a409 efbd 6326 ffbd 938f b6bc 2aa0 553d
00000140: 3346 603e 2128 82bc fa9e 9c3d f843 3c3c
00000150: 2c73 1abe 0a71 9c3d f9a2 52be aa91 93be
00000160: 1ec5 103e f8e9 cabc 72d0 b83d 430f eebc
00000170: b0af f63c 77dd a5bc 6069 ed3d 4c2d 2f3e
00000180: 575b 793d 1303 863e c7d7 4b3e 8c83 7ebd
00000190: d187 373e c812 b5bc b792 093e 09a1 083c
000001a0: 043e cd3c a735 be3d 5658 603d e1ef 4fbc
000001b0: 3217 e23d c9c2 35bd 3724 c63c ed47 4ebb
000001c0: c66f ea3d a26a 243e 416f 8e3e 307e 043e
000001d0: 2afa 223c 84e3 09bd d68f ba3e 7614 a93d
000001e0: 741e ae3d d3b9 8b3e 6fb2 ce3c ab4a 6b3d
000001f0: 8be2 913e dddb 853e 84be b0bb 5fa0 b83d
-0.1327542 -0.024374148 -0.10411498 0.28031632 0.10242169 0.07297612 0.11113108 -0.17041796
0.0060285064 0.21770036 0.288303 0.19135045 0.23590642 0.08379782 0.07051383 -0.19424789
0.26261577 0.033548463 0.02312025 0.07541598 0.15472998 -0.09926825 0.14776084 -0.011897387
0.0948585 -0.007141059 -0.0081596505 -0.0680541 -0.01928157 0.25358185 0.10418633 0.0012650931
0.18381085 -0.020104805 -2.9265953e-05 0.22860773 0.26386747 0.035890497 0.1628931 -0.04994328
-0.0053844517 0.081177846 0.14376004 0.09100857 0.015950028 0.09004588 0.23274635 0.02022063
0.11335695 0.20737319 -0.058780707 0.291013 -0.0015808697 -0.0014593056 0.12509452 0.23156668
-0.07828136 -0.079468206 -0.05078714 -0.13284652 0.02793938 0.027841918 0.0027235327 -0.05588073
0.08409096 0.082720384 0.13230681 0.024842314 -0.19631542 0.16025348 -0.20783389 0.19694674
-0.19424988 0.22975455 -0.26311868 -0.13529499 -0.11671761 -0.124584936 -0.022285258 0.052154697
0.21901779 -0.015888276 0.0764751 0.011490814 -0.15082997 0.07638748 -0.20569982 -0.2882207
0.14137694 -0.024769768 0.09024133 -0.029060012 0.030113071 -0.020247204 0.11592364 0.17107123
0.060878124 0.2617422 0.19906531 -0.06213717 0.17922904 -0.022103682 0.13434874 0.008339175
0.025053985 0.09287577 0.054771744 -0.012691469 0.110395804 -0.044375215 0.02418719 -0.0031475977
0.114471 0.16056302 0.27819255 0.12938762 0.009947339 -0.03366424 0.36437863 0.08255856
0.08501902 0.2729021 0.025231568 0.057444256 0.2849315 0.26144305 -0.005393805 0.09014963

lstm.bias_hh_l0 f4 [128]
00000000: eec6 3ebd 1643 a53d 007d c2bd da65 8c3e
00000010: ab93 b53d ecc0 0fbd 1868 733e e711 3dbe
00000020: e431 b93b 2176 e6bd bb1f f93d 3c64 263c
00000030: 2cdc 32bd f842 26bd cafe a63d 3bfc 26be
00000040: b983 213e 72a9 803e 77e4 193e a617 2dbe
00000050: f4d3 693d 7b91 b8bd d3b0 b03d 04be 3f3c
00000060: 4270 8ebd ba78 babd 339e 793d e87d 81bc
00000070: bceb b93d fb1f c23d 69a9 95bd 3a7b 813d
00000080: 6258 0c3c d5a3 3c3d 8eed e43d 1a69 713e
00000090: 0c71 5c3e 80a5 a53d f661 af3d 7adb 373e
000000a0: 0dcf 5c3e d57e 4e3e aba1 8b3e b493 a93d
000000b0: 98c7 9b3e 05a1 103e 9e17 49bd 8e3e 01be
000000c0: d480 193d 990e 993e af7d 863e bc9b 303e
000000d0: 7396 cfbd deb4 bbbd 8d54 003e 0b2f a53e
000000e0: 4aa3 1a3d 2fee 86bd 0b30 933e 0d13 2e3e
000000f0: f7fa 4bbc d974 8e3d dd45 fa3d 30cb b8bd
00000100: 4ca3 063e 574f 97bd acff a0bc 2ebe 3d3d
00000110: 903c 7cbe 6342 0e3e 90fa 6bbe c9fd 26bd
00000120: 41e5 de3d b9f0 c93d 9769 40be 3850 20be
00000130: d139 4abe 93f1 d4bd 9963 273e 52ec 56be
00000140: ba03 3d3e a96a 3e3d 5a76 e03d efe9 0dbe
00000150: 4744 00bd 2c5d 27be 7821 5bbd df30 0fbe
00000160: 9a84 9f3d 96f1 cbbc 085b 5b3b b4e3 cc3d
00000170: 8745 74be d71a 093e a314 2b3e 9daf 203e
00000180: 7146 983d dc4a e83d 5722 883e 724b 64bd
00000190: b2d2 463d dc8c 893e ee2d 1b3e 8307 293e
000001a0: f720 f5bc c3be fd3c dd77 173e 11fb e93c
000001b0: 099c 163e 5373 043d 71e3 673e 9707 4d3e
000001c0: afde 3a3d fe5c 843e 22f2 d23d 5725 2c3e
000001d0: 6298 8c3e 190e c9bb 90a3 1a3d b1d9 fe3d
000001e0: 95e2 133d e260 d53d 2e22 ccbc 75b3 763d
000001f0: ccd5 863e d60d e23b 1ee5 473c 70e7 cc3d
-0.046576433 0.08069436 -0.09496498 0.27421457 0.08866056 -0.035096094 0.23770177 -0.1846386
0.0056516994 -0.11253 0.12164255 0.010155734 -0.043667004 -0.04059121 0.08154066 -0.16307156
0.15772904 0.25129277 0.15028559 -0.16903552 0.0570869 -0.09012123 0.086274765 0.011703018
-0.06955005 -0.09105058 0.060941886 -0.015807107 0.09078166 0.09478756 -0.07307703 0.06322332
0.008565994 0.04605468 0.111781225 0.2357525 0.21527499 0.08088207 0.085636064 0.17954817
0.21563359 0.2016557 0.2727178 0.08280125 0.30425715 0.14123924 -0.04909479 -0.12621519
0.037476376 0.2989395 0.26267764 0.17246908 -0.10136118 -0.09165357 0.12532254 0.32262453
0.03775338 -0.06588399 0.2874759 0.16999455 -0.012449971 0.06955881 0.122203566 -0.0902313
0.1314823 -0.0738818 -0.019653164 0.046323948 -0.24632478 0.13892512 -0.23044801 -0.040769372
0.108835705 0.09860367 -0.1879028 -0.15655601 -0.19748618 -0.10397639 0.16346587 -0.20988587
0.18458453 0.046488438 0.10960074 -0.1385877 -0.031315114 -0.16344136 -0.053498715 -0.13983487
0.077889636 -0.02489547 0.0033471007 0.100043684 -0.23854648 0.13389145 0.16707091 0.15691991
0.07435311 0.11342403 0.265887 -0.055736013 0.04854078 0.2686528 0.1515424 0.16506772
-0.029922945 0.030974751 0.14791818 0.0285621 0.1470796 0.032336544 0.22645356 0.20022427
0.045622524 0.25852197 0.103000894 0.16811119 0.2746001 -0.006135714 0.03775364 0.12443865
0.036104757 0.104188696 -0.024918642 0.060229737 0.2633499 0.006898622 0.012200622 0.10005081

dense_layers.0.weight f4 [16, 32]
00000000: 43bb 19bf cc9c d9be 426f d63e 72b5 173f
00000010: 4168 21bf 46ef e83e 1c61 bfbe 3873 f93e
00000020: f9cf 09bf f294 203f 0b5c 17bf 4819 113f
00000030: 702b d8be 470c b3be 8de4 143f 5ddb f53e
00000040: f160 f33e 4e2d efbe 3132 973e 08f1 033f
00000050: 9cde b1be df6a b7be 75ce febe 7b5c 1dbf
00000060: b92c ed3e 98cd e5be b5d9 15bf 0846 1e3f
00000070: 7324 edbe 7b27 fb3e 33f9 263f 0977 093f
00000080: 32c7 9f3e 78ff f53e 418e 97be afa5 a3be
00000090: ade6 a03e e147 c3be ea3f 8c3e 822e ddbe
000000a0: 73da a03e 6eaf 9dbe da6b 123f 2792 0dbf
000000b0: e554 af3e 87dd 9d3e 5798 07bf f12b 80be
000000c0: 5439 0abf 6f69 953e 361b 0cbf 5b38 ccbe
000000d0: 8428 963e 4998 883e aa79 163f 8498 f43e
000000e0: dca4 b1be d21f 0f3f 3fa2 da3e babc c5be
000000f0: 2ec6 8a3e 9f2c b0be 0641 13bf 86ef d3be
00000100: f71b ae3e 9991 ad3e aa8f 06bf 739a 04bf
00000110: c3d5 a23e ae71 05bf 59af b93e f5a1 19bf
00000120: 2f30 1b3f d445 bfbe 986c 7f3e 8825 14bf
00000130: b640 b73e a001 f03e db38 8abe 8d6a edbe
00000140: 5f25 a6be 2aa3 9e3e 60a9 edbe 2a74 e5be
00000150: 6c3a 8f3e b2d5 d03e d544 f83e b32c 083f
00000160: 083a 14bf 6c27 ce3e 2aea db3e 4bd9 d8be
00000170: 51b8 eb3e 81f1 0cbf ef81 a7be 7a17 18bf
00000180: c49b eabe ac71 a2be 695e b13e 99dd 9f3e
00000190: b981 0fbf 64ce 023f f4f3 c9be 1b2a f93e
000001a0: 7689 cbbe 49e4 883e 64a0 e6be a8b1 ff3e
000001b0: 60a6 00bf 8d19 e9be 5f07 fc3e e200 a63e
000001c0: ffc5 d73e 9e14 ecbe 5030 e33e 308d d03e
000001d0: 2f8e 0dbf 6abd 02bf 3fd2 abbe ae17 e4be
000001e0: 8a6d 023f 40e6 d3be fe94 e4be 3b21 bf3e
000001f0: 3857 f2be ec2e f13e aaba 103f 82d2 cb3e
00000200: 88e7 03bf 48a4 90be 6e17 0a3f d7b7 053f
00000210: a6ec c9be 16ae df3e db7d c5be 1356 ad3e
00000220: dd09 1bbf 799d c33e ebdb a1be f951 f53e
00000230: 05a8 c1be e7c9 98be 759f 023f e414 be3e
00000240: 9735 033f 6056 c4be 5fa7 a93e e91c a63e
00000250: f742 05bf da70 04bf 8605 bbbe f3d5 6abe
00000260: 8e8d e23e df61 cfbe 5fb9 e9be e88b ad3e
00000270: addf e7be b905 e63e b710 ec3e 72e3 af3e
00000280: 82d4 b9be ffc1 dfbe 12b1 c23e 1a10 063f
00000290: 4a1d ecbe bf0f 0e3f 99cc f9be cdd9 103f
000002a0: 0e80 b8be 4340 f13e 3ad7 dbbe 9d48 a63e
000002b0: 29e2 0bbf 0398 0bbf 0713 053f d9ca 123f
000002c0: be6c e33e 3438 e4be 6fb2 db3e 7a50 c43e
000002d0: 2d03 11bf f5ff 04bf 6861 aebe d097 e1be
000002e0: 3a77 be3e d41a 08bf e310 9ebe abab a13e
000002f0: 1d87 e6be a561 f53e 10b2 183f 420d 103f
00000300: 8986 063f d0ce ec3e 40ca 9fbe c68e 98be
00000310: b643 073f eac0 c8be 83af fa3e 423a e2be
00000320: ccfd 193f 72db cfbe 4489 993e 5848 03bf
00000330: dd17 9c3e 8b37 bf3e e41b e3be 175d 08bf
00000340: 984c 1dbf 8808 9f3e a038 c0be 885a e6be
00000350: ced9 e33e 8524 e93e 5590 da3e 3c58 b53e
00000360: 6528 0bbf b5fe d13e 3cfe 8d3e 8c2c 20bf
00000370: cee9 c53e eae3 bdbe 628e a2be dfbb ebbe
00000380: 15b2 0e3f 7cd0 ff3e 2490 10bf db99 05bf
00000390: ab38 c03e 824d 12bf c6e6 e73e 52a6 cbbe
000003a0: 1538 a83e a958 f1be 344f 8a3e 554d 69be
000003b0: 0592 0d3f edc0 ab3e 77c4 8fbe 3d4a 0cbf
000003c0: ce59 90be a874 ad3e e7df c0be 4d3d 99be
000003d0: d813 093f 584d e73e 0761 d63e 7740 da3e
000003e0: a412 96be bb01 cd3e a2ad bb3e ec8f d7be
000003f0: cc0d b13e 56a6 f9be a461 e7be c347 9bbe
-0.60051364 -0.4250244 0.41881758 0.5926124 -0.63049704 0.4549505 -0.37378776 0.48720717
-0.53832966 0.6272727 -0.5912482 0.566792 -0.4222064 -0.34970304 0.5816124 0.48018923
0.47534898 -0.46714252 0.2953048 0.5153966 -0.3474015 -0.35823724 -0.4976689 -0.6146924
0.46323183 -0.44883418 -0.5853532 0.6182561 -0.4631687 0.4905356 0.65224 0.5369726
0.3120666 0.4804647 -0.2960072 -0.31962344 0.31425992 -0.38140777 0.27392513 -0.43199545
0.31416664 -0.30797905 0.5719582 -0.55301136 0.34244457 0.30833074 -0.5296683 -0.25033525
-0.53993726 0.29182002 -0.5472902 -0.39886746 0.29327786 0.26678684 0.58779395 0.4777261
-0.3469609 0.5590793 0.4270191 -0.3862055 0.27104324 -0.34409043 -0.5752109 -0.4139368
0.3400571 0.33900145 -0.52562964 -0.5179817 0.31803712 -0.52126586 0.36266592 -0.6001275
0.606204 -0.37357962 0.24943769 -0.5786977 0.35791558 0.4687624 -0.26996502 -0.46370354
-0.32450387 0.3098386 -0.46418285 -0.4481519 0.2797426 0.40788037 0.48490015 0.53193206
-0.5790105 0.40264452 0.4295209 -0.4235328 0.4603906 -0.55056006 -0.3271632 -0.5941082
-0.45821965 -0.3172735 0.34642342 0.31223753 -0.56057316 0.5109618 -0.39443934 0.48664936
-0.39753312 0.26736668 -0.45044243 0.49940228 -0.5025387 -0.45527306 0.49224374 0.3242255
0.42143247 -0.4610948 0.44372797 0.40732718 -0.5529508 -0.5107027 -0.33558843 -0.44549316
0.50948393 -0.41386604 -0.44644922 0.3733004 -0.47332168 0.4710611 0.56534827 0.39809042
-0.51525164 -0.28250337 0.53942 0.5223364 -0.3943836 0.43687505 -0.38572583 0.33854732
-0.60561925 0.3820608 -0.31613097 0.47914103 -0.378235 -0.2984154 0.5102456 0.37125313
0.51253647 -0.3834715 0.33135507 0.32443932 -0.52055305 -0.517347 -0.36527652 -0.22933178
0.44248623 -0.40504357 -0.4564924 0.33895802 -0.4528784 0.4492624 0.46106502 0.34353215
-0.36294943 -0.43702695 0.3802572 0.5236832 -0.46116096 0.55492777 -0.48788908 0.5658234
-0.36035198 0.4711934 -0.42937642 0.32477275 -0.5464197 -0.54528826 0.5198216 0.5734077
0.444189 -0.4457413 0.42909572 0.3834265 -0.5664547 -0.5195306 -0.3405869 -0.44061136
0.37200338 -0.53165936 -0.3087226 0.31576285 -0.45024958 0.4792606 0.596467 0.5627023
0.52549034 0.46251535 -0.31208992 -0.29796427 0.52837694 -0.39209682 0.4896203 -0.44185072
0.6015289 -0.4059711 0.29987538 -0.5128226 0.30486956 0.37347063 -0.44357216 -0.53267044
-0.61445 0.31061196 -0.375432 -0.44990945 0.4450211 0.45535675 0.42688242 0.3541888
-0.5435851 0.4101464 0.27733028 -0.62567973 0.3865494 -0.37087947 -0.31749254 -0.46041772
0.5574048 0.49963748 -0.5646994 -0.5218789 0.37543234 -0.5714952 0.45293254 -0.3977533
0.32855287 -0.47137955 0.27013552 -0.22783406 0.55300933 0.33545628 -0.28079578 -0.5480078
-0.28193516 0.33878064 -0.37670824 -0.2992958 0.53545904 0.45176196 0.418709 0.42627308
-0.29311097 0.40040383 0.3665591 -0.4210199 0.3458084 -0.48759717 -0.4519168 -0.30328187

dense_layers.0.bias f4 [16]
00000000: b50d 153f 9eab 86be 8b37 85be 4c3e 373e
00000010: 3f5c ee3e 317e be3e 287e 17bf 1776 50be
00000020: c821 cd3e 8bad a8be bd16 5bbe 69e9 fb3e
00000030: 0c2d 003f 39fe 01bf e3b3 2bbe 20b7 ec3e
0.5822404 -0.2630281 -0.26018938 0.17894858 0.46554753 0.3720565 -0.59176874 -0.20357548
0.40064836 -0.32944903 -0.21395393 0.49201515 0.50068736 -0.5077854 -0.1676784 0.46233463

dense_layers.1.weight f4 [1, 16]
00000000: 20af e73e eb99 25bf f3f9 09bf fded 293f
00000010: 6c93 253f 3730 233f 925d 01bf 7675 0cbf
00000020: 1b44 003f 4fc3 14bf ff18 13bf 4230 093f
00000030: cc7d 293f 692d 25bf 4647 23bf 4a2a fd3e
0.45250797 -0.64687985 -0.5389702 0.66378766 0.6467807 0.63745445 -0.505334 -0.5486673
0.5010392 -0.5811052 -0.57460016 0.5358926 0.66207576 -0.64522415 -0.6378063 0.49446326
