BNN/model_states/DNN_model_state_FD001.pt (torch, 29135 bytes, 7 tensors)

lstm.weight_ih_l0 f4 [128, 14]
00000000: 850e 1dbe 0930 1dbd 7926 85be 72dc b53e
00000010: 49f0 17be 8929 f4ba c487 c7be d878 df3e
00000020: 4064 493b 71a6 74be e23a b63d 86a9 73be
00000030: e5f9 a53e 81f5 503e cf2f 473e 1a7d 603d
00000040: 3ffb f53e dddc 9a3e 9a14 adbd 040f d53e
00000050: ee40 5b3e f441 38bd 72f3 d5bd 58c0 223f
00000060: 9d48 27be dfee eebd 36d5 8dbe eda6 74be
00000070: 33df 64be 29fe aebd ab90 4f3e ba08 e5b9
00000080: dcc8 c3bd 4945 0cbe bdf0 54be 26ba 133e
00000090: fc19 40be bde7 94bd 2638 8ebe 4e02 823e
000000a0: 07ea 2c3d 6e99 ecbd 42f5 8c3e ab50 d03e
000000b0: d22b c93e 679e bcbd e3f6 943e 0052 0f3e
000000c0: 5edf bf3e 896e 9bbe a4f1 bfbd a6ea 973c
000000d0: 6b14 683d 55d4 3a3e 0e28 28be 54bb acbd
000000e0: 6935 213e 4ab0 4a3e 0391 983e b244 2abe
000000f0: 90f4 153e bd82 5cbe 253c 233e c10c 0dbe
00000100: 7737 b13d 2e3f babd a7f6 6f3e c605 8abd
00000110: 28cc 6dbe d99b fbbd 4ecc 6f3e 4b17 213d
00000120: d772 103e 4c17 b73d 3e64 86be cc16 b13e
00000130: 38c1 d2bd 4b42 bb3d 4b09 33bd 3914 e93e
00000140: 202c 83be aebe a1be d419 c73d e586 41be
00000150: 09bb 503e 7fbf 80bd 584b 203e 3e3c a13c
00000160: 1129 f2bd b8c4 c33e 4cba 253e b339 14be
00000170: 5376 103d 0ab6 5e3e 75a9 61be 6e23 19be
00000180: 890b 533e a26a 27be 0076 163f 3901 14be
00000190: 127e 69be 2849 a33e 057f 7dbb 14ca 8a3e
000001a0: dee2 9bbe cc59 f8bc ea1f afbe c4ef 24be
000001b0: c9bb b1be 92bc 013f 1757 123f dbf4 e4bc
000001c0: f97e 4cbe 8d61 303d 5ab8 c03d cbc1 f03d
000001d0: fffa 14bf 7240 c4bd 6810 75bc 9a94 51bd
000001e0: 74f4 8fbe c44e f23d 9f7d 073e cac9 803d
000001f0: 84aa 91be 402f 6abe 1267 463e e430 913e
00000200: 80c2 673e 3bf3 9dbe 7c9a 7e3e 3448 4e3e
00000210: af2a 0bbd 7592 31be 64a5 0e3e 2f6f cb3b
00000220: 0a67 ecbc 21d1 f6bd b03a acbe 673e 98be
00000230: c380 a03d 824e 69be 5b99 a23e c428 0d3e
00000240: d004 13bd b085 b43e 5bc9 ac3e a7d8 723d
00000250: fe01 1a3e 0af5 3c3e ce98 db3c af46 18be
00000260: a2cc aebd 7001 fcbd ac64 ea3c 2820 f3bd
00000270: e8af 49bb 6bee 2ebd 69c9 31be f316 05bf
00000280: 0aa2 5c3d 05ae 683d df87 65bd c56f 75be
00000290: 5e14 8c3d 8f5b e9bd 08c7 47bc c966 493e
000002a0: d2ab da3d df71 933d a2de 82be e791 cc3d
000002b0: cfe4 10bd 26b7 483e a373 32bd 7ed3 e1bd
000002c0: cb53 87be 5dc5 133f 19c5 cbbd 03cf 8fbe
000002d0: 66a2 b4bd 01c0 5a3d 8b56 7dbe 7201 90be
000002e0: f888 6b3d 4d2b bd3d 6744 883d a9c5 373e
000002f0: fe81 06be 76d0 263e 8913 6ebd f441 663d
00000300: 579d 703e 82ee 1f3e 1299 833e 5070 2a3d
00000310: 74df 0d3e ae6b 90bc b3dc 9a3e 2c61 123d
00000320: 11b6 873c 8adf d3bd 6120 c53e 634f 94bd
00000330: 1343 f83c 06fc eebd 0afc a03d 999c 36be
00000340: c570 d1bd 54c5 5cbc a3cb 883e bac9 2dbe
00000350: dc5d a6bd c75d a9bb f89d 433c f810 01be
00000360: cc0d 9dbe 11a5 f13d 7a14 4fbe b962 60bd
00000370: 0b16 0abd 7118 003e 4676 9cbe baca 723e
00000380: 9681 46be 3cfb 543d 65e9 1b3e be8c d03e
00000390: 07f9 c3be 38b6 7cbd 6c70 63bd ec55 033e
000003a0: 05e0 0abe 063b ab3e 280c a73d 0285 a3bd
000003b0: 1722 a63c 354f debd d87d f4bd 1fa6 51be
000003c0: f47a fc3c f3d4 713c af83 453e fffb 43bd
000003d0: fbee 70bb 4f5a 31be 4b98 1e3c dc5c f93d
000003e0: 907d 53be cdc7 d03d 3395 c9bd 0af3 4bbd
000003f0: f8d3 3abd 39b7 28be 3cf7 b03c dad9 7fbb
-0.1533757 -0.038375888 -0.26005915 0.3551975 -0.14837755 -0.0018628101 -0.38970768 0.43646884
0.003072992 -0.23891617 0.0889795 -0.23795137 0.32417217 0.20406152 0.19451831 0.054806806
0.48043248 0.3024663 -0.08451195 0.4161302 0.21411487 -0.044984773 -0.10446824 0.63574743
-0.16336294 -0.11666655 -0.2770173 -0.23891802 -0.22350769 -0.08544571 0.2027003 -0.00043684785
-0.09559795 -0.13698305 -0.2079496 0.14426479 -0.18759912 -0.07270763 -0.27777213 0.25392383
0.042215373 -0.11552702 0.27530867 0.40686545 0.39291245 -0.092099 0.2909461 0.13996124
0.37475103 -0.3035777 -0.09372261 0.018544506 0.056660097 0.1824506 -0.1642153 -0.084341675
0.1574303 0.19793811 0.29798135 -0.16627768 0.14644074 -0.21534248 0.15940912 -0.13774396
0.08653157 -0.09094082 0.23433934 -0.067393824 -0.2322241 -0.12285585 0.2341778 0.039328855
0.14106308 0.089399904 -0.26248354 0.34587705 -0.1029076 0.09143504 -0.043710034 0.4552324
-0.25619602 -0.3159079 0.09721723 -0.18899114 0.20383848 -0.06286525 0.15653741 0.019682046
-0.11824239 0.38236022 0.16184348 -0.14475136 0.035269093 0.2174913 -0.22037299 -0.14954922
0.20609869 -0.16349271 0.58773804 -0.14453591 -0.22801998 0.3189175 -0.0038680446 0.27107298
-0.30446523 -0.030316256 -0.34204036 -0.16107088 -0.3471358 0.5067836 0.5716414 -0.027948787
-0.19970311 0.04306178 0.09410162 0.11755713 -0.5819549 -0.095826045 -0.014957525 -0.051167108
-0.2811619 0.118314296 0.13231514 0.06288488 -0.28450406 -0.22869587 0.19375256 0.28357613
0.2263279 -0.30849633 0.24863619 0.20144731 -0.033976253 -0.17341025 0.13930279 0.0062083225
-0.028857727 -0.12051607 -0.33638525 -0.2973511 0.07837059 -0.22783855 0.31757626 0.13785082
-0.03589326 0.35258245 0.33747372 0.059288647 0.15039822 0.1845285 0.026806261 -0.14870714
-0.08535124 -0.12304962 0.028612457 -0.11871368 -0.0030775014 -0.04270784 -0.17361988 -0.5198814
0.05386547 0.056806583 -0.05603778 -0.23968418 0.06839822 -0.113944165 -0.012193449 0.19668116
0.106773034 0.071994536 -0.2556048 0.09988766 -0.03537446 0.19601116 -0.04356731 -0.11026667
-0.26431116 0.5772303 -0.09949703 -0.28087625 -0.088200375 0.053405765 -0.24740045 -0.28126103
0.05750367 0.092367746 0.06653672 0.17946495 -0.13135526 0.16290459 -0.0581241 0.05621524
0.2349752 0.15618327 0.2570272 0.041611016 0.13854772 -0.01762947 0.30246505 0.0357372
0.016566308 -0.10345371 0.38501266 -0.07241704 0.030305421 -0.116691634 0.07860573 -0.17833175
-0.10226587 -0.013474781 0.26717862 -0.16971484 -0.08123371 -0.00516865 0.011939518 -0.1260413
-0.3067459 0.11799062 -0.20222655 -0.05478165 -0.033712428 0.12509324 -0.30558985 0.23710147
-0.1938537 0.05199741 0.15225752 0.40732378 -0.3827593 -0.061697215 -0.055527136 0.12825745
-0.13562019 0.3344347 0.081566155 -0.079843536 0.020279927 -0.10854951 -0.11938065 -0.20473526
0.030820347 0.014760244 0.19288515 -0.047847744 -0.0036763537 -0.17319606 0.009679864 0.12175915
-0.20653367 0.10194359 -0.098429106 -0.049792327 -0.045612305 -0.16476144 0.021602266 -0.0039039762

lstm.weight_hh_l0 f4 [128, 32]
00000000: 80f1 14be f1e0 0d3e c0ef 0f3d 40bd a3bd
00000010: 7500 71bd 0597 1fbe 6502 1e3e 9f9f c5bc
00000020: 2f59 36be db24 0fbe 5e43 da3d e138 2d3e
00000030: 9a8a 36bd d471 59bd c752 cebd 400b fd3a
00000040: ddf1 f33d e99d 9ebd 3bf4 eb3b 2d25 7f3d
00000050: e333 9bbd 10d4 1d3e 05be 1cbc 0f56 303e
00000060: 8ebf b03d 89ab 76be b583 a0be aaed 223e
00000070: ff6a 08be 50db a33d fd34 c03c c5f2 333d
00000080: 4cec 353e 8f59 333e 5981 fc3d 7ef8 ddbd
00000090: b415 bcbd bd82 083e f594 58bd d377 b6bd
000000a0: c9d6 cf3d ffd8 98bd 0dfa 703d 4809 2fbe
000000b0: fa5e 85bd e13b 643d 364d 243e 02ca 80be
000000c0: 0a9c fdbc 95c2 273e a752 083e bccc cfbe
000000d0: 8cbe 51be 106f ef3d d500 213d 150d ec3c
000000e0: a074 eb3d fa13 08be e41e 0a3e 9d09 bfbd
000000f0: 4640 b63d f23c 053e 50d2 573d 225e 6d3d
00000100: b367 e9bd f34a 5abe 8469 1bbf 5c97 eb3c
00000110: 30d1 123e fffa 3fbe fb8a 183e 32d9 bb3d
00000120: cca0 15bf 2075 403d 46b7 d23d 3507 493d
00000130: c86f 473e 5051 883e ada1 d23b ff23 a13c
00000140: 7741 0e3e 2b68 ab3d 380a 5ebe 95b4 9b3e
00000150: d694 39bd 1d61 043e d575 4d3d ef94 a33d
00000160: 52d7 4fbd 1144 81be 49d9 cfbd 23af 703c
00000170: 66de 373e 923d e0bd 199f 983d b927 533e
00000180: a55c 313e 5a12 a83d 0243 4c3d c53a 703e
00000190: 81f5 82be fbfe 1fbc 51b4 84be ce2e 03be
000001a0: 40af 253e 7a07 ad3d 4857 8d3d bdf4 83be
000001b0: 5648 6abd 72b5 a8bd a8a6 b53c 2e69 60bd
000001c0: 1f86 233e 1614 e83d 256f ccbd 6819 dfbd
000001d0: a0d1 46be 34c8 b13c cc76 49be e0b7 1abe
000001e0: 0f2a 533d b262 41bd cb7a 23bd 75aa e93d
000001f0: e02c 98bd 8705 943d f805 303e 5c70 12be
00000200: ad41 1cbe e070 343d f868 37bd f645 a13d
00000210: b0e5 1e3d a03d 50bd bb45 ebbd c254 9cbd
00000220: 4ebe 2e3e 119c 703e 9e51 7abe 285f c1bd
00000230: 8873 8abe be13 c43d 85c7 8abd 8fef 8abd
00000240: da00 633e 54fa 78be 965a 3e3e e264 f1bc
00000250: 950e 783d 45d5 d5bd 768a 683d 3513 95bd
00000260: 4a16 5cbc d6b7 673e 8f6c d7bd 91d3 7cbd
00000270: 2617 9d3d 1206 8e3b 7100 b8bd 8123 d3bc
00000280: 17b6 7fbd e9b9 a23d 1688 a0bd 625e ae3e
00000290: 9f02 cabe 271f 133e 7235 ebbd ded2 1e3e
000002a0: 6a84 f2bc d036 933e bfb8 3ebe a940 e5bd
000002b0: 9662 1cbe 37f4 72be 8436 4d3e d23f 593e
000002c0: dc2e 263e 7999 7abd d774 a73e 28bf 98bc
000002d0: 492c bdbe e18c 88be a1c9 7abe e99c 06be
000002e0: 0f04 b1bd 8578 68bd 6f91 323d dd7a b53e
000002f0: be0e 80be 16db 993e e93c 8f3e 6024 3f3e
00000300: 8301 c83d 86e1 5cbd 750f 32be f509 db3d
00000310: 8a1b 02be 1a8c b43d eb62 44be 9869 dc3d
00000320: c4d7 293e 138d 343d 6944 78be fd3b 6abe
00000330: 5462 19be 81cc a23d edb0 133d 3b23 16bd
00000340: 3a14 073c 86a2 2abe 0d2a 1d3e 0ae8 20be
00000350: 834b 0dbe 107d 3cbe d9b7 b3bd d9d6 a1bd
00000360: ac7f e5bc 3849 573b 5d74 f83d 6973 5b3d
00000370: 961e 70be 3761 92bb 4f36 e33b eb83 26be
00000380: 1d3d 383e b315 77be 8c6b 923d a163 21be
00000390: ea71 353e 8122 5ebe 44e7 9f3e 251c 36bf
000003a0: 0b73 cbbd f610 87bd 13f5 91bb cf93 133e
000003b0: 8bd8 833e 3b32 d7bc ef10 ebbc d028 9c3d
000003c0: ec81 793e be4c d43d 20b0 69bb 4580 853e
000003d0: ce19 9c3d c24b 16be 50b0 0c3e 2be6 853e
000003e0: 434d 4a3e cc4f 09bf 3957 a8be 58bc 84be
000003f0: 55ff 053e 8848 1bbe 3a98 403e c44d 933e
-0.1454525 0.1385534 0.035140753 -0.07995081 -0.058838326 -0.15584953 0.15430601 -0.024123965
-0.17807458 -0.13978903 0.106573805 0.16916229 -0.044565775 -0.05308707 -0.10074382 0.0019305721
0.11911366 -0.07744963 0.0072007454 0.062291313 -0.07578256 0.15412927 -0.009566789 0.17220329
0.08630286 -0.24088873 -0.31350484 0.15910974 -0.13322066 0.08000815 0.023462767 0.043932695
0.17765921 0.17514633 0.123293586 -0.10838412 -0.09183827 0.13331123 -0.05287643 -0.089095734
0.10148389 -0.07463264 0.058832217 -0.17093384 -0.06512256 0.055721167 0.16045079 -0.2515412
-0.030958194 0.16382821 0.1331278 -0.40585887 -0.20482844 0.11691105 0.039307434 0.028814832
0.11496854 -0.1328887 0.13488346 -0.093280055 0.08898978 0.1301153 0.052690804 0.0579511
-0.11396732 -0.21317653 -0.6070788 0.028758697 0.14337611 -0.18748091 0.14896767 0.09172286
-0.5844848 0.0469867 0.10288863 0.04907914 0.19476235 0.26624537 0.0064279647 0.019670485
0.1389216 0.08369478 -0.21683586 0.3041121 -0.045307957 0.12927671 0.0501612 0.07987391
-0.050742455 -0.25247243 -0.10148866 0.014690193 0.17955932 -0.109492436 0.074522205 0.20620622
0.17320497 0.08206625 0.04986859 0.23459919 -0.2557793 -0.009765382 -0.2591882 -0.12810823
0.16180134 0.08448692 0.06901413 -0.25772658 -0.05719789 -0.08237733 0.022174194 -0.054787807
0.15969132 0.11331956 -0.09982137 -0.10893518 -0.19415903 0.02170191 -0.19674224 -0.15109205
0.051553782 -0.047213264 -0.039912026 0.11409465 -0.07430434 0.07227617 0.17189777 -0.14300674
-0.15259428 0.04405296 -0.04477784 0.07874672 0.038793266 -0.05084002 -0.114879094 -0.07633354
0.17064783 0.23497035 -0.24445197 -0.09441978 -0.27041268 0.09574078 -0.067763366 -0.067839734
0.22168294 -0.24314243 0.18589243 -0.02946705 0.06056078 -0.104410686 0.05677267 -0.07279054
-0.0134330485 0.22628722 -0.10518753 -0.061725203 0.07670431 0.0043342197 -0.08984459 -0.025773766
-0.062429514 0.07945616 -0.07838456 0.34056383 -0.39455125 0.14367352 -0.11484803 0.15510127
-0.029604156 0.28752756 -0.18625163 -0.111939736 -0.15271983 -0.23725973 0.20040327 0.21215752
0.16228813 -0.06118152 0.3270633 -0.018645838 -0.3694785 -0.26669982 -0.24490978 -0.13145794
-0.08643352 -0.05675556 0.043595728 0.354453 -0.25011247 0.30049962 0.27976158 0.1866622
0.09765913 -0.053926013 -0.17388709 0.106952585 -0.12705818 0.08815785 -0.19178359 0.10762328
0.16586214 0.04407985 -0.24244846 -0.22874446 -0.14978915 0.07949162 0.0360574 -0.036654692
0.0082445685 -0.1666356 0.15348072 -0.15713516 -0.13798337 -0.18407083 -0.087753005 -0.07902307
-0.02801498 0.0032850038 0.121315695 0.05357686 -0.23449168 -0.0044671553 0.0069339643 -0.1626126
0.17992063 -0.24129371 0.07149419 -0.15760662 0.17719236 -0.2169285 0.3123113 -0.71136695
-0.09934052 -0.06595032 -0.004454264 0.14411853 0.25751147 -0.026269069 -0.028694598 0.07624972
0.24365968 0.103662 -0.0035657957 0.26074424 0.07622109 -0.14677337 0.13739133 0.26152167
0.19756036 -0.53637385 -0.32879046 -0.25924945 0.13085683 -0.15164387 0.1880807 0.28770268

lstm.bias_ih_l0 f4 [128]
00000000: 791c 98bd d945 613d 90d2 41be 0539 633e
00000010: 9a17 633d c9cb 683e eb79 b23d 8aeb 15be
00000020: 0e82 a9bd e728 3a3e 43c8 7c3e 7c6c 1e3e
00000030: 66b0 993e b66d 053d a26f 243e 02c8 53be
00000040: 8e2c b93e 2c19 7c3c dcdb 01bd cf52 753d
00000050: 7fe0 913e 3675 3dbd 2a86 183e f5b2 15bc
00000060: 11d2 9b3d b930 743d 1659 8dbd 1048 a63d
00000070: 9386 21bd 74cf 9e3e dfd8 ec3d adfb 73bc
00000080: aed7 1e3e 5d54 ad3d e20e be3d 5d21 7c3e
00000090: f3e0 983e c3eb 113e 0c1e 623e 8f61 573e
000000a0: 303a 1abd 56be a43d 3c5f be3d 2e10 bc3d
000000b0: 3500 193e 15ac e63d bd1c 9a3e 8932 363e
000000c0: 42dd bd3d fe4a f43d 0e5a d7bd 705f 493e
000000d0: 3dc8 2d3e 82a0 ef3c e3e5 bf3d 2684 963e
000000e0: 1305 61bd d369 fbbd a4e6 e2bd 3dbd 973d
000000f0: 449a f33d ace9 053d 9084 a73c 915f 9fbd
00000100: 72ec fc3d 9e79 7c3e 6a54 eb3d cf7f f23d
00000110: 0240 5dbe 972a 3a3e 68ed 2abe 6dae 413e
00000120: 921e 30be 52ad 373e 0c25 8bbe 5f92 30be
00000130: a3ce e9bd 394c 0dbe 8d6b 9c3d 1a36 e03d
00000140: 6172 4d3e 9e63 a3bd 4c2b 513e 6976 ffbc
00000150: 1ae3 91be b863 743d c1b7 a4be de65 82be
00000160: fb22 0b3e 9d0f 92bc 8f78 e33d ac11 e73d
00000170: 62b9 fbbc 356c e13d cba6 163e 3124 453e
00000180: 7cb7 2c3e 496b 853e 6324 d73e 9a5e f53d
00000190: 6122 9f3e 737d 7f3c 6c2d 273e 8a52 c43e
000001a0: 670b 59bd 4a45 173e e2fa 2f3e 7cdf 00bd
000001b0: 3382 2e3e 5bbe d83d aee9 bc3d 0df1 6a3e
000001c0: 8e78 283e 8f37 0f3e 7154 6e3e b17d 21bb
000001d0: 0106 de3d 6f88 d63d f440 f43e 5d82 3d3e
000001e0: d257 253e 311b 653e 744c 0dbe 5f01 d33d
000001f0: 98ea 953e f38e ba3e 7d14 203d 98df 1d3d
-0.07427306 0.054998253 -0.1892798 0.2218972 0.05544243 0.22733988 0.0871466 -0.14640632
-0.08276759 0.18179666 0.24685769 0.15471071 0.30017394 0.03257533 0.1605821 -0.20681766
0.36166805 0.015386861 -0.031703815 0.059893426 0.2849159 -0.04625436 0.1489493 -0.009136905
0.07608426 0.059616778 -0.069017574 0.081192136 -0.03943498 0.3101765 0.115648024 -0.014891547
0.15511963 0.08463357 0.092801824 0.24622102 0.29859123 0.14250092 0.22081774 0.2103331
-0.03765315 0.08044116 0.09295508 0.091827735 0.14941485 0.11263291 0.3010005 0.17792715
0.09270717 0.11928366 -0.105152234 0.19665313 0.16970916 0.02925134 0.09370019 0.29397696
-0.05493648 -0.12276044 -0.110791475 0.07409141 0.11894658 0.03269355 0.020448953 -0.077819
0.12349786 0.24655768 0.1149071 0.11840784 -0.21606448 0.18180309 -0.16692126 0.18914194
-0.17199162 0.1793721 -0.27176702 -0.17243336 -0.11416366 -0.13798608 0.07637701 0.10947819
0.20063163 -0.07977985 0.20426673 -0.031184392 -0.28493577 0.05966541 -0.32171443 -0.25468343
0.13587563 -0.01782971 0.11106979 0.112826675 -0.030728046 0.11006967 0.14712064 0.19252087
0.16866869 0.26058415 0.42019948 0.119809344 0.31080917 0.015593874 0.16325921 0.38344222
-0.05298939 0.14772525 0.17185548 -0.03146313 0.17041855 0.105831824 0.09224258 0.22943516
0.16452238 0.13986038 0.232744 -0.0024641568 0.10840989 0.104752414 0.47705805 0.18506761
0.16146782 0.22373654 -0.13798696 0.10302996 0.29280543 0.36437187 0.03908204 0.038543314

lstm.bias_hh_l0 f4 [128]
00000000: 030c 433c c3e8 233e ee73 38be 79f9 5c3e
00000010: ecb9 2a3d a442 f43d b3d8 5a3e 647b 24be
00000020: 9b47 aabd 1dff 17be 863e a43d 4df5 d8bc
00000030: b7c2 a83c dd08 bcbd 3fba 2f3e 5adb 33be
00000040: ef78 833e 0bba 6e3e 3b81 c33d b3fc 3cbe
00000050: 32c4 3f3e effd 17bd be1f b33d 5ff8 6c3c
00000060: 6fe3 b4bd 9601 c7bc a28c b038 31a4 083e
00000070: 8ba5 903d d103 1b3e 4c60 7cbd c9c8 403d
00000080: c3dd a4bc 8169 1a3e 0c86 513e 2bb9 813e
00000090: 67ff 7f3e 04fe 3f3e 9101 133e a130 e13e
000000a0: f6c3 3b3e c4bd 4d3e 223d 633e 3241 ab3d
000000b0: 161d e03e 10c2 273e 88f4 9c3c bffd 003d
000000c0: 08d8 893c e5e8 573e 317f 5d3e d8f7 9f3d
000000d0: d636 8f3d 2a9f 79bd 6d5d c03d 5423 c53e
000000e0: 3a42 7a3d 0498 dfbd 77ee 683e 73fd c03e
000000f0: 99e2 a03d 7964 983d a349 0f3e 52b9 e5bd
00000100: 8bfd 2e3e a33a b83d 82c4 17bd 2b3f 0f3e
00000110: ce3a 88be 7253 243e 8115 42be 37f6 46bd
00000120: 613d 063e 5383 453d 7844 49be d957 46be
00000130: 3c9c 47be 8f63 f0bd a835 863e 4e39 1cbe
00000140: e92f 2a3e 1d91 8ebc fe16 733e 039d 39be
00000150: e963 29be c87c 38be ec94 2dbe a5b2 d9bd
00000160: 5d40 943d 4217 93bc 410b c63c c7bc 773e
00000170: 3449 99be 4d46 873e b806 4b3e 7fa6 363e
00000180: d783 3a3e d6eb e53d d55a f93e 503d 013e
00000190: 9971 383e 03da 9c3e a9c8 383e 8748 0a3f
000001a0: 7c1d ddbd 84c4 af3d 51ae 873e e667 203c
000001b0: 8a12 543e d2ec 3a3e e1c9 963e d998 dd3e
000001c0: a7f0 c33d da86 733e 16bb 6b3d 9b84 143d
000001d0: 1a02 bf3e a674 073e 630b 1a3e fc64 683e
000001e0: 4682 e63d 305f 613d 04a7 40be c9b5 d83d
000001f0: d5dd 8a3e 4ded e03d 6f25 683d c46d 463d
0.011904719 0.1600676 -0.18012974 0.21579541 0.041681215 0.11926773 0.21371727 -0.16062695
-0.08314439 -0.14843412 0.08019738 -0.026484156 0.02060066 -0.09181378 0.17160891 -0.17564145
0.25678203 0.23313157 0.09546133 -0.18455772 0.18727186 -0.037107404 0.08746289 0.014463513
-0.08832442 -0.024292748 8.418529e-05 0.13343884 0.07062825 0.15138175 -0.061615273 0.047066484
-0.020125275 0.15079309 0.20461291 0.25336584 0.24999772 0.18749243 0.14356066 0.43982413
0.18336472 0.20091921 0.22191289 0.083620444 0.4377219 0.16382623 0.01915957 0.03149199
0.016826645 0.21084936 0.21630551 0.07810944 0.06992881 -0.060942806 0.093928196 0.38503516
0.061098315 -0.109176666 0.22747217 0.37693366 0.0785572 0.07441039 0.13992934 -0.11216988
0.17088906 0.08995559 -0.03705264 0.1398894 -0.26607364 0.16047457 -0.18953516 -0.048574653
0.13109352 0.048220944 -0.19655025 -0.19369449 -0.19493192 -0.11737739 0.2621281 -0.15256235
0.16619839 -0.01740318 0.2373924 -0.18126301 -0.16542019 -0.1801635 -0.1695134 -0.10629777
0.07238839 -0.017955426 0.024175288 0.24193107 -0.29938662 0.26420823 0.19826782 0.1783695
0.18214355 0.11226623 0.48702112 0.12621045 0.18012084 0.3063508 0.18045296 0.5401692
-0.10796639 0.08582404 0.2650018 0.009790396 0.20710197 0.18254402 0.29450896 0.43280676
0.09567385 0.2378191 0.057551466 0.036259275 0.3730629 0.13228092 0.15043406 0.22694772
0.112553164 0.05502242 -0.18813711 0.10581548 0.2712237 0.109827615 0.056676324 0.048444524

dense_layers.0.weight f4 [16, 32]
00000000: 8e5a 4fbf 0186 123f 77d8 cc3e cb1f 4b3f
00000010: 3c11 56bf 653b 253f 7411 12bf f7e9 173f
00000020: bc5c 50bf 9310 5d3f 6d5b 44bf c833 4c3f
00000030: 6d39 f4be f30e fabe c8c1 473f df28 f13e
00000040: c6b4 333f c984 2abf 3f22 ff3e 1b29 473f
00000050: e719 07bf 9d0c 15bf ba45 32bf 13a9 51bf
00000060: 7faa 2d3f 1fc6 26bf 8668 59bf 3bc9 4d3f
00000070: a477 2dbf 3e42 2f3f d5dd 633f 1779 4f3f
00000080: c3c4 663d 41e3 9e3d 5ecb 12be 1945 10bd
00000090: 1314 f93c 3701 a9bd d1d4 cfbc 3f05 63bb
000000a0: c18a 983d cfda 00bd 68aa 693e 2ff9 b3be
000000b0: 8785 e93c 82d8 9fbb f5f7 7abe 7cf6 dc3d
000000c0: abbf 5fbe f294 343c 12ed 70be 3558 bdbe
000000d0: 2bea 3ebc 4db9 19bd 9f72 ac3e 7cfd 473e
000000e0: 8bda 24be 30c4 0b3f 3c28 983e b22f 8bbd
000000f0: 41e9 983c a15e 42bd 07c3 cfbe fe9b 86be
00000100: 810d 943c 10a1 01be e8bb 91be bc91 6bbe
00000110: 0bc1 033d 5c7c 5ebe 8c93 5f3d 877f a5bd
00000120: 7184 c43e 7895 cdbd 5a38 dcbd 0f8d c5be
00000130: 94bc 6c3d bc36 1c3e 2317 3b3c ba7b 17bd
00000140: d3a6 d8bc 0ab5 3d3d 29d1 1abe 9b78 bfbe
00000150: 80c6 e4bc b1e3 313e 7135 863e 48f4 7b3e
00000160: 2778 b8be 4b1e d43e b957 613e 8690 b8bd
00000170: 8bbf 5f3e dc3f 88be 62a4 abbd 9c92 abbe
00000180: 690a 25bf bc43 0c3f b7e1 a63e 14fd fd3e
00000190: f287 40bf 3bda 2e3f dfc8 12bf 901e 153f
000001a0: 28a3 25bf 2cc5 f83e a797 1cbf 709f 303f
000001b0: 6b2d 0bbf eb97 14bf 8a79 2c3f 50c6 9f3e
000001c0: 0eab 203f caf6 23bf 6f22 213f 24a1 233f
000001d0: 9a60 38bf b56b 36bf 6bcc 04bf ebda 22bf
000001e0: b8dd 313f 88c4 18bf ee16 2ebf 3ee0 0a3f
000001f0: 4f05 2cbf a2e1 243f a4f2 493f a08e 253f
00000200: 78d7 36bf 2097 193f 490f 063f fd0f 373f
00000210: 3136 18bf fd22 1e3f a5db 12bf d797 e23e
00000220: a8a6 5dbf e6f0 1b3f 640d f9be 5c8a 2d3f
00000230: 1c16 dabe 837d dcbe 3b60 333f ffef ba3e
00000240: 8788 3a3f eaff 11bf 9bd7 063f 4e20 113f
00000250: 764e 32bf 2e2b 3abf 77f0 0ebf 5b67 dbbe
00000260: e4e6 223f 0cb2 18bf daa1 33bf cf65 043f
00000270: 4830 29bf 8890 213f d58e 313f a7df 193f
00000280: 85a7 0ebf e3c1 de3e f1ad b93e cf6c 363f
00000290: 353c 28bf 5369 3b3f 0b0b 2cbf 3d9e 2a3f
000002a0: 92d6 1dbf 3cca 313f 8d74 18bf ffb5 053f
000002b0: 6375 17bf 5fca 2cbf 41db 343f 2488 103f
000002c0: b0e3 273f 1843 21bf b4bb 1e3f bb39 1f3f
000002d0: 1619 3dbf b518 3abf c478 07bf e4c3 22bf
000002e0: e61e 103f 4186 38bf 178a 0cbf 99fe fa3e
000002f0: f873 27bf 0a5b 283f 5d48 533f 4729 513f
00000300: ec62 15bf 9fad 0e3f 681c 0a3f e1db 493f
00000310: 9021 0ebf 1ed3 2e3f d2b5 17bf f6a8 0f3f
00000320: 623e 21bf f08b 383f dec5 40bf 3b09 173f
00000330: c69f 28bf 2a7a 30bf 0767 283f 3aac b23e
00000340: 549a fd3e 9110 4bbf cf78 353f cd25 2b3f
00000350: 74b6 29bf 6e56 2ebf e66d 2dbf ebe4 3abf
00000360: bdfa 133f f5ff 50bf 932f 62bf 9b4f f03e
00000370: 1bfd 36bf 2d03 3c3f 241d 613f 3f53 373f
00000380: 91d7 9f3e 0fc8 46bd a2bd a0be 37c1 93be
00000390: 0855 023e 4a18 a6be 98b6 523e f613 80bd
000003a0: bcad 983d a1c8 7abe 6857 72bc 5906 93bd
000003b0: 9468 8c3e 1e92 0f3e ba85 28bd dd3f 7ebe
000003c0: 3fb7 36bc 3c66 fc3d 40de 07be fd00 0ebe
000003d0: 6cbb 873e d84a 8b3e 8961 833e 79b1 403e
000003e0: 85f5 86bd 150c 693e 9862 463e 194b 27be
000003f0: cb37 0f3e 05a9 75be f35b 7cbe f8eb b6bd
-0.8099755 0.57235724 0.400089 0.7934539 -0.8362005 0.64543754 -0.5705788 0.5934138
-0.813915 0.86353415 -0.76702005 0.7976651 -0.47700062 -0.4883953 0.7803006 0.47101495
0.70197713 -0.66608864 0.49830815 0.77797097 -0.527739 -0.5822237 -0.69637644 -0.8189861
0.6783828 -0.6514606 -0.84925115 0.8038518 -0.6776068 0.6846045 0.89010364 0.81044143
0.05633999 0.07758189 -0.14335391 -0.035222147 0.03040508 -0.08252185 -0.025370033 -0.0034640578
0.0744834 -0.031458672 0.22818911 -0.3515105 0.028506054 -0.0048781047 -0.2450865 0.10789201
-0.2185046 0.011021839 -0.23527935 -0.3698136 -0.01165251 -0.037530232 0.336812 0.1953029
-0.16098993 0.54596233 0.29718196 -0.067962065 0.018665912 -0.047453526 -0.40578482 -0.26290888
0.018072845 -0.12659097 -0.28463674 -0.23004812 0.032166522 -0.21727127 0.05458407 -0.080809645
0.38382295 -0.100382745 -0.10752936 -0.38584182 0.05779703 0.15255255 0.01141909 -0.03698323
-0.026446735 0.04631523 -0.15118851 -0.37396702 -0.027926683 0.17372014 0.26212648 0.24604905
-0.3602917 0.41429362 0.2200612 -0.09011941 0.21850412 -0.2661122 -0.08380963 -0.33510292
-0.6446901 0.54790854 0.32594082 0.49607146 -0.75207436 0.68301743 -0.57337755 0.5824976
-0.6470208 0.4858793 -0.61168903 0.6899328 -0.5436618 -0.5804431 0.67372954 0.31205988
0.6276101 -0.64048445 0.62943166 0.63917756 -0.720224 -0.712581 -0.5187442 -0.6361529
0.6947894 -0.5967488 -0.6800374 0.54248416 -0.671956 0.6440679 0.78885865 0.64670753
-0.7142253 0.59996223 0.52367073 0.7150877 -0.5945769 0.6177214 -0.573664 0.4425647
-0.8658242 0.60914457 -0.4864303 0.67789245 -0.42594993 -0.43064508 0.7006871 0.36511227
0.72864574 -0.5703112 0.5267274 0.5668992 -0.6965097 -0.72722137 -0.5583567 -0.4285229
0.6363356 -0.5964668 -0.7016884 0.5171785 -0.66089296 0.6311116 0.6935857 0.6010689
-0.55724365 0.435073 0.3626552 0.7125978 -0.6571687 0.73207587 -0.6720435 0.666477
-0.61655533 0.6944921 -0.5955284 0.5223083 -0.5916349 -0.67496294 0.70647055 0.56457734
0.655818 -0.62993 0.6200516 0.62197465 -0.73866403 -0.7269395 -0.5291865 -0.63580155
0.5629715 -0.72079855 -0.5489821 0.49022368 -0.6541133 0.65763915 0.8253229 0.8170361
-0.5835407 0.55733675 0.53949594 0.78851134 -0.5551996 0.6829089 -0.5926181 0.5611719
-0.62985814 0.7208853 -0.7530192 0.5899846 -0.65868795 -0.6893641 0.6578221 0.34897023
0.49531806 -0.79322153 0.70887464 0.66854554 -0.66294026 -0.6810063 -0.67745817 -0.7300555
0.5780447 -0.8164056 -0.8835384 0.46935734 -0.7147996 0.73442346 0.8793509 0.716114
0.31219152 -0.048530634 -0.31394678 -0.2885835 0.1272775 -0.32440406 0.20577466 -0.06253807
0.07455012 -0.24490596 -0.014791347 -0.07178945 0.27423537 0.14020583 -0.041143157 -0.2482905
-0.011152088 0.12324187 -0.13268375 -0.13867564 0.2651018 0.2720554 0.2566035 0.188177
-0.06589798 0.22758515 0.19373548 -0.16337241 0.13986127 -0.23990257 -0.24644451 -0.08931726

dense_layers.0.bias f4 [16]
00000000: 16e3 453f d598 213e 173c 3e3e bb69 c23e
00000010: f012 2b3f b95e 123f 5e36 db3e 18fa 543e
00000020: 436b 193f 0f27 6c3e 8c6b 803e e4d4 313f
00000030: 7ac9 343f 6e2e 783d 73bf ae3e 374b 273f
0.7729963 0.15780957 0.1857761 0.3797129 0.6682577 0.57175785 0.42814916 0.20798528
0.59929293 0.23061775 0.25082052 0.6946547 0.7061993 0.060591154 0.3413044 0.65349144

dense_layers.2.weight f4 [1, 16]
00000000: 8ccc 213f e8b3 8ebe a930 5dbe c8d4 5d3f
00000010: 8ecd 503f d2b2 4e3f e5e7 233f 28d5 49be
00000020: a2fd 363f 79f3 9ebe 16b1 8dbe d5bf 353f
00000030: a899 553f 1062 d2be 73d2 cfbe 132b 2e3f
0.6320274 -0.27871633 -0.21600594 0.86652803 0.8156365 0.8074161 0.6402572 -0.19710219
0.7148076 -0.3104513 -0.27674168 0.7099584 0.83437586 -0.4109044 -0.40590248 0.68034476
