BNN/model_states/DNN_model_state_FD001_noise.pt (torch, 29135 bytes, 7 tensors)

lstm.weight_ih_l0 f4 [128, 14]
0	0x3d47c510	0.048771918
1	0xbbf97f7a	-0.0076140733
2	0xbd9fd1b4	-0.078036696
3	0x3e183111	0.14862467
4	0xbe111560	-0.1416831
5	0xbdcbb48f	-0.09946548
6	0xbde92063	-0.113831304
7	0x3e3d4ad9	0.18485583
8	0x3da246d5	0.079236664
9	0xbe882f41	-0.26598552
10	0x3dc54e91	0.09634126
11	0xbe14ccf2	-0.14531305
12	0x3e86165a	0.26188928
13	0x3c42a5db	0.011880363
14	0xbd729557	-0.059224453
15	0xbdbb159a	-0.091349795
16	0x3b645897	0.0034842843
17	0x3dad6ba2	0.08467795
18	0xbe56351e	-0.209187
19	0xbe1e6ba8	-0.15470755
20	0xbe43635f	-0.19080876
21	0xbc825503	-0.015909677
22	0xbe683ecb	-0.22680204
23	0xbdbb7d0b	-0.091547094
24	0xbe2e668f	-0.1703131
25	0xbe2a576f	-0.16634916
26	0xbe08c9d4	-0.13358241
27	0xbe035be3	-0.12828021
28	0xbd0fdac9	-0.03512076
29	0xbe9224bf	-0.2854366
30	0xbc883ff1	-0.016632052
31	0xbd056385	-0.032565612
32	0x3d0bac4b	0.03409986
33	0xbdc361ec	-0.095401615
34	0xbe638011	-0.22216822
35	0x3e8629cf	0.26203772
36	0xbdc58d0b	-0.096460424
37	0x3cbf8510	0.023378879
38	0xbd218d1f	-0.039441224
39	0xbe57377b	-0.21017258
40	0x3e4a1a94	0.19736701
41	0x3dea308e	0.11435042
42	0x3d21fc83	0.039547455
43	0x3dbaa0d7	0.09112709
44	0x3dbaf2c7	0.09128337
45	0x3cc1936b	0.023629865
46	0xbc20ff44	-0.009826485
47	0xbd20212b	-0.03909413
48	0x3d9ea2c5	0.077458896
49	0xbc96e095	-0.018417636
50	0xbe828890	-0.25494814
51	0xbe0787c6	-0.13235387
52	0xbe568ecd	-0.20952912
53	0x3de6c9af	0.11268937
54	0x3df7cef3	0.12100019
55	0x3db072ad	0.08615623
56	0xbd2246e3	-0.039618384
57	0xbd810e09	-0.06301505
58	0x3df0fa78	0.11766523
59	0xbc92c191	-0.017914565
60	0xbdcf29bc	-0.10115382
61	0xbe26d93b	-0.16293804
62	0xbc4fb254	-0.012676794
63	0x3da77457	0.08176487
64	0xbd17430a	-0.036929168
65	0xbd905e8e	-0.07049285
66	0x3da5f5d6	0.0810353
67	0xbe09f0e7	-0.13470803
68	0xbd2805e1	-0.04102123
69	0xbbfa630a	-0.007641201
70	0x3e0fc4dc	0.1403994
71	0xbd17680f	-0.036964472
72	0x3d828acc	0.0637413
73	0xbdd3a6ae	-0.10334526
74	0xbe9ce517	-0.30643532
75	0xbe95fa2b	-0.29292426
76	0xbe5828a8	-0.21109259
77	0x3df5c207	0.119998984
78	0xbdac5b42	-0.084158435
79	0xbc1ffb8b	-0.009764562
80	0xbd58bbda	-0.052913524
81	0xbe32aa10	-0.17447686
82	0x3df0dac7	0.117604785
83	0xbbc69921	-0.006060735
84	0x3ce890a5	0.028389284
85	0xbe12b153	-0.14325456
86	0xbd366147	-0.044526365
87	0xbdbc4580	-0.091929436
88	0xbe8741a4	-0.26417267
89	0xbe1ce21a	-0.15320626
90	0xbd635a07	-0.05550578
91	0xbbe287d8	-0.0069131665
92	0xbdbe7ec3	-0.09301522
93	0xbdc20720	-0.09474015
94	0xbdb6c3ef	-0.0892409
95	0xbe13f209	-0.14447798
96	0x3e140584	0.14455229
97	0xbd046413	-0.032322
98	0xbeb02cc4	-0.34409153
99	0xbebfb76e	-0.37444633
100	0xbe8a2286	-0.26979464
101	0x3e687048	0.22699082
102	0xbe46e346	-0.19422635
103	0xbe49b9c3	-0.19699769
104	0xbe16e923	-0.14737372
105	0x3d63c75d	0.05561005
106	0xbe98da6f	-0.29854152
107	0xbe209f21	-0.15685703
108	0xbeba9c0c	-0.3644718
109	0xbe88979a	-0.26678163
110	0x3eb02dc9	0.3440993
111	0x3e16f399	0.14741363
112	0x3cee4228	0.02908428
113	0xbe83288d	-0.25616875
114	0xbe62df3f	-0.22155474
115	0xbd7b52e1	-0.061358336
116	0xbd801d17	-0.062555484
117	0xbea73332	-0.32656246
118	0xbe1887be	-0.14895532
119	0xbdd35667	-0.10319214
120	0xbddfda0b	-0.1093026
121	0xbe7afa8a	-0.24509636
122	0x3d089269	0.033342753
123	0xbe4127af	-0.18862794
124	0xbe228211	-0.15869929
125	0xbdc4742d	-0.09592471
126	0xbe295d95	-0.16539605
127	0xbe176898	-0.14785993
128	0x3dc14835	0.094376005
129	0x3de61eb5	0.11236326
130	0x3d9e94d3	0.0774323
131	0x3dac0ea5	0.08401231
132	0xbe73aaa6	-0.23795566
133	0x3e886956	0.26642865
134	0xbd924b21	-0.07143236
135	0xbcfdb10a	-0.030968208
136	0xbe32271f	-0.17397736
137	0xbe08797e	-0.13327596
138	0x3ddda801	0.1082306
139	0xbd0953dc	-0.03352724
140	0xbb90f153	-0.0044232993
141	0xbe86caea	-0.26326686
142	0x3dcde9a6	0.100543305
143	0xbd0a680b	-0.03379063
144	0xbd43749b	-0.047718626
145	0x3d9e719d	0.07736514
146	0x3d8ecad1	0.06972278
147	0x3e4a0518	0.19728506
148	0x3e23cc61	0.15995933
149	0xbdc94ea5	-0.098294534
150	0xbcc0c6fc	-0.023532383
151	0xbdbf3575	-0.09336368
152	0xbd8c8903	-0.068620704
153	0xbe09f492	-0.13472202
154	0x3e1672aa	0.14692178
155	0xbe377e0e	-0.1791918
156	0x3d1ea67a	0.038732983
157	0x3d2296f5	0.039694745
158	0xbd0dc245	-0.034609098
159	0xbe68fa18	-0.22751653
160	0x3de432c3	0.111424945
161	0x3d11c40e	0.035587363
162	0xbdbdca1f	-0.09267067
163	0xbe9611da	-0.29310495
164	0x3e075fc6	0.13220128
165	0xbdc25d90	-0.09490502
166	0xbe23bd93	-0.15990286
167	0x3de8df05	0.113706626
168	0xbe816555	-0.25272623
169	0xbe78e7e8	-0.24307215
170	0xbe8e44df	-0.2778692
171	0x3d690ee4	0.056898966
172	0xbc43ccc3	-0.0119506745
173	0xbe2b8dcf	-0.16753314
174	0xbe6e655f	-0.23280858
175	0xbc716378	-0.014733188
176	0xbe870b9d	-0.26376048
177	0xbd843267	-0.06454926
178	0x3d411ee5	0.047148604
179	0xbe79a565	-0.243795
180	0x3d88e778	0.06684774
181	0x3dd6252c	0.10456309
182	0xbd9af62f	-0.07566487
183	0xbdd228cf	-0.1026169
184	0x3dccbd2b	0.099970184
185	0x3e23a8b5	0.15982325
186	0xbe0b481b	-0.13601725
187	0xbdd23f3a	-0.10265966
188	0xbdd28061	-0.102783926
189	0x3dde90b8	0.10867447
190	0xbe3f7c47	-0.18699752
191	0xbdf9d00b	-0.12197884
192	0x3da7f3d6	0.08200805
193	0x3e75bc1e	0.23997542
194	0xbd26241a	-0.040561773
195	0xbc6a1b45	-0.014288728
196	0xbdaa6384	-0.08319762
197	0xbc4c5f25	-0.012473856
198	0xbcab818e	-0.0209358
199	0x3c9794be	0.018503543
200	0xbdf02f1d	-0.11727736
201	0xbdfeb945	-0.12437681
202	0x3dc0418c	0.09387502
203	0x3c92d194	0.0179222
204	0xbc4d5d4f	-0.0125344535
205	0xbe30a3bd	-0.17249961
206	0xbe7b1c8a	-0.24522606
207	0xbe9e7c21	-0.30954078
208	0x3dc69d2e	0.096979484
209	0x3d7ba70f	0.061438616
210	0x3d6d1ac8	0.05788687
211	0xbbf47b15	-0.0074609616
212	0xbe964769	-0.29351357
213	0xbd829bcc	-0.06377372
214	0xbe0f1743	-0.13973717
215	0x3c9052aa	0.017617542
216	0xbda81d00	-0.08208656
217	0x3cf94ff6	0.030433636
218	0xbd720d0e	-0.05909448
219	0xbe631bb4	-0.22178537
220	0xbe0ed3b8	-0.13947952
221	0x3cd25d98	0.025679395
222	0xbd092eee	-0.03349202
223	0x3d85105d	0.06497262
224	0xbe511d8d	-0.20421429
225	0x3e0f2f9d	0.13983007
226	0x3e2b7a5e	0.16745898
227	0x3e03860d	0.12844105
228	0xbe832bbb	-0.256193
229	0xbe3e4ee1	-0.18584777
230	0xbe3bd393	-0.18342428
231	0x3e7a0871	0.24417283
232	0xbbc083ff	-0.00587511
233	0x3e16be43	0.14721017
234	0x3d865931	0.06559981
235	0x3e02f8e9	0.12790264
236	0xbd7012e9	-0.058611784
237	0xbd84d739	-0.06486363
238	0xbe6bde8c	-0.23034114
239	0xbe7aa2ea	-0.2447621
240	0xbd8259f7	-0.06364816
241	0xbd8cd2a6	-0.068761155
242	0xbd13c4dd	-0.036076415
243	0xbe1296d0	-0.14315343
244	0xbdd1615e	-0.102236494
245	0xbdd08cc0	-0.10183096
246	0xbe0eb271	-0.13935257
247	0x3c32f203	0.010921958
248	0xbd8b6c46	-0.06807761
249	0x3d063db3	0.032773685
250	0x3c985ca7	0.018598868
251	0xbd93035e	-0.071783766
252	0xbd9bbcca	-0.07604368
253	0x3c3244b8	0.010880642
254	0xbde11e27	-0.10992079
255	0xbe24cc65	-0.16093595

lstm.weight_hh_l0 f4 [128, 32]
0	0xbe7f0014	-0.24902374
1	0x3e8c0909	0.27350643
2	0x3e205eeb	0.15661208
3	0x3de38fe9	0.11111433
4	0xbe607829	-0.21920837
5	0xbd0cd23b	-0.03438018
6	0x3cbd90d7	0.023140354
7	0x3e4f0a59	0.20218791
8	0x3cac3d1c	0.021025233
9	0x3d21df54	0.039519623
10	0xbd68db43	-0.05684973
11	0xbdfd94b2	-0.12381877
12	0xbe1a6c97	-0.15080486
13	0xbe39dd7e	-0.18150899
14	0x3c879746	0.016551625
15	0x3e26a81a	0.16275063
16	0x3e91286b	0.2835115
17	0xbe127251	-0.14301421
18	0x3e168edb	0.14702933
19	0xbe8f6eda	-0.2801426
20	0xbe6bc1f7	-0.2302321
21	0x3c61643e	0.01375681
22	0xbe086e92	-0.13323429
23	0xbcba193a	-0.022717107
24	0x3de2beba	0.110715345
25	0xbe3c3c30	-0.18382335
26	0xbe866b1a	-0.26253587
27	0x3ee9bec8	0.45653367
28	0xbc5848d5	-0.013200958
29	0xbd6222fd	-0.05520915
30	0x3e2d0a3a	0.16898432
31	0xbc388020	-0.011261016
32	0x3b6fac0a	0.003657105
33	0x3df4e540	0.119577885
34	0x3e88961f	0.26677033
35	0xbda3bfa6	-0.079955384
36	0xbe417e1a	-0.1889576
37	0x3e87c3d5	0.26516595
38	0xbdece510	-0.11567128
39	0x3d6b28b8	0.05741188
40	0x3dfc0166	0.12304954
41	0x3c5167ff	0.012781142
42	0x3ce8e70b	0.028430482
43	0xbe3cac58	-0.18425119
44	0xbe1ba065	-0.15197904
45	0xbdbff338	-0.09372562
46	0x3e6efb01	0.23337938
47	0x3d234576	0.039861165
48	0x3d8db90d	0.06920061
49	0x3e85f889	0.2616618
50	0x3e350bba	0.17680255
51	0xbe78fad5	-0.24314435
52	0xbe8247e0	-0.2544546
53	0x3e848c63	0.25888357
54	0xbce87c01	-0.028379442
55	0xbdae79b8	-0.0851931
56	0x3e97b910	0.2963338
57	0xbe7780d2	-0.24170235
58	0x3d9dbc85	0.07701973
59	0x3c6e5a0b	0.014547835
60	0x3e86e3cf	0.2634568
61	0xbc66a7ea	-0.01407812
62	0x3e689de3	0.22716479
63	0x3e8ea3cf	0.2785935
64	0xbe5a5c9c	-0.2132439
65	0xbde79000	-0.11306763
66	0xbde10539	-0.10987324
67	0x3e72aaa7	0.23697911
68	0x3c8931fc	0.016747467
69	0xbd8db915	-0.06920067
70	0x3d282d03	0.04105855
71	0x3e99cdea	0.30039912
72	0xbe0b2d3e	-0.13591477
73	0x3e1d1c65	0.15342863
74	0xbd663db6	-0.056211196
75	0x3d3ade9d	0.045622457
76	0x3ded53c9	0.115882464
77	0x3dcf91d8	0.10135239
78	0x3e0cdab7	0.13755308
79	0x3e4df6e2	0.2011371
80	0x3de538a9	0.11192448
81	0x3d820c65	0.0635002
82	0xbdd81089	-0.10550029
83	0x3b050aa6	0.0020300536
84	0xbe247047	-0.16058455
85	0x3d6530bf	0.05595469
86	0xbd1fc364	-0.0390047
87	0xbdf64f24	-0.120268136
88	0xbd61408e	-0.054993205
89	0xbe1e142e	-0.15437385
90	0x3c97f9ad	0.018551672
91	0x3e3d7584	0.1850186
92	0x3e0d499c	0.13797611
93	0xbd9c6172	-0.07635774
94	0x3c2d8277	0.010590187
95	0xbe3a563c	-0.18196958
96	0xbc14f8dc	-0.009092536
97	0xbd231338	-0.03981325
98	0x3e35d5ff	0.17757414
99	0x3e1d6f66	0.15374526
100	0xbe60c908	-0.21951687
101	0x3d3140a1	0.043274526
102	0xbd86b22c	-0.06576952
103	0x3d8544a0	0.0650723
104	0x3df3986b	0.11894306
105	0x3e0a3d4c	0.13499945
106	0xbd9cc3b2	-0.076545134
107	0xbe05b8a6	-0.13058719
108	0x3c0b1c40	0.008490622
109	0xbe5a8ee6	-0.21343574
110	0x3c6d39d7	0.014479122
111	0x3d9b1e2d	0.07574115
112	0x3e767a38	0.2407006
113	0xbbe71c12	-0.007052907
114	0xbb5f4734	-0.003406954
115	0xbd828358	-0.06372708
116	0xbe811883	-0.25214013
117	0xbe31c15c	-0.17358917
118	0xbea1eead	-0.31627408
119	0xbd3d12f4	-0.046160653
120	0x3e46bcff	0.19408034
121	0xbe56783a	-0.209443
122	0xbe9fc29b	-0.3120316
123	0x3e4b00fa	0.19824591
124	0x3da16ffc	0.078826874
125	0xbe1553fc	-0.14582819
126	0x3e47967c	0.19490999
127	0xbe4e6052	-0.20153931
128	0xbe5f60c6	-0.2181426
129	0xbd82bdd5	-0.06383864
130	0x3d6ba09b	0.057526212
131	0x3b36d7fd	0.0027899735
132	0x3d291c94	0.04128702
133	0x3d61722b	0.05504052
134	0xbc463da7	-0.01209966
135	0x3d559333	0.052142333
136	0x3e579315	0.21052201
137	0x3e84e885	0.25958648
138	0xbe9a2625	-0.30107227
139	0xbdd3c3f5	-0.1034011
140	0xbe6f0826	-0.23342952
141	0xbd048c05	-0.032360096
142	0xbe48a68e	-0.19594786
143	0x3bedfffc	0.0072631817
144	0x3e897b7a	0.26852018
145	0xbe483042	-0.19549659
146	0x3e8b7ca8	0.27243543
147	0xbd4a10fd	-0.049332608
148	0x3a2e0633	0.0006638497
149	0xbe5b596a	-0.21420828
150	0xbc29a44d	-0.010354114
151	0xbd9adc08	-0.07561499
152	0x3dbc88dc	0.09205791
153	0x3d926603	0.071483634
154	0xbe985d7a	-0.29758817
155	0xbd4b900e	-0.049697928
156	0x3e8cd826	0.27508658
157	0xbe50c0ec	-0.20386094
158	0xbd80c86c	-0.062882274
159	0xbd9c2fb2	-0.07626285
160	0xbe2e3f38	-0.17016304
161	0x3e18b502	0.14912799
162	0x3d3ea00b	0.046539348
163	0x3e121882	0.14267161
164	0xbe8e75db	-0.27824292
165	0x3e418a18	0.18900335
166	0xbda83b40	-0.08214426
167	0x3e0f282c	0.13980168
168	0x3e41b523	0.18916754
169	0x3e0445d8	0.12917268
170	0xbde006ec	-0.1093882
171	0xbe617be4	-0.22019917
172	0xbe6c56fb	-0.23080055
173	0xbe93e45e	-0.28885168
174	0x3c9f3182	0.019432787
175	0x3e9fea41	0.3123341
176	0x3dd4791c	0.10374662
177	0x3d6d5272	0.057939954
178	0x3e764862	0.2405105
179	0xbe14bada	-0.14524403
180	0xbe6dc9e5	-0.23221548
181	0xbe0078ab	-0.12546031
182	0xbe3f92b5	-0.18708308
183	0xbdb612ea	-0.08890326
184	0xbc2bdc08	-0.010489471
185	0xbe2b22c7	-0.16712485
186	0xbcdcdde6	-0.026961278
187	0x3e6be06b	0.23034827
188	0x3e60a954	0.21939594
189	0xbde54e7f	-0.111966126
190	0x3e9630bf	0.29334065
191	0x3d9a2f57	0.075285606
192	0xbd150a5d	-0.036386836
193	0x3e3134e4	0.17305332
194	0x3d47404d	0.048645306
195	0xbbc71a91	-0.006076165
196	0xbe35e44a	-0.17762867
197	0x3e657232	0.22406843
198	0xbe836a54	-0.2566706
199	0x3e196302	0.14979175
200	0x3eb1e833	0.34747466
201	0x3d9358c6	0.071946666
202	0xbe4e4191	-0.20142199
203	0xbeb650a0	-0.35608387
204	0xbe8cbb2a	-0.27486545
205	0xbdc7f791	-0.097640164
206	0xbccadfd2	-0.024764929
207	0x3dfc5ff2	0.123229876
208	0x3e11c1b9	0.14234056
209	0xbd094573	-0.033513498
210	0x3e54676e	0.2074258
211	0xbe7efe22	-0.24901631
212	0xbe35e320	-0.17762423
213	0x3c4d0d83	0.0125154285
214	0xbe214477	-0.15748774
215	0xbe161bcb	-0.1465904
216	0x3e2a06e6	0.16604194
217	0xbe54f857	-0.20797859
218	0x3d44002f	0.047851738
219	0x3c8fc03e	0.017547723
220	0x3df94a40	0.12172365
221	0xbea834f7	-0.3285291
222	0x3e4890d8	0.19586504
223	0x3a572728	0.0008207434
224	0x3dc2b07f	0.0950632
225	0xbd9836ee	-0.07432352
226	0xbd780420	-0.06055081
227	0x3c23457b	0.009965296
228	0x3cdfc071	0.027313443
229	0xbc9cc972	-0.019139025
230	0x3ded065c	0.115734786
231	0xbd9957b2	-0.0748743
232	0x3d906119	0.0704977
233	0x3d381858	0.04494509
234	0xbe8a02c6	-0.2695524
235	0xbc987f02	-0.01861525
236	0x3cecce91	0.028907092
237	0x3c1d23ad	0.009591025
238	0x3df68aad	0.12038169
239	0x3e156ab9	0.14591493
240	0xbd8d15c9	-0.06888921
241	0xbc168f49	-0.009189435
242	0xbb00bce1	-0.001964383
243	0xbe2c58c8	-0.16830742
244	0xbde00a5a	-0.109394744
245	0xbe49f631	-0.19722821
246	0x3c2ea8b7	0.010660342
247	0x3dd75d52	0.10515846
248	0x3d406a40	0.046976328
249	0xbdbf1d61	-0.093317755
250	0xbe2aa04b	-0.1666271
251	0xbd0f0a76	-0.034922086
252	0x3d9c4a9c	0.07631418
253	0xbcc2d346	-0.023782384
254	0x3d1c64a5	0.03818192
255	0x3e91a926	0.28449363

lstm.bias_ih_l0 f4 [128]
0	0x3d61599d	0.055017103
1	0x3e2c87ed	0.16848727
2	0xbb384c25	-0.0028121558
3	0x3e2e5e47	0.17028151
4	0x3d02b5aa	0.03191153
5	0x3e123854	0.142793
6	0x3e29bd8e	0.16576216
7	0xbe290fbd	-0.1650991
8	0x3e450ee2	0.19243959
9	0x3d931772	0.07182206
10	0x3d5f0074	0.05444379
11	0x3e92d0d0	0.28674936
12	0x3e5c0e56	0.21489844
13	0x3dc2a662	0.09504391
14	0x3d2e2d11	0.042523447
15	0x3d37c85b	0.04486881
16	0x3de605f8	0.11231607
17	0xbd8be826	-0.06831388
18	0xbdd6b919	-0.10484523
19	0x3ccd31cb	0.025048157
20	0x3e1a0450	0.15040708
21	0xbd8e6570	-0.069529414
22	0x3df1e0e6	0.11810474
23	0xbde14067	-0.10998612
24	0x3d2f88ef	0.0428552
25	0x3e52db01	0.20591356
26	0x3d965d3e	0.07342003
27	0xbdb7c21a	-0.08972569
28	0xbd192229	-0.037386093
29	0x3e17dd60	0.14830542
30	0x3e8cb73e	0.27483553
31	0xbda97616	-0.08274476
32	0x3e464078	0.1936053
33	0x3dd0b3f8	0.10190576
34	0xbbc59ead	-0.0060308785
35	0x3dc56ca4	0.09639862
36	0x3e17d458	0.14827096
37	0x3cf4084e	0.029789116
38	0x3e3f6a06	0.18692788
39	0xbcd97769	-0.026546197
40	0x3ca9fa71	0.020749303
41	0xbd6d17d8	-0.057884067
42	0x3da24962	0.07924153
43	0x3e3d0a70	0.18461013
44	0xbe1ab1f5	-0.15106948
45	0x3de3d735	0.11125032
46	0x3eaa5fd8	0.33276248
47	0x3d1f8681	0.038946632
48	0x3bb6b8a8	0.005576212
49	0x3e8b0560	0.27152538
50	0xbe1bb6b1	-0.1520641
51	0x3e69d711	0.22835948
52	0x3d638663	0.055548083
53	0x3d67b69a	0.056570627
54	0x3d9a1e54	0.07525316
55	0x3df15c32	0.11785163
56	0x3d6bfba7	0.05761304
57	0xbdf9f147	-0.12204223
58	0xbe0a2a0f	-0.13492607
59	0xbdedc8f8	-0.11610597
60	0x3cccf397	0.025018496
61	0xbde3af9d	-0.1111748
62	0x3e08ed80	0.13371849
63	0x3d99f0ae	0.07516609
64	0x3d9de19f	0.077090494
65	0x3ea7c5c6	0.32768077
66	0x3e757199	0.23969115
67	0xbe0eed4b	-0.13957708
68	0xbdd9118d	-0.10599051
69	0x3e8269a2	0.25471216
70	0xbe7d7f03	-0.24755482
71	0x3da9e99a	0.08296509
72	0x3d061f35	0.032744605
73	0x3db53cce	0.08849488
74	0xbd9c2af9	-0.07625384
75	0xbe943aeb	-0.289512
76	0xbd34f48a	-0.044178523
77	0xbda0d030	-0.078522086
78	0x3c3cfc82	0.011534812
79	0x3e4ec458	0.20192087
80	0x3ddda277	0.10822003
81	0xbd901671	-0.0703553
82	0x3c972aae	0.018452968
83	0xbc1e70d2	-0.009670453
84	0xbd83ebc8	-0.06441456
85	0x3e53010a	0.20605865
86	0xbd447b40	-0.047969103
87	0xbe140418	-0.14454687
88	0x3e5a60d4	0.21326
89	0xbe15cc35	-0.1462868
90	0x3e13bb88	0.14427006
91	0xbd818fe4	-0.06326273
92	0x3e72f929	0.2372786
93	0xbe48c560	-0.19606543
94	0x3e9a7e33	0.30174407
95	0x3e2e5a2d	0.17026587
96	0x3e323f4f	0.17406963
97	0x3ec640f1	0.3872142
98	0x3e537566	0.20650253
99	0xbd35c3ac	-0.04437606
100	0x3e3f320b	0.18671434
101	0x3d7dce2b	0.061964195
102	0x3e86a5d7	0.262984
103	0xbd290703	-0.041266453
104	0x3e4f8035	0.20263751
105	0x3d7d9801	0.06191254
106	0x3d8adbdc	0.06780216
107	0x3df6bb76	0.12047474
108	0x3e1e5246	0.15461072
109	0xbcfff5fc	-0.031245224
110	0x3dafc9e2	0.08583428
111	0x3daa38c4	0.083116084
112	0xbcae2066	-0.021255683
113	0x3e48f10b	0.196232
114	0x3ea8f868	0.3300202
115	0x3dc7a0c6	0.09747462
116	0x3ccb6bea	0.02483173
117	0x3b540ce8	0.0032356326
118	0x3e8e5d1a	0.27805406
119	0x3dce432a	0.10071404
120	0x3e160d9e	0.14653632
121	0x3eabdc7b	0.3356665
122	0x3cba8f3c	0.022773378
123	0x3dbbb2e5	0.09164981
124	0x3ec975bc	0.39347637
125	0x3e987958	0.29780078
126	0x3de51cff	0.11187171
127	0xbcbb888b	-0.022892257

lstm.bias_hh_l0 f4 [128]
0	0x3e109567	0.14119492
1	0x3e8c0f84	0.27355587
2	0x3bcfae3d	0.0063379095
3	0x3e281eb7	0.16417967
4	0x3c94b017	0.018150372
5	0x3d0e375e	0.03472077
6	0x3e95acbe	0.29233354
7	0xbe379f8e	-0.17931959
8	0x3e44ac1c	0.1920628
9	0xbe844e29	-0.2584088
10	0xbde5d1ca	-0.11221655
11	0x3dd82d15	0.10555474
12	0xbd847428	-0.064674675
13	0xbcf0659b	-0.029345324
14	0x3d5b577e	0.053550236
15	0x3d9bbd90	0.076045156
16	0x3bf3753c	0.007429747
17	0x3e190468	0.14943087
18	0x3cb6d813	0.02231983
19	0xbe60ab52	-0.21940354
20	0x3d581f1d	0.052764047
21	0xbd775363	-0.06038226
22	0x3d67e864	0.05661811
23	0xbdb0eb04	-0.08638576
24	0xbdf8f100	-0.12155342
25	0x3df9dd1b	0.12200376
26	0x3e11f131	0.14252163
27	0xbd198352	-0.037478752
28	0x3d94d7d6	0.0726773
29	0xbc2bdb18	-0.010489248
30	0x3dc7d3fb	0.09757229
31	0xbcaa48a2	-0.020786587
32	0x3c9667d6	0.01836006
33	0x3e2c1949	0.1680652
34	0x3dd8a318	0.10577983
35	0x3dd40e8a	0.103543356
36	0x3dcc2461	0.09967876
37	0x3d992689	0.07478053
38	0x3de09b1a	0.10967083
39	0x3e4fd0e2	0.20294526
40	0x3e7791c8	0.24176705
41	0x3d803110	0.06259358
42	0x3e553218	0.2081989
43	0x3e34a2ee	0.17640278
44	0x3e0c8815	0.13723786
45	0x3e26579d	0.1624436
46	0x3d509319	0.050921533
47	0xbddc234c	-0.1074892
48	0xbd8ffbab	-0.07030424
49	0x3eb9e72b	0.3630918
50	0x3e2d75a8	0.16939414
51	0x3de0e735	0.10981599
52	0xbd352ce1	-0.044232253
53	0xbd09b8f2	-0.033623643
54	0x3d9a95de	0.07548116
55	0x3e55ec63	0.20890956
56	0x3e31d0c4	0.17364794
57	0xbdde1f36	-0.10845797
58	0x3e503794	0.20333701
59	0x3e3f3767	0.18673478
60	0xbc7bd5d2	-0.015370803
61	0xbd8e3fee	-0.06945787
62	0x3e81a333	0.25319824
63	0x3d272dee	0.040815286
64	0x3dfef034	0.12448159
65	0x3e2f2f3d	0.17107864
66	0x3db3ac5b	0.087731086
67	0xbdf1dbef	-0.11809527
68	0xbe1fbe8b	-0.1560003
69	0x3e6efc21	0.23338367
70	0xbe8a53a7	-0.27016947
71	0xbe1e76ee	-0.15475056
72	0x3eabf1e0	0.33582973
73	0xbd2eb814	-0.04265602
74	0xba880984	-0.0010378812
75	0xbe9f1d9e	-0.31077284
76	0xbdffe42b	-0.124946915
77	0xbd6d36d7	-0.057913627
78	0x3e4a0538	0.19728553
79	0xbd764006	-0.06011965
80	0x3d971d94	0.073786885
81	0xbc02b8d6	-0.007978639
82	0x3d5343fb	0.051578503
83	0xbe239554	-0.15974933
84	0x3d61b093	0.055100035
85	0xbd0a52cb	-0.033770364
86	0x3dd57793	0.104231976
87	0x3b7b96d5	0.0038389463
88	0x3e195e01	0.14977266
89	0xbe15ed2d	-0.14641257
90	0x3d6b02ce	0.05737572
91	0x3d86d7ac	0.06584105
92	0xbd008966	-0.031381033
93	0xbd2bbb55	-0.0419267
94	0x3eb4ae31	0.35289147
95	0x3e1fdc82	0.15611461
96	0x3e400bb5	0.18754466
97	0x3e74a12a	0.23889604
98	0x3e8bf12a	0.2733243
99	0xbd1b8ba1	-0.037974957
100	0x3d657b4c	0.05602579
101	0x3eb497d7	0.35272095
102	0x3e8f7376	0.28017777
103	0x3dec771d	0.115461566
104	0x3e173454	0.14766055
105	0x37408bf8	1.1476681e-05
106	0x3e24cfae	0.16094849
107	0x3e259c16	0.16172823
108	0x3e43e2ac	0.19129437
109	0x3d3a3af5	0.045466382
110	0x3e9381ea	0.28810054
111	0x3e92ae92	0.28648812
112	0xbdb88878	-0.09010404
113	0x3e96a02f	0.29419085
114	0x3e1e8b6e	0.15482876
115	0x3e0b7780	0.13619804
116	0x3e94376e	0.2894854
117	0x3cfc0533	0.030764198
118	0xbd46f256	-0.048570953
119	0x3e120454	0.14259464
120	0x3dc7edd7	0.09762161
121	0x3e2af5bc	0.16695303
122	0xbce0453c	-0.027376764
123	0x3dc16744	0.094435245
124	0x3ebe68ff	0.3718948
125	0x3d312ce9	0.04325572
126	0x3e0492c8	0.12946618
127	0xbc54d856	-0.012991032

dense_layers.0.weight f4 [16, 32]
0	0xbf4a7166	-0.7907928
1	0x3f29d388	0.66338396
2	0x3f1a076c	0.60167575
3	0x3f491897	0.78553146
4	0xbf52b99e	-0.8231448
5	0x3f1fda20	0.6244221
6	0xbf0e7406	-0.5564579
7	0x3f2d2db3	0.67647856
8	0x3f16ace9	0.5885759
9	0x3f4f89d8	0.8106971
10	0xbf4381c3	-0.76369876
11	0xbefe9fcc	-0.4973129
12	0xbf1be160	-0.6089077
13	0xbf0b96ce	-0.54526985
14	0x3f3d0235	0.7383149
15	0x3f2a0016	0.6640638
16	0x3f27a486	0.6548542
17	0xbf2115c8	-0.6292386
18	0x3eefca96	0.46834248
19	0xbf10b00a	-0.56518614
20	0xbf020641	-0.5079079
21	0xbf051b33	-0.5199463
22	0xbf2aa0ba	-0.666515
23	0xbf4e2504	-0.8052523
24	0x3f23c495	0.63971835
25	0xbf104f6f	-0.56371206
26	0xbf414053	-0.75488776
27	0x3f4b06d2	0.7930728
28	0x3f20eca5	0.6286109
29	0xbf179918	-0.5921798
30	0x3f4aaeeb	0.79173154
31	0xbed8eeb3	-0.42369613
32	0x3d3b3139	0.04570124
33	0xbd8d7d9a	-0.06908722
34	0xbd546f17	-0.051863756
35	0xbd74fc22	-0.059810765
36	0x3d5c968a	0.053854503
37	0xbde6263b	-0.11237761
38	0x3ca652d8	0.020303175
39	0xbe352531	-0.17689969
40	0xbe8746d7	-0.26421234
41	0xbd818576	-0.06324284
42	0x3e9f39bb	0.31098732
43	0x3d3d190a	0.046166457
44	0x3da8cf2c	0.0824264
45	0x3d862d32	0.06551589
46	0xbe891f1c	-0.26781547
47	0x3bfa4d37	0.0076385993
48	0xbe8f1c9c	-0.27951515
49	0x3d5a4c8d	0.05329566
50	0xbe9292d1	-0.28627637
51	0x3e1dde2c	0.15416783
52	0x3c257572	0.010098802
53	0x3d006777	0.03134867
54	0x3e9f2f56	0.31090802
55	0x3e5e8401	0.21730043
56	0xbdccd25c	-0.1000106
57	0x3e90184c	0.28143537
58	0x3e2574d0	0.16157842
59	0xbe01b430	-0.12666392
60	0xbe8e0c22	-0.27743632
61	0x3e6155c2	0.2200537
62	0xbe8c734a	-0.2743171
63	0x3e222158	0.15833032
64	0x3d1bb53d	0.03801464
65	0xbe6b068f	-0.2295172
66	0xbe7e9edb	-0.24865286
67	0xbe6516e1	-0.22372009
68	0x3ccb98ce	0.024853136
69	0xbe603579	-0.21895398
70	0x3d9a2803	0.07527163
71	0xbe9d9ea8	-0.30785108
72	0x3bc23d8e	0.005927748
73	0xbdbf6cf9	-0.09346957
74	0xbd32105d	-0.043472636
75	0x3c878cb5	0.016546587
76	0x3d806159	0.062685676
77	0x3e4e400a	0.20141616
78	0x3d0413e9	0.03224555
79	0xbe2e7b09	-0.17039122
80	0xbd00db7e	-0.031459324
81	0x3ce6a941	0.028156878
82	0xbe2bc4de	-0.16774318
83	0x3df4b8ef	0.11949336
84	0xbd1ac276	-0.03778311
85	0x3e03e022	0.12878469
86	0x3e348ac2	0.17631057
87	0x3e73f4e1	0.23823883
88	0xbe98475e	-0.2974195
89	0x3da631ca	0.08114965
90	0x3dfda3b2	0.12384738
91	0xbe01af50	-0.12664533
92	0xbddd1b78	-0.10796255
93	0x3ccdd931	0.025127979
94	0x3bc369b4	0.0059635285
95	0xbc9d2569	-0.019182878
96	0xbf188555	-0.5957845
97	0x3f1b6206	0.60696447
98	0x3ef6d986	0.48212832
99	0x3ee97d9b	0.45603642
100	0xbf349ed9	-0.7055488
101	0x3f2171e7	0.63064426
102	0xbf07ecdc	-0.53095794
103	0x3f212e74	0.62961507
104	0x3f0eb060	0.55737877
105	0x3ed0f328	0.40810513
106	0xbf14c9f1	-0.5812064
107	0xbee0654f	-0.43827292
108	0xbf22b171	-0.63552004
109	0xbf1a141f	-0.6018695
110	0x3f1bbf64	0.60838914
111	0x3eeae63b	0.45878777
112	0x3f0e7c2f	0.5565824
113	0xbf1617ef	-0.5863027
114	0x3f12403b	0.5712926
115	0xbf04e228	-0.5190759
116	0xbf2bd4ba	-0.6712147
117	0xbf21b10d	-0.63160783
118	0xbeecb099	-0.46228483
119	0xbf17ae26	-0.59250104
120	0x3f2266a1	0.6343785
121	0xbefe07a5	-0.49615207
122	0xbf108aaa	-0.56461585
123	0x3f0101c3	0.50393313
124	0x3ee2bb9d	0.44283763
125	0xbee4328f	-0.44569823
126	0x3f2a8093	0.6660244
127	0xbedd7188	-0.4325068
128	0xbf2b4ead	-0.66916925
129	0x3f2a72d6	0.66581476
130	0x3f303a6c	0.68839145
131	0x3f2e7137	0.681415
132	0xbf0e0545	-0.5547679
133	0x3f124f34	0.57152104
134	0xbf098458	-0.53717566
135	0x3efe31e6	0.49647444
136	0x3ebf02c6	0.37306803
137	0x3f091df4	0.5356133
138	0xbeec3bc2	-0.46139342
139	0xbef32e51	-0.47496274
140	0xbf06736f	-0.5251989
141	0xbeeb03b9	-0.45901278
142	0x3f23a905	0.6392978
143	0x3f0556f7	0.5208582
144	0x3f298281	0.6621476
145	0xbf0498bc	-0.51795554
146	0x3ef2a5f3	0.47392234
147	0xbf1fa55a	-0.6236168
148	0xbf2731bc	-0.65310264
149	0xbf262692	-0.64902604
150	0xbf01900b	-0.5061042
151	0xbec8155e	-0.39078802
152	0x3f145c66	0.5795349
153	0xbeff2166	-0.49830168
154	0xbf16fea6	-0.5898231
155	0x3ef7e022	0.48413187
156	0x3ef9a6eb	0.4876016
157	0xbefa9994	-0.48945296
158	0x3f1347e0	0.5753155
159	0xbf00b8f9	-0.50282246
160	0xbf01a58e	-0.5064324
161	0x3efcfc86	0.4941141
162	0x3f0555c6	0.52084005
163	0x3f2c5357	0.67314667
164	0xbf1c807f	-0.6113357
165	0x3f2e21be	0.68020236
166	0xbf21498b	-0.6300284
167	0x3f36f865	0.7147277
168	0x3f1a1665	0.6019042
169	0x3f1e0293	0.6172268
170	0xbf10b228	-0.56521845
171	0xbf1e8f5a	-0.6193749
172	0xbf2f66d0	-0.68516254
173	0xbf3239c6	-0.69619405
174	0x3f245663	0.64194316
175	0x3f36aa6b	0.7135379
176	0x3f15b20f	0.5847482
177	0xbf13905a	-0.5764214
178	0x3f0fe6ac	0.5621135
179	0xbf0cd36b	-0.550101
180	0xbf30a7a5	-0.69005805
181	0xbf256c12	-0.6461803
182	0xbef1ce40	-0.4722767
183	0xbf17b7e3	-0.59264964
184	0x3f0096ba	0.5022999
185	0xbf1e7db4	-0.6191056
186	0xbeddc539	-0.4331453
187	0x3ee770fd	0.4520339
188	0x3ef2473a	0.47319967
189	0xbee3f16c	-0.44520128
190	0x3f33b7f5	0.7020257
191	0xbe8c5279	-0.27406672
192	0xbf10b0b7	-0.56519645
193	0x3f1ee05c	0.62061095
194	0x3f3f9b1b	0.7484605
195	0x3f4a5c36	0.7904695
196	0xbf0ce7d9	-0.5504127
197	0x3f310ad8	0.6915717
198	0xbf1339c0	-0.57509995
199	0x3f26d5e3	0.65170115
200	0x3f3bddc2	0.7338525
201	0x3f2c0b3e	0.67204654
202	0xbf41b3ec	-0.75665164
203	0xbf39ee25	-0.72629005
204	0xbf4b98f6	-0.79530275
205	0xbf2d22d6	-0.6763128
206	0x3f2ab5e9	0.6668382
207	0x3f0d9d6f	0.5531835
208	0x3ee7fb8b	0.453091
209	0xbf470b1e	-0.7775134
210	0x3f33d110	0.7024088
211	0xbf2112c5	-0.62919265
212	0xbf265ffd	-0.64990216
213	0xbf224cad	-0.6339825
214	0xbf27e6f8	-0.65586805
215	0xbf392a23	-0.7232992
216	0x3f099bc1	0.53753287
217	0xbf3b8ea2	-0.73264515
218	0xbf558ba9	-0.8341623
219	0x3eecc316	0.4624259
220	0x3f0c7b89	0.54876
221	0xbf0d05c1	-0.55086905
222	0x3f49c1f0	0.7881155
223	0xbf0bf776	-0.5467447
224	0x3e7e814f	0.24854015
225	0xbd7d0452	-0.0617717
226	0xbe903b1a	-0.2817009
227	0xbe62c694	-0.22146064
228	0x3d985d69	0.074396916
229	0xbe85bbdf	-0.26119897
230	0x3e20bb28	0.15696394
231	0xbdcd9306	-0.10037808
232	0xbe86dadd	-0.26338854
233	0xbe3d4cb5	-0.18486293
234	0xbd03501c	-0.03205882
235	0x3ebee055	0.37280527
236	0x3e8176a2	0.25285822
237	0x3d71911b	0.058976274
238	0x3cc5a9ec	0.024128877
239	0xbe7fc136	-0.24976048
240	0x3cae8114	0.021301784
241	0x3d6049c1	0.054757837
242	0xbd96d33d	-0.07364509
243	0x3e857d59	0.26072195
244	0x3e5484ee	0.20753834
245	0x3e360466	0.17775115
246	0x3dcc2a1f	0.099689715
247	0x3dfd9df2	0.12383641
248	0xbc0aa717	-0.008462689
249	0x3dadbcee	0.08483301
250	0x3d7851f4	0.06062503
251	0xbdf149a4	-0.11781624
252	0xbe5d8238	-0.21631706
253	0x3db5028a	0.08838375
254	0xbddab529	-0.10679085
255	0x3e8f7df6	0.28025788

dense_layers.0.bias f4 [16]
0	0x3f468c9b	0.77558297
1	0xbb82cd27	-0.003991741
2	0x3c930197	0.017945094
3	0x3eb136ba	0.34612066
4	0x3f24ccb1	0.64374834
5	0x3f0a62a6	0.54056776
6	0x3ede61ab	0.4343389
7	0x3db41fbf	0.087951176
8	0x3f1711dd	0.5901163
9	0xbd41a568	-0.047276884
10	0x3d91341e	0.07090019
11	0x3f2eda14	0.6830151
12	0x3f2c80a5	0.67383796
13	0xbe7f31c9	-0.24921335
14	0x3dd3b577	0.10337346
15	0x3f249b72	0.6429969

dense_layers.2.weight f4 [1, 16]
0	0x3f1df862	0.6170713
1	0xbdd3eaa8	-0.103474915
2	0xbc56ba96	-0.013106009
3	0x3f5764f8	0.8413844
4	0x3f4bbca5	0.79584724
5	0x3f47d668	0.7806153
6	0x3f20ed5c	0.6286218
7	0xbd588a0a	-0.05286602
8	0x3f33404a	0.7001997
9	0xbc8c01b9	-0.017090665
10	0xbdb276c4	-0.08714059
11	0x3f334047	0.70019954
12	0x3f4be97d	0.7965315
13	0xbdd738a8	-0.10508853
14	0xbe1d0aa8	-0.15336096
15	0x3f271231	0.6526213
