BNN/model_states/DNN_model_state_FD001_noisy.pt (torch, 29071 bytes, 7 tensors)

lstm.weight_ih_l0 f4 [128, 14]
000000 9e d0 08 3e 55 ec 1d 3e 61 0e d8 bd 3f c5 92 3e
       0.13360831 0.15422185 -0.105496176 0.28666112
000010 e2 fc 12 be 29 28 e0 3c 4b 90 50 be 85 0d 43 3e
       -0.1435428 0.0273629 -0.20367543 0.19048126
000020 7e 7a 97 3d 1f 45 76 bd 07 53 29 3e 52 83 66 3d
       0.073964104 -0.060124513 0.16535579 0.05627758
000030 ca 78 23 3e 5c 1a 29 3e 46 7c 11 3e f6 fe e9 b9
       0.15964046 0.16513962 0.14207563 -0.00044631184
000040 07 2b 0d 3e fa 8b be 3d 12 23 28 be a5 3b ac 3c
       0.13785945 0.09304042 -0.16419628 0.021024534
000050 de ad c7 bd 46 47 4c 3c 8b 09 d8 bd 42 a6 46 3e
       -0.097499594 0.012468165 -0.10548695 0.1939936
000060 85 5f c6 bd f9 14 a2 bd 94 52 96 bd 98 a6 17 bd
       -0.09686188 -0.079141565 -0.07339969 -0.03702411
000070 13 8e db bd a3 18 85 be 38 89 4a 3e 70 2b 1f 3c
       -0.10720458 -0.2599536 0.19778907 0.009714946
000080 8c 92 02 3e 19 31 9e bd 53 c2 03 be 51 c5 bb 3e
       0.12751216 -0.077242084 -0.12867098 0.36673978
000090 80 26 39 bd 40 53 c4 3d 9e 73 33 be 0e ef 20 be
       -0.045202732 0.09586191 -0.17524573 -0.15716192
0000a0 f1 82 7f 3e d2 36 c4 3d 5f d8 82 3e 3d a6 82 3e
       0.24952294 0.09580769 0.25555703 0.25517455
0000b0 2e 49 54 3e ba aa b5 bd 89 6a 01 3e cc 5f 6f 3d
       0.20731041 -0.08870454 0.12638296 0.05844097
0000c0 97 ba 2e 3e ac 92 0e be 4b d0 d9 bd 00 dd d5 39
       0.17063366 -0.13923138 -0.10635432 0.00040791184
0000d0 f7 cf 89 3c 36 6c 94 3e 6c 4e 66 bd a1 a7 de 3c
       0.016822798 0.28988808 -0.056227133 0.027179541
0000e0 69 83 91 3d 68 b3 d9 3c 60 1f 2d 3e 9f 6c 7e bd
       0.071051426 0.026574805 0.169065 -0.062115308
0000f0 bf 28 0b bc 6c 71 07 be 76 fe d9 3d 2b f9 97 bc
       -0.008493601 -0.13226861 0.10644238 -0.01855143
000100 d9 fb cb 3c f9 18 b0 bb 86 7f 15 3e ea 47 b1 bd
       0.024900364 -0.0053740707 0.14599428 -0.08656295
000110 fc b6 19 be a9 58 5e bd c5 1e f5 3d 4c 83 b9 3c
       -0.15011209 -0.05428377 0.119687594 0.022645615
000120 30 73 10 3e 04 53 ed bd b7 bd 28 be 40 9f 25 be
       0.1410644 -0.115880996 -0.1647862 -0.1617403
000130 08 54 16 be ce 29 2b 3e 88 4b ca 3d 0e 67 46 3e
       -0.14680493 0.16715166 0.09877688 0.1937525
000140 1e 82 5e bd e0 93 38 bc 6a 6c b4 3d 9f ba e8 3d
       -0.05432331 -0.011265725 0.08809741 0.1136372
000150 27 9a 50 3e 36 0b bc bb 6e 12 ef 3d 75 6a bb bd
       0.20371304 -0.005738641 0.11673437 -0.091511644
000160 f8 29 38 be 53 0c ee 3c 70 00 8a 3d aa 12 1e bd
       -0.1798476 0.029058611 0.06738365 -0.03859202
000170 33 04 0d 3e 0c 40 31 3e 40 83 87 3c ee 59 17 bd
       0.13771133 0.17309588 0.016542077 -0.036950998
000180 bb b7 05 3e 05 96 92 bc 23 5a 69 be ef a8 ba be
       0.13058369 -0.0178938 -0.2278829 -0.3645701
000190 cb 21 8c be 31 b0 26 3e 6a 91 39 be 6d 31 83 be
       -0.27369532 0.16278149 -0.18121877 -0.25623646
0001a0 95 06 70 be aa fc 66 3d d0 86 27 be 78 6d 8d be
       -0.23440011 0.056393303 -0.1636002 -0.2762258
0001b0 6b a6 13 be 6d 34 6c be d2 db f2 3e 41 7b 34 3e
       -0.14418952 -0.23066874 0.47433335 0.17625143
0001c0 b7 c5 08 be 9e 2c ab be 0d df 6a be de e8 3d 3e
       -0.13356672 -0.33432478 -0.2293665 0.18545863
0001d0 d7 c1 8c bd 65 01 9a be 5e 13 8d be 99 3b 16 3e
       -0.068729095 -0.3007919 -0.27553838 0.14671172
0001e0 e4 15 5e be ca 0a 15 be ee ad 77 be 6e e1 a0 be
       -0.21688038 -0.14554897 -0.24187443 -0.3142199
0001f0 41 1c 55 3e 8a 56 0b bc 5f 1f 48 be 98 2b 0a be
       0.2081156 -0.008504519 -0.19543217 -0.13493192
000200 ed 5e 53 3e 0c f0 5c bd 82 72 4d 3e 2b ea a6 3d
       0.2064168 -0.053939864 0.20063213 0.08150133
000210 71 bc 46 be 9e bd e3 3d 03 29 09 bd 28 36 ec 3a
       -0.19407822 0.11120151 -0.033486377 0.0018021511
000220 d1 a1 51 be 90 54 1d be 55 bc 8e 3d 94 fc 6f bc
       -0.20471884 -0.1536429 0.06969515 -0.014647622
000230 fa 45 33 3e 2f d4 17 be f5 65 00 3d e0 51 bc bd
       0.17507163 -0.14827035 0.031347234 -0.09195304
000240 07 71 68 be 88 21 b0 3d 21 ab 93 3c e8 c5 15 3e
       -0.22699367 0.086001456 0.018025937 0.14626276
000250 22 1b 43 3e 02 e5 4f bd 1b dd 87 3e 85 16 84 bd
       0.19053319 -0.05075551 0.26535878 -0.06449608
000260 51 3b 9d 3b 24 29 81 bd 1e fc be bd a5 3b 8f be
       0.004798331 -0.06306675 -0.09325431 -0.27975193
000270 1c 0e a3 bd a6 91 5f 3e d4 14 57 be 5c 17 3d be
       -0.079616755 0.21832904 -0.21004039 -0.18465942
000280 8f c0 b8 bd 80 bf 70 3e ca 60 89 be 2e 34 94 be
       -0.09021103 0.23510551 -0.26831657 -0.2894606
000290 6a 07 ef bd 3f c1 a0 be 8f 8c 3f 3e 39 af 88 3e
       -0.11671336 -0.31397435 0.18705963 0.26696184
0002a0 34 8d 1d 3e 9d 4e bb bd 94 35 e6 bd f6 b4 a7 3d
       0.15385896 -0.09145854 -0.11240688 0.081888124
0002b0 00 40 60 3d 46 0e 6b bd 76 d9 ae bd 29 a1 85 3d
       0.054748535 -0.05738666 -0.08537571 0.065248795
0002c0 21 61 00 be 24 e2 f4 3d 24 05 09 3e 2a f6 f4 bd
       -0.12537052 0.119571954 0.13380867 -0.119610146
0002d0 7c b0 28 3d dc e4 88 3e 4c 38 45 3d 7c 49 76 be
       0.041183934 0.26737106 0.048149392 -0.2405147
0002e0 88 77 88 bc a7 17 1d 3e b5 64 be bd 67 62 70 bd
       -0.01665856 0.15341054 -0.09296552 -0.058687594
0002f0 80 60 1c be 88 ff 01 3e 70 84 83 be cf cd 44 bd
       -0.15271187 0.12695134 -0.2568698 -0.048047837
000300 c8 31 b3 3d b4 7e b5 3d e1 57 69 3d 16 e8 99 bc
       0.087497294 0.08862057 0.056968573 -0.018787425
000310 9e 3d 9f be 91 f9 73 be 9f 9d ff bd fa 21 8a 3e
       -0.31101698 -0.23825671 -0.12481236 0.26979047
000320 93 b4 68 be e6 7a 8f be 91 03 6f bd 23 e5 08 3e
       -0.22725134 -0.28023452 -0.05835301 0.13368659
000330 77 65 c6 bd c1 0f 66 be 58 72 9c be 10 b9 b6 be
       -0.09687322 -0.22466947 -0.30555987 -0.35688066
000340 4d e3 9c 3d 8e 2e 71 3e 59 e4 66 bd ed a9 43 be
       0.07660542 0.23552915 -0.056370113 -0.1910779
000350 c4 2e 2c be 96 c2 0b 3d ba 9c a9 be 79 a4 11 bc
       -0.16814715 0.03412112 -0.33127385 -0.008889311
000360 b0 ca fc bc 99 e0 3a 3e d8 a8 10 be d5 de 0c be
       -0.030858368 0.1824974 -0.14126909 -0.13756879
000370 9d fa 4a bd aa 13 08 bd 92 08 f6 3d 96 04 14 3e
       -0.04955541 -0.033221878 0.120133534 0.14454874
000380 e0 64 3e be 17 ab 4e 3e 23 bb 42 3d ba fc 89 3d
       -0.18593168 0.20182453 0.04754175 0.06737657
000390 12 2d a0 be 06 9e 12 be 64 21 3f be 6a b8 3b 3e
       -0.31284386 -0.14318094 -0.18665081 0.18332067
0003a0 88 a8 1b 3c 5b 94 3c 3e 87 0c c5 3d 47 61 0c 3d
       0.00950063 0.18415968 0.0962153 0.03427246
0003b0 96 e1 03 3e 78 fa 00 be 1d d1 9c be df ee 97 be
       0.12879023 -0.12595546 -0.3062829 -0.29674432
0003c0 1e 76 2a bd 24 e9 4b bc 77 fd 17 3d bc ef 40 be
       -0.04161655 -0.012445722 0.037106957 -0.18841451
0003d0 b9 a4 60 be 8b 9f 78 bd a2 75 ab 3c df fc 9e 3d
       -0.21937837 -0.060699027 0.020930115 0.07763075
0003e0 e5 6c d1 bd 58 9b eb 3d 2d b8 79 3d 2a b5 96 3d
       -0.10225848 0.11504239 0.06096666 0.07358773
0003f0 bf 73 72 be df c1 30 be 1b c6 08 bd e6 0a c7 bd
       -0.23676966 -0.17261456 -0.033392053 -0.097188756

lstm.weight_hh_l0 f4 [128, 32]
000000 15 d2 c2 bd 6f 8b 3b 3e 80 ec 8f 3d 92 b6 86 bd
       -0.09512726 0.18314908 0.07027531 -0.06577791
000010 de ae a2 bd ae 1e dc bd e4 3e fd 3d 9b 31 f0 3c
       -0.079435095 -0.10748039 0.12365511 0.029320529
000020 a6 2d 4e bd 1b 3b 05 be dd 7f 74 3d c5 a5 fc 3c
       -0.050336502 -0.13010828 0.059692252 0.030840764
000030 c0 f1 e4 bc 2b f0 16 be ee 06 e3 bc 77 a4 12 3e
       -0.027947307 -0.14740054 -0.027713265 0.14320551
000040 2b 41 39 3e b8 8c 31 be 5c 45 da 3d 7a b4 48 be
       0.18091266 -0.17338836 0.106577605 -0.19600096
000050 a1 2e 07 be 0f 8e 86 3c 77 52 9b bd 00 e6 11 3e
       -0.13201381 0.01642516 -0.07584088 0.14247894
000060 b9 da 04 3d 20 80 49 be b7 bf 40 be 6e 0b 38 3e
       0.032435153 -0.19677782 -0.18823133 0.1797311
000070 33 a8 33 be a4 f8 10 3e 22 f1 d7 3d 80 ee 05 3e
       -0.17544632 0.14157349 0.10544039 0.13079262
000080 4c cd 05 3e 5a 1d 90 3c 1c 24 0e 3e 3c e4 a4 bd
       0.13066596 0.01759212 0.13880962 -0.08051345
000090 78 de 02 be 4e d6 56 3e 40 c0 b2 bc 44 60 6a 3c
       -0.12780178 0.20980188 -0.021820188 0.014305178
0000a0 f8 9c 1c bd c7 0a 14 bd 6d b9 3f 3d 7d 66 e9 bc
       -0.038235635 -0.03614309 0.046807695 -0.028491253
0000b0 32 f9 c2 bd 9d 73 64 bc e4 6f 65 3e 60 b9 73 bc
       -0.095201865 -0.01394358 0.22405964 -0.01487574
0000c0 6f 18 5b 3b 5e 1d 59 3d 8a cc 32 3e 20 5f 1c be
       0.0033431312 0.053006522 0.17460838 -0.15270662
0000d0 82 02 4e be 22 f4 c8 3c 5d 02 9c 3d 2c 83 a4 bc
       -0.20118144 0.024530474 0.07617638 -0.020082079
0000e0 27 8c 04 3e 7d f9 54 be ad c6 f1 3d 5e a3 2c bd
       0.12944089 -0.20798297 0.118054725 -0.042147987
0000f0 a1 fd 41 3d 89 ae 42 3e 3e 17 f0 3d 4c 81 28 3e
       0.04736102 0.19011892 0.11723183 0.16455573
000100 7c 65 65 bd 7c dd c5 bd db 64 f9 bd 99 49 18 3e
       -0.056004986 -0.096613854 -0.1217744 0.14871825
000110 1e 5c e5 3c 32 b8 a5 bd 60 4b 3c 3d fe a9 46 3e
       0.027998026 -0.08091773 0.04597032 0.19400784
000120 94 52 8b bd 52 4e 2a 3e 53 65 5c bb 02 28 82 3c
       -0.0680286 0.1663144 -0.003362973 0.015888218
000130 b3 da 13 3e 8f ad b3 3d 5f b5 2f 3e 18 3d b7 3e
       0.14438896 0.08773338 0.17159031 0.35788798
000140 e1 0f f1 3d 88 27 d4 bc a4 45 73 bd 90 68 4d bc
       0.11770607 -0.025897756 -0.059392586 -0.012537137
000150 9e 86 3b be 86 7f 46 3c 9f f1 b1 bc 6e c7 19 bd
       -0.18313071 0.012115365 -0.02172166 -0.037543707
000160 7a 80 03 be cd 29 0c be ac df 73 3d 86 90 ff 3d
       -0.12841979 -0.1368782 0.059539482 0.124787375
000170 9f ff 63 3d cf f9 5e 3c 77 86 83 3a fc 5f 36 bc
       0.0556637 0.013609364 0.001003458 -0.011131283
000180 e0 be 0c 3e 81 88 92 3c 12 d9 11 3c 34 d4 67 3e
       0.13744688 0.017887356 0.008901851 0.22639543
000190 4e df 85 be ea 5e 79 3c 54 4b df bd f2 19 b6 bd
       -0.2614693 0.015220383 -0.109030396 -0.088916674
0001a0 e5 8d a4 bd 9b e1 cc 3d 8f 0a b5 3d db 51 d3 bd
       -0.08034877 0.10003968 0.088399045 -0.10318347
0001b0 44 27 05 be 98 25 a0 bc 10 b6 fb 3c 20 0d 5b bd
       -0.1300326 -0.019549176 0.030726463 -0.053479314
0001c0 e0 9f 53 3e 56 03 d6 bc d8 1b f0 bd 6b 6b 60 bb
       0.20666456 -0.026124638 -0.11724061 -0.0034243714
0001d0 0e f2 76 bd 12 ca 2b 3d 8a a0 ae bd fa eb 0d be
       -0.060289435 0.041940756 -0.08526714 -0.13859549
0001e0 97 65 b9 bd ec 2b 34 be fd 41 59 bd ed 8b 6d 3d
       -0.0905258 -0.1759488 -0.053041447 0.05799477
0001f0 bb c8 0f bd 07 1c 32 3d 86 b2 5d 3e de e8 1f be
       -0.03510354 0.04348376 0.21650133 -0.15616176
000200 77 14 28 bd 4a 71 e4 bc 23 86 77 bd 49 77 62 3d
       -0.04103514 -0.027886052 -0.060430657 0.05528954
000210 60 2a a9 3c 42 44 c3 3d 22 b8 23 bd 46 4e 15 bd
       0.020650089 0.095345035 -0.039970525 -0.0364516
000220 01 17 f9 3d fc 73 6e 3e a8 bf 78 be 32 9c b5 bd
       0.12162591 0.23286432 -0.24291861 -0.088676825
000230 9c 9d 3b be ef c3 ac 3d 38 bb eb bc 52 de a0 bd
       -0.18321842 0.08435809 -0.028775796 -0.07854904
000240 57 10 89 3e 98 ae 85 be c6 5b 57 3e ed ac 8d bd
       0.2677028 -0.26109767 0.21031103 -0.069177486
000250 3b bf c2 3d 39 a0 b5 bd 59 0b c0 3d 89 fe 8d bd
       0.095091306 -0.08868451 0.093771644 -0.06933314
000260 b9 d8 0d bc 6b 91 9e 3d 9e 2b 19 be 84 3a 20 bd
       -0.008657628 0.0774258 -0.14958045 -0.039118305
000270 ae fb b7 3d d2 28 67 bc a0 42 46 bd 42 34 35 3d
       0.08983551 -0.014108853 -0.048403382 0.04423929
000280 dd ca b4 3c ad 83 5a 3d 8b 3e cf bd 1d cc fd 3d
       0.022069389 0.053348232 -0.10119351 0.12392447
000290 ff 9b 6e be 9e d6 d9 3d ff 7a cb 3c 3d a9 a4 3d
       -0.23301695 0.10636638 0.024838923 0.08040092
0002a0 ae 78 0c 3d 00 a2 e9 3d 20 83 03 be 0e af 3f bd
       0.034294777 0.11407852 -0.12842989 -0.046797805
0002b0 59 91 21 be 27 9d 22 be 48 78 73 bc ea eb aa 3e
       -0.15778102 -0.15880261 -0.01486022 0.33383113
0002c0 08 81 5d 3d b7 90 8a 3b fa 5e 87 3e 65 41 be bd
       0.054078132 0.004228677 0.2643965 -0.09289817
0002d0 2b cb 22 be fa 23 2c be f0 a0 fc bd b4 ad 44 bb
       -0.15897815 -0.16810599 -0.12335384 -0.0030010762
0002e0 88 25 fc bd e1 5c a0 bd 6d b5 a2 3d 47 8d 66 3e
       -0.12311846 -0.07830215 0.079447605 0.2251483
0002f0 ad 14 c6 bc 47 01 c6 3d 4f dc 48 3e bd 52 f2 3d
       -0.02417978 0.096682124 0.19615291 0.11832187
000300 34 88 dd 3d 22 d7 75 bb 56 8b 0e be 33 76 c5 3b
       0.10816994 -0.0037512262 -0.1392034 0.0060260533
000310 a1 dc dc bd b3 ea b3 3d 7e 22 ac bd 57 1b db 3d
       -0.10784269 0.08785 -0.08405016 0.10698574
000320 32 41 ed 3d 3a a6 93 3c 05 37 5f be 44 0e 33 be
       0.11584701 0.018023599 -0.21798332 -0.1748591
000330 f3 ec 48 be 0e 08 a1 3d 3d 75 91 bd 36 08 52 3d
       -0.19621639 0.078628644 -0.071024396 0.05127736
000340 4b bd 91 3b 32 17 06 be 71 3f f6 3d fb a8 dc bd
       0.0044476143 -0.13094786 0.12023819 -0.10774418
000350 80 0f c0 bc 4c 61 bc bd 43 b6 44 bd af a6 c9 bc
       -0.023444891 -0.091982454 -0.04802538 -0.024615614
000360 a1 17 fa bc 9a ba 82 bd f6 f2 ea 3d c1 85 85 3c
       -0.030528845 -0.06383248 0.11472122 0.01629913
000370 d1 c2 19 be e1 3c bc bd 0c b7 8d 3c c4 3a 40 be
       -0.15015723 -0.09191299 0.017299198 -0.18772417
000380 e0 9f 82 3d c6 da f1 bd df 1e 53 bd 4c 11 74 bc
       0.0637815 -0.11809306 -0.051543113 -0.014896702
000390 c5 fe 8c 3d 55 b5 4a bd 60 f5 1e 3e 64 fa d8 bd
       0.06884531 -0.049489338 0.1552329 -0.10594633
0003a0 9e 8a cb 3c ca 08 ef bc 5a eb f8 bd 2c 10 59 be
       0.024846371 -0.029178996 -0.12154265 -0.21197575
0003b0 74 a0 84 3d 96 37 28 3d 55 94 59 3d ad 75 49 3e
       0.064759165 0.041068636 0.053119976 0.19673796
0003c0 26 4b fc bd 6e 86 92 3c 6b 69 8f bd 4a 46 c2 bd
       -0.12319021 0.017886367 -0.07002529 -0.09486063
0003d0 6c 95 16 bd a1 69 9c bd 62 78 eb bc ad 84 1c 3e
       -0.036763594 -0.076373346 -0.028743926 0.15284987
0003e0 bd c3 21 bd c3 f8 1e bd 7a 48 0a be d2 9b c6 bd
       -0.03949331 -0.038811456 -0.1350421 -0.09697689
0003f0 df 72 a6 3d 04 91 8d bd 26 cd dd 3b 44 96 76 3d
       0.08127379 -0.06912425 0.0067688404 0.0602019

lstm.bias_ih_l0 f4 [128]
000000 f5 61 20 bd 7a 2b 95 3c dc b0 3a bd 49 29 41 3e
       -0.03915592 0.018209208 -0.045578822 0.18863405
000010 2e ee 89 3d c9 69 c8 3c c8 db 2c bc a2 08 3a be
       0.06734882 0.024464505 -0.010550447 -0.18167356
000020 de 3d bb 3c af f6 5b 3e f8 0d fd 3d 55 f1 6e 3e
       0.022856649 0.21480821 0.1235618 0.23334248
000030 82 a7 31 3e 69 14 21 3e 0d 83 2e 3e 58 f1 d7 bd
       0.17349055 0.15730442 0.1704218 -0.105440795
000040 5a 65 30 3e c2 19 f1 bd 11 36 26 bd b3 e8 42 3e
       0.17226163 -0.11772491 -0.040578905 0.1903408
000050 b7 a6 06 3e 06 75 ae bd fb 58 42 3d c1 aa bc bd
       0.13149534 -0.08518414 0.04744814 -0.09212256
000060 66 58 1e 3e 60 e2 29 3e 50 8c e5 3c fd 80 83 bd
       0.15463409 0.16590261 0.028021008 -0.06421087
000070 36 b3 9d bd 7f 6a 20 3e 35 ea c7 3d 9b 39 9d bd
       -0.077001974 0.15665625 0.09761468 -0.07677003
000080 ed c5 6b 3e ab 36 0b 3d 38 b7 8b bc e6 b3 40 3e
       0.23024721 0.033987682 -0.017055139 0.18818626
000090 9f 49 7a 3e a9 20 88 3b 45 1b 87 3d 37 cc 52 3c
       0.24442147 0.004154284 0.06596998 0.012866071
0000a0 c7 a1 8c bd 48 3c 82 3d bb f9 f3 3c 78 5a 4f 3e
       -0.06866794 0.06359154 0.029782167 0.20249355
0000b0 cf 5d 3c bd 33 c7 ff 3d 8b 1d 95 3e 73 d9 1e 3e
       -0.0459879 0.12489166 0.29124102 0.15512638
0000c0 38 15 86 3d bb f8 9a 3d 00 73 ce bd 11 31 83 3e
       0.06547016 0.07566973 -0.10080528 0.25623372
0000d0 70 b7 39 bb 5d c1 82 3d 6a 8e 2a 3e 7b 31 07 3e
       -0.0028338097 0.06384537 0.16655889 0.13202469
0000e0 ea e2 c9 ba 91 4a 8b bd 9d 02 01 be 7a ca 97 bd
       -0.0015402709 -0.06801332 -0.12598653 -0.07411666
0000f0 a3 62 ba 3c e8 2e 88 bd 4a 7f 5d 3d 38 b7 9d bd
       0.022752112 -0.06649572 0.05407647 -0.07700962
000100 df 39 48 3e 79 07 60 3e 7a b9 17 3e fb 9f 66 bd
       0.19553326 0.2187785 0.14816847 -0.056304913
000110 c6 95 31 be e4 22 d5 3d d9 b8 e4 bd 34 1e 13 3e
       -0.1734229 0.104070455 -0.111680694 0.1436699
000120 d3 d1 20 be 67 dd 45 3e 6f 99 3a be 93 db 62 bc
       -0.15705042 0.1932274 -0.18222593 -0.013846296
000130 7a f7 66 bd eb 27 f7 bd 7d 13 63 bd 3d f0 de 3d
       -0.056388356 -0.120681606 -0.055438507 0.108856656
000140 dc 04 55 3e f7 e6 5b 3d a1 5a 77 3d 4f d7 da bd
       0.20802635 0.053687062 0.060389165 -0.10685598
000150 17 a4 fd bd 41 6f a1 3d 1a b7 d0 bd 08 7e 6d be
       -0.12384813 0.07882548 -0.10191174 -0.23192608
000160 84 df 01 3e b9 1b 27 be 03 d1 c4 3d c9 e5 97 bc
       0.1268292 -0.16319169 0.09610178 -0.018542187
000170 29 4b 97 3d 05 d2 88 bd 37 d1 3c 3e 3d d0 1a 3e
       0.073873825 -0.06680683 0.18439184 0.15118499
000180 26 fc f1 3d 95 e1 73 3e 95 ee 0f 3e e3 af 19 bc
       0.118156716 0.23816521 0.14055856 -0.009380314
000190 72 4c 4c 3e cc 37 e7 bb 1d de 17 3e be dc d8 bc
       0.19951037 -0.007056212 0.14830823 -0.026472446
0001a0 cb 63 90 3d 60 50 d3 3d 12 99 8b 3d f7 e0 3a 3d
       0.07050284 0.10318065 0.06816305 0.0456247
0001b0 d7 2e 8c 3d d3 c9 7b 3d 2b e2 5b 3d ac 59 d0 bc
       0.068448715 0.06147177 0.053682487 -0.025433384
0001c0 9c c1 39 3c e8 db d1 3d 0e 1d 8b 3e 98 60 9a 3d
       0.011337664 0.10247022 0.27170604 0.07537955
0001d0 37 67 01 3d 08 bb f8 bc ac 6c a6 3e 7b 85 e0 3d
       0.031592574 -0.030362621 0.32504785 0.109629594
0001e0 d9 95 c0 3d 63 e0 a4 3e 24 98 87 bd 8d 98 87 3d
       0.09403581 0.32202443 -0.066208154 0.066208936
0001f0 16 89 8a 3e e3 8d 6c 3e 87 39 f8 3c a6 77 b1 3d
       0.27057713 0.23101 0.030300869 0.08665399

lstm.bias_hh_l0 f4 [128]
000000 f1 99 40 3d 01 79 fc 3d 48 36 15 bd b5 e9 3a 3e
       0.04702181 0.12327767 -0.03642872 0.18253215
000010 b4 7e 5b 3d a4 3a ab bd 0a 9c ed 3d 7c 98 48 be
       0.05358763 -0.08360794 0.11602028 -0.19589418
000020 a8 27 b8 3c 88 62 ec bd e5 87 30 bd b3 98 55 3d
       0.022479847 -0.11542231 -0.04309835 0.05214758
000030 fa 41 d9 bd 30 d2 06 3d ac cd 39 3e 00 18 98 bd
       -0.10608287 0.032915294 0.18144864 -0.07426453
000040 0c fc 89 3d 2a d7 cc 3d 1d 54 b1 3d 65 a3 5d bd
       0.06737527 0.10001977 0.086586215 -0.054110903
000050 53 a8 0a 3d 56 b9 9b bd 6f 00 66 bc 60 55 8c bd
       0.033851933 -0.076037094 -0.014038189 -0.068522215
000060 a7 25 20 bc 08 ec a7 3d 34 e8 c6 3d 36 04 44 bc
       -0.009774602 0.08199316 0.09712258 -0.011963895
000070 5c 6b 07 3d bf 26 0c bb d0 1e a3 bd 0b ad 72 bc
       0.03306137 -0.00213854 -0.079648614 -0.0148117645
000080 04 4a 61 3d 06 1a cd 3d 2b 0f c2 3d d8 04 48 3e
       0.055002227 0.10014729 0.09475549 0.19533098
000090 72 87 48 3e 29 4d 49 3d 50 ed 38 bc 7b 2c 78 3e
       0.19582918 0.04914585 -0.011287048 0.24235718
0000a0 92 01 1c 3e 94 7c 3c 3e a9 8c 22 3e f3 f2 46 3e
       0.15234974 0.18406898 0.1587397 0.19428615
0000b0 8b 22 78 3e a8 4f 34 3e 4b 02 1a 3c 7a 62 0e 3c
       0.24231927 0.17608511 0.009399961 0.008690471
0000c0 57 90 2a bc ff 3f 2b 3e cb f2 61 3e 8c fe 0c 3e
       -0.01041039 0.16723631 0.22065274 0.13768977
0000d0 4b 27 d2 bd 86 d9 d7 bc 2c ca 2a 3e c9 6f 64 3e
       -0.10261401 -0.02634884 0.16678685 0.22308268
0000e0 1f 7c ea 3d 02 f1 5e bd 05 5f 59 3e bb 36 6a 3e
       0.114494555 -0.05442906 0.21227653 0.2287244
0000f0 e4 7b 90 bc 17 fd ca bc d6 b8 31 3e d8 10 e4 bd
       -0.0176372 -0.024778886 0.17355666 -0.11136025
000100 2f c1 78 3e 90 ac 7e 3d 52 7d 78 bb d1 a2 0e bd
       0.24292444 0.062176287 -0.0037916494 -0.034823243
000110 74 cb 64 be 9b 74 a9 3d 8f 84 09 be 4d 9b c0 bd
       -0.22343236 0.08274194 -0.13429473 -0.09404621
000120 2c 8a 15 3e e9 43 7e 3d fb 27 db bd a5 cc 0f bd
       0.1460349 0.062076483 -0.10700985 -0.035107274
000130 e1 72 0c be 27 f3 cc bd a8 70 05 3e 27 dc 1c be
       -0.13715698 -0.10007315 0.13031256 -0.15318356
000140 64 c2 31 3e d7 b2 ed 3d aa 84 bf 3d e3 8c 83 be
       0.1735931 0.116063766 0.093514755 -0.25693426
000150 89 fe 8d bb 13 de 24 be 1c fc 4d 3d 0c 17 ab bd
       -0.0043333215 -0.1610034 0.05028926 -0.08354005
000160 46 b9 81 3d ae 3c 27 be 44 db 16 3c 24 6e e2 3d
       0.06334166 -0.16331741 0.00920755 0.11056164
000170 e5 75 47 be 01 db b2 3d 28 31 71 3e 8f 52 0c 3e
       -0.19478567 0.08733178 0.23553908 0.13703369
000180 74 ca 06 3e 8e 01 b8 3d 8a 5b 54 3e 20 3e 43 bb
       0.13163167 0.089846715 0.20738044 -0.0029791668
000190 b4 f2 8c 3d 2e 41 91 3e 60 79 29 3e d6 61 05 3e
       0.068822294 0.2837004 0.16550207 0.13025603
0001a0 cd 60 7e 3c e6 14 29 3d 44 2e 25 3e 33 ed b1 3d
       0.015526009 0.041279696 0.1613093 0.0868782
0001b0 ae 4f d7 3d f1 7f 0d 3e b8 0b 83 3e 8f 35 36 3e
       0.105132446 0.13818337 0.25594878 0.17793868
0001c0 93 90 6b bd 4e 3d 4d 3e 21 a9 c5 3d d0 ae e9 3d
       -0.057510924 0.20042917 0.096513994 0.11410296
0001d0 85 ad 97 3e 89 be 39 bb 84 bc ce ba 44 25 1b 3e
       0.29624572 -0.0028342328 -0.0015772735 0.15150934
0001e0 3a d1 38 3d 8d fd 1c 3e 51 4d ee bd ea 4c 8d 3d
       0.04512141 0.15331097 -0.11635841 0.06899436
0001f0 a6 f8 7e 3e 32 cb c0 bc cd 2d 44 3d bc be c5 3d
       0.2489954 -0.023534391 0.04789524 0.0965552

dense_layers.0.weight f4 [16, 32]
000000 d7 6d 93 3e 5d 26 ef 3e a1 4b d6 3e 13 f4 14 3f
       0.2879474 0.46708956 0.41854575 0.5818493
000010 a0 c5 1d bf 02 19 e6 3e f0 90 bb be 3d 75 f1 3e
       -0.61629677 0.44940954 -0.36634016 0.47159758
000020 64 6f cb 3e 97 cd 1d 3f a1 55 15 bf 44 12 11 3f
       0.39733422 0.6164183 -0.58333784 0.56668496
000030 a1 62 ce be cf 44 a0 be ae 56 0d 3f fc 7d ed 3e
       -0.40309623 -0.31302497 0.5521039 0.4638518
000040 b9 95 ec 3e 0a 09 e2 be 1d 0b 93 3e 11 0e bf be
       0.4620798 -0.4414752 0.28719416 -0.3731542
000050 f5 02 a5 be 11 04 aa be 2c f2 f8 be 3c cb 19 bf
       -0.3222882 -0.33206227 -0.48622262 -0.60075736
000060 a7 4d ee 3e 63 b6 bc be 21 39 0f bf 1c 32 18 3f
       0.4654362 -0.368579 -0.55946547 0.5945146
000070 39 82 e4 be 65 6c ea 3e d8 ab 19 3f 3e ec 04 3f
       -0.44630602 0.45785823 0.6002784 0.51922977
000080 3a 1b f7 be d9 47 a3 be c4 31 97 be 0d 50 a0 be
       -0.4826296 -0.31890753 -0.29530156 -0.31311074
000090 3a b6 9a 3e 7a 7c c1 be 20 37 8a 3e c7 3e d8 be
       0.30217153 -0.3779028 0.26995182 -0.42235395
0000a0 c9 2a 06 bf 56 3b 9a be 8e 74 11 3f 2d ec 07 bf
       -0.52409035 -0.30123395 0.56818473 -0.5309475
0000b0 28 cf a4 3e 57 31 8e 3e c1 ea 00 bf 24 99 73 be
       0.32189298 0.27772018 -0.50358206 -0.23788887
0000c0 c5 90 07 bf 87 30 8a 3e a6 1a 0b bf 2e 96 ce 3e
       -0.52955276 0.26990148 -0.5433754 0.40348953
0000d0 c6 b7 8b 3e c6 64 79 3e 61 53 14 3f e7 33 ef 3e
       0.27288646 0.24354848 0.57939726 0.46719286
0000e0 4a 43 b2 be f1 96 fa 3e b6 a0 ce 3e 16 84 bc be
       -0.34816962 0.48943284 0.40356988 -0.36819524
0000f0 21 10 85 3e 3f 71 a1 be da a3 07 bf fd 5b cc be
       0.25988868 -0.31531712 -0.5298439 -0.3991393
000100 23 4f 01 bf 56 80 02 bf 41 28 06 bf 63 b1 02 bf
       -0.5051138 -0.50977075 -0.5240517 -0.5105192
000110 a0 ea 9b 3e f0 52 04 bf 28 bc b6 3e 52 7f 16 bf
       0.30452442 -0.5168905 0.35690427 -0.58788025
000120 da 75 90 be 77 81 ba be 62 8c 79 3e d0 cc 0c bf
       -0.28214914 -0.364269 0.24369958 -0.5500002
000130 9c e3 ac 3e 1c 3b e2 3e a8 af 77 be cd 50 e6 be
       0.33767402 0.44185722 -0.24188101 -0.4498352
000140 b0 93 9f be fa dc 91 3e 32 9e ea be cc 6e cc 3e
       -0.31167364 0.28488904 -0.45823818 0.3992828
000150 bc 5a 83 3e 22 17 c4 3e 3a 69 f3 3e ea 19 05 3f
       0.25655162 0.382989 0.4754122 0.51992667
000160 e8 7c 13 bf e5 ec a7 3e 38 ac ce 3e fe 22 ce be
       -0.57612467 0.32797924 0.40365767 -0.40261072
000170 b6 47 e5 3e 2d ad 04 bf b3 6f 8e be 91 7e 13 bf
       0.44781274 -0.51826745 -0.27819595 -0.57615
000180 1e 2e a2 3e 14 cb ec 3e ac 50 b1 3e 63 0b 9d 3e
       0.3167581 0.46248686 0.3463186 0.3067275
000190 36 ab 0c bf 8e 10 02 3f 98 6c c8 be fa ff f4 3e
       -0.5494875 0.5080651 -0.3914535 0.47851545
0001a0 1d 95 d7 3e f8 31 86 3e ea 4c e5 be 2c 37 f5 3e
       0.42105952 0.26209998 -0.44785243 0.47893655
0001b0 27 e4 f6 be 4c 0f da be 3e 6c ef 3e 0d 39 a0 3e
       -0.4822094 -0.42589796 0.4676227 0.31293526
0001c0 64 12 d3 3e e9 6c e1 be f2 ce e1 3e 22 20 c1 be
       0.41224968 -0.44028404 0.441032 -0.37719828
0001d0 9f bc 08 bf 6c 19 fa be 52 08 a8 be c7 48 df be
       -0.5341281 -0.4884752 -0.32818848 -0.43610212
0001e0 83 26 03 3f c7 d0 b1 be f8 2c d9 be dc a5 b6 3e
       0.5123064 -0.34729597 -0.4241712 0.35673416
0001f0 60 49 ed be b1 21 e3 3e a6 ae 05 3f 3d 1d c5 3e
       -0.46345043 0.44361642 0.5221962 0.3849887
000200 5d 0f 89 3e f4 5a 01 3f 70 0f 0a 3f 56 1d 04 3f
       0.26769534 0.5052941 0.53929806 0.51607263
000210 4a 10 c4 be 35 eb dd 3e eb ad c3 be a3 c5 a8 3e
       -0.38293678 0.4334351 -0.38218626 0.32963285
000220 63 cd 62 3e 67 b9 c0 3e 3f 41 a0 be 81 75 eb 3e
       0.22148661 0.3764145 -0.3129978 0.45988086
000230 e6 20 b7 be c0 0e 89 be 64 65 f8 3e 13 fb b7 3e
       -0.35767287 -0.26769066 0.48514855 0.35933742
000240 72 c1 00 3f a2 7b b9 be ba 01 a8 3e f2 49 ef be
       0.50295174 -0.36227137 0.32813817 -0.46736103
000250 de 41 00 bf 24 46 fd be dc f0 b6 be 51 b4 60 be
       -0.50100505 -0.49467576 -0.35730636 -0.21943785
000260 0a 0b e4 3e 89 b0 ac be b7 54 de be af a0 a4 3e
       0.44539672 -0.33728436 -0.43424007 0.32153842
000270 96 5d e2 be 28 d8 d7 3e 88 78 d5 3e 93 e8 a8 3e
       -0.44212025 0.42157102 0.4169352 0.3298994
000280 02 37 d3 3e 6f c2 af 3e 05 52 c2 3e aa 59 04 3f
       0.41252905 0.3432803 0.379532 0.51699317
000290 09 05 e6 be d8 0b 0d 3f 83 c4 f7 be 1e 7f 0e 3f
       -0.44925717 0.550962 -0.48392114 0.55662715
0002a0 35 1a eb 3e 33 37 ee 3e 14 07 da be cc 73 9c 3e
       0.45918432 0.4652649 -0.42583525 0.30557096
0002b0 e5 76 06 bf 0d af 03 bf db 21 fd 3e 70 a5 0f 3f
       -0.5252517 -0.5143898 0.49439892 0.5611181
0002c0 39 53 de 3e b8 35 d9 be 22 d5 d9 3e 13 9a cd be
       0.4342287 -0.42423797 0.4254542 -0.40156612
0002d0 58 f0 0b bf 57 34 fe be 26 0b aa be c7 50 dc be
       -0.5466361 -0.49649307 -0.3321163 -0.43030378
0002e0 74 df bf 3e 2a c1 ed be 9d 67 92 be 21 9e 98 3e
       0.3747517 -0.46436435 -0.28594676 0.29808143
0002f0 86 d4 e0 be 38 08 e7 3e 57 67 0d 3f 87 87 0c 3f
       -0.43912143 0.45123458 0.5523581 0.548943
000300 a4 39 b7 be c2 64 d9 be 9c 8b a0 be e5 49 94 be
       -0.35786164 -0.42459685 -0.31356514 -0.28962627
000310 d5 16 04 3f 94 57 c7 be 0d 3c f8 3e 03 87 db be
       0.5159734 -0.38934004 0.48483315 -0.42876443
000320 fc 76 a6 be 9d 32 cb be 96 94 96 3e f2 c8 ff be
       -0.32512653 -0.39687052 0.29410237 -0.49957997
000330 c0 49 93 3e 0b 5a ae 3e 4d 80 d4 be b7 c5 04 bf
       0.28767204 0.34053072 -0.41504136 -0.5186419
000340 c0 58 1a bf ca 21 93 3e 9a 33 bd be 14 fd dd 3e
       -0.6029167 0.28736717 -0.3695343 0.43357146
000350 31 21 d8 3e f6 1c dd 3e 6f d1 d5 3e c9 41 af 3e
       0.42212823 0.43186158 0.41761348 0.34229878
000360 5d 5a 0b bf 44 ca aa 3e ae 6b 81 3e 1b db 1a bf
       -0.5443476 0.3335744 0.25277466 -0.6049058
000370 09 b8 be 3e 74 72 ae be 2e 28 89 be 24 f4 e2 be
       0.37249783 -0.34071696 -0.26788467 -0.4432689
000380 b4 28 94 be eb c9 b3 be ef d2 0f bf ca 6e 03 bf
       -0.28937304 -0.3511499 -0.56181234 -0.51340926
000390 11 d6 b8 3e f6 de 10 bf 22 63 e4 3e e4 d8 c4 be
       0.3610082 -0.5659021 0.44606882 -0.38446724
0003a0 b9 d5 0f bf a5 16 ec be f6 ee 86 3e ff 7e 4a be
       -0.5618549 -0.46111026 0.26354188 -0.19775008
0003b0 26 0d 08 3f 81 42 9d 3e 45 f3 80 be fb 75 08 bf
       0.5314506 0.307148 -0.251856 -0.53305024
0003c0 e8 45 89 be 5e 12 a0 3e 3e 63 bd be b8 ba 0c 3f
       -0.26811147 0.31264013 -0.36989778 0.5497241
0003d0 c7 d2 02 3f f6 ce d9 3e ed 01 d1 3e 5b a6 d3 3e
       0.5110287 0.4254071 0.40821782 0.41337857
0003e0 9f f5 93 be 80 e3 a5 3e 1d 11 ae 3e 03 34 cc be
       -0.28898332 0.3240013 0.3399743 -0.39883432
0003f0 dd 17 aa 3e 9f 88 e8 be e6 99 cd be 24 67 91 be
       0.3322133 -0.45416734 -0.40156478 -0.28399003

dense_layers.0.bias f4 [16]
000000 86 91 12 3f 6a a1 81 be 15 91 7f be d8 e6 2d 3e
       0.572533 -0.25318462 -0.24957688 0.16982591
000010 70 c6 e9 3e 33 a2 b9 3e 17 44 15 bf 1d 3a 45 be
       0.45659208 0.3625656 -0.5830702 -0.1926045
000020 c1 98 c8 3e 37 d2 a3 be e9 08 52 be fb bd f6 3e
       0.39179042 -0.3199632 -0.20511211 0.4819182
000030 73 39 fb 3e 1f 6f ff be 7c d6 22 be f0 06 e6 3e
       0.49067268 -0.49889466 -0.15902132 0.44927168

dense_layers.1.weight f4 [1, 16]
000000 6d 0a e2 3e 0b 8e 1d bf 7f 5b 04 bf f8 85 23 3f
       0.4414858 -0.61544865 -0.5170211 0.63876295
000010 19 b0 21 3f 1d 09 1e 3f 5d 25 fb be 22 0d 07 bf
       0.6315933 0.61732656 -0.49051943 -0.52754414
000020 2e b4 f5 3e 5b 2e 10 bf 21 dc 0b bf 6e 4e 04 3f
       0.4798903 -0.5632073 -0.54632765 0.51682174
000030 40 29 23 3f b9 5a 21 bf 6e 73 1c bf 63 39 f1 3e
       0.6373482 -0.63029057 -0.6111363 0.47114095
