archived/model_state_b10_e100_v2.pt (torch, 33863 bytes, 9 tensors)

lstm.weight_ih_l0 f4 [128, 14]
0.3266628 -0.2622498 0.49897727 -0.21732856 -0.62554747 -0.0035386079 0.33790225 0.25247
-0.21136451 -0.11689916 0.57407576 0.35426602 -0.44256833 -0.5032166 -0.10254073 0.17777172
0.39389503 0.53104526 0.20383635 0.1648566 -0.26970336 -0.20324641 -0.08644474 0.22676697
-0.55607015 0.064272046 -0.6797289 -0.024119087 0.5138023 -0.15847431 0.9887263 -0.28513443
0.045352485 -0.30286604 -0.11529007 0.017259786 0.2641951 -0.17147036 0.2949997 0.026088528
-0.10342199 0.32919562 -1.0174679 -0.3810286 -0.32628778 -0.54413503 0.48867616 -0.21055219
-0.5113572 -0.13036826 0.011700421 -0.39506415 -0.79194105 -0.2585461 0.37415862 0.2352154
-0.019775433 -0.46631688 -0.49738517 -0.5324539 0.091107436 -0.5147378 0.13824067 -0.10127074
0.19235784 -0.46117067 0.0066966233 -0.29789513 -0.33316422 -0.1522003 0.6152136 0.35181877
-0.33368823 -0.48694983 -0.24479537 -0.37641358 -0.21511427 0.027445907 -0.13052541 -0.055386275
0.21312957 -0.1316594 0.3979046 0.009339577 -0.97858834 -0.4346177 -0.8536853 0.15527393
-0.3329338 -0.023803676 -0.26729494 0.12738869 -0.3563572 -0.0156212365 -0.72362083 -0.04636066
-0.10096308 -0.8282475 -0.5082535 -0.3578949 -0.31794217 0.50491583 0.33377805 -0.117979705
-0.11202244 -0.38615987 0.19571188 -0.15424015 -0.1299757 0.37817222 0.048471946 -0.09383155
-1.1545157 -0.688382 -0.16583614 0.20210485 -0.29749376 -0.46499294 -0.63611186 -0.1388391
-0.5011158 -0.449996 -0.3878557 -0.3440254 -0.4000629 0.09044867 0.08038852 -0.33992833
-0.042167842 -0.37637165 0.3401741 0.15610838 0.07748942 0.13674316 0.17278975 0.042510554
-0.22178186 0.10623864 -0.2197629 -0.2277079 0.42422307 0.03709542 0.054271437 -0.08880077
-0.1868215 -0.1838341 0.3439543 -0.0889984 0.113322884 -0.40152416 0.048978247 -0.23845012
-0.27888128 -0.35292158 0.3899812 -0.58100265 0.4093749 -0.32056907 0.05005661 -0.09299089
0.070269994 -0.7095474 0.13534126 -0.22087653 0.15038365 0.242549 -0.29093117 -0.05562672
-0.4308232 -0.23900805 -0.26402745 0.29272014 -0.22414963 0.06800006 -0.024642266 0.3664068
-0.06784493 0.21638416 -0.07278093 -0.34413466 -0.044503476 0.20982859 -0.116370134 -0.21813625
-0.29745978 0.84663695 0.32209548 -0.17326494 -0.34503743 -0.40637544 0.11472776 -0.19073035
0.21692172 -0.052980673 0.2742782 -0.27019963 -0.80950177 -0.5999686 0.32448283 -0.46981898
-0.46182173 0.10272174 0.24585411 -0.24323069 -0.016511144 0.06737563 -0.04852547 0.13583806
0.13419402 0.6343818 -0.114564665 -0.16116917 -0.785038 -0.28135517 -0.14473498 0.01249086
0.28161 0.32097846 -0.23431297 -0.21661247 -0.5539232 0.6980201 0.4140919 -0.2520747
-0.746348 -0.1852309 -1.1367835 -0.15617225 -0.018291773 -0.008400262 -0.29266557 0.61084926
-0.06001858 0.30835035 -0.16414788 -0.37087265 0.27228916 -0.62408704 -1.3966756 -0.75461316
0.16716252 -0.26167056 0.08464393 -0.14817253 -0.6024639 -0.78659976 0.029126521 -0.060991324
-0.8927505 -0.27774397 -0.10799752 0.6039122 -0.37707466 -0.13133875 -0.17186816 0.44148156
00000000: 5940 a73e 9b45 86be f379 ff3e 618b 5ebe
00000010: e123 20bf fde7 67bb 8601 ad3e bf43 813e
00000020: f06f 58be d468 efbd a1f6 123f 5b62 b53e
00000030: 5198 e2be ced2 00bf e000 d2bd ca09 363e
00000040: 9cac c93e 95f2 073f 7aba 503e 2bd0 283e
00000050: 8f16 8abe d41f 50be f109 b1bd 9a35 683e
00000060: 9d5a 0ebf 10a1 833d b702 2ebf 6495 c5bc
00000070: 8c88 033f 1747 22be 2b1d 7d3f 24fd 91be
00000080: 87c3 393d 4211 9bbe 331d ecbd 6564 8d3c
00000090: 9544 873e ed95 2fbe 330a 973e 9cb7 d53c
000000a0: e9ce d3bd 548c a83e 633c 82bf 2e16 c3be
000000b0: 310f a7be 6f4c 0bbf c333 fa3e fe9a 57be
000000c0: 4ee8 02bf 427f 05be 1fb3 3f3c d945 cabe
000000d0: a6bc 4abf 2860 84be b891 bf3e 4edc 703e
000000e0: 1700 a2bc 16c1 eebe 45a9 febe e64e 08bf
000000f0: 8996 ba3d dbc5 03bf f68e 0d3e 0967 cfbd
00000100: 74f9 443e 901e ecbe 596f db3b b685 98be
00000110: 8094 aabe 65da 1bbe a37e 1d3f 9721 b43e
00000120: 2fd9 aabe 7d51 f9be a3ab 7abe 48b9 c0be
00000130: ea46 5cbe 3dd6 e03c 74a8 05be b8dc 62bd
00000140: a33e 5a3e b9d1 06be 27ba cb3e 0605 193c
00000150: c484 7abf 3686 debe 1f8b 5abf 2100 1f3e
00000160: 4d76 aabe edff c2bc e2da 88be 2e72 023e
00000170: 7374 b6be 37f0 7fbc 373f 39bf ade4 3dbd
00000180: bbc5 cebd 0708 54bf e71c 02bf 003e b7be
00000190: 51c9 a2be 2a42 013f f5e4 aa3e 589f f1bd
000001a0: 056c e5bd bfb6 c5be b268 483e 21f1 1dbe
000001b0: 5a18 05be ca9f c13e 858a 463d c12a c0bd
000001c0: 2cc7 93bf ce39 30bf f3d0 29be 93f4 4e3e
000001d0: 1a51 98be 8e13 eebe 3ad8 22bf d62b 0ebe
000001e0: 2049 00bf e065 e6be 0695 c6be 1924 b0be
000001f0: 0bd5 ccbe 273d b93d bda2 a43d 160b aebe
00000200: 30b8 2cbd c9b3 c0be 4d2b ae3e e0da 1f3e
00000210: c6b2 9e3d 6606 0c3e ccef 303e 8c1f 2e3d
00000220: c91a 63be a593 d93d 8709 61be 422c 69be
00000230: c433 d93e 5ef1 173d ba4b 5e3d 2edd b5bd
00000240: 234e 3fbe 023f 3cbe c71a b03e cb44 b6bd
00000250: d415 e83d 9394 cdbe 6a9d 483d 452c 74be
00000260: 87c9 8ebe 23b2 b4be 9eab c73e 97bc 14bf
00000270: 9699 d13e a121 a4be 2908 4d3d 0272 bebd
00000280: b7e9 8f3d e6a4 35bf e696 0a3e 752d 62be
00000290: 2cfe 193e c45e 783e eef4 94be d8d8 63bd
000002a0: dc94 dcbe 87be 74be 9b2e 87be 6adf 953e
000002b0: 7b87 65be 9e43 8b3d 94de c9bc ac99 bb3e
000002c0: 48f2 8abd cf93 5d3e 2b0e 95bd 6b32 b0be
000002d0: 4749 36bd 4edd 563e 7753 eebd 1c5f 5fbe
000002e0: a64c 98be 33bd 583f b3e9 a43e 5d6c 31be
000002f0: bfa8 b0be 7110 d0be 63f6 ea3d d14e 43be
00000300: ba20 5e3e 4302 59bd 316e 8c3e 9b57 8abe
00000310: 823b 4fbf 8b97 19bf 9d22 a63e 1d8c f0be
00000320: e673 ecbe c75f d23d 2ec1 7b3e 7711 79be
00000330: 6142 87bc 3cfc 893d a5c2 46bd 2219 0b3e
00000340: 286a 093e d866 223f e1a0 eabd 8809 25be
00000350: 40f8 48bf c90d 90be 6835 14be 77a6 4c3c
00000360: 302f 903e 4a57 a43e bdef 6fbe a9cf 5dbe
00000370: e9cd 0dbf 72b1 323f db03 d43e ef0f 81be
00000380: aa10 3fbf 2bad 3dbe 1f82 91bf 9eeb 1fbe
00000390: a1d8 95bc 41a1 09bc 43d8 95be 9e60 1c3f
000003a0: 0bd6 75bd 19e0 9d3e 6216 28be 05e3 bdbe
000003b0: 7c69 8b3e 2bc4 1fbf 44c6 b2bf 542e 41bf
000003c0: a72c 2b3e aff9 85be cc59 ad3d 8aba 17be
000003d0: 133b 1abf 9a5e 49bf be9a ee3c 0ad2 79bd
000003e0: 4c8b 64bf 7534 8ebe ce2d ddbd fd99 1a3f
000003f0: ee0f c1be aa7d 06be 35fe 2fbe df09 e23e

lstm.weight_hh_l0 f4 [128, 32]
-0.28138143 0.55585337 0.10695775 -0.10934694 0.013449596 -0.3604618 0.53894335 0.31672773
0.090947315 -0.33740067 -0.48209292 0.09876642 -0.16889678 0.03067714 -0.23201661 0.19100493
-0.14459702 0.14054261 0.6286809 -0.48839632 -0.57267267 0.46022037 -0.40928733 -0.049098916
0.13190106 0.28190282 -0.0897658 0.37409753 0.23665246 0.0657699 -0.23583995 -0.013316266
0.110217 0.5166567 0.13415395 0.07236442 0.14517191 0.43359593 0.075432986 0.035733838
-0.27590722 -0.11657061 0.22220063 0.30649662 -0.23707914 0.31070018 -0.03903886 -0.45376912
0.023502333 -0.14106643 -0.04066237 -0.36569965 -0.08421869 -0.23771887 -0.36509287 0.26667652
-0.082453825 0.008978579 0.23013373 -0.31960365 -0.053485375 -0.00788456 0.5661001 0.33498532
-0.7554929 0.16505803 -0.27704063 0.040812884 -0.13275269 -0.17756411 0.7340187 0.1092258
0.05888768 0.4389283 -0.38417593 0.21909633 -0.018819084 0.7890082 0.03278812 0.31520206
0.10572518 0.22432171 -0.18968816 0.34321237 -0.2746629 0.3099125 0.035989124 -0.1712671
0.45994383 0.031313848 0.40937132 0.21000369 0.61531025 -0.59913933 0.42304987 0.3425216
0.16647531 -0.4639433 0.25473765 0.0076376726 -0.46845767 0.0013969074 -0.10988814 -0.10551351
0.06182679 -0.45078403 0.07026879 -0.016794233 0.48150897 -0.07608296 -0.103554256 0.2076936
0.63872385 -0.004941502 -0.26876166 0.06407338 0.40832767 -0.17613952 0.25295383 0.04869685
0.94561845 -1.244299 0.5555751 -0.20939481 -0.11700268 0.1613461 0.30309403 0.007477813
-0.27852473 -0.24938507 -0.18434718 -0.31696585 -0.29833594 -0.2337206 -0.4301805 -0.6924884
0.30687866 -0.042999014 -0.28837758 -0.5655207 -0.30394027 0.45694417 -0.20212354 0.29843935
0.5938667 -0.058731467 -0.031514987 0.70274645 -0.008284601 0.09042695 0.27164623 -0.14453377
0.3085687 0.04231243 0.29990178 -0.018229662 0.5160196 -0.42235112 -0.12383416 0.3186025
0.7003508 -0.2523931 -0.18588063 0.24168794 -0.34176043 -0.037878573 0.12564638 -0.8868055
-0.049522895 -0.06032118 -0.097096786 0.43160394 -0.42395058 0.20264502 -0.4188823 0.29728305
0.17236088 -0.03498846 -0.036627986 0.0035507386 -0.053708643 -0.117697895 -0.028529624 0.15768498
0.32128018 -0.49035043 1.0228006 0.024051854 -0.26308846 -0.3261367 0.5415117 0.6474354
-0.40304205 0.11571213 -0.19853596 -0.50590825 -0.51418394 -0.31182176 -0.20292366 -0.5902917
0.31813437 -0.69851834 -0.468315 -0.8670457 0.019512733 -0.097635195 -0.3132164 -0.204751
0.09090168 0.063062884 0.07736402 0.6483311 -0.06137232 0.13268417 0.13448296 -0.17716539
-0.021832226 0.35161203 0.2573666 0.11250888 0.015133931 -0.33865803 0.2490628 -0.074208364
0.08774545 0.21153267 -0.042267654 -0.032655142 -0.48352677 -0.19854331 -0.024398077 -0.14938074
0.03133183 -0.51776415 -0.032470025 0.2535209 0.13371266 0.24105342 -0.26940843 0.44177026
0.055232644 -0.077197626 0.08668526 0.123220995 0.19311622 -0.07773501 -0.08670316 0.12867348
0.66105115 -0.344211 -0.09202964 -0.072348565 0.64774555 -0.16275243 0.010946975 0.23980373
00000000: 3a11 90be 684c 0e3f aa0c db3d 4af1 dfbd
00000010: b25b 5c3c 738e b8be 31f8 093f 232a a23e
00000020: 9642 ba3d c8bf acbe e2d4 f6be 0c46 ca3d
00000030: 47f3 2cbe a04e fb3c c395 6dbe cc96 433e
00000040: 3e11 14be 67ea 0f3e 3bf1 203f 150f fabe
00000050: ad9a 12bf 01a2 eb3e 1c8e d1be f21b 49bd
00000060: 1211 073e 9155 903e 22d7 b7bd b689 bf3e
00000070: 0655 723e 5fb2 863d 0780 71be 782c 5abc
00000080: 73b9 e13d 9d43 043f a75f 093e cc33 943d
00000090: f2a7 143e 4900 de3e 9c7c 9a3d a55d 123d
000000a0: b643 8dbe 92bc eebd 9088 633e 20ed 9c3e
000000b0: e0c4 72be 1814 9f3e 36e7 1fbd 6d54 e8be
000000c0: f787 c03c b873 10be 968d 26bd fc3c bbbe
000000d0: d97a acbd 936c 73be 74ed babe d389 883e
000000e0: 8ddd a8bd e41a 133c 2da8 6b3e 17a3 a3be
000000f0: 7b13 5bbd 3e2e 01bc f0eb 103f 3283 ab3e
00000100: fc67 41bf f904 293e 45d8 8dbe 692b 273d
00000110: 52f0 07be 5ed3 35be a6e8 3b3f c7b1 df3d
00000120: 3534 713d 36bb e03e b5b2 c4be ca5a 603e
00000130: 7b2a 9abc 71fc 493f d64c 063d 2a62 a13e
00000140: 7186 d83d 97b4 653e 9d3d 42be 88b9 af3e
00000150: 9ea0 8cbe daac 9e3e 5569 133d a560 2fbe
00000160: c27d eb3e f342 003d 1e99 d13e 350b 573e
00000170: f984 1d3f 3261 19bf fe99 d83e fe5e af3e
00000180: 8178 2a3e fa89 edbe f96c 823e 7145 fa3b
00000190: afd9 efbe 6f18 b73a 080d e1bd 7817 d8bd
000001a0: 173e 7d3d 2acd e6be 15e9 8f3d 0f94 89bc
000001b0: 5888 f63e 62d1 9bbd 4114 d4bd a2ad 543e
000001c0: 6883 233f 53ec a1bb 219b 89be e738 833d
000001d0: 5310 d13e eb5d 34be 2a83 813e 5976 473d
000001e0: 0d14 723f 3145 9fbf 2b3a 0e3f 986b 56be
000001f0: 1a9f efbd e937 253e 242f 9b3e 7108 f53b
00000200: cb9a 8ebe cd5e 7fbe 82c5 3cbe 5949 a2be
00000210: 7dbf 98be 7454 6fbe 9e40 dcbe eb46 31bf
00000220: 331f 9d3e bc1f 30bd 3aa6 93be f7c5 10bf
00000230: 0f9e 9bbe 96f4 e93e 79f9 4ebe 0bcd 983e
00000240: a607 183f 6890 70bd dc15 01bd 31e7 333f
00000250: 23bc 07bc c431 b93d 3715 8b3e a900 14be
00000260: b7fc 9d3e cc4f 2d3d ba8c 993e 5f56 95bc
00000270: dc19 043f 683e d8be c49c fdbd de1f a33e
00000280: 314a 333f ab39 81be 7e57 3ebe 0b7d 773e
00000290: 39fb aebe 9026 1bbd 72a9 003e af05 63bf
000002a0: 85d8 4abd 5713 77bd aeda c6bd 31fb dc3e
000002b0: 0d10 d9be 2d82 4f3e be77 d6be 7c35 983e
000002c0: 5f7f 303e 0f50 0fbd 3a07 16bd 82b3 683b
000002d0: 98fd 5bbd 980b f1bd f5b6 e9bc 2c78 213e
000002e0: d67e a43e 360f fbbe 21eb 823f 6508 c53c
000002f0: 88b3 86be 64fb a6be 83a0 0a3f 54be 253f
00000300: 875b cebe 7bfa ec3d 034d 4bbe 3483 01bf
00000310: 8fa1 03bf 1aa7 9fbe 38cb 4fbe 5b1d 17bf
00000320: 82e2 a23e 19d2 32bf fcc6 efbe b5f6 5dbf
00000330: 2bd9 9f3c f6f4 c7bd e65d a0be 3faa 51be
00000340: a92a ba3d 1d27 813d 0771 9e3d 07f9 253f
00000350: 8b61 7bbd 5cde 073e e7b5 093e d86a 35be
00000360: 7fd9 b2bc 7e06 b43e 8ec5 833e 0e6b e63d
00000370: 4ff4 773c 9664 adbe 520a 7f3e 8efa 97bd
00000380: e3b3 b33d 059c 583e d920 2dbd 66c1 05bd
00000390: d290 f7be f04e 4bbe 7ade c7bc 44f7 18be
000003a0: ce55 003d 318c 04bf 4aff 04bd 7ecd 813e
000003b0: f9eb 083e b5d6 763e e7ef 89be b62f e23e
000003c0: a03b 623d ca19 9ebd 0b88 b13d 4a5b fc3d
000003d0: 42c0 453e 8833 9fbd 6d91 b1bd fbc2 033e
000003e0: a63a 293f 6d3c b0be 097a bcbd 7c2b 94bd
000003f0: a7d2 253f 93a8 26be f15a 333c 1c8f 753e

lstm.bias_ih_l0 f4 [128]
0.23027056 -0.24462578 0.042071052 0.24395525 -0.045306314 0.16943222 -0.010960145 -0.30776423
0.5236426 0.003687153 0.24804626 0.29425266 -0.07509567 -0.07469925 -0.038644224 -0.15729155
0.00015313376 0.008383937 0.101250984 0.2945883 0.1529681 -0.19442607 -0.0011454311 0.3861807
0.04473332 0.15489766 0.21594465 0.22713734 -0.19046275 0.010839623 0.074534096 -0.094839595
0.20151475 0.2245225 -0.08938142 0.13826329 0.18743843 0.13930252 -0.17253704 0.06678423
0.1360075 0.045198094 0.12389039 0.1726005 0.21701916 0.03755115 0.32984924 -0.05294325
-0.00771285 0.3234288 -0.215471 0.21969983 0.13836214 0.10214326 0.27981386 0.3284407
-0.022255355 -0.2393891 -0.1272531 0.42788503 0.21415342 0.022307685 -0.20716406 -0.37337047
0.11025361 0.215194 -0.044098947 -0.11234421 -0.017841475 -0.22054802 0.15056154 0.23703837
-0.080833025 0.120125994 -0.21975589 0.007951642 0.044645235 -0.336489 -0.017785976 -0.11407193
0.0064517464 0.27619165 0.20662944 -0.0021217733 -0.09655907 0.1557094 -0.1241365 -0.25038096
-0.072204985 0.116584435 0.03683872 0.14461674 -0.008803245 0.1484544 -0.1796781 -0.13452737
0.15780403 0.3558186 0.06962464 -0.02713675 0.2336292 -0.25972512 -0.01302326 -0.22467437
0.2771861 -0.116514206 -0.25328362 0.15672608 0.9053704 -0.16960794 -0.053789597 -0.073224254
-0.29089963 0.2779847 -0.026728291 -0.071389146 0.026839074 -0.085674554 0.25054958 0.16673343
0.12613024 0.22871988 0.17130496 0.124160804 0.17307214 0.119751684 -0.036057238 -0.036425903
00000000: 0ccc 6b3e 2e7f 7abe b252 2c3d 68cf 793e
00000010: 1d93 39bd a47f 2d3e 2e92 33bc 4693 9dbe
00000020: 710d 063f 2aa4 713b d7ff 7d3e 49a8 963e
00000030: c2cb 99bd ecfb 98bd 6849 1ebd 0911 21be
00000040: 8892 2039 c85c 093c ad5c cf3d 47d4 963e
00000050: aba3 1c3e a117 47be 4a22 96ba 7ab9 c53e
00000060: 493a 373d 7e9d 1e3e 9820 5d3e b196 683e
00000070: ab08 43be ad98 313c 55a5 983d 433b c2bd
00000080: e259 4e3e 3ae9 653e 9b0d b7bd e494 0d3e
00000090: dcef 3f3e 52a5 0e3e 8dad 30be 2cc6 883d
000000a0: 8d45 0b3e a321 393d 3fba fd3d 2fbe 303e
000000b0: 453a 5e3e 3ccf 193d 00e2 a83e 05db 58bd
000000c0: 13bc fcbb 7698 a53e 6ea4 5cbe fef8 603e
000000d0: ceae 0d3e 7c30 d13d c343 8f3e 6129 a83e
000000e0: dd50 b6bc 6b22 75be a34e 02be bf13 db3e
000000f0: 094b 5b3e 9bbe b63c d122 54be 6a2a bfbe
00000100: a5cc e13d d15b 5c3e 19a1 34bd b914 e6bd
00000110: 4928 92bc 57d7 61be ce2c 1a3e 30ba 723e
00000120: c98b a5bd 9e04 f63d b007 61be 9b47 023c
00000130: ecdd 363d 4948 acbe e5b3 91bc 8b9e e9bd
00000140: 2c69 d33b fe68 8d3e ab96 533e 730d 0bbb
00000150: c3c0 c5bd 4972 1f3e 473b febd ef31 80be
00000160: 35e0 93bd d2c3 ee3d 33e4 163d 6916 143e
00000170: 7c3b 10bc 6e04 183e 89fd 37be 8bc1 09be
00000180: 6197 213e db2d b63e 5d97 8e3d e44d debc
00000190: 7e3c 6f3e b1fa 84be 835f 55bc 0a11 66be
000001a0: 56eb 8d3e 009f eebd 64ae 81be cd7c 203e
000001b0: 5bc6 673f b4ad 2dbe 7b52 5cbd 99f6 95bd
000001c0: ccf0 94be 0354 8e3e 4af5 dabc 7934 92bd
000001d0: 9edd db3c 2476 afbd 0948 803e 2bbc 2a3e
000001e0: 4928 013e 8b35 6a3e 916a 2f3e 0548 fe3d
000001f0: d339 313e 5f40 f53d c1b0 13bd 5433 15bd

lstm.bias_hh_l0 f4 [128]
0.3164492 -0.13955563 0.05122134 0.23785445 -0.059067022 0.061358105 0.115609154 -0.321984
0.52326626 -0.32654795 0.08138625 0.11305695 -0.35467577 -0.19908705 -0.02761746 -0.12611651
-0.10473132 0.22612931 0.22841698 0.05013119 0.055323936 -0.1852792 -0.06263147 0.40978146
-0.11967514 0.070987545 0.28504506 0.2793854 -0.08039916 -0.1479545 -0.10272918 -0.032881416
0.026271317 0.2906801 0.022429124 0.14540774 0.1388461 0.184293 -0.24979427 0.29627588
0.3570267 0.16567828 0.25284714 0.1643926 0.50533044 0.08874489 0.048012283 -0.19937707
-0.08359385 0.41499484 0.1059868 0.10115423 0.0385808 0.011948061 0.28004166 0.4194987
0.093778715 -0.2258045 0.21100883 0.7307177 0.17376317 0.06402471 -0.087681994 -0.40772194
0.15764351 0.058592174 -0.19605827 -0.09086297 -0.06785121 -0.24187614 0.12795001 -0.0006802513
0.22225066 -0.011025841 -0.1445412 -0.013309485 -0.036123775 -0.3158807 0.16796504 -0.37611365
-0.02798178 0.3385651 0.23975502 -0.15219995 0.022956641 -0.08411827 0.028064813 -0.10199794
-0.1356943 0.116458654 -0.050056044 0.27371585 -0.27746117 0.30259216 -0.12852983 -0.14867909
0.17127906 0.20750126 0.13644817 -0.02073539 0.10294101 0.031033693 0.0041705677 -0.06794696
0.22220868 -0.17841586 -0.16013499 0.19797947 0.9420535 -0.09289418 0.14848065 0.13014863
-0.35974586 0.3759407 -0.20191963 -0.03266581 0.29149184 -0.058146827 -0.07607953 0.20861365
0.077215955 0.06000494 0.12115425 0.12694605 0.15149023 -0.1347925 -0.018462393 -0.026525425
00000000: a105 a23e ace7 0ebe 78cd 513d 1e90 733e
00000010: 43f0 71bd a352 7b3d 7ec4 ec3d 16db a4be
00000020: c7f4 053f 4b31 a7be d6ad a63d 678a e73d
00000030: 1098 b5be 7add 4bbe 033e e2bc b024 01be
00000040: 607d d6bd 718e 673e 24e6 693e 5d56 4d3d
00000050: 5a9b 623d d5b9 3dbe ee44 80bd e0ce d13e
00000060: 3d18 f5bd eb61 913d 6df1 913e 9a0b 8f3e
00000070: 51a8 a4bd 6281 17be ad63 d2bd aaae 06bd
00000080: f236 d73c 06d4 943e 48bd b73c c4e5 143e
00000090: ac2d 0e3e 4eb7 3c3e 12ca 7fbe 79b1 973e
000000a0: 34cc b63e 91a7 293e 2e75 813e 8956 283e
000000b0: 565d 013f e2bf b53d 87a8 443d 8129 4cbe
000000c0: 4133 abbd 347a d43e 9b0f d93d f329 cf3d
000000d0: e706 1e3d cdc1 433c 9f61 8f3e 89c8 d63e
000000e0: 0e0f c03d 4b39 67be b312 583e 5110 3b3f
000000f0: f9ee 313e 631f 833d 9e92 b3bd eec0 d0be
00000100: 4d6d 213e 59fe 6f3d 80c3 48be 5d16 babd
00000110: 93f5 8abd 61ae 77be 5405 033e e452 32ba
00000120: ad95 633e bba5 34bc 9c02 14be 0710 5abc
00000130: 86f6 13bd 1dbb a1be 07ff 2b3e f891 c0be
00000140: 0c3a e5bc 6858 ad3e 5782 753e 4eda 1bbe
00000150: 910f bc3c 3346 acbd 2ee8 e53c 4ce4 d0bd
00000160: 72f3 0abe e081 ee3d 9107 4dbd 7c24 8c3e
00000170: 640f 8ebe 5ced 9a3e 539d 03be 553f 18be
00000180: c763 2f3e 367b 543e 12b9 0b3e 44dd a9bc
00000190: bcd2 d23d 5f3a fe3c 42a9 883b c727 8bbd
000001a0: ac8a 633e a6b2 36be 6dfa 23be 21bb 4a3e
000001b0: 6b2a 713f 4e3f bebd 500b 183e af45 053e
000001c0: 9c30 b8be 4d7b c03e 05c4 4ebe 96cc 05bd
000001d0: 6b3e 953e 5e2b 6ebd 96cf 9bbd d19e 553e
000001e0: 6623 9e3d bdc7 753d b81f f83d 25fe 013e
000001f0: 4120 1b3e 0c07 0abe 723e 97bc d94b d9bc

dense_layers.0.weight f4 [32, 32]
-0.62685007 0.07250787 0.44907877 -0.20895953 -0.47084936 -0.42095512 -0.05176129 -0.059938215
0.3475911 0.36898234 -0.79462636 -0.3408356 0.3026792 0.45229995 -0.01413408 0.3230308
0.105547495 0.3237827 -0.4602869 0.44098377 -0.4825099 0.5031497 0.064133 -0.50863016
0.41828203 -0.3515986 0.1152918 0.5068836 0.15728913 0.017169498 0.618048 0.6765865
-0.5965986 0.100037515 0.5749591 -0.24814744 -0.38091594 -0.40359187 -0.26204166 -0.10009414
0.25926188 0.29708034 -0.48187116 -0.6323825 0.14759636 0.30034894 -0.28271395 0.47995582
-0.07217057 0.25790495 -0.4331544 0.32850537 -0.75303537 0.29878986 0.26094034 -0.26404533
0.49560225 -0.25215313 0.29819047 0.37671876 0.03093153 0.05663069 0.2732771 0.6153294
-0.51897675 -0.03497308 0.34672517 -0.40686804 -0.3296777 -0.46188182 -0.11974471 -0.23655987
0.47293472 0.1985443 -0.78828305 -0.62242955 0.19744942 0.36488312 0.05114852 0.19716915
0.13489603 0.20230575 -0.2890745 0.35668814 -0.7226937 0.38751295 0.1787128 -0.1845829
0.20561929 -0.45215273 0.19144945 0.31898722 0.14341743 -0.07892135 0.53483385 0.36546835
-0.54704833 0.13162805 0.405326 -0.4442091 -0.438789 -0.27199474 -0.10547127 -0.023640003
0.39498848 0.03839938 -0.6940694 -0.34824055 0.2057933 0.27470165 -0.02865972 0.1944733
0.07436009 0.24197209 -0.22348395 0.4045944 -0.7534194 0.2664564 0.20673849 -0.3789463
0.4821236 -0.41692284 0.17800942 0.29980046 0.051429033 0.09474477 0.5695532 0.58031595
-0.016452996 0.265097 -0.14950572 -0.048259582 0.16904043 0.78055435 0.4692809 -0.14902115
-0.08629995 0.09216694 -0.3172014 0.290438 0.031661823 0.12042181 -0.17409155 -0.11170132
-0.11046262 -0.030757826 -0.166106 -0.3657736 0.04186849 0.07281416 -0.007132363 0.41449767
0.07110384 -0.39774176 0.0066220458 -0.111912124 -0.112568185 0.5199008 0.09940438 0.3233557
-0.4091095 0.027701152 0.40990612 -0.1964749 -0.30074635 -0.19912165 -0.1615621 0.078983344
0.38849115 0.21102297 -0.6497229 -0.48259547 0.14178027 0.16131833 -0.011137419 0.41743955
0.06032939 0.22149454 -0.20172073 0.3375377 -0.7333819 0.24070917 0.1882829 -0.33830637
0.30428368 -0.50618696 0.29180443 0.20511197 0.06339437 0.1582785 0.5405685 0.72406316
-0.37799308 0.05011185 0.5762005 -0.1928108 -0.17138806 -0.32432592 -0.03197728 -0.08160661
0.46607974 0.21792515 -0.783228 -0.537056 0.13117048 0.257098 -0.11221239 0.1880535
-0.11884169 0.2037769 -0.19145456 0.35153842 -0.6221492 0.43816808 0.10436835 -0.4042961
0.29115847 -0.49458224 0.0635794 0.15390712 0.058907375 0.122320674 0.5702305 0.5435858
-0.36317647 0.09611847 0.3406512 -0.43291008 -0.34058478 -0.56164646 -0.092119396 -0.05270637
0.25924096 0.17178154 -0.81194293 -0.33461493 0.36296296 0.30698797 0.0062767547 0.18892992
0.23827815 0.29005107 -0.24660568 0.50638914 -0.53202826 0.4696342 0.080570795 -0.34805882
0.5668059 -0.45142588 0.19693296 0.37948966 0.07507333 -0.092961565 0.4776535 0.74578124
00000000: 3f79 20bf 027f 943d a7ed e53e 7df9 55be
00000010: 2b13 f1be 6e87 d7be a503 54bd c681 75bd
00000020: 76f7 b13e 41eb bc3e a26c 4bbf 0182 aebe
00000030: c5f8 9a3e dc93 e73e a192 67bc 4b64 a53e
00000040: 4929 d83d d9c6 a53e b9aa ebbe a0c8 e13e
00000050: 8a0b f7be 6bce 003f 2a58 833d 9635 02bf
00000060: 1029 d63e bb04 b4be 1b1e ec3d 20c3 013f
00000070: 6710 213e 0ca7 8c3c 6538 1e3f c634 2d3f
00000080: b0ba 18bf 78e0 cc3d 8530 133f 5d1a 7ebe
00000090: 6a07 c3be 98a3 cebe 532a 86be 28fe ccbd
000000a0: f9bd 843e ea1a 983e d1b7 f6be d2e3 21bf
000000b0: 8023 173e 56c7 993e e2bf 90be c5bc f53e
000000c0: 2ace 93bd 1e0c 843e 6ac6 ddbe db31 a83e
000000d0: edc6 40bf fcfa 983e f999 853e f330 87be
000000e0: 94bf fd3e 371a 81be 6cac 983e 48e1 c03e
000000f0: 1f64 fd3c 95f5 673d faea 8b3e 3a86 1d3f
00000100: a9db 04bf ef3f 0fbd f685 b13e 0251 d0be
00000110: 84cb a8be c67b ecbe b73c f5bd c03c 72be
00000120: 8024 f23e 324f 4b3e ebcc 49bf 8b57 1fbf
00000130: 2e30 4a3e f6d1 ba3e 1c81 513d b6e6 493e
00000140: 2f22 0a3e 3d29 4f3e 9301 94be d49f b63e
00000150: 7402 39bf 1968 c63e 7d00 373e 4d03 3dbe
00000160: dd8d 523e 9080 e7be 530b 443e 4b52 a33e
00000170: 05dc 123e 84a1 a1bd dfea 083f ab1e bb3e
00000180: 5c0b 0cbf 81c9 063e e486 cf3e 606f e3be
00000190: f4a8 e0be e542 8bbe 5201 d8bd aea8 c1bc
000001a0: ee3b ca3e ab48 1d3d 88ae 31bf 964c b2be
000001b0: 7bbb 523e b2a5 8c3e cac7 eabc 0224 473e
000001c0: 1a4a 983d 88c7 773e fad8 64be ff26 cf3e
000001d0: 18e0 40bf f96c 883e 41b3 533e 4005 c2be
000001e0: e8d8 f63e e976 d5be 1a48 363e 727f 993e
000001f0: 40a7 523d 8c09 c23d 3dce 113f 968f 143f
00000200: 6fc8 86bc cbba 873e 0718 19be d7ab 45bd
00000210: ef18 2d3e 69d2 473f 9645 f03e 0099 18be
00000220: 07be b0bd 05c2 bc3d 3968 a2be 4ab4 943e
00000230: d4af 013d b69f f63d 0e45 32be a9c3 e4bd
00000240: 3a3a e2bd d6f7 fbbc b117 2abe ad46 bbbe
00000250: 4b7e 2b3d 971f 953d 99b6 e9bb 0a39 d43e
00000260: e49e 913d cfa4 cbbe bffd d83b 2f32 e5bd
00000270: 268a e6bd 3818 053f 8694 cb3d e18e a53e
00000280: cd76 d1be 87ed e23c 37df d13e b730 49be
00000290: 6dfb 99be 8ce6 4bbe 8970 25be 05c2 a13d
000002a0: 50e8 c63e 6816 583e 3d54 26bf c116 f7be
000002b0: d92e 113e a230 253e b979 36bc a3ba d53e
000002c0: f31b 773d 77cf 623e e18f 4ebe bed1 ac3e
000002d0: ebbe 3bbf 777c 763e 3ccd 403e 7e36 adbe
000002e0: 12cb 9b3e 7895 01bf 6467 953e df08 523e
000002f0: e8d4 813d c213 223e b262 0a3f 345c 393f
00000300: 4f88 c1be 1542 4d3d e081 133f 3270 45be
00000310: 5a80 2fbe 0c0e a6be 9cfa 02bd 5e21 a7bd
00000320: 01a2 ee3e c527 5f3e a181 48bf 817c 09bf
00000330: 8e51 063e 59a2 833e 9ccf e5bd 1991 403e
00000340: 4663 f3bd e4aa 503e aa0c 44be d8fc b33e
00000350: 2c45 1fbf 9157 e03e 13bf d53d e6ff cebe
00000360: b912 953e e239 fdbe eb35 823d d499 1d3e
00000370: dc48 713d 4383 fa3d a0fa 113f 7028 0b3f
00000380: 44f2 b9be c3d9 c43d d669 ae3e 64a6 ddbe
00000390: 2161 aebe 10c8 0fbf 18a9 bcbd a2e2 57bd
000003a0: 3bbb 843e 80e7 2f3e 7edb 4fbf a652 abbe
000003b0: 48d6 b93e 872d 9d3e 3cad cd3b d876 413e
000003c0: 30ff 733e 9381 943e 3386 7cbe b8a2 013f
000003d0: 0133 08bf e573 f03e 4d02 a53d c434 b2be
000003e0: 311a 113f 4b21 e7be cba8 493e 784c c23e
000003f0: 0cc0 993d a262 bebd 008f f43e 85eb 3e3f

dense_layers.0.bias f4 [32]
0.1397726 0.27665067 0.05877059 0.3514153 -0.12050772 0.2191204 0.12772116 0.2839936
0.108165875 0.18283263 0.13562022 0.26649636 0.29426736 0.14801331 0.40124148 0.292865
0.2125537 0.25993666 0.18201175 0.1930933 0.21468155 0.3158149 0.12052135 0.10655041
0.37912238 0.21895415 0.25200042 0.32461768 0.17639047 0.32102546 0.009122619 0.25317404
00000000: 8c20 0f3e 28a5 8d3e 6eb9 703d b5ec b33e
00000010: c0cc f6bd 1961 603e 56c9 023e 9c67 913e
00000020: 1286 dd3d 7a38 3b3e 07e0 0a3e 3672 883e
00000030: 36aa 963e cd90 173e 866f cd3e 67f2 953e
00000040: ada7 593e 6b16 853e 4a61 3a3e 40ba 453e
00000050: 7bd5 5b3e 7eb2 a13e e6d3 f63d 1a37 da3d
00000060: 541c c23e 8435 603e 3306 813e 4a34 a63e
00000070: b49f 343e 735d a43e 0a77 153c 07a0 813e

dense_layers.2.weight f4 [16, 32]
-0.25329676 0.002337979 -0.2944347 0.07523631 0.4781219 -0.11002162 -0.13307002 -0.049342
0.099365324 -0.099800706 0.09810248 0.0026547483 -0.16274662 -0.15716037 -0.2050352 -0.07172634
-0.19509825 -0.020410163 -0.10268088 -0.26907074 -0.17988585 -0.32626295 -0.10771408 -0.17740414
0.018661492 -0.044776443 -0.2201325 -0.15997484 -0.24033694 0.059759665 0.13588783 -0.08248854
0.33977282 0.3835436 0.23907052 0.40414184 0.2353291 0.28397802 0.43072888 0.16734318
0.20554313 0.29563716 0.3045988 0.34972093 0.43809253 0.17758292 0.41539097 0.3583694
0.45093036 0.3946843 0.24211086 0.29405844 0.185055 0.35948583 0.4493355 0.36479756
0.4416529 0.3906855 0.33598912 0.2751514 0.1555619 0.27683145 0.3684466 0.4664587
0.27216417 0.44839767 0.44311038 0.17223296 -0.02651703 0.22363287 0.30132997 0.39625177
0.38150772 0.42696083 0.24171247 0.41089055 0.3561153 0.18526497 0.19729404 0.3842354
0.47406238 0.18848881 0.30712518 0.15724054 0.4233583 0.37806255 0.2712612 0.40308654
0.3774074 0.44456244 0.32506785 0.32050437 0.39850676 0.37507424 0.07237678 0.25016508
-0.034019325 -0.1808858 -0.06836853 -0.08555443 0.67238045 -0.1679153 0.043424558 -0.2026269
0.037999034 -0.066486254 0.050650075 0.20114188 -0.033691283 -0.1410386 -0.1531697 -0.08291633
-0.27490535 -0.070108615 0.033731535 -0.28720152 -0.117919154 -0.16808838 -0.2979229 0.06655384
-0.12623297 -0.3073042 -0.20696628 -0.091606595 0.033798616 -0.1280342 0.38402247 -0.12111689
0.19040301 0.2558435 0.1826274 0.3833805 0.28046116 0.16371496 0.1913432 0.42707554
0.27083337 0.47679237 0.49116114 0.17850707 0.4209713 0.14158429 0.40034404 0.22162572
0.30942622 0.47845063 0.31125706 0.23040435 0.39045498 0.2982753 0.47577763 0.17806314
0.27515006 0.17806293 0.20803876 0.2694905 0.19812557 0.19711797 0.19162977 0.21831633
-0.2510168 -0.082992524 -0.32954672 0.044207647 0.5784551 0.0900581 -0.036857303 -0.14794442
-0.12473229 -0.24894013 0.083314314 0.2245901 -0.015206744 -0.119005024 -0.21866834 -0.072524145
-0.0016203113 -0.10906583 0.09115419 -0.0042500524 -0.05189458 -0.22142082 -0.22249521 -0.0996803
-0.15353312 -0.17806439 -0.3157821 -0.25075153 -0.15489419 0.047244154 0.26711494 -0.21519418
-0.61464304 -0.4898566 -0.2988765 -0.28898826 0.8522852 -0.42753813 -0.18108475 -0.2926436
-0.40298015 -0.54309875 -0.18426304 -0.10337657 -0.5101206 -0.25038186 -0.5179623 -0.41286534
-0.5248835 -0.37168223 -0.2765162 -0.41879568 -0.48037213 -0.42946213 -0.65373176 -0.27398735
-0.6062201 -0.26445618 -0.3593971 -0.3513215 -0.33636454 -0.28685722 0.064125486 -0.5118588
0.43154636 0.40389717 0.25855917 0.32550943 0.13301848 0.26512277 0.433339 0.21579748
0.13582574 0.27936533 0.21886092 0.1696184 0.25872058 0.29758233 0.43786633 0.41454813
0.44712013 0.43175218 0.33283123 0.31708145 0.29615217 0.18542677 0.32694682 0.2617568
0.24914613 0.46777943 0.38218626 0.4234444 0.4215751 0.20683672 0.26971042 0.28969526
00000000: 1db0 81be c738 193b 25c0 96be 7f15 9a3d
00000010: 65cc f43e 0453 e1bd 8243 08be d61a 4abd
00000020: 0c80 cb3d 5064 ccbd f4e9 c83d 49fb 2d3b
00000030: 0da7 26be a6ee 20be bff4 51be 42e5 92bd
00000040: d6c7 47be 3733 a7bc 5a4a d2bd a4c3 89be
00000050: ff33 38be f00b a7be 3399 dcbd 6ea9 35be
00000060: fcdf 983c 8167 37bd 6a6a 61be 72d0 23be
00000070: e31a 76be 8dc6 743d 2e26 0b3e c0ef a8bd
00000080: b4f6 ad3e d45f c43e e7ce 743e aeeb ce3e
00000090: 1dfa 703e 9165 913e 7f88 dc3e 035c 2b3e
000000a0: e679 523e c15d 973e 60f4 9b3e 9f0e b33e
000000b0: aa4d e03e 4cd8 353e 20ae d43e 327c b73e
000000c0: 58e0 e63e 1014 ca3e e9eb 773e d48e 963e
000000d0: 0f7f 3d3e 870e b83e 4d0f e63e bfc6 ba3e
000000e0: 5420 e23e ee07 c83e c406 ac3e a5e0 8c3e
000000f0: 9e4b 1f3e dabc 8d3e 08a5 bc3e add3 ee3e
00000100: 1a59 8b3e 6194 e53e 5ddf e23e d65d 303e
00000110: 3e3a d9bc 0400 653e ec47 9a3e 83e1 ca3e
00000120: fb54 c33e 9c9a da3e 7983 773e 3f60 d23e
00000130: bf54 b63e 1ab6 3d3e 7307 4a3e 81ba c43e
00000140: 4eb8 f23e 3603 413e 833f 9d3e aa03 213e
00000150: 6bc2 d83e 6a91 c13e bfe2 8a3e 5c61 ce3e
00000160: 8b3b c13e b09d e33e 4b6f a63e 2619 a43e
00000170: 1409 cc3e bb09 c03e 473a 943d a315 803e
00000180: d957 0bbd 213a 39be cd04 8cbd 2937 afbd
00000190: 2021 2c3f fdf1 2bbe f3dd 313d 6d7d 4fbe
000001a0: e0a4 1b3d f229 88bd 7476 4f3d 23f8 4d3e
000001b0: dfff 09bd 6c6c 10be 85d8 1cbe 09d0 a9bd
000001c0: 65c0 8cbe 1b95 8fbd 142a 0a3d 140c 93be
000001d0: 997f f1bd 5c1f 2cbe 5a89 98be 614d 883d
000001e0: 3743 01be fa56 9dbe f8ee 53be 3d9c bbbd
000001f0: 6b70 0a3d 661b 03be 989e c43e 220c f8bd
00000200: 02f9 423e ebfd 823e ad02 3b3e 734a c43e
00000210: 9b98 8f3e e5a4 273e 79ef 433e a5a9 da3e
00000220: acaa 8a3e 211e f43e 7979 fb3e 8fca 363e
00000230: 8d89 d73e 79fb 103e e5f9 cc3e daf1 623e
00000240: 1d6d 9e3e 7bf7 f43e 165d 9f3e 1eef 6b3e
00000250: b7e9 c73e 8ab7 983e 2099 f33e 2f56 363e
00000260: 78e0 8c3e 2156 363e 1d08 553e a9fa 893e
00000270: 6ee1 4a3e 4bd9 493e 983a 443e 518e 5f3e
00000280: 4685 80be fcf7 a9bd 59ba a8be 1413 353d
00000290: a215 143f 6270 b83d aff7 16bd be7e 17be
000002a0: a573 ffbd 29ea 7ebe b2a0 aa3d f2fa 653e
000002b0: b525 79bc e8b8 f3bd 98ea 5fbe 8a87 94bd
000002c0: a060 d4ba e85d dfbd 0caf ba3d 0644 8bbb
000002d0: 698f 54bd 24bc 62be c9d5 63be 2f25 ccbd
000002e0: c937 1dbe 8356 36be 31ae a1be 8162 80be
000002f0: 959c 1ebe 1683 413d 4ac3 883e dd5b 5cbe
00000300: 3f59 1dbf 7cce fabe 5706 99be 45f6 93be
00000310: 5d2f 5a3f 47e6 dabe 486e 39be 62d5 95be
00000320: 6a53 cebe 8508 0bbf 73af 3cbe 18b7 d3bd
00000330: 4397 02bf 0d32 80be 2d99 04bf 1663 d3be
00000340: c45e 06bf 224d bebe 8893 8dbe 636c d6be
00000350: 56f3 f5be 76e2 dbbe f75a 27bf 1248 8cbe
00000360: 3e31 1bbf cd66 87be e602 b8be 69e0 b3be
00000370: f937 acbe f3de 92be 3954 833d 2e09 03bf
00000380: a5f3 dc3e 9ccb ce3e de61 843e 2ca9 a63e
00000390: ff35 083e 2cbe 873e 9cde dd3e 04fa 5c3e
000003a0: e715 0b3e f908 8f3e 141d 603e 72b0 2d3e
000003b0: 0677 843e b65c 983e 0430 e03e a73f d43e
000003c0: eeec e43e 9f0e dd3e db68 aa3e 8058 a23e
000003d0: 42a1 973e 84e0 3d3e 9365 a73e fd04 863e
000003e0: 2a20 7f3e c980 ef3e ebad c33e b4cd d83e
000003f0: b1d8 d73e 01cd 533e 7c17 8a3e f052 943e

dense_layers.2.bias f4 [16]
0.74980026 0.075050056 0.3329946 0.6400782 0.07687255 0.7076924 0.72376543 0.3276294
0.16207005 0.7520271 0.21662441 0.051577948 0.79094976 0.065589584 0.11220273 -0.024040408
00000000: e9f2 3f3f d8b3 993d 457e aa3e 2adc 233f
00000010: 5b6f 9d3d 542b 353f b148 393f 0abf a73e
00000020: b1f5 253e d984 403f cad2 5d3e 6643 533d
00000030: af7b 4a3f d553 863d 8bca e53d 64f0 c4bc

dense_layers.4.weight f4 [1, 16]
-0.85348517 0.39395407 0.47236264 -0.8988809 0.42936018 -0.8311387 -1.174857 0.3816278
0.29111668 -0.74166703 0.5224104 0.31738797 -0.8741234 0.41325772 0.31665266 0.17578258
00000000: 017e 5abf 59b4 c93e 84d9 f13e 0f1d 66bf
00000010: 19d5 db3e 81c5 54bf b761 96bf b864 c33e
00000020: 3f0d 953e e4dd 3dbf b0bc 053f ad80 a23e
00000030: 8dc6 5fbf 8496 d33e 4c20 a23e 5900 343e
